saved_weights/Model_epoch_no_3_train_acc_87.62_val_acc_87.33.pth (torch_old, 74661 bytes, 6 tensors)

conv1.weight f4 [16, 1, 5, 5]
000000 1d 90 67 3e 3b 3b 38 3e ff 56 17 3d 21 63 7f 3e
       0.22613569 0.17991345 0.0369482 0.24940158
000010 2f 62 bb bc 04 5e 3f be 80 cc 1f bd 51 e6 83 be
       -0.022873966 -0.18688208 -0.039013386 -0.25761655
000020 09 86 6f bd 7c 21 26 bd 74 46 c7 bd 0b 26 19 be
       -0.058477435 -0.040559277 -0.09730235 -0.14955918
000030 79 4d 9c be e9 44 90 bb 0e 08 cd 3d 42 b9 31 bd
       -0.30527857 -0.004402746 0.10011302 -0.043389566
000040 13 60 38 be 5e 1e 61 3b ce 27 3e 3e 7e 71 7c 3e
       -0.180054 0.0034350376 0.18569872 0.24652669
000050 54 0e 3f 3e e2 8f 1e be f1 d8 56 be e5 bb 17 3e
       0.1865781 -0.15484574 -0.20981194 0.1481777
000060 72 92 88 3e 3e 3c 9b 3c dc d3 46 bd b3 bc 07 3e
       0.2667423 0.018949624 -0.04854189 0.13255577
000070 a2 f1 84 3e db e8 07 be 32 7d f3 3d d4 2d e2 bd
       0.259656 -0.13272421 0.118891135 -0.11043897
000080 a3 91 9f bd e8 f1 99 3c b7 ec 99 bd 5c e2 c9 3d
       -0.0779145 0.018792108 -0.07515853 0.09857628
000090 ab ab ff bd 49 92 10 bd 2a cf f0 3d 0a ae 65 3d
       -0.12483915 -0.03529576 0.117582634 0.05607418
0000a0 cb 95 0e 3e 51 99 32 bd 15 91 0f 3c fb fc 60 3e
       0.13924329 -0.043603245 0.008762618 0.21971504
0000b0 da 84 17 3d 70 0c ba 39 2d 21 34 be dd 07 69 3e
       0.03699193 0.0003548595 -0.1759078 0.22756906
0000c0 d9 81 e2 3d 8c e9 97 bd cc 5c 42 3e 2c 24 00 3d
       0.11059923 -0.074175924 0.18980712 0.031284496
0000d0 84 47 1b 3e cf 38 4b be a4 a8 eb 3d 44 2a fc 3c
       0.15164 -0.1984589 0.11506775 0.030781873
0000e0 e7 40 4f 3e 3e 4c 0d be d6 d1 2e be ef 38 8e 3d
       0.20239602 -0.13798615 -0.17072234 0.06944453
0000f0 59 21 63 3c 92 6e 94 be 50 0a ef bd a1 15 13 3e
       0.013862931 -0.28990608 -0.11671889 0.1436372
000100 ff a6 ab bd d4 27 b9 be d3 2e 44 bf 2f ff 16 bf
       -0.08381461 -0.361632 -0.7663395 -0.5898313
000110 c1 5a d1 bd cd 7e 0a 3e 4a fb 2a be e3 91 32 bf
       -0.10222388 0.13524933 -0.16697422 -0.69753855
000120 f7 77 01 bf a1 18 02 3b 4a 08 01 be e0 1f ec bc
       -0.50573677 0.0019851106 -0.12600818 -0.028823793
000130 52 45 0e be 14 c5 88 be 56 11 92 bc dd 4c 55 be
       -0.13893631 -0.2671286 -0.017830532 -0.20830102
000140 20 86 b4 3d 75 f8 69 bb 13 d3 5d bb d4 88 75 be
       0.08814645 -0.003570107 -0.0033847734 -0.23977977
000150 23 ec 93 be ef 62 81 3d 51 be 82 3e 81 7d db 3a
       -0.28891096 0.06317698 0.25535825 0.0016745777
000160 50 b0 cb bd 7a 1e 28 be 5b c7 48 3e 6a 49 84 3e
       -0.09945738 -0.16417876 0.19607298 0.2583726
000170 99 ff 98 3e b5 5b 44 3e 4b 8c c1 bd 48 6a 50 bd
       0.29882506 0.19175608 -0.09450587 -0.050882608
000180 5e cf ec bc 8f 83 de 3c b7 9c 0b 3e 4c 57 e8 3d
       -0.028907474 0.027162341 0.13634 0.113447756
000190 f2 ea 7e 3e f4 ee 91 3e 57 7f a6 bd 9a 9f 17 3e
       0.24894312 0.2850262 -0.08129757 0.14806977
0001a0 8d cb 8d 3d f3 d9 3b 3e 97 c2 1a 3e 13 ea 73 3e
       0.0692359 0.1834486 0.15113293 0.23819761
0001b0 44 f5 13 3e b2 5e 67 bd 99 65 68 3e 0f db 20 3b
       0.1444903 -0.056486793 0.22695006 0.0024544632
0001c0 55 09 35 3d 25 2c dc bd bf 4f 3b bd 18 17 0d be
       0.044198353 -0.107506074 -0.04573035 -0.13778341
0001d0 b6 fd d5 bd aa 4b 2c 3e c6 bd 58 3e 59 59 ee bd
       -0.10448782 0.16825739 0.21166143 -0.116381355
0001e0 3d 4b 79 be 10 cd cd bc 65 1f 39 be c4 93 4e be
       -0.24345107 -0.025122195 -0.18078382 -0.20173556
0001f0 33 77 cc bd 16 da 28 3e b6 74 83 3e 2d d1 f7 3c
       -0.09983673 0.16489443 0.2567498 0.03025111
000200 bc 7f bc bd 27 07 c8 3d 20 6d 1f be e3 87 f9 3d
       -0.09204051 0.09766989 -0.15568972 0.121841215
000210 48 37 53 bd 8d 85 07 be 4a bb 8b be 0f fb 37 be
       -0.051566392 -0.1323454 -0.27291328 -0.17966865
000220 ef ad 5f 3e 7c ca 05 be d0 8c b0 bd a3 1e 77 bd
       0.21843694 -0.13065523 -0.08620608 -0.06033195
000230 fb 59 04 be 74 e6 3b 3e 8a f6 1a 3e 74 fa 2c be
       -0.1292495 0.1834963 0.1513311 -0.16892415
000240 36 b7 b6 3d d0 cc 9b 3c 85 1a 7e 3e 48 ba 94 bc
       0.089216635 0.01901856 0.24814804 -0.018155232
000250 01 fb f2 bc 43 56 86 bc 7c 02 9c bd 7b 09 78 3c
       -0.029660704 -0.016398555 -0.07617661 0.015138979
000260 62 ca 94 3e dd c6 83 bb e1 7a 8f 3d e5 cf 0e be
       0.29060656 -0.004021509 0.07005859 -0.13946493
000270 ec f2 81 bc 43 f0 48 3e 71 16 14 be a8 4a 21 bd
       -0.015862904 0.19622903 -0.14461686 -0.03937784
000280 74 ae 24 be b7 25 a9 bd 91 08 88 3e 18 10 f5 bd
       -0.16082174 -0.08259147 0.26569036 -0.1196596
000290 ad 41 63 bd c8 df 2c 3e 97 d4 96 3b 14 56 c4 3d
       -0.055482555 0.16882241 0.0046029794 0.095867306
0002a0 21 d6 3b be 9c d7 a4 bd 00 61 b7 3d ac 47 c7 bd
       -0.18343402 -0.08048937 0.08954048 -0.09730467
0002b0 e1 cd 5f 3e 30 a6 1f 3e 4a f1 63 3d 3f 01 ce bd
       0.2185588 0.15590739 0.055650033 -0.100588314
0002c0 a0 ea fc bd 2c 70 2d be 1a 4a 2e 3e 05 d5 88 3e
       -0.12349439 -0.16937321 0.17020455 0.2672502
0002d0 dc e4 82 3c b7 2f 21 3e f4 e0 bc bc 6d 1e 81 3e
       0.01597827 0.15740858 -0.023056485 0.25218526
0002e0 13 c5 80 3e fe 21 ff 3d cf f9 2e be ef 1f 1c bc
       0.25150356 0.12457655 -0.17087482 -0.009529098
0002f0 b1 04 8a 3d 3f 9b ca bc a4 42 00 bd 9f 7b 10 3e
       0.06739176 -0.02473223 -0.031313553 0.14109658
000300 9a f5 03 3e 30 fd 11 bd 26 d4 55 3e 50 96 4a 3e
       0.12886658 -0.03564185 0.2088171 0.19783902
000310 1c 36 92 3d a7 98 34 be 1f 49 7f 3d 65 24 13 bb
       0.07139227 -0.17636357 0.062325593 -0.0022452113
000320 61 ec 7e 3c 4d b9 44 be 3e e9 32 be ef dd 92 3e
       0.015559287 -0.19211312 -0.17471787 0.28684947
000330 5b 1c a5 3d cf ff 63 3c 47 6a 8c be bd 23 af be
       0.08062049 0.01391597 -0.27424833 -0.34206954
000340 b0 9c 59 3e 48 de b7 bd 09 7b d6 3d 3f e5 34 3e
       0.21251178 -0.08977944 0.10472686 0.17665575
000350 ea 27 74 be c1 9c 6c 3e da cd 4d bd 81 3b 56 3e
       -0.23843351 0.23106672 -0.050245143 0.20921136
000360 65 0b 5a 3d 3b aa 94 bc a5 be 9c bd 22 b2 76 3e
       0.053233523 -0.018147578 -0.0765355 0.2409139
000370 2e 56 21 be 17 a6 a8 bd 85 5b ac be 4d 33 0e bd
       -0.15755531 -0.08234804 -0.33663574 -0.034716893
000380 1b 38 9b 3e 5f bf cc be f5 7f 9d be ab ff 84 be
       0.30316243 -0.39989755 -0.30761686 -0.2597631
000390 44 20 25 3d c4 8c 5f bc c0 82 d7 bd 0b 8f 3c bd
       0.040313974 -0.013644401 -0.105229855 -0.046034854
0003a0 03 f4 e6 bd fb 81 32 be 6c ce a5 3d 1e d4 5b bd
       -0.1127701 -0.17432396 0.080960125 -0.053669088
0003b0 4d f8 83 3e b1 8b a1 3c c9 03 84 bd 84 b2 d2 3c
       0.25775376 0.01971993 -0.064460345 0.025719889
0003c0 94 e5 52 3d f3 24 6a 3e c5 9b 6d bc 35 50 c8 3d
       0.051488474 0.22865658 -0.01450247 0.09780923
0003d0 76 85 15 3e 0f 0a 91 3e 15 8e df bc 2d 1b 27 bd
       0.14601693 0.28327987 -0.02728943 -0.0407974
0003e0 ba 81 a9 bb f7 ae 6d 3e 5f 51 a2 be 8d b8 24 3e
       -0.0051729353 0.23211275 -0.31702706 0.16086026
0003f0 01 05 31 3e 1c 23 b7 bc e7 e8 85 3d 84 e5 5c be
       0.17287065 -0.022355609 0.06538563 -0.21571928

conv1.bias f4 [16]
000000 1e 32 c2 3c a7 91 2d bb 1d 42 a0 3e bb ec 6d bd
       0.023705538 -0.002648452 0.3130044 -0.058087092
000010 84 00 2d bd e1 ae 4d 3b 4e 47 43 3d ff 04 98 bc
       -0.04223682 0.0031384754 0.047675423 -0.01855707
000020 cf 5e c5 3d b4 42 eb 3b 79 9b 80 3a 23 d3 bc 3d
       0.09637224 0.0071795825 0.000981196 0.09219959
000030 34 be 18 3d a2 2e 33 3e f1 37 5c 3e 8c 67 48 ba
       0.037290767 0.17498258 0.21505715 -0.0007644824

conv2.weight f4 [32, 16, 5, 5]
000000 97 ff aa 3b a3 08 9b bb c1 a1 32 bd 63 bc 8a 3d
       0.005218457 -0.004731254 -0.04361129 0.06774213
000010 f4 52 65 3c 0d 87 18 3c 4c b3 aa bd c3 84 87 3c
       0.013996828 0.009309542 -0.083349794 0.016542798
000020 8d e2 90 3d 43 df 0a 3d b8 a7 85 3d 8f 04 46 bc
       0.07074461 0.033904325 0.065261304 -0.012086048
000030 9f 01 98 3d dc 73 3d 3d fe 4d fa 3c 40 52 50 3d
       0.07422184 0.04625307 0.030554768 0.05085969
000040 50 e2 f4 bd bd b9 43 bd 75 5f b9 3d af f3 b6 bb
       -0.11957228 -0.047784556 0.0905141 -0.0055832486
000050 64 bc 61 3d 5c 5b 30 be 70 0d be bd 9b 0a 89 3c
       0.055111304 -0.17222351 -0.09279907 0.01672869
000060 10 6e 27 be 09 8b 92 3d 0c 90 82 3c c9 2f b4 bd
       -0.1635058 0.07155425 0.015937828 -0.08798177
000070 50 4d 8d bd 39 d3 a3 bd e2 38 3f 3d ce 51 c3 3c
       -0.06899512 -0.07999272 0.046685107 0.023842718
000080 a6 6a b0 3c ad f2 15 bc 5b fe 9c bd a3 83 83 3c
       0.021535229 -0.009152097 -0.07665702 0.01605398
000090 e9 77 1f 3d f4 ae ba bb 92 ab 81 bd 07 b5 ec bc
       0.038932715 -0.0056971256 -0.063315526 -0.028894914
0000a0 5d d2 80 3d 82 8c 3a bc 52 c8 ab 3d 7d 7c 61 bc
       0.062901236 -0.011386039 0.083878174 -0.0137625905
0000b0 cd ae 91 3c 39 68 87 3c 7e a7 42 3c 2e 17 55 3d
       0.017783547 0.01652919 0.011880754 0.05202406
0000c0 02 03 31 bd 5e 07 c4 bc 54 59 48 be 48 7f 1c bc
       -0.04321576 -0.023929294 -0.19565326 -0.009551831
0000d0 c5 29 86 3d ea 5f cb 3d 14 f7 3d 3e 56 1a f6 bd
       0.06550936 0.099304035 0.18551284 -0.12016742
0000e0 78 c4 07 bd 26 7d ce 3b d0 6e a9 3d 7b 4f 32 3e
       -0.03314635 0.00630154 0.08273089 0.17413132
0000f0 56 53 21 be f7 f2 ec bd c8 55 9d 3c 26 78 29 3d
       -0.15754446 -0.11569779 0.019205943 0.041374348
000100 a1 72 2d 3e 9a 53 2d be 0f 2a 97 3b 0b 79 38 3c
       0.16938259 -0.16926423 0.004613168 0.011259328
000110 69 48 62 3d b8 d6 a5 3d 00 19 c2 bd f8 7a df bc
       0.055244837 0.08097595 -0.094774246 -0.027280316
000120 18 6f 39 3d e8 53 ba 3d 97 89 34 3e 6e 9a c6 3d
       0.045271963 0.09098035 0.17630611 0.09697424
000130 17 40 d7 3d d8 3b 1e 3e 0e bb 1d 3e 5a 59 0a 3e
       0.10510271 0.15452516 0.15403387 0.13510647
000140 75 a4 1f 3e 23 69 1c 3e b3 a5 c7 3d a1 4d 72 3d
       0.15590079 0.15274481 0.097484015 0.059156064
000150 6a 15 c7 3d 94 05 43 3d 1f da dd 3d 49 9f d9 3c
       0.09720881 0.04761274 0.10832619 0.02656521
000160 85 d2 d9 3d 0b 9f 71 3d 73 93 bb 3c af f7 cc 3d
       0.106358565 0.058989566 0.022897458 0.100081794
000170 2d ad 18 bd c0 60 73 3d 59 e1 5f bb 2c 26 f4 bc
       -0.03727453 0.05941844 -0.0034161417 -0.029803358
000180 d3 db f8 3c 2a 0f a5 bc d4 b4 14 bc 84 9b f7 3c
       0.030378258 -0.020148832 -0.009076316 0.030225523
000190 af e1 05 bd 54 dc 94 3c 73 d3 8e bd 56 77 fe bd
       -0.03268593 0.018171467 -0.069739245 -0.12425105
0001a0 62 69 e9 bd 4a d8 98 3d 21 ee 5f bc fd 8b 96 3a
       -0.11397053 0.07463129 -0.013667614 0.0011485812
0001b0 07 e9 2a bc 94 16 a8 bd 64 70 93 3d ee b6 34 3d
       -0.010431535 -0.082074314 0.07199171 0.044119768
0001c0 e9 41 05 bd 53 e7 e4 3a 2a c5 e2 bd 51 84 b8 b9
       -0.03253356 0.001746396 -0.11072762 -0.00035193798
0001d0 05 4b 1b 3d b9 18 a0 bc 33 3a 69 3c 2c 89 32 bd
       0.03791334 -0.019543039 0.014235067 -0.04358785
0001e0 8d c8 00 bd 0d d3 6c 3d 9c 8b 62 3d b7 38 8b bb
       -0.03144126 0.05781846 0.055308923 -0.0042487043
0001f0 74 11 9e bc 56 19 47 3d b8 fe 82 3d 44 c4 e5 bc
       -0.019295432 0.048608147 0.0639624 -0.028047688
000200 9e 8a c3 bd 23 3b a4 bd fa 8b d6 3c 9d 96 fb 3c
       -0.095479235 -0.08019092 0.026189793 0.030711466
000210 df 5c 83 3d 7a 38 85 bd bb 54 6e bd 27 a5 65 3c
       0.06414198 -0.06504913 -0.058186274 0.014016426
000220 03 c1 23 3d f1 5e 8b 3d 42 1b 5d 3d 38 08 db bb
       0.039978992 0.06805218 0.053981073 -0.0066843294
000230 36 87 7c bc d6 c2 d0 3d 62 ea 2b 3d e6 6d 64 bc
       -0.015413096 0.10193412 0.04197157 -0.013942217
000240 8d 18 80 bd d1 84 ee 3c 96 b1 8a 3d c5 35 7a bd
       -0.06254683 0.029116066 0.06772153 -0.061086435
000250 03 18 62 bd 3a 96 9a bc 39 09 a9 3d e6 3e 28 3d
       -0.05519868 -0.018870462 0.08253712 0.04107561
000260 05 51 ff bc 79 44 f9 bd ed 9c ba bd 79 1b 8b 3d
       -0.031166563 -0.12171263 -0.091119625 0.06792349
000270 ca 3a a8 3d da 6f df 3b 57 ab fa b9 7b 6e ba bc
       0.08214338 0.0068187537 -0.00047811374 -0.02275776
000280 8c ba 0b 3d 2c 9f 3c b9 e6 0e 55 bc 05 bb c6 3b
       0.03411345 -0.00017988373 -0.01300404 0.006064775
000290 60 ee 97 bd dd 7e b6 3d 07 8e 1d 3d 4a 6f db 3c
       -0.07418513 0.08910916 0.038465526 0.026786465
0002a0 0d 41 0d bd 81 6a 95 bd 5a e1 1e 3b 0d 80 d8 3c
       -0.034485865 -0.07295705 0.0024243207 0.026428247
0002b0 d7 ca de 3c 13 2b 18 bd 50 63 bc bd 56 aa cb 3c
       0.027196331 -0.037150454 -0.0919863 0.024861496
0002c0 ac 93 8b bd 52 33 dc bd b1 1f 02 be d0 72 37 bd
       -0.068152755 -0.10751976 -0.12707402 -0.044787228
0002d0 7f 87 3b 3d 7a 98 2a bd 1f 36 84 3c f0 b3 a6 bd
       0.045783516 -0.04164932 0.016139088 -0.08139789
0002e0 12 6f b6 bc a9 15 f9 3c 9e ce 68 3d ce a8 39 3d
       -0.02226976 0.030405836 0.05683767 0.045327
0002f0 c7 9b 96 bd 1c 09 33 bd c8 67 a8 3d a3 3e 47 3c
       -0.07353931 -0.04370986 0.0822292 0.01216093
000300 59 b9 19 3d e2 ed 80 3c 3f 76 97 bc f7 38 6e 3d
       0.037530277 0.015738431 -0.018489001 0.058159795
000310 85 bd 9e bc b3 88 6b 3d a0 5c 79 ba 7c 1b 43 bc
       -0.01937748 0.057503413 -0.00095123984 -0.011908408
000320 4c ab 97 bd 18 71 13 bd fe ad 23 3d 16 ee b8 3d
       -0.07405719 -0.035996526 0.039960854 0.09029786
000330 17 55 b3 3d 0e 63 87 bb a2 a0 b5 bb 62 e1 1b 3c
       0.08756464 -0.0041316813 -0.0055428306 0.009514185
000340 b4 37 af bc da a4 4f bc b4 f0 88 3d 83 c8 79 bc
       -0.021388866 -0.012673581 0.066865355 -0.01524556
000350 67 75 70 3d 22 20 8f 3d 88 de f5 b9 40 96 e2 bb
       0.058705714 0.06988551 -0.0004689584 -0.006914884
000360 92 cd cc bd fb 8f 81 3d 46 55 23 3b 33 db db bd
       -0.10000147 0.0632629 0.0024922653 -0.10735168
000370 fe 34 a8 bd 94 6d 83 be 70 63 07 be 32 ba b2 bc
       -0.082132325 -0.2566954 -0.13221526 -0.0218173
000380 8c 28 1a be 31 22 8e bd 84 96 c3 bd b5 10 06 bc
       -0.1505453 -0.06940115 -0.09550193 -0.008182694
000390 b9 46 36 3e b6 f1 3c 3e 05 e8 71 bd dd c9 87 3d
       0.17800416 0.1845158 -0.05905916 0.06630299
0003a0 d1 05 5a 3d 20 4e b4 3d 95 c8 2d 3d 78 32 ea bc
       0.053228203 0.08803964 0.042427618 -0.028588519
0003b0 fb b6 56 3d ec 82 95 3d 97 c4 11 3e 9d 7f 47 3d
       0.052420598 0.07300362 0.1423515 0.048705686
0003c0 8b 83 0c 3d c4 a7 62 bc e6 62 aa 3d 67 c5 f2 3d
       0.034305137 -0.013833944 0.08319645 0.11854058
0003d0 46 16 1f 3e 1f f3 2b bc 22 fd 64 bb b0 10 84 3d
       0.1553584 -0.010494976 -0.0034940918 0.064484954
0003e0 76 5f 47 bd cf f9 1a be 67 d1 d8 3d f7 6d 16 be
       -0.048675023 -0.15134357 0.10586815 -0.14690386
0003f0 58 18 ce bd 18 95 fd bd d1 e8 43 bd cb ab c3 3d
       -0.10063237 -0.12381953 -0.047829453 0.09554251

conv2.bias f4 [32]
000000 c7 3d 59 3d fd 1b ed bb 0b 23 8b 3d c3 1f 8f 3d
       0.05303743 -0.0072360025 0.06793793 0.0698848
000010 a8 5d cd bc d7 00 0b 3d 68 e2 3f 3c c2 6c a7 bb
       -0.025069073 0.033936348 0.011711694 -0.0051094005
000020 33 b5 ba 3d 6c 43 28 3d 76 fb 85 3d 18 0f 0d 3e
       0.09116592 0.041079924 0.06542103 0.13775289
000030 c9 7b 17 bd 3d 82 ba 3c e7 bb 46 3d 3d c6 7a 3b
       -0.036983285 0.02276718 0.04851904 0.0038265132
000040 b7 25 ea 3d 49 4a 2a 3c 7f f0 37 bd f2 c9 41 bd
       0.11432975 0.0103936875 -0.04490709 -0.04731173
000050 17 c8 9a 3d 4e df d1 3d 57 31 9b 3d cc a9 10 3c
       0.07557695 0.1024767 0.0757777 0.008829545
000060 a0 b8 64 3d f5 ea 22 3d 1e ca 00 3d 42 34 96 bd
       0.055840135 0.039774854 0.031442754 -0.07334186
000070 47 9c 0d bc 25 ce 15 3d 33 b6 a1 bc 60 a2 3c bd
       -0.008643216 0.036573548 -0.0197402 -0.04605329

dense1.weight f4 [10, 512]
000000 a9 40 41 3c 54 84 9e 3d 5d 41 42 3c 53 a8 47 bc
       0.011795201 0.07740083 0.011856404 -0.012186128
000010 35 c1 f4 3b f6 14 96 bb 42 0b 50 3d 69 cf 7a 3c
       0.007469321 -0.0045801355 0.050791986 0.0153082395
000020 65 9e 7a bd 21 49 12 bd fb 68 9f 3c 65 89 33 3d
       -0.061186213 -0.035714272 0.019459238 0.0438322
000030 c9 98 73 bd 1b 77 8f 3c ba a6 9b 3c ce 6a 86 3d
       -0.05947188 0.017512849 0.0190004 0.0656334
000040 a0 6a 1d 3d e2 a3 0f 3c 1c 65 3e 3d e2 90 66 3d
       0.038431764 0.0087671 0.046483144 0.056290515
000050 23 05 20 3d 17 9f 8e 3b 6a 57 b9 3c 59 78 11 3d
       0.0390674 0.004352461 0.02262469 0.035515163
000060 73 fe 3a 3d 6c bd 0e bc f3 b8 66 bb 32 9b 70 bd
       0.045652818 -0.008712154 -0.0035205453 -0.058741756
000070 9a e1 79 ba fe 25 04 bd 12 fb 9f bc 6f 12 6e bc
       -0.00095322134 -0.032262795 -0.0195289 -0.014530762
000080 e4 47 c2 bc 71 29 34 bd 5b e2 8e bd 90 b4 8d 3d
       -0.02371592 -0.043984834 -0.06976768 0.06919205
000090 a2 1e 75 bc 56 20 aa 3c d2 3d ab 39 8e 20 93 3d
       -0.014960917 0.020767372 0.0003266172 0.07183944
0000a0 eb f4 40 3d e3 79 8c bc 29 c2 51 3d 12 cc be 3c
       0.047108572 -0.017147964 0.051210556 0.023290668
0000b0 d8 42 cd 3d fb 6b c5 bd dc f1 1c bd 07 0a 8d 3c
       0.10022515 -0.09639736 -0.038316593 0.017216695
0000c0 b3 9c 11 3c 59 aa ff bc 6c 00 8d 3d 3f d8 c3 3d
       0.008887458 -0.031209158 0.06884846 0.0956273
0000d0 01 84 c1 3d e0 03 2d bd 24 1e 40 3d 06 a9 12 3e
       0.09449006 -0.042240024 0.046903744 0.1432229
0000e0 4b b9 93 3d 7f 01 bf bd 16 ee ac bc 28 2b 0d 3c
       0.07213076 -0.09326457 -0.021109622 0.008616246
0000f0 19 16 62 3c a7 83 2f be 1d 61 28 bc 18 91 f7 bd
       0.013799214 -0.17140065 -0.01027706 -0.12088221
000100 f0 b1 02 3b f3 17 3a bd aa bc 8b 3a 69 7a 5a 3d
       0.0019942485 -0.045432996 0.0010661085 0.053339396
000110 ae 7c b2 3d 3d 03 8a bd 34 18 45 bd fd a4 72 3d
       0.08715187 -0.06738899 -0.048118785 0.059239376
000120 d6 05 a2 3d 14 aa 82 bd 8e 1c 99 bc c3 95 19 3d
       0.07911269 -0.06380096 -0.018690374 0.03749634
000130 81 be ff bc f8 69 23 be 09 25 a8 bc fd 08 58 be
       -0.031218769 -0.15958393 -0.020525472 -0.21097179
000140 82 ac a8 bc 53 62 19 3d ec 66 12 3d 39 e1 b6 3d
       -0.02059007 0.037447285 0.035742685 0.089296766
000150 fc ac 6b ba 6b 20 23 3b 6d 27 ad 3d 97 29 ab 3d
       -0.0008990315 0.0024891149 0.084547855 0.08357542
000160 be 5b 1e 3d 96 78 6a 3d ec fd ea 3c ec 19 30 bc
       0.03866171 0.057243906 0.028685533 -0.010748368
000170 d2 e5 2e 3d ce 20 ec 3c 13 69 0e 3d 44 6a 5c ba
       0.042699642 0.028824236 0.034768175 -0.0008408169
000180 68 09 22 3e 7a 23 19 bc 3f f3 57 3c 54 17 43 3d
       0.158239 -0.009346837 0.013180553 0.04762967
000190 43 b8 cd 3d 12 65 af bc 8f 2b 80 bd 8c 1e dc 3d
       0.10044911 -0.021410499 -0.06258308 0.10748014
0001a0 38 04 46 3d 4f 92 df bd 49 3b b3 bc 39 9d d7 3d
       0.048343867 -0.10916578 -0.021878855 0.10528035
0001b0 32 96 4c bd 99 26 1d be 37 e7 0b be 6d 05 16 bd
       -0.049947925 -0.15346755 -0.1366242 -0.03662627
0001c0 42 eb 3c 3d a2 c1 6e ba 28 e0 8c ba 37 67 a8 3c
       0.046122797 -0.0009107833 -0.0010747956 0.02055703
0001d0 a3 31 48 bc 2f 06 26 3d 43 bc 14 bd 60 93 0d bd
       -0.012218866 0.04053324 -0.036312353 -0.034564376
0001e0 67 9a d2 bc 19 55 c7 bc 70 53 e9 3b 78 c7 a1 bd
       -0.02570839 -0.02433257 0.007120542 -0.07899374
0001f0 fc 75 69 ba 5e 66 a8 3c 38 f3 6e 3c 2a 73 80 bd
       -0.00089058257 0.020556625 0.014584355 -0.06271966
000200 41 d4 cf 3c bc 6a 5d bd 95 fd 44 bd 0c e1 74 bd
       0.025369765 -0.054056868 -0.048093397 -0.059784934
000210 30 da 61 3d da 03 c4 bd f1 6b 11 bd 5b cd 38 3d
       0.05513972 -0.09571047 -0.03550333 0.045117717
000220 78 49 a0 3d 9b a8 e6 bc fe 88 12 3d f9 cc a0 3d
       0.07826513 -0.02815657 0.035775177 0.078515954
000230 81 35 68 3d 2b 44 2f bd 2b 0f 98 3d 15 a8 32 bd
       0.05669165 -0.04278962 0.07424768 -0.043617327
000240 8a 84 95 3d 62 d1 74 bc 62 30 bb 3c 8e d4 05 3e
       0.073006704 -0.014942499 0.02285022 0.13069364
000250 76 77 98 bd 1b 10 77 bd 64 4b 9f 3c 40 3f 9d 3d
       -0.0744466 -0.060318094 0.019445129 0.076780796
000260 9e a6 fd bc 18 8f f3 bc 3d 29 47 bd 5c e4 4a 3c
       -0.030963238 -0.029731318 -0.048623312 0.012383547
000270 f2 35 21 bd cc 78 82 3c e4 59 fe bc 5e 2d 87 bd
       -0.039358087 0.015926741 -0.031048723 -0.0660045
000280 13 42 73 bd c2 09 fb bc 71 af b0 bd ee 6e 19 be
       -0.059389185 -0.030644301 -0.08627213 -0.14983723
000290 2c c4 12 bd 04 35 1b 3c 2e 08 88 bd ce f2 1d bd
       -0.035831615 0.009473089 -0.06642185 -0.038561635
0002a0 63 97 de bc dc 63 d4 3c a8 1b 93 3b 29 c4 6d 3d
       -0.027171796 0.025926523 0.004489381 0.0580484
0002b0 a0 e2 b8 bc 37 0f d5 3d 43 af 41 3d fb c2 e1 3d
       -0.022569 0.104032926 0.047286283 0.11023518
0002c0 70 82 9b 3d 3a 71 3b 3c d4 39 44 be d1 17 4a bd
       0.07593238 0.01144057 -0.19162685 -0.04933912
0002d0 30 9f 90 3d ef 21 22 3c 2a cf e1 3c e6 21 34 bd
       0.070616126 0.009895786 0.027564604 -0.04397764
0002e0 59 07 32 3d 50 07 57 3c e1 00 67 3c 0b ed da 3c
       0.04346404 0.013124302 0.014099331 0.026724359
0002f0 3b 09 8a 3d 65 b5 19 3d e8 a2 c5 3d 5c af c9 3c
       0.06740042 0.037526507 0.096502125 0.02461975
000300 6b 91 b8 3a 76 dc 9a bc b6 ca 7d bd 61 40 c7 3d
       0.0014081424 -0.018903952 -0.0619609 0.09729076
000310 30 02 27 3c 96 4a 50 bc 22 36 16 bd 8d f0 87 3d
       0.010193393 -0.012713095 -0.03667272 0.06637678
000320 93 b0 c3 bc a9 03 87 bd c5 9b e3 bc 89 13 23 bb
       -0.023887908 -0.06592495 -0.027784238 -0.002488347
000330 d0 6c ec bc 4d 39 db bc 4a 9a 3e bd 88 34 86 bd
       -0.02886048 -0.026760722 -0.04653386 -0.06552988
000340 bb d9 5a bd c8 03 d1 3c 36 39 93 3d 20 b1 f3 bd
       -0.0534303 0.025514498 0.071886465 -0.11899018
000350 3e 2f b4 bd 31 39 9e bd f4 c5 fe bc 86 8e 54 be
       -0.08798073 -0.07725752 -0.03110025 -0.20757493
000360 04 9d 23 3d af a9 b3 bd 6a 95 5f bd 4b c2 19 bd
       0.039944664 -0.08772599 -0.05458585 -0.037538808
000370 bd e1 fc bc 33 b6 4d bd e2 ee b5 bd 9c 5d 0b 3e
       -0.03086936 -0.050222587 -0.08883454 0.13609928
000380 c7 1e a5 3d a2 d9 ab 3c f6 cd 00 3d d3 c2 57 3d
       0.08062511 0.020977799 0.03144642 0.052676033
000390 f8 89 1e 3d d9 5c 28 bb 15 41 6f 3d a9 b7 37 bc
       0.038705796 -0.0025690107 0.058411676 -0.011213222
0003a0 fd 6b d5 3c db 84 23 bc d8 49 a5 bc 0c 8b fc 3b
       0.02605247 -0.009980406 -0.020176813 0.0077070054
0003b0 a2 56 ae bd 35 07 95 bc 6b 4a 39 bb 20 5b 30 bd
       -0.08512618 -0.018191913 -0.0028273116 -0.043055654
0003c0 ea e8 c1 3d 85 ea 56 bc ed 62 90 bc 00 57 8e 3c
       0.09468253 -0.013117437 -0.017625296 0.01737547
0003d0 a4 22 ea 3d e3 0e 38 3d 3b 2b 92 bc bb 29 e2 bc
       0.114323884 0.044936072 -0.01784288 -0.02760779
0003e0 4b fc a3 3d e3 7c c2 3c ae 45 6d bd e6 96 81 bc
       0.080071054 0.023741191 -0.05792778 -0.015819024
0003f0 66 28 30 3d 2b 02 58 be 7b 36 95 bd 4c 19 ff bc
       0.043007277 -0.21094577 -0.07285782 -0.031139992

dense1.bias f4 [10]
000000 bb ed 30 ba ca b3 af bc b7 9b a2 3d 75 ab 89 3c
       -0.0006749292 -0.021448035 0.079398565 0.01680539
000010 25 56 fd bd e5 7e af bd b4 60 6e bc e7 fb 81 3d
       -0.123699464 -0.08569125 -0.014549423 0.06346875
000020 55 82 65 3d 8c 7f b0 3c
       0.056032497 0.021545194
