saved_weights/Model_epoch_no_14_train_acc_93.19_val_acc_90.41.pth (torch_old, 74661 bytes, 6 tensors)

conv1.weight f4 [16, 1, 5, 5]
000000 63 a7 91 3e fa c8 b5 3e bb ac 31 3e 1f 58 9b 3e
       0.28448018 0.35504895 0.17351048 0.3034067
000010 bc 3b b6 bd e8 64 02 be a4 77 01 bd ef e5 af be
       -0.08898112 -0.12733805 -0.03160824 -0.34355113
000020 90 06 15 be f8 f4 5a be fc b6 ee bd 5e 06 8c be
       -0.14553285 -0.2138251 -0.11655995 -0.27348608
000030 bb 3f e8 be 7f d1 b2 bc d1 28 14 3e d3 34 a6 bc
       -0.45361122 -0.021828411 0.14468695 -0.02028886
000040 1e 42 8f be 56 80 8b 3c 54 43 73 3e 0b f4 c1 3e
       -0.2798013 0.017028969 0.23756152 0.37881503
000050 e5 00 81 3e 2f 4b 91 be 75 5b 86 be d6 11 8a 3e
       0.25195995 -0.28377673 -0.2624165 0.26966733
000060 3a d6 af 3e 62 34 b9 3d d8 6a 57 be 0b ff b3 3d
       0.3434313 0.09043194 -0.21036851 0.0878888
000070 60 75 9e 3e 3a 9f 6d be fc fa 49 3e 2a a9 32 be
       0.30948925 -0.23205271 0.19724649 -0.17447343
000080 dd cb 02 bd 2a 8b d6 3d d9 a2 d0 bd 7f 3f 6d 3e
       -0.0319327 0.10475762 -0.10187311 0.23168753
000090 75 82 84 be ef 66 9a bd 48 9e cb 3d 89 87 78 3d
       -0.2588078 -0.07539164 0.09942299 0.06067613
0000a0 ba b2 44 3e 25 a6 81 be 11 1c 14 3a 78 03 47 3e
       0.19208804 -0.2532207 0.0005649934 0.19434917
0000b0 2c 58 22 bd da b2 33 bd b5 59 b8 be 1e 43 b3 3e
       -0.03963487 -0.043871738 -0.3600594 0.35012144
0000c0 7c 6d c4 3d f6 c2 3b be 56 87 83 3e b0 08 8b 3d
       0.09591195 -0.1833609 0.2568919 0.067887664
0000d0 72 72 5e 3e f3 aa 85 be ee 4e 0f 3e af 9b ff 3d
       0.21723345 -0.26106986 0.13994953 0.12480866
0000e0 aa 1c 7b 3e 52 22 37 be 54 af 84 be b0 1f 1d 3e
       0.24522653 -0.17884186 -0.25915015 0.15344119
0000f0 5a fb 88 3d 3a e1 f8 be 23 82 bd be d1 fa 37 3e
       0.066885665 -0.48609334 -0.3701335 0.17966773
000100 41 8a 06 bd 93 c3 a4 be 2a 9f 00 c0 cc d3 cb bf
       -0.032846693 -0.3218046 -2.0097146 -1.592401
000110 fb a6 15 bd a2 32 8b 3e 1b ed 8d bd aa 16 eb bf
       -0.036536198 0.27187067 -0.0692999 -1.8366292
000120 50 4c b3 bf 75 c4 c0 bd 46 5b 1b be a3 58 cf 3b
       -1.4007664 -0.09412471 -0.15171537 0.006327705
000130 cb 8b 08 be df c5 d2 be 04 fb e2 bc 10 2d 3b be
       -0.13334577 -0.4116659 -0.027707584 -0.18278909
000140 e7 47 25 3e f4 6b 9a 3d 01 d5 90 bd f1 7c e2 be
       0.1614071 0.07540122 -0.07071877 -0.44235948
000150 f1 92 c0 be a2 d2 91 3d 4c 36 96 3e 6c 7b ac 3d
       -0.37612107 0.07120253 0.293383 0.08421978
000160 b1 4b 25 be 83 9c 84 be b5 c2 7a 3e 57 90 99 3e
       -0.16142155 -0.2590066 0.24488337 0.29992935
000170 19 da dd 3e ee 32 98 3e 48 91 90 bd fe 44 ec bd
       0.43330458 0.29726356 -0.0705896 -0.11536597
000180 d7 a8 02 be 2e f8 dd 3c 17 cb 2a 3e 3a dd c5 3d
       -0.1275972 0.02709588 0.16679035 0.09661336
000190 db 0e 4e 3e 5b e7 a9 3e 0c bc c2 bd 93 34 49 3e
       0.20122854 0.33184323 -0.09508523 0.19648962
0001a0 fc 35 96 3d b3 6f 64 3e 2d 25 0b 3e 29 da 53 3e
       0.073345155 0.22308235 0.135884 0.2068869
0001b0 7b 19 17 3e 4d 4d d4 bd 38 91 92 3e bd 70 fd 3c
       0.14755814 -0.103663065 0.28626418 0.030937547
0001c0 f8 67 6b 3d 38 b6 f5 bd 42 b4 e8 bd 09 bd 47 be
       0.0574722 -0.11997646 -0.113625064 -0.19505705
0001d0 1f f5 a6 bd 60 19 51 3e c0 a0 84 3e 4a 21 c9 bd
       -0.08152222 0.20419836 0.25903893 -0.098208025
0001e0 53 21 94 be 8f 3e 13 be ae 5b 73 be 58 1b 8b be
       -0.28931674 -0.14379333 -0.23765442 -0.271693
0001f0 28 cb db bd e4 ed 1a 3e d3 b6 d4 3e b3 e2 f0 bc
       -0.10732108 0.1512981 0.41545734 -0.029404974
000200 8a 41 44 be 76 1a 12 3e 16 b3 18 be c0 d5 b4 3e
       -0.19165626 0.14267907 -0.14912066 0.35319328
000210 30 b3 1d be 40 a2 5e be b7 f4 cc be ef 74 a6 be
       -0.15400386 -0.21741581 -0.40030453 -0.32511088
000220 e8 e1 bf 3e 8f c5 3a be 4d d7 b7 bd 2c 73 cc bc
       0.3747704 -0.18239425 -0.08976612 -0.024957262
000230 95 86 5b be 13 e2 80 3e 28 30 08 3e ec 3a 2a be
       -0.21438058 0.2517248 0.1329962 -0.1662404
000240 d2 a3 3e 3e d6 c6 c4 bc fa 45 92 3e ff c5 a5 bd
       0.1861718 -0.024020594 0.28569013 -0.080944054
000250 80 75 59 bd 3a 89 00 3c 0e 85 c6 bd d9 31 1e be
       -0.053090572 0.007845217 -0.09693347 -0.15448703
000260 bc c5 cd 3e 9c 31 12 be 04 b6 54 3d f6 6e 11 be
       0.40189922 -0.14276737 0.051931396 -0.14202484
000270 df 5d f9 bd 91 42 ec 3e 11 f4 99 be 33 92 d5 3c
       -0.121761076 0.46144536 -0.3006902 0.02607069
000280 dd 78 cb bd 1e a1 fd bd 69 ce d1 3e 86 2a ae be
       -0.09935162 -0.12384246 0.4097779 -0.34016818
000290 3b af 19 3c bf 08 88 3e 51 7f aa bd 9c d7 55 3e
       0.009380157 0.26569173 -0.08325065 0.2088303
0002a0 90 80 97 be 22 98 3f bd b0 fe 94 3d 1c cb 5f be
       -0.29590273 -0.046775945 0.0727514 -0.21854824
0002b0 f7 f5 98 3e 3b e2 86 3d 7a 11 7b bc 04 3b 4d be
       0.29875156 0.06586119 -0.015323991 -0.20042044
0002c0 f6 05 72 be fc 03 35 be d1 b1 2d 3e 2e 1f c2 3e
       -0.23635086 -0.17677301 0.16962363 0.37914413
0002d0 c9 d5 22 3b df 11 27 3e 7e ec eb bb e6 8a 64 3e
       0.0024846664 0.16315411 -0.007199823 0.2231861
0002e0 61 d4 6c 3e 8b 00 b8 3d 8b 40 4c be 87 0c d8 bc
       0.23127891 0.089844786 -0.19946496 -0.026373161
0002f0 f7 f3 b8 3d 0b 42 7d bd d8 97 f1 bd b1 9f 96 3d
       0.090309076 -0.06183056 -0.1179654 0.073546775
000300 f5 87 1b 3e 99 06 b1 bd 80 6f d2 3d f4 62 0b 3e
       0.15188582 -0.086438365 0.10275173 0.13611966
000310 8b 70 2a bb ea 7f 2c be 59 4d 12 3d 99 39 b7 bd
       -0.0026007022 -0.1684567 0.035718296 -0.08946533
000320 7b 70 37 3d 25 50 8f be dc 07 40 be a0 fc 0a 3f
       0.044785004 -0.27990833 -0.18752998 0.54291725
000330 c8 1d bf 3d cf d5 f4 3b f2 54 d9 be ff eb c5 be
       0.09331852 0.007471777 -0.4244762 -0.38656613
000340 e8 f2 ea 3e 2d ba 4c be 8d c6 37 3e ad 2d 8b 3e
       0.45888448 -0.19992895 0.17946835 0.27183285
000350 b2 6d 9a be 16 ce 89 3e db 30 46 be 36 c3 80 3e
       -0.30161816 0.26915044 -0.19354574 0.25148934
000360 38 6e 1b 3e 83 fa f0 bd 46 2f 03 bd d2 b1 80 3e
       0.15178764 -0.11766531 -0.032027505 0.25135666
000370 5d e9 57 be 84 8c bd bc 68 46 e4 be 18 75 bd bd
       -0.21085115 -0.023138292 -0.44584966 -0.092508495
000380 89 7c c4 3e 89 59 26 bf 45 91 fa be f9 c8 ab be
       0.38376263 -0.6498037 -0.48938957 -0.33551767
000390 bf 0b 75 3c 3a 1f 0d bc ec d3 ef bd db ab f6 bc
       0.014956414 -0.008613402 -0.11710343 -0.030111244
0003a0 05 bd 09 be 55 05 38 be 87 1e c3 3d c6 88 b3 bb
       -0.13451011 -0.17970784 0.09527307 -0.005478951
0003b0 31 1c d2 3e bd de 04 3e 10 d5 49 bc b4 d4 32 3c
       0.41037133 0.12975593 -0.012318864 0.01091497
0003c0 c5 74 5b 3d fb ca 8c 3e 94 b1 76 bc 82 a7 ee 3d
       0.053578157 0.27498612 -0.015056986 0.11653043
0003d0 a1 28 17 3e b7 3f dd 3e 83 cf a7 3d 89 22 a9 bc
       0.14761592 0.43212673 0.081938766 -0.02064635
0003e0 07 08 b4 bc 0d 71 76 3e 68 8c ac be 3f 25 4d 3e
       -0.021976484 0.24066563 -0.3370087 0.2003374
0003f0 1d b6 53 3e d1 ce 0b bd ae 4a be 3c a2 70 88 be
       0.2067494 -0.034132782 0.02322897 -0.26648432

conv1.bias f4 [16]
000000 70 9d 05 bd b0 90 f4 bc 66 08 e2 3e 06 84 2a bd
       -0.032620847 -0.029854149 0.44147032 -0.041629814
000010 9f 82 34 bc 2c 9e 2d bd 7d d3 8d bc 2f 23 25 bd
       -0.011017471 -0.042387173 -0.01731276 -0.040316757
000020 c3 8f a8 39 e0 f1 a3 bb 96 a2 6a bc f8 3f c1 3c
       0.00032150568 -0.005003199 -0.01432099 0.023590073
000030 da 25 6d 3d 4d 3c 00 3e 07 8c 94 3e ce df 3b bd
       0.057897426 0.12523003 0.29013082 -0.045867734

conv2.weight f4 [32, 16, 5, 5]
000000 0c dc 72 bd e3 82 31 3d e7 d1 43 bc 7f 7f 04 3e
       -0.059291884 0.043337714 -0.0119519 0.12939261
000010 36 6e cc bc 46 97 3a be 66 c5 3a be f1 11 e8 bc
       -0.024954896 -0.18221769 -0.18239364 -0.028328868
000020 b0 c9 24 3e b2 76 8b 3d 32 21 64 bd d3 5c 06 be
       0.16092563 0.06809749 -0.05569572 -0.13121347
000030 53 0f 6b 3d 81 15 1d bd ea 40 21 3e 6c d7 4c bc
       0.05738766 -0.038350586 0.15747419 -0.012502532
000040 aa 0d 08 be fa cf 8b 3d ae 58 a8 3e ad e9 82 3e
       -0.13286462 0.06826778 0.32880157 0.25568905
000050 5a 53 e9 3b 75 07 be be d6 ae c4 3b 49 a8 b1 3e
       0.007120532 -0.37115064 0.0060022874 0.34698704
000060 09 46 75 be 2e da b8 3c 78 31 64 3c ac 77 25 bc
       -0.23952498 0.022564974 0.01392781 -0.010099333
000070 4d 9d 49 bd 12 4a 6c 3d 9a a6 6f bd 98 e2 31 3d
       -0.04922228 0.057687826 -0.058508493 0.043428987
000080 86 2d be 3d 8c 76 01 3e b2 fb 9d bc 4d ba 81 bc
       0.09286027 0.12642878 -0.019285057 -0.015835905
000090 29 83 80 3d 80 cf b5 3c 10 78 35 bd 35 4b 4b bd
       0.06275017 0.02219367 -0.044303954 -0.04963227
0000a0 bb 04 d7 bc f4 a9 fe bc 99 14 eb 3d 73 82 bc 3b
       -0.026247373 -0.0310869 0.11478538 0.0057528554
0000b0 41 0e 2d 3e 5d 69 8a 3c 5b 63 2e be 64 4b 73 3d
       0.16899969 0.016895944 -0.17030089 0.05939807
0000c0 57 22 bb bc e6 c2 a4 bc 34 ec f2 bd 8b 53 a5 bc
       -0.022843523 -0.020112466 -0.118614584 -0.020181438
0000d0 1c 65 79 3d 90 ba db 3a 6e db 0c 3e 69 df 57 bb
       0.06088744 0.0016763974 0.13755581 -0.003293956
0000e0 df 5a 0c be 64 50 81 bd 00 f9 0c 3d 92 e0 38 3e
       -0.1370654 -0.063141614 0.034417152 0.18054417
0000f0 c2 05 28 be 94 63 77 be 7f c1 f3 bd 85 19 c4 bd
       -0.16408446 -0.2415908 -0.11902141 -0.0957518
000100 59 8d 08 bd 70 25 44 be e0 63 5e bd d1 e2 fc bd
       -0.033337925 -0.19154906 -0.054294467 -0.12347949
000110 e6 71 a3 bc 48 d9 9c 3c 92 89 10 be 23 5f 8f 3d
       -0.019951772 0.019146577 -0.14114979 0.07000568
000120 bd c3 ab 3d 90 a3 5c 3e 2e e4 52 3e e8 a2 f5 3d
       0.083869435 0.21546769 0.20594856 0.119939625
000130 42 76 be 3d 11 15 ed 3d b6 c8 88 3d 1e 47 4e 3d
       0.092999 0.11576284 0.066789076 0.05036079
000140 04 34 88 3d 85 cd 76 3d 87 3f 76 3d cb e1 78 bc
       0.06650546 0.060254592 0.06011918 -0.015190552
000150 34 46 2e 3e 34 41 1a 3e cf 9d f1 3d 7a 0f 23 be
       0.17018968 0.15063936 0.11797678 -0.15923873
000160 78 44 19 bd b7 2c f7 3d 73 2e fd 3d 1c fe 97 3e
       -0.037418813 0.120690756 0.12362375 0.29686058
000170 07 c1 c4 bd a2 fc c7 3b f7 32 37 be aa ce 7f 3e
       -0.096071295 0.006103114 -0.17890535 0.2498118
000180 af 20 02 3e a6 c0 bc bd 44 2b 93 3d 8f 8c 03 3e
       0.1270778 -0.09216432 0.07185987 0.12846588
000190 1b 3c 98 bd 29 fc 47 3c cf 47 a6 bc ed 26 1e be
       -0.07433339 0.012206116 -0.020297913 -0.15444537
0001a0 03 f8 c9 bd dd 64 10 3d 30 d7 cf bb b7 eb dc 3d
       -0.098617576 0.03525244 -0.006342791 0.107871465
0001b0 6a 02 cf 3a 7c 2b f3 bd e9 be b5 3d 6b 2a 04 3e
       0.0015793566 -0.11873528 0.08874304 0.12906806
0001c0 a1 8c 7e bd 4b c1 fc 3c f6 d2 01 be 2c 5a dc bc
       -0.062145833 0.030853888 -0.12678131 -0.026898466
0001d0 ae 7d 49 3d 99 35 67 bd 15 63 ac 3d da 28 8a 3b
       0.049192123 -0.0564476 0.08417336 0.0042162957
0001e0 6d 18 80 bd 99 1e 9f 3d 6e e1 db 3d 77 5c 15 3d
       -0.06254659 0.07769508 0.10736357 0.036465134
0001f0 bb fe 11 bc d7 96 3c be 06 1b 82 3d 65 c8 e4 bd
       -0.00891083 -0.18416916 0.063528106 -0.11171035
000200 14 30 75 bd 91 5a e8 bc c0 c8 0e be 5d de 6e 3d
       -0.059860304 -0.028363498 -0.13943768 0.05831753
000210 4c 74 23 3d 00 00 3c bd 7f 28 e3 bb 2b 2a 90 bd
       0.03990583 -0.045898438 -0.0069323177 -0.07039293
000220 53 1a f1 3d 30 d2 34 bc a9 d6 74 3d cb 3a c1 bd
       0.11772599 -0.011036441 0.05977503 -0.09435042
000230 be 12 f6 bd 50 b6 4a 3e c1 36 c0 3d 0f 82 c5 3d
       -0.120152935 0.19796109 0.093854435 0.09643947
000240 4c bd b6 bd 82 15 30 bc 06 65 c5 3b 91 6d 37 be
       -0.08922824 -0.010747315 0.006024006 -0.1791289
000250 dc 63 7e 3d 2c c3 08 be 1f e1 b6 bd ea 30 04 bd
       0.062106952 -0.13355702 -0.08929657 -0.03227321
000260 15 7a 19 be c9 e8 2b be 3e aa ff bd 18 6a 03 3e
       -0.14987977 -0.16788019 -0.12483643 0.1283344
000270 3d ea 97 3d fb ad 23 3d 0e e8 d9 3d 2d 2f 35 3d
       0.07417724 0.039960843 0.10639964 0.044234443
000280 0a 3a 3b 3e d0 f2 61 3d 15 4d 62 3d a4 9d 31 bd
       0.18283859 0.055163205 0.055249292 -0.04336323
000290 fb 54 54 be 35 39 a7 3e ff ef 8c 3c 8d 78 cf 3d
       -0.20735542 0.32660833 0.017204283 0.10130415
0002a0 7d 43 c8 3d d2 ca 9b be 02 b5 aa 3d 68 87 7f bd
       0.09778497 -0.30428177 0.08335306 -0.062384993
0002b0 b7 0c 07 bd af f1 86 bd 89 c8 d0 bd 26 6d 47 3d
       -0.03297111 -0.06589066 -0.10194499 0.048688076
0002c0 7c 05 06 be fc e6 0d be fb 22 2c be 09 48 71 bd
       -0.1308803 -0.13857645 -0.16810219 -0.05890659
0002d0 5a 84 13 3d 3c 6c a8 bd de 7c bd 3b 2b 67 44 bd
       0.036014892 -0.08223769 0.0057827076 -0.04794995
0002e0 9d 98 70 bc 3d 3a a4 3c de 84 7c 3c c3 83 57 3c
       -0.014684823 0.020047301 0.015412537 0.013153973
0002f0 65 03 bb bd a4 0c e0 bc 5d 99 e3 3d d7 3a 34 bc
       -0.09131507 -0.027349778 0.11113236 -0.011000357
000300 5e a2 e8 3d c0 8d 12 3c ff 1f 77 3d 0d 68 c7 3b
       0.11359094 0.008944929 0.06033325 0.006085402
000310 8a 75 dc bc 79 18 08 3e e8 bd c1 bc f7 fe 8e bc
       -0.026911516 0.13290586 -0.023650125 -0.017455561
000320 87 5c 4a be e4 e2 4e be b4 53 30 bd 29 3a 1c 3e
       -0.19761859 -0.2020374 -0.043048576 0.15256561
000330 28 73 0d 3e d7 52 47 bd 22 c6 0e 3d aa d4 b0 3d
       0.1381346 -0.048662987 0.034856923 0.086343125
000340 7c 33 ac bc d3 cb a1 3d 76 1f 66 3d 9d 9e f7 3d
       -0.021020643 0.079002045 0.056182347 0.120908
000350 2b 3a 7a 3d 3d e5 d0 3d 0e b8 29 3d bc 95 ef ba
       0.06109063 0.10199974 0.041435294 -0.0018278877
000360 50 fc 29 be c9 95 6e 3e 10 8f 5a 3c e3 17 91 be
       -0.16600156 0.23299326 0.013339773 -0.28338537
000370 3e 68 33 be cf dc c9 be da 93 fc bd df 3f 4c be
       -0.17520234 -0.39426276 -0.12332888 -0.1994624
000380 2d 12 a5 be 8b f8 35 be bb 2f 0a be 09 64 7f 3d
       -0.3224043 -0.17770593 -0.1349477 0.06235126
000390 dd 79 5b 3e 9a 33 e8 3d 1f b7 84 be 90 e6 bf 3d
       0.21433206 0.11337967 -0.2592096 0.09370148
0003a0 c9 c7 9b 3d 8a fb 1d 3e a6 52 22 3d be 3d d6 bd
       0.07606465 0.15427986 0.0396296 -0.10460995
0003b0 9f 41 01 3e 51 e1 9f 3d 9c 4b 4d 3e 22 66 81 3d
       0.12622689 0.078066476 0.20048374 0.063183084
0003c0 38 9d 28 3e 75 98 46 3c 7d 87 28 3e de 46 21 3e
       0.16466224 0.0121213095 0.16457935 0.1574969
0003d0 5a 95 3c 3e c8 d9 50 3c c3 9d c2 3d 44 1e c7 3d
       0.18416348 0.012747236 0.09502747 0.097225696
0003e0 77 fa 2f bc ea a3 94 be 2e 5a aa 3d d3 e2 3c be
       -0.010740868 -0.29031307 0.08317982 -0.18445902
0003f0 b2 23 d7 be b4 59 47 bd de 11 aa bd 4a 06 2a 3e
       -0.4201942 -0.048669532 -0.08304189 0.16603962

conv2.bias f4 [32]
000000 b9 60 b9 3c c5 97 80 3d 49 0b a2 3d 01 4c 6b 3e
       0.022629129 0.06278948 0.07912309 0.22978212
000010 ca a1 18 3c 1c 9e e2 bc 2b 5f a2 bd 97 4f 68 3d
       0.009315917 -0.027663283 -0.07928308 0.056716528
000020 a1 63 00 3e a3 24 10 3e 75 c6 31 3e 78 1a 52 3e
       0.12538005 0.14076476 0.17360862 0.2051791
000030 96 1e 81 bd aa c9 0b be 38 9f ae 3d 88 e4 1a bd
       -0.06304662 -0.13651147 0.08526462 -0.0378156
000040 78 82 5b 3e bd 4a 1b 3c 71 e0 83 bc 4f 3d 7c bd
       0.21436489 0.009478268 -0.016098233 -0.061581906
000050 e0 80 3a 3e 1b fb 57 3e f7 d6 9a 3e 9a e6 f3 3c
       0.18213224 0.21091883 0.3024213 0.029773045
000060 d4 ed 22 3e f7 6f ce 3d 3a 4d bf 3c 53 b4 08 be
       0.15911037 0.10079949 0.023352254 -0.13350038
000070 73 df f3 3d a2 1a 76 3e de 9f 92 bd 7d 35 49 be
       0.11907854 0.24033597 -0.071593985 -0.1964931

dense1.weight f4 [10, 512]
000000 29 37 ed bd da 1f 2c 3e a9 20 16 3d 6b e5 ed bd
       -0.115827866 0.16809025 0.03665224 -0.11616024
000010 50 94 16 bd 29 31 36 bd bd 43 a8 3d 0d 07 07 3d
       -0.036762536 -0.044480477 0.08216045 0.03296571
000020 99 a6 c2 3c cf 8f 95 bd 27 ad d5 3c 88 b8 84 3d
       0.02376108 -0.0730282 0.026083542 0.06480509
000030 57 bb 3c 3d e3 27 24 3d 1c d3 6d 3e d7 ad 30 3d
       0.0460771 0.0400771 0.23225063 0.043134537
000040 ea 29 2c 3d eb 04 0a bd cf 77 72 3b a2 48 08 3e
       0.04203216 -0.033696096 0.003699768 0.13308957
000050 6d ee 95 3d b8 a2 87 3c 1f 4f a4 3b b6 5f 60 bd
       0.07320867 0.016557083 0.005014315 -0.054778777
000060 98 20 8e 3d 4b 4e 4b 3d 85 df 22 bd 42 f5 c6 bd
       0.069398105 0.049635213 -0.039763946 -0.09714748
000070 e5 3f ec 3a d2 ab 66 bd ef 27 14 bd 8b b4 89 3c
       0.0018024413 -0.056316204 -0.036170896 0.016809722
000080 6f 8a f5 bd e2 a8 b6 b8 53 60 0f be c9 90 e6 3d
       -0.11989295 -8.709893e-05 -0.14001589 0.11258084
000090 f5 3a 1b bd 9d a4 96 bc 5e a5 cb 39 e2 12 96 3d
       -0.037898023 -0.01838904 0.00038842385 0.0732782
0000a0 e7 69 21 3e d6 b7 ed bd a2 87 bd 3d 19 19 54 bc
       0.15763055 -0.116073295 0.092543855 -0.012945437
0000b0 70 07 1e 3e 86 54 37 bd 23 2b 3a 3c df bb a6 3b
       0.15432525 -0.044758342 0.011362824 0.005088314
0000c0 66 92 0c 3d d5 5a ca 3c 63 69 0c 3e 73 15 75 3d
       0.034319304 0.024701515 0.13712077 0.05983491
0000d0 ed 1f fd 3d 53 58 e6 bc 36 4c 96 bc 6a 50 6b 3e
       0.12359605 -0.028118288 -0.018346887 0.22979894
0000e0 28 51 b9 3d 96 a2 0d be 89 44 99 bd 68 0e 23 bd
       0.090486825 -0.13831553 -0.07483775 -0.03980866
0000f0 42 f2 a5 bc 5d 0d 6e be 1a 8d d0 3d 13 8d e2 bd
       -0.02025712 -0.23247285 0.10183163 -0.11062064
000100 00 7e 00 3d 84 08 90 bd 0b 38 f5 3b f9 3f df bd
       0.031370163 -0.07032874 0.0074834875 -0.10900874
000110 d9 d4 01 3e c0 9e 66 bc 8a 96 06 bd ed 67 88 3d
       0.12678851 -0.014075935 -0.03285841 0.06660447
000120 99 e8 a1 3d a0 77 24 3e 12 bc 6f bd 1b c3 92 3d
       0.079056926 0.16061258 -0.058528967 0.0716612
000130 d8 97 92 bd c7 3c a6 bd 51 0a 63 3c f0 0c ab be
       -0.07157868 -0.08117061 0.01385744 -0.33408308
000140 df 14 ee 39 21 98 a5 3d 9e 6f e4 bb 3d 8e 3b 3d
       0.00045410448 0.08085657 -0.0069713136 0.045789946
000150 c8 55 3e bd 09 2b fd 3d f3 94 82 3d 5a 9c b0 3d
       -0.046468526 0.12361724 0.06376066 0.08623572
000160 a9 dd 09 3d c3 e8 24 3e 79 da 2e bd 9b d7 01 bd
       0.033658657 0.16104417 -0.04268882 -0.031699758
000170 7e 64 3f 3d 3c b1 49 3d 33 24 f2 3d 95 1b 0e 3d
       0.046726696 0.04924129 0.11823311 0.034694273
000180 d7 a1 4d 3e 00 4b 7d 3d 8a 48 80 bd e6 62 da bc
       0.20081268 0.061839104 -0.06263836 -0.026658487
000190 2f 35 ef 3d b8 0f 6b 3d 61 a9 c3 bd 77 45 9a 3d
       0.11680066 0.057388037 -0.09553791 0.075327806
0001a0 a4 70 30 3d 2b 62 91 bd f2 f3 90 bd de 9e 0c 3e
       0.043076172 -0.07098802 -0.07077779 0.13732478
0001b0 2c 52 e9 bd b0 07 db bd b1 33 6a be 8a 87 fd bc
       -0.11392626 -0.10694826 -0.22871281 -0.03094842
0001c0 c7 b7 30 3e 2a a2 4b 3d 46 9c dc bc 31 9c 8f bd
       0.17257605 0.0497152 -0.026929986 -0.07012213
0001d0 79 34 d8 bd 05 a1 02 3e c4 e0 23 be d7 c0 2e bd
       -0.10556883 0.12756737 -0.1600371 -0.042664375
0001e0 54 d7 b7 bd ed 1d 28 bc 81 3a 95 bc 2d a1 76 be
       -0.089766175 -0.010261041 -0.018216373 -0.24084921
0001f0 d2 f5 99 3d 1a bc a4 3c 33 df 87 3d 5b d1 92 bd
       0.0751759 0.020109225 0.06634369 -0.07168838
000200 dd 13 eb 3c ba d8 26 be f5 92 23 bc 04 18 31 be
       0.028695995 -0.16293612 -0.009983768 -0.17294317
000210 3d bd 84 3d e9 88 3c be cf ca f8 bd 9d d4 25 3e
       0.06481407 -0.18411602 -0.12148058 0.16194387
000220 c3 1e 78 3e c9 cb 56 3b 40 d8 09 3d af e7 5e 3d
       0.24230485 0.0032775274 0.033653498 0.05442017
000230 04 50 f8 3d 95 5a ba bc 0a 54 fd 3d 62 4e 0d bd
       0.12124637 -0.022748271 0.12369545 -0.03449858
000240 c3 f9 00 3e af 5d 72 bc cb 78 cd 3c 0b 38 fb 3d
       0.12595277 -0.014792844 0.025082013 0.12266549
000250 16 35 f6 3b ad e5 0e bd 13 5d 37 bd da 5d b0 bc
       0.0075136526 -0.034887005 -0.044766497 -0.021529127
000260 13 33 b4 bd b9 c6 e7 3c fd 3e a0 3c cc bb 13 3d
       -0.08798804 0.028293 0.019561285 0.03606777
000270 de dd 46 be ac 02 86 bd 99 29 56 3d 17 f6 97 bd
       -0.19420573 -0.06543478 0.052285764 -0.07419985
000280 b1 50 e7 bb a3 71 2f bc 29 4f 43 bd cb 42 59 be
       -0.0070591797 -0.010708245 -0.047682915 -0.21216886
000290 60 e4 b6 bd b4 ae d1 bd e6 63 2b be 39 2d 16 3d
       -0.08930278 -0.102384 -0.16737327 0.03666422
0002a0 c0 d1 fa bd cf f6 04 3d 73 26 95 3d 3e c2 21 3d
       -0.12247038 0.032461938 0.07282724 0.039491884
0002b0 58 7f cf 3d 85 57 6c 3e cf a2 98 3d 88 2d 05 3e
       0.10131711 0.23080261 0.07452928 0.1300565
0002c0 a1 e8 16 3d 9f 73 fd 3d f3 14 b6 be 6c 3b 61 bb
       0.036842946 0.123755686 -0.35562858 -0.0034367694
0002d0 bf 84 0a 3e 31 7a 0c bd 9b 21 e6 3d ca 1b 45 bd
       0.13527201 -0.03429622 0.112368785 -0.048122205
0002e0 94 ca f4 3d 4d 69 13 3c d0 37 8c bd d1 26 b6 bd
       0.11952701 0.008997274 -0.06846583 -0.088941224
0002f0 e2 d9 09 3d e9 8c 06 3e 2a 7b f4 3d 4b 57 70 3d
       0.033655055 0.1313969 0.11937554 0.058677
000300 1e 3a f0 3c f1 4f 14 3e 58 ee 01 be ec 40 f2 3d
       0.029324587 0.1448362 -0.12688577 0.11828789
000310 f5 e4 bd 3b ad 8e c2 bd 30 c3 78 3c b8 df 1d 3d
       0.005795116 -0.094998695 0.015183255 0.038543433
000320 71 6b a9 bd 77 d5 4c be 01 59 02 be 18 24 d9 bc
       -0.08272446 -0.20003305 -0.12729265 -0.026506469
000330 17 e4 8a bd f3 94 db bd 5e b6 97 3d f9 58 41 bd
       -0.06781786 -0.10721769 0.07407831 -0.04720399
000340 5f 94 52 bd 29 e0 45 3e e3 3c 36 3e 7e a1 91 be
       -0.05141103 0.19323792 0.17796664 -0.2844352
000350 69 07 2e be 1e 8a de bd 0a a2 f8 3d d9 dd a5 be
       -0.16995014 -0.108661875 0.121402815 -0.3239582
000360 7b 1a 1f 3e 2c 7a cc bd 03 9c 72 3d 67 9f 36 bd
       0.15537445 -0.0998424 0.059230816 -0.04458561
000370 db 85 c3 3b eb 39 04 be 15 41 2a be 10 9b 56 3e
       0.0059668845 -0.12912719 -0.1662639 0.20957589
000380 71 85 b0 bd 05 c3 7c 3d 7c bd 1a 3d 67 e5 0a bd
       -0.08619202 0.061709423 0.037778363 -0.03391018
000390 64 7f a8 3d 66 ae 44 3d 1e e9 cc 3d d4 7c 8b bc
       0.08227423 0.04801788 0.10005401 -0.017027296
0003a0 32 41 e0 3d dc c9 28 3d 19 ec 6d bb 79 ac f4 3c
       0.10949935 0.041208133 -0.0036304055 0.029867398
0003b0 4b 4f 09 be ad 51 98 bd ee af be bc b6 be 20 be
       -0.13409154 -0.074374534 -0.02327725 -0.1569775
0003c0 db b0 d8 3d b1 09 7b 3c b4 82 9d 3c 63 5e 81 3d
       0.105806075 0.015322135 0.019227363 0.06316831
0003d0 c7 b3 34 3e 7f 12 f1 3d df 09 5d bd 23 75 41 3d
       0.17646705 0.11771106 -0.053964492 0.04723085
0003e0 3b 9c aa 3d 18 1c 09 3d 94 e0 a5 bd fb 82 59 bc
       0.0833058 0.033474058 -0.080994755 -0.013275857
0003f0 6e 0a 28 3d 2f ff 81 be 72 f7 02 be 8c 42 e0 bd
       0.04102557 -0.25390002 -0.12789705 -0.10950193

dense1.bias f4 [10]
000000 77 ba 98 bc ba cb af bc 4e 4a 0e 3e 24 31 aa 3c
       -0.0186436 -0.02145945 0.13895532 0.020775385
000010 ee 72 8d be b0 2d e8 bd c1 10 11 3d f6 58 87 3d
       -0.27626747 -0.11336839 0.03541637 0.06608765
000020 06 bc 30 3e 52 1e 5a 3d
       0.17259225 0.053251572
