saved_weights/Model_epoch_no_9_train_acc_91.66_val_acc_90.05.pth (torch_old, 74661 bytes, 6 tensors)

conv1.weight f4 [16, 1, 5, 5]
000000 fd a1 88 3e 8a dd 8c 3e 42 6b e3 3d 59 2b 90 3e
       0.26686087 0.2751277 0.11104442 0.28158072
000010 c6 07 9c bd d2 eb 17 be b7 80 0e bd 75 8a 9c be
       -0.0761867 -0.14836052 -0.03479072 -0.30574384
000020 a6 ad cf bd a2 ae 27 be 4d de d3 bd 26 28 79 be
       -0.10140543 -0.16375211 -0.10345135 -0.24331722
000030 91 58 d0 be 48 e1 35 bb 37 82 fa 3d 0f 10 e9 bc
       -0.4069257 -0.0027752686 0.12231868 -0.02845004
000040 15 1f 82 be be a5 5e bc 26 23 6a 3e 45 78 af 3e
       -0.2541434 -0.013589321 0.2286497 0.34271446
000050 d9 b2 65 3e b1 04 78 be f3 ab 71 be 95 58 68 3e
       0.22431506 -0.2422054 -0.2360075 0.22690041
000060 87 32 a3 3e 66 3a 73 3d d2 e9 23 be ac 0a d4 3d
       0.31874487 0.059381865 -0.16007164 0.10353598
000070 ba cb 90 3e 39 74 5c be 34 77 1c 3e 6c b9 20 be
       0.2828043 -0.2152871 0.15279847 -0.15695733
000080 70 31 fc bc d4 c5 61 3d 26 ec b9 bd 99 1e 28 3e
       -0.030785292 0.055120304 -0.09078245 0.16417922
000090 b0 a7 58 be 7f 2c 62 bd d0 4b ad 3d a8 e0 46 3d
       -0.21157718 -0.055218216 0.08461726 0.048554093
0000a0 d0 f5 11 3e 12 dc 3c be 36 4d 44 bb 4a ac 3c 3e
       0.14253926 -0.18443325 -0.0029953248 0.18425098
0000b0 80 50 eb bc 8a 83 21 bd c9 97 99 be cd aa 94 3e
       -0.028724909 -0.039432086 -0.29998615 0.2903656
0000c0 0f 92 a3 3d f4 b3 2c be 5f 3f 70 3e 09 42 8d 3d
       0.07986843 -0.16865522 0.23461674 0.06897361
0000d0 91 56 56 3e ab be 74 be ec 69 fc 3d e1 e8 c5 3d
       0.2093146 -0.23900859 0.123248905 0.09663559
0000e0 a7 d5 55 3e 8e ad 20 be b2 26 65 be 66 fe f8 3d
       0.20882283 -0.15691206 -0.22378042 0.12157898
0000f0 7a cf 6f 3d c4 9e d8 be 34 10 7b be ff d2 32 3e
       0.058547474 -0.4230863 -0.245179 0.17463301
000100 56 e4 12 bd f5 c4 b0 be 80 12 cb bf 76 b4 a1 bf
       -0.03586229 -0.34525266 -1.5865021 -1.2633197
000110 6c 94 b2 bd a2 ab 57 3e a7 7e e3 bd 07 ca b5 bf
       -0.087197155 0.21061566 -0.111081414 -1.4202279
000120 30 03 8a bf aa ec 79 bd 8f df 12 be 40 fd 88 3b
       -1.0782223 -0.061016716 -0.14343093 0.0041805804
000130 c9 a8 0f be d3 a3 b1 be da 71 f7 bc 27 39 58 be
       -0.1402923 -0.346953 -0.030205656 -0.21115552
000140 9e 7e 1c 3e 86 93 81 3d 53 86 15 bd d4 52 bd be
       0.15282676 0.06326966 -0.036505055 -0.36977255
000150 0f 31 b7 be d9 83 af 3d 5d 22 95 3e 70 85 8e 3d
       -0.35779616 0.0857007 0.2912778 0.06959045
000160 e1 ec 00 be c5 55 67 be 12 3f 63 3e 5b 5f 91 3e
       -0.12590362 -0.22591312 0.22192028 0.28393063
000170 5d 2a c0 3e 1a 17 81 3e 44 ff 8c bd 81 8f b6 bd
       0.3753232 0.25212938 -0.068846256 -0.0891409
000180 79 1d bb bd 0b b4 f3 3c f6 50 0f 3e 0b 0f d5 3d
       -0.09136481 0.029748937 0.13995728 0.1040326
000190 8d 84 57 3e 60 3b 9e 3e 71 3e b8 bd 4f ed 34 3e
       0.21046658 0.30904675 -0.08996285 0.17668651
0001a0 49 7a 8c 3d 39 1b 5f 3e c1 5a 12 3e e8 27 6b 3e
       0.068592615 0.21787728 0.14292432 0.22964442
0001b0 36 d3 20 3e 51 18 9c bd 91 ae 8b 3e 38 1e 18 3d
       0.1570557 -0.076218255 0.2728162 0.037138194
0001c0 78 1e 55 3d 9c 5d da bd cb 5a 96 bd f1 7c 34 be
       0.05203101 -0.10662386 -0.07341536 -0.17625786
0001d0 1c 53 db bd 53 22 33 3e bd 5c 63 3e f2 ff d2 bd
       -0.10709211 0.17493562 0.22203346 -0.10302724
0001e0 22 85 89 be 68 6a d8 bd 96 6e 6c be af c6 85 be
       -0.26859385 -0.105671704 -0.2308906 -0.26128146
0001f0 d6 ef c8 bd d6 8d 15 3e 0c 9c bf 3e 17 c7 0a bd
       -0.0981137 0.14604887 0.37423742 -0.033881273
000200 c4 11 2b be da c2 0d 3e c2 a7 12 be 29 ec 99 3e
       -0.16705996 0.13843861 -0.14321807 0.30062988
000210 39 a5 09 be 9a 15 46 be cc 6a b8 be 47 74 8a be
       -0.13441934 -0.19344178 -0.3601898 -0.27041838
000220 03 2f ac 3e c2 6e 2f be b6 55 c9 bd 18 d6 f8 bc
       0.33629617 -0.17132095 -0.09830801 -0.030375525
000230 56 65 3e be 42 68 70 3e ea c1 10 3e ab e7 29 be
       -0.18593344 0.23477271 0.14136472 -0.1659228
000240 1e 7c 31 3e 96 8d a4 bc db a9 87 3e ed c2 88 bd
       0.17332503 -0.020087045 0.26496777 -0.06677804
000250 04 88 13 bd ed 25 2a 3c 0f 06 c8 bd 12 92 e9 bd
       -0.036018386 0.010385019 -0.097667806 -0.11404814
000260 7f 88 b7 3e 64 50 d1 bd 0f 7c 89 3d 2a c0 11 be
       0.35846326 -0.102204114 0.067131154 -0.14233461
000270 ea c6 bc bd bb fc b7 3e 8a 4d 7d be 47 c2 24 3c
       -0.09217627 0.35935006 -0.2473661 0.010056085
000280 24 db dd bd a7 36 02 be 84 d4 b4 3e bb b5 8b be
       -0.108328134 -0.1271616 0.35318387 -0.27287087
000290 d7 86 10 bd 98 fe 6e 3e 98 1e 93 bd c5 2d 23 3e
       -0.035284843 0.23339307 -0.0718357 0.15935428
0002a0 05 c6 8a be 27 15 90 bd e1 c8 a3 3d 49 53 45 be
       -0.27104202 -0.070352845 0.07997299 -0.19270052
0002b0 87 c2 8b 3e 38 72 aa 3d 58 7a 06 bc ed dd 1c be
       0.2729685 0.08322567 -0.00820788 -0.15319033
0002c0 58 e3 4f be 1f 1e 46 be a1 29 38 3e 40 af a8 3e
       -0.20301569 -0.19347428 0.1798463 0.32946205
0002d0 87 18 b8 bb c8 9e 16 3e 5c 54 c4 bc 84 05 5e 3e
       -0.0056181583 0.14709008 -0.023966007 0.21681792
0002e0 1d ef 6e 3e 68 d5 ab 3d bf e7 3c be f6 c0 bc bc
       0.23333402 0.083903134 -0.18447779 -0.02304123
0002f0 21 f9 98 3d 1a d1 f6 bc 39 db c4 bd 7b c6 b3 3d
       0.074693926 -0.030129004 -0.09612126 0.087780915
000300 57 43 00 3e af 68 a4 bd a1 44 06 3e b1 8f 15 3e
       0.12525688 -0.08027779 0.13112117 0.14605595
000310 ea 37 f4 3b c9 a2 3f be b6 0c 0c 3d bf 96 83 bd
       0.0074529545 -0.18714441 0.03419181 -0.06425237
000320 c6 8c e4 3c d1 0e 7e be 6a f6 39 be e1 8b ee 3e
       0.027899157 -0.2481034 -0.18160406 0.46591094
000330 5f 4a af 3d 9c 97 85 3c 7d 5f bd be a3 c6 be be
       0.08559107 0.016307645 -0.36986914 -0.37260923
000340 dd 2c cb 3e 69 b5 30 be 1e f1 17 3e 73 a1 7e 3e
       0.39682665 -0.17256702 0.14838073 0.24866275
000350 54 9f 93 be de d4 80 3e f6 1e 2a be 5a f4 75 3e
       -0.28832495 0.25162405 -0.16613373 0.24018994
000360 c3 87 ff 3d 23 36 b2 bd 69 9f 5e bd c8 80 6a 3e
       0.12477066 -0.08701732 -0.054351244 0.22900689
000370 67 93 4c be e1 e4 0b bd 7a 59 d4 be 0d 06 9c bd
       -0.19978105 -0.034153823 -0.41474515 -0.076183416
000380 9e 94 b3 3e cc 04 15 bf 2a bf e1 be 54 2f a4 be
       0.35074323 -0.58210444 -0.4409116 -0.32067358
000390 90 57 e5 3c ae 26 f9 3b ae e8 05 be a4 e8 55 bd
       0.027995855 0.007603488 -0.13077042 -0.052223817
0003a0 89 ae 03 be 4c ba 32 be ef f7 d8 3d c4 3d 5c bc
       -0.12859549 -0.17453879 0.105941646 -0.01344246
0003b0 0f 2c b9 3e dd e2 b3 3d 11 9b 4f bd 8c a3 b2 3c
       0.36166427 0.08783505 -0.050684992 0.0218065
0003c0 ba 1d 72 3d ed 4f 84 3e 21 29 01 bc 75 4b d7 3d
       0.05911038 0.2584223 -0.007883341 0.10512439
0003d0 f1 2d 25 3e 32 71 c0 3e de ab cb 3c db ed 06 bd
       0.16130807 0.3758636 0.024862226 -0.03294168
0003e0 2e 70 c7 bc ec 0c 82 3e 8b 5c a6 be b5 67 49 3e
       -0.024345484 0.25400484 -0.3249248 0.19668467
0003f0 51 76 53 3e 3a a4 03 bd 9b 75 32 3d 30 a6 79 be
       0.20650603 -0.03213904 0.04356919 -0.24379802

conv1.bias f4 [16]
000000 7a 87 13 bc 47 fc a0 bc 19 a2 cf 3e 4d 96 0e bd
       -0.009004468 -0.019651545 0.40553358 -0.034811307
000010 5e 3d b2 bb 16 3a 06 bd 75 c4 9b bc 32 24 d0 bc
       -0.0054394444 -0.03277024 -0.019014576 -0.025407884
000020 06 6d c3 3b 66 17 d4 3b 60 d0 42 bc fc 68 16 3d
       0.0059639243 0.006472516 -0.011890501 0.036721215
000030 fc 2e 69 3d 4d 0a 1c 3e 8e c8 87 3e 17 6f 32 bc
       0.056929573 0.15238304 0.265202 -0.010890744

conv2.weight f4 [32, 16, 5, 5]
000000 a2 09 39 3b df f4 9e bc 91 56 9e bc f8 6d e4 3d
       0.0028234501 -0.019403873 -0.019328387 0.111537874
000010 14 f9 53 bc 6e b2 e8 bd a1 2b 17 be d1 3d 34 3d
       -0.012937803 -0.11362158 -0.14762737 0.044004265
000020 b7 39 07 3e eb 7d 86 3d 0d 9b be bb 2a 80 ab bd
       0.1320561 0.06566986 -0.0058168233 -0.08374055
000030 d8 5c c6 3d 51 48 9d 3c 00 17 86 3d 5e 22 d0 3a
       0.09685677 0.019199522 0.06547356 0.0015879383
000040 19 69 f4 bd 94 07 f1 3c 59 41 79 3e f7 bd 10 3e
       -0.11934108 0.029422559 0.24341334 0.14134966
000050 8b ce 92 3c 7e c2 94 be cd 81 6a bd e4 61 57 3e
       0.017920753 -0.29054636 -0.057252694 0.21033436
000060 51 2a 53 be 31 a2 8b 3d b3 7b 05 bd 9f 41 62 bd
       -0.20621611 0.06818045 -0.032588672 -0.055238362
000070 02 be 75 bd 5d a6 6f bc b7 90 89 3c 33 06 a6 3b
       -0.05999566 -0.014627066 0.016792638 0.005066657
000080 19 a1 7a 3d 1c c9 3d 3d 90 f6 4e bd 45 c3 01 3d
       0.06118879 0.04633437 -0.05052811 0.031680364
000090 32 bd 08 3d e5 15 9e 3c 08 be 89 bd e5 8a 98 bc
       0.033383556 0.01929755 -0.06725699 -0.018620918
0000a0 df c8 00 3d cf b7 f4 bc 84 1e ec 3d 4a 7a b8 3b
       0.031441566 -0.029872803 0.11529258 0.0056298124
0000b0 48 21 93 3d 5d d9 e6 3b f9 12 19 bd f1 33 52 3d
       0.07184082 0.0070449547 -0.03737161 0.051319066
0000c0 2c fa fd bc 3c f7 23 bd c3 14 53 be c1 e9 02 bd
       -0.03100308 -0.040030703 -0.20613389 -0.031961206
0000d0 9f e3 7b 3d 32 52 b0 3d 1e f5 41 3e 14 70 9b bd
       0.061496373 0.086094275 0.18941161 -0.075897366
0000e0 ac de e3 bd 7b ea 5a bd b7 e3 e0 3c 36 d5 4b 3e
       -0.11126456 -0.053446274 0.027452333 0.19905552
0000f0 65 27 50 be 4f 24 4e be 9f bb 09 bd e1 dd 03 bd
       -0.20327528 -0.20131038 -0.033626195 -0.032194022
000100 8a e2 df 3d eb 82 77 be f8 7b e7 bc ed 8e 93 bd
       0.10931881 -0.24171035 -0.028257355 -0.07204995
000110 49 bb fd 3c b1 de 91 3d f8 f5 00 be f9 5f a1 3c
       0.030973094 0.07122553 -0.1259383 0.019699084
000120 aa c8 8b 3d b2 ab 20 3e 52 a5 6c 3e 96 d1 e4 3d
       0.06825383 0.15690497 0.2310994 0.11172788
000130 3f 9b d9 3d 9a e7 df 3d ad 67 c8 3d aa e1 ca 3d
       0.10625314 0.10932846 0.097853996 0.09906323
000140 61 ea e9 3d 48 c1 c9 3d c2 6d 87 3d b9 c9 81 3b
       0.11421657 0.098513186 0.066127315 0.003960815
000150 eb 7c 18 3e 6b 23 c0 3d 11 0e af 3d 84 8a ce bd
       0.14891402 0.093817554 0.08547605 -0.100850135
000160 30 59 bc 3c 0b 2d a7 3d c9 bd de 3d d1 77 4f 3e
       0.022991747 0.08162888 0.108760424 0.2026055
000170 0d 0c c6 bd 93 c9 b0 3c d6 fd 02 be a1 92 14 3e
       -0.09670267 0.021580493 -0.12792143 0.1450906
000180 51 23 b8 3d 14 3f 85 bd b3 f5 7e 3d 83 06 d3 3d
       0.08991111 -0.06506172 0.062246036 0.103039764
000190 c0 10 b1 bd 2a 68 e6 3b 0c 50 1b bd 85 6d 05 be
       -0.08645773 0.0070314603 -0.037918136 -0.1303006
0001a0 92 1e d6 bd 14 bc 81 3d ee 38 91 ba a7 7c 47 3d
       -0.104550496 0.06334701 -0.0011079588 0.048702862
0001b0 f1 43 eb bb 6d 4e d2 bd 29 63 b1 3d 24 cc a6 3d
       -0.00717973 -0.10268865 0.086614914 0.081444055
0001c0 8b 09 2d bd 41 7d e9 3c dd 1e fb bd e7 d3 c8 3c
       -0.04224543 0.028502109 -0.12261746 0.024515105
0001d0 26 cf 5d 3d 28 89 20 bd bf e6 35 3d 4f 02 90 bc
       0.05415263 -0.039193302 0.04440951 -0.017579226
0001e0 05 76 29 bd c0 85 b3 3d 9c b3 9b 3d a1 7b bf 3c
       -0.041372318 0.08765745 0.07602617 0.02337438
0001f0 d0 21 97 3a 71 33 e2 bd 58 5c 61 3d f2 f7 97 bd
       0.0011530463 -0.11044968 0.055019706 -0.07420339
000200 c5 c4 b7 bd a6 00 83 bd 37 c9 c3 bd 28 0f 76 3d
       -0.08973078 -0.06396608 -0.09559863 0.060073048
000210 e8 82 45 3d 17 ce 31 bd 20 82 42 bd 05 75 86 bd
       0.048220545 -0.043409433 -0.047487378 -0.065652885
000220 b4 70 b0 3d 61 60 e8 3c 31 0e d5 3d 25 9f ad bd
       0.086152464 0.02836627 0.104030974 -0.0847762
000230 47 d2 bf bd c2 25 1b 3e c0 f8 6e 3d dd b3 9e 3d
       -0.09366279 0.15151122 0.058342695 0.0774915
000240 ce e6 ba bd 48 53 00 bd 63 c3 3b 39 0d a8 ec bd
       -0.09126054 -0.031329423 0.00017906497 -0.11555491
000250 eb c2 aa 3c 84 c0 cf bd ba c0 07 3c 2e e4 05 3c
       0.020844897 -0.10144141 0.008285696 0.008172078
000260 59 b2 b8 bd f9 4c 07 be fe ba d2 bd 65 fd 03 3e
       -0.09018392 -0.13212956 -0.10289572 0.12889631
000270 f2 27 9f 3d fe 3f a1 3c 02 96 a6 3d d4 26 bc 3c
       0.07771291 0.019683834 0.081340805 0.022967733
000280 a0 8e 0c 3e a9 30 c8 3c dd 46 eb 3b c8 57 ae 3c
       0.13726282 0.024437265 0.0071800784 0.021282092
000290 9b 76 15 be 73 71 69 3e 23 39 ec 3c 19 44 79 3d
       -0.14596026 0.22797184 0.028835839 0.06085596
0002a0 00 2f 54 3d ab 68 5a be e3 9e 20 3d f3 c7 10 bd
       0.051802635 -0.2132899 0.039214026 -0.035346936
0002b0 54 93 09 3b 28 cd 3d bd a6 b6 10 be c1 ec 22 3d
       0.0020992355 -0.04633823 -0.14132175 0.039776567
0002c0 58 56 d4 bd f5 75 e7 bd 71 79 01 be 2e 61 28 bd
       -0.10368031 -0.113017954 -0.12643982 -0.041108303
0002d0 5c 4b 74 3d 46 83 7e bd 9f 63 4e 3c 42 16 63 bd
       0.05964218 -0.06213691 0.012596994 -0.05544115
0002e0 6e d3 b8 bb ba ca ae 3c 32 d3 40 3d 06 f5 75 3d
       -0.0056404388 0.021336902 0.04707641 0.060048126
0002f0 cd 7e 8e bd 2d 9c 6b bc 01 0f c3 3d 54 1e bf bb
       -0.06957779 -0.014380497 0.09524346 -0.005832473
000300 53 62 b2 3d fa a6 b0 3c b1 a2 f8 3c f8 30 2f 3d
       0.0871016 0.021563996 0.030351015 0.04277131
000310 a3 cd fb bc 36 dc a9 3d ec 7f df bb b6 ca 25 bc
       -0.030737704 0.08293955 -0.0068206694 -0.010119131
000320 01 69 03 be 91 7f e5 bd a8 13 e4 bc f3 ae ea 3d
       -0.12833025 -0.11205972 -0.027841404 0.1145915
000330 c7 85 08 3e 3f 00 b3 3b c8 3a dd bc 3f 75 5b 3d
       0.13332282 0.005462676 -0.027005568 0.05357861
000340 5c e8 30 bc f7 af 1b 3d 4a 0c 85 3d bb cc 3a 3d
       -0.010797586 0.03800961 0.064964846 0.045605402
000350 0b 14 89 3d 71 56 c6 3d 19 59 bf 3c 0a 9e 54 3b
       0.06693276 0.09684456 0.023357915 0.0032442831
000360 ac 88 0d be 1e 45 2b 3e 03 4e 24 3c 43 08 5e be
       -0.13821667 0.16725585 0.010028365 -0.21682839
000370 ca 33 1c be 4c a8 b9 be 89 eb 25 be 2f c9 91 bd
       -0.15254131 -0.36261213 -0.16203131 -0.07118451
000380 c2 29 8c be 0f 60 14 be 9d 39 02 be 9d a1 05 3d
       -0.2737561 -0.14489768 -0.1271729 0.03262483
000390 24 2e 46 3e 6b 7b 18 3e 7b c0 29 be 5d c0 9a 3d
       0.19353539 0.1489083 -0.16577332 0.07556222
0003a0 a4 72 86 3d 16 57 06 3e 43 9e 36 3d fa 3e bb bd
       0.06564835 0.13119158 0.044584524 -0.09142871
0003b0 64 63 8f 3d 91 f3 69 3d 03 14 3f 3e 6b 25 55 3d
       0.07001379 0.05711705 0.18659978 0.052037638
0003c0 d3 e2 ce 3d 96 cb c6 3b 07 ff 01 3e a3 0b fc 3d
       0.10101857 0.00606675 0.12694941 0.12306907
0003d0 14 59 1e 3e bd 56 25 3d 7d 1f 6a 3d b8 72 a2 3d
       0.15463668 0.040365923 0.057158936 0.07932037
0003e0 a2 64 c3 bd 1c 90 89 be 15 c6 c4 3d 12 bb 2b be
       -0.095406786 -0.2686776 0.09608094 -0.1677058
0003f0 9b a3 8f be bf 1b 91 bd 04 63 cb bd a2 d1 14 3e
       -0.2805451 -0.0708537 -0.09930995 0.14533094

conv2.bias f4 [32]
000000 d0 6e ff 3c bd 08 b2 3c 43 84 d0 3d a2 84 30 3e
       0.03118077 0.021732682 0.10181477 0.17238095
000010 89 99 04 3c 3e 34 b4 3b f2 e4 2a bd bb d2 44 3d
       0.008093246 0.005499392 -0.041722246 0.04805253
000020 f8 49 00 3e 33 34 cc 3d 13 6e 08 3e a8 f8 4e 3e
       0.12528217 0.09970894 0.1332324 0.20212042
000030 40 a4 8c bd 5a 87 93 bd 64 5c a8 3d a8 5a d1 bc
       -0.06867266 -0.07203551 0.08220747 -0.025555924
000040 84 be 4a 3e bd 4a 1b 3c 5c 3b 26 bd e0 09 b5 bd
       0.19799238 0.009478268 -0.040583953 -0.08839774
000050 d1 29 0c 3e f3 6e 37 3e 2f 1d 60 3e 1a 3d 26 3d
       0.13687827 0.17913418 0.21886133 0.040585615
000060 8b 88 eb 3d 3d c6 88 3d 92 d9 01 3d 91 c2 eb bd
       0.11500653 0.06678436 0.03170163 -0.1151172
000070 ad 97 a9 3d d0 76 2e 3e 6f 79 31 bd 1b 09 11 be
       0.08280883 0.17037511 -0.0433287 -0.1416363

dense1.weight f4 [10, 512]
000000 0b 5c 97 bd a7 d0 0d 3e 58 07 9c 3c 24 a6 5d bd
       -0.07390603 0.13849126 0.01904647 -0.054113522
000010 ab ad 82 bc 0e 80 d0 bc a1 12 86 3d 63 fe bf 3c
       -0.015951952 -0.025451686 0.06546522 0.02343673
000020 76 3c 11 3d f9 ee 81 bd 7c 62 a3 3c 58 a1 7d 3d
       0.03545805 -0.063444085 0.019944422 0.061921448
000030 ab 4f 01 3d 70 1c f2 3c 07 30 f4 3d c6 fa 62 3d
       0.031570118 0.029554576 0.11923223 0.055414937
000040 8e 5d 32 3d fc e2 b7 bc d2 3d c5 3c e3 ad a9 3d
       0.043546252 -0.022447102 0.02407733 0.082851194
000050 90 0a 6d 3d bb 0b 2e 3c 27 34 8d 3c 13 b2 b1 bb
       0.0578714 0.010622914 0.017236782 -0.0054228394
000060 08 e4 74 3d 5a 2c 58 3c fa e4 ea bc 3a bd 9f bd
       0.05978778 0.013194168 -0.028673638 -0.07799764
000070 a9 d8 d7 3b 2b ba 17 bd c3 b0 e8 bc 70 57 82 bc
       0.006587107 -0.037042778 -0.028404599 -0.015910834
000080 c4 85 95 bd 55 62 f4 bc a1 78 be bd f2 ac a7 3d
       -0.073009044 -0.029832045 -0.09300352 0.081872836
000090 2a 90 97 bc 5a 9a 55 3c 52 d5 ca 3b fb 8c 82 3d
       -0.01850136 0.013037289 0.0061899805 0.06374546
0000a0 d3 3e c3 3d 06 c5 93 bd 96 93 aa 3d d7 99 18 bc
       0.09533467 -0.072153136 0.08328931 -0.009314022
0000b0 f6 85 01 3e 99 0c 86 bd 24 49 c5 3b 00 55 c3 3b
       0.12648758 -0.065453716 0.006020682 0.0059610605
0000c0 43 8a 4e 3d a9 a2 00 3d 22 44 b0 3d 79 10 92 3d
       0.050424825 0.031405125 0.08606745 0.07132048
0000d0 dc 49 ff 3d 72 1a f6 bc d6 92 cd 3c 6f 9b 4a 3e
       0.124652594 -0.030041907 0.02509443 0.19785856
0000e0 f0 dd a4 3d 7e b5 f4 bd 51 6e 3c bd 75 12 1f bd
       0.08050144 -0.119486794 -0.046003643 -0.03883596
0000f0 d4 03 42 bc b2 df 5d be cb 2d 63 3d 7e 35 fc bd
       -0.011841733 -0.21667364 0.055463593 -0.1231489
000100 fe 40 43 3c 37 a0 35 bd 9b d1 a3 3c 9a 31 57 bd
       0.011917351 -0.044342246 0.019997409 -0.052537538
000110 fc 0c e9 3d 8b cd 33 bd 6b d1 2a bd f0 c0 a5 3d
       0.1137943 -0.043897193 -0.041703623 0.080934405
000120 18 79 bb 3d f2 74 35 3d 13 a8 32 bd a6 5e 8c 3d
       0.09153956 0.04430098 -0.04361732 0.0685399
000130 80 fe 4d bd 27 03 1b be 00 65 c2 3c d4 5e 99 be
       -0.05029154 -0.15137921 0.023729801 -0.2995516
000140 de ae d9 bc 4a bc 90 3d 2a e2 86 3c cb c6 a0 3d
       -0.026572641 0.07067163 0.016465265 0.07850417
000150 cb 1a fa bc 19 ea 8d 3d 0f 19 9e 3d 85 55 86 3d
       -0.030530354 0.06929416 0.07719623 0.0655928
000160 e0 92 2a 3c 79 bb de 3d 50 c2 d0 bc 71 92 e0 bc
       0.010410994 0.10875601 -0.02548328 -0.027413579
000170 77 fe 97 3d 57 06 31 3d 8e 00 af 3d e1 6e 00 3d
       0.07421582 0.043218937 0.08545028 0.031355742
000180 7e 80 51 3e 92 ca 1b 3d f6 08 15 bd 73 bd 40 3c
       0.20459172 0.038034983 -0.0363855 0.011763918
000190 10 c9 f5 3d c7 28 42 3d 86 2f ac bd 22 67 8d 3d
       0.1200124 0.04740217 -0.08407502 0.06904437
0001a0 b8 01 33 3d 27 90 bb bd 71 4b 87 bd 49 b0 04 3e
       0.04370281 -0.09158354 -0.06606186 0.12957872
0001b0 a0 df cd bd 7b 7d 10 be d9 43 27 be 08 49 dc bc
       -0.10052419 -0.14110367 -0.16334476 -0.026890293
0001c0 34 44 ac 3d af 78 a4 3c 3b bd 20 bc 4d f2 98 bc
       0.08411446 0.020077078 -0.009810741 -0.018670226
0001d0 d1 35 41 bd 7b fe 95 3d f0 13 aa bd d3 e7 25 bd
       -0.047170464 0.07323929 -0.08304584 -0.040504288
0001e0 ac 17 38 bd 4e 6e 85 bc 89 bb 75 bc 6e 7a e4 bd
       -0.04494445 -0.016287949 -0.014998325 -0.11156164
0001f0 1f 12 13 3d 48 94 e3 3c 7d 6b b6 3c 4b 4b 8e bd
       0.035905953 0.027780667 0.022268051 -0.06947955
000200 49 f5 d0 3c 47 86 0a be 1f 10 48 bd b9 ce ef bd
       0.025507586 -0.13527785 -0.0488435 -0.11709351
000210 62 cf 84 3d db 7e 30 be 9a c1 95 bd 21 9b f2 3d
       0.06484868 -0.17235892 -0.07312317 0.11845995
000220 da d1 4b 3e e1 9f d6 bc c1 b7 84 3d 91 eb 8d 3d
       0.19904271 -0.026199283 0.06480361 0.06929696
000230 70 49 dd 3d d3 e8 70 bd 9c de f2 3d 21 6e 33 bd
       0.10805023 -0.05881579 0.118588656 -0.0438062
000240 15 ca c6 3d 79 a6 b6 bc c8 27 cf 3c 2c f7 db 3d
       0.09706513 -0.022296177 0.025287524 0.10740504
000250 b4 57 bb bc b2 76 5a bd 70 dd 4b bc e5 de b8 3b
       -0.022868969 -0.053335853 -0.0124429315 0.0056418055
000260 c9 b4 f3 bc 06 5c 53 3c 19 48 ae bc 3d c9 b0 3c
       -0.029749291 0.012900358 -0.021274613 0.021580333
000270 5c fc 05 be 1f 6c 05 bd 70 cd c2 3c 4c 3c 8b bd
       -0.13084549 -0.032573815 0.0237796 -0.0679861
000280 ee 18 93 bc 9a 93 e1 bc 9e e8 94 bd 54 a6 42 be
       -0.017956223 -0.027536202 -0.07270931 -0.19008762
000290 8b 4c 85 bd f8 4b 44 bd 1a 58 c9 bd 30 97 0d 3c
       -0.0650874 -0.047924012 -0.09831257 0.008642003
0002a0 61 d3 c3 bd c3 ee e8 3c 4f 1e dc 3c cd f9 5c 3d
       -0.09561802 0.028434163 0.026869921 0.053949166
0002b0 7c 53 d1 3c 69 5c 4c 3e 3a 58 9c 3d 11 b5 01 3e
       0.025552504 0.19957127 0.076340154 0.12666728
0002c0 6f 00 7c 3d 75 2e cb 3d 1a 43 97 be 64 c0 de bc
       0.06152385 0.0992097 -0.29543382 -0.027191348
0002d0 e4 ee e3 3d 06 70 9d bc 64 b5 90 3d 55 ae f2 bc
       0.11129549 -0.019218456 0.070658475 -0.029624144
0002e0 0a 49 c6 3d 53 47 a4 3c b8 76 3d bd f3 f6 b5 bc
       0.096819 0.020053541 -0.046255797 -0.022212481
0002f0 d4 0e a0 3d 2f 6b b8 3d 8a 6f ea 3d a0 86 16 3d
       0.07815328 0.09004819 0.11447056 0.036749482
000300 06 e8 9f 3b db 71 92 3d 8f 18 a2 bd 05 e1 09 3e
       0.0048799543 0.071506225 -0.079148404 0.13464744
000310 4f 6b f3 3c ed b6 88 bd b6 87 3d bc 9f 1a 83 3d
       0.029714255 -0.06675515 -0.011568001 0.06401562
000320 a2 50 2b bd c2 4b 20 be 20 c7 a1 bd 29 dc c0 bc
       -0.041824944 -0.156539 -0.07899308 -0.02354248
000330 87 86 52 bd 31 ca b1 bd 1b 95 9f 3d c5 97 19 bd
       -0.051397827 -0.08681143 0.077921115 -0.037498254
000340 b6 83 30 bd a9 a3 0a 3e bd 67 08 3e fa fa 74 be
       -0.04309436 0.13538994 0.13320823 -0.23923865
000350 90 5f e7 bd ed 23 d9 bd 7c 7f 90 3d 25 2c a4 be
       -0.11297524 -0.106025554 0.07055566 -0.3206493
000360 1d e0 ed 3d 40 fd a9 bd eb f6 c9 3b f2 61 60 bd
       0.11615012 -0.08300257 0.006163468 -0.054780908
000370 7a c1 27 bb 0a 65 70 bd e5 32 00 be 53 97 5c 3e
       -0.0025597499 -0.05869011 -0.12519415 0.215421
000380 fc 62 85 3c 4c c4 bc 3c bc 74 e5 3c 1e 39 ce bc
       0.016282551 0.02304282 0.028009765 -0.02517372
000390 d0 86 8c 3d 88 ea c8 3c 3c 12 b7 3d 51 e8 81 bc
       0.06861651 0.024525896 0.08939025 -0.015857847
0003a0 da 57 4e 3d 27 bf c9 3c fd b0 08 3b d2 0e f9 3b
       0.05037675 0.024627281 0.0020857446 0.0076006437
0003b0 d1 05 07 be 35 b9 08 bd b7 f5 b8 bb c5 13 e8 bd
       -0.13185813 -0.033379752 -0.005644526 -0.11331896
0003c0 07 38 d9 3d 63 98 62 bb 8a 61 a3 37 b4 b8 2f 3d
       0.106063895 -0.0034575693 1.9476534e-05 0.042900756
0003d0 10 60 1c 3e 63 5a ad 3d 52 62 80 bd 94 b0 36 3c
       0.1527102 0.084645055 -0.06268753 0.011150498
0003e0 1a 22 b7 3d 3e cd af 3c 61 1a ad bd eb e7 58 bc
       0.08942051 0.021460172 -0.08452297 -0.013238887
0003f0 8c ff 23 3d b5 4c 7d be 0a c1 00 be 72 af 88 bd
       0.04003863 -0.24736293 -0.12573639 -0.066740885

dense1.bias f4 [10]
000000 c6 87 1b bc 4c 55 c4 bc 7c 8d 04 3e c1 0c 52 3c
       -0.00949282 -0.023966454 0.12944597 0.012820424
000010 34 9b 68 be 73 9d e1 bd 38 66 8a 3c 68 37 92 3d
       -0.22715455 -0.11016359 0.016894445 0.07139474
000020 7c 16 fe 3d 7a 81 1d 3d
       0.12406632 0.038453557
