saved_weights/Model_epoch_no_1_train_acc_84.71_val_acc_84.05.pth (torch_old, 74663 bytes, 6 tensors)

conv1.weight f4 [16, 1, 5, 5]
0.13403757 0.013030121 -0.09996351 0.10689782 0.30068365 -0.044676553 -0.17410707 -0.057749573
0.2578262 0.26251578 0.16710557 0.09541262 -0.085365005 -0.03902849 0.20101157 0.12856746
-0.013658108 -0.0001424213 -0.08505734 0.17449993 -0.036828384 -0.098946646 0.08945625 -0.17899296
0.22256006 -0.2731606 -0.2860184 -0.22258215 -0.053722665 0.17395656 -0.20088333 -0.052760296
-0.20487325 0.08266472 0.12860815 0.0022157957 -0.050372373 -0.019006465 0.18703093 0.20896682
0.20473672 0.22894044 0.076847516 -0.11307917 0.019732527 0.23211703 0.10056427 0.15015487
0.16932896 0.15042762 -0.077602364 -0.113186635 0.13412456 0.24338366 0.2512301 -0.11243407
0.23241277 0.010221263 -0.028794253 0.15125217 0.06701592 0.10693389 0.18107155 -0.06558145
0.014358066 -0.19129741 -0.05500369 0.02857488 0.14509572 -0.08171702 -0.23012261 -0.18897305
0.05464454 -0.16227739 0.11046401 0.24765179 0.24665637 0.07325341 0.08472072 -0.043647528
0.18493849 0.015249173 0.074026935 -0.14941426 -0.12965798 -0.15581366 0.061388467 -0.027761882
-0.16245292 -0.057169043 -0.11907105 0.09132842 0.106538035 0.13019855 0.12298478 0.10395463
0.26388234 0.103203684 0.21643446 -0.1229028 0.032192294 0.20343721 -0.058833 0.166519
0.083821476 0.16239658 0.12180578 0.24801706 0.027597299 0.16728266 -0.011933031 -0.03387702
0.19473109 0.031780384 0.10041706 0.22995529 0.13976668 0.14841594 -0.03731469 0.22141539
0.1292519 -0.06503793 0.13536161 0.1186827 0.16153643 -0.27114555 -0.16235821 0.0052563474
0.29168078 0.109328926 -0.22172008 0.23712143 0.17092842 0.035154257 -0.057163082 -0.12075299
0.16811258 0.22185458 0.11709259 -0.050870866 0.029754287 0.22997639 0.221935 -0.029921535
-0.111383304 -0.2022912 -0.043158002 0.055857845 0.2469188 -0.17450124 0.08035111 -0.16249032
-0.15525365 -0.25081787 -0.19459422 0.09238843 -0.021662848 -0.09276863 -0.18526743 -0.23779523
-0.0039735152 -0.0642917 0.0526053 -0.129177 -0.14946474 0.18787125 0.013018325 0.15104204
0.24867661 0.06123916 0.2759878 0.26550606 0.034334518 0.27099153 -0.048160624 0.03958908
0.18698704 0.1771853 -0.16604693 0.03558426 0.15220656 0.043471824 -0.07630764 0.0653195
0.11564588 0.04421921 0.13529786 -0.14593902 0.00572236 -0.13774635 -0.0848984 -0.15354583
-0.041902304 -0.24461304 0.04301969 -0.073541984 -0.1776553 0.18795085 -0.17834947 0.09789283
-0.025273548 -0.038644917 0.058573715 0.2101078 0.22987765 0.09798081 -0.11101837 0.054584906
-0.123505145 0.025141083 0.15595683 -0.06138889 0.07236212 -0.15776984 -0.02027823 0.023031116
-0.058449954 0.2336824 0.21547867 0.12280178 0.15772228 0.22453207 0.24267904 0.011082938
0.16976841 -0.2011614 -0.035108745 -0.26604107 -0.07385209 -0.045328215 0.10610835 -0.115460716
-0.23357375 0.042412646 0.2560663 -0.01575393 0.09696917 -0.27412024 0.002956435 0.17209823
0.22550772 0.12010531 -0.16574 0.13790978 0.10854162 0.21623412 -0.048229307 -0.2591943
0.022889663 0.13149555 0.04406369 0.23100491 0.21735576 0.025126105 0.2109643 -0.12459312
00000000: 2541 093e 4a7c 553c abb9 ccbd 3fed da3d
00000010: 35f3 993e c3fe 36bd 2049 32be d18a 6cbd
00000020: cc01 843e 7868 863e b91d 2b3e b167 c33d
00000030: d9d3 aebd 57dc 1fbd fad5 4d3e 30a7 033e
00000040: 42c6 5fbc ed56 15b9 8b32 aebd 1cb0 323e
00000050: 5cd9 16bd 8aa4 cabd d734 b73d ee49 37be
00000060: c9e6 633e b5db 8bbe 0171 92be 93ec 63be
00000070: 4c0c 5cbd ab21 323e 5cb4 4dbe 2e1b 58bd
00000080: 4bca 51be 1f4c a93d dbb1 033e e236 113b
00000090: 4353 4ebd 72b3 9bbc 0985 3f3e 66fb 553e
000000a0: 81a6 513e 5d6f 6a3e 3b62 9d3d 0d96 e7bd
000000b0: 1ca6 a13c 16b0 6d3e a4f4 cd3d 33c2 193e
000000c0: 9264 2d3e b309 1a3e fded 9ebd 65ce e7bd
000000d0: f357 093e 9139 793e 3ba1 803e d543 e6bd
000000e0: 9dfd 6d3e 1677 273c ede1 ebbc d9e1 1a3e
000000f0: a53f 893d 2800 db3d d26a 393e 914f 86bd
00000100: 183e 6b3c 78e3 43be 8d4b 61bd de15 ea3c
00000110: f993 143e 415b a7bd 43a5 6bbe 2782 41be
00000120: f4d2 5f3d 0b2c 26be f43a e23d 6e98 7d3e
00000130: 7d93 7c3e e205 963d 0f82 ad3d c0c7 32bd
00000140: 8460 3d3e abd7 793c 6f9b 973d 0d00 19be
00000150: 10c5 04be 9e8d 1fbe 7972 7b3d e36c e3bc
00000160: 0f5a 26be 162a 6abd 86db f3bd 650a bb3d
00000170: 9d30 da3d c552 053e 72df fb3d 2ae6 d43d
00000180: 961b 873e 745c d33d ffa0 5d3e 77b4 fbbd
00000190: 11dc 033d d851 503e dffa 70bd f583 2a3e
000001a0: 98aa ab3d 4a4b 263e 4f75 f93d 2ff8 7d3e
000001b0: bb13 e23c 254c 2b3e c282 43bc a1c2 0abd
000001c0: 9667 473e 262c 023d 76a7 cd3d 6679 6b3e
000001d0: ff1e 0f3e 59fa 173e 4ad7 18bd b7ba 623e
000001e0: 9c5a 043e 9b32 85bd 3c9c 0a3e ea0f f33d
000001f0: ce69 253e 97d3 8abe 3b41 26be 703d ac3b
00000200: 2f57 953e d8e7 df3d 970a 63be f6cf 723e
00000210: dc07 2f3e e9fd 0f3d d623 6abd 584d f7bd
00000220: b425 2c3e d92d 633e 3dce ef3d f85d 50bd
00000230: 43bf f33c ee7e 6b3e ee42 633e 021e f5bc
00000240: ee1c e4bd 6d25 4fbe 72c6 30bd 32cb 643d
00000250: 48d8 7c3e 74b0 32be 1f8f a43d dd63 26be
00000260: d0fa 1ebe 336b 80be b543 47be 2536 bd3d
00000270: 4976 b1bc 7bfd bdbd bfb6 3dbe 9880 73be
00000280: 4334 82bb 5eab 83bd a878 573d fa46 04be
00000290: 490d 19be 5261 403e d04a 553c c4aa 1a3e
000002a0: 15a5 7e3e ead5 7a3d 464e 8d3e 69f0 873e
000002b0: 5aa2 0c3d 67bf 8a3e 1344 45bd 2928 223d
000002c0: 8879 3f3e 1070 353e 3508 2abe cdc0 113d
000002d0: 09dc 1b3e 830f 323d 2e47 9cbd 3bc6 853d
000002e0: bfd7 ec3d 341f 353d 868b 0a3e 0a71 15be
000002f0: a382 bb3b 610d 0dbe 36df adbd 1e3b 1dbe
00000300: c0a1 2bbd d77b 7abe 6a35 303d 2e9d 96bd
00000310: 45eb 35be 3076 403e 3ea1 36be 097c c83d
00000320: 790a cfbc 224a 1ebd feea 6f3d 8026 573e
00000330: 0c65 6b3e 2aaa c83d 995d e3bd 6c94 5f3d
00000340: 44f0 fcbd acf4 cd3c 26b3 1f3e eb72 7bbd
00000350: 9732 943d 6b8e 21be 881e a6bc c0ab bc3c
00000360: 3869 6fbd 704a 6f3e 71a6 5c3e 807f fb3d
00000370: f381 213e bceb 653e db80 783e 3695 353c
00000380: c5d7 2d3e 41fd 4dbe 30ce 0fbd 8936 88be
00000390: c43f 97bd 14aa 39bd 564f d93d ab76 ecbd
000003a0: f52d 6fbe e2b8 2d3d 1f1b 833e 630e 81bc
000003b0: c697 c63d 7d59 8cbe c0c0 413b 853a 303e
000003c0: 7feb 663e c6f9 f53d bfb7 29be 3938 0d3e
000003d0: 124b de3d 7a6c 5d3e 188c 45bd 1eb5 84be
000003e0: 1a83 bb3c c5a6 063e 217c 343d 8d8c 6c3e
000003f0: 8292 5e3e 43d5 cd3c 0707 583e ad2a ffbd

conv1.bias f4 [16]
-0.0027762775 -0.026194839 -0.069698274 -0.00050404103 -0.016929941 -0.12231141 -0.06305521 0.10430996
-0.004943104 0.056634933 0.15681888 0.23893733 -0.062565215 -0.069595724 0.06946168 0.009753608
00000000: 35f2 35bb 8f96 d6bc f8bd 8ebd 9f21 04ba
00000010: a9b0 8abc 687e fabd 1723 81bd 76a0 d53d
00000020: c3f9 a1bb 08fa 673d 2195 203e fdab 743e
00000030: 3122 80bd 3488 8ebd ed41 8e3d 99cd 1f3c

conv2.weight f4 [32, 16, 5, 5]
0.023686657 0.057869926 0.029553505 0.05998224 0.04729138 0.014863116 0.008578688 -0.032849155
0.0462366 -0.013578455 -0.06137401 0.010675223 0.017040538 0.0034527825 0.060817137 -0.063543424
0.047381375 -0.0042929538 0.055534188 -0.042292308 -0.047750793 -0.008006832 -0.061261866 -0.041409
0.012464858 -0.07733625 -0.060681414 0.020338459 0.031489965 0.057497285 -0.037887413 0.006914902
0.06297973 0.0668791 -2.2346912e-05 -0.06350946 -0.029443176 0.017759044 0.0060310354 -0.0012281566
-0.0195558 0.022514733 -0.024051541 -0.021408733 -0.022185309 0.002547606 0.0083722845 -0.06883062
-0.026704855 -0.03763634 0.12772258 0.040571906 -0.027854066 0.0091340905 -0.13341208 -0.01673136
-0.013358256 -0.001318215 0.06188011 0.018919535 -0.0018007375 -0.04515377 -0.0191213 -0.0037655658
0.01877301 -0.11368891 -0.024044974 -0.002478779 -0.01509046 -0.010196609 -0.10432006 -0.042766254
-0.055630956 -0.016326293 0.096767396 0.041243654 0.00017740218 -0.0046096477 0.04121212 0.01652138
-0.021329693 -0.06479922 0.011155473 0.04879249 0.06269623 -0.056073222 -0.031248875 0.009290975
-0.015766526 0.024152609 0.026896188 -0.02871943 0.0043562255 -0.023140242 0.048380163 -0.042086776
-0.0147298435 -0.026668238 0.021990458 0.019760504 -0.016528547 -0.03255479 0.01420597 0.016407771
0.076434895 -0.0010790254 0.036037207 -0.002882549 0.03462362 0.031529814 -0.004503785 -0.02605624
0.03913752 0.07349375 -0.0029075968 -0.005959036 -0.014648239 0.01869405 0.020223815 -0.017876986
-0.035304613 -0.041865904 0.027750172 -0.016123956 -0.030513909 0.012190451 -0.062288497 -0.028402723
0.05668268 -0.035499074 -0.051108025 -0.08685901 -0.016570237 -0.01598317 -0.06878795 -0.098226786
-0.012505791 0.07684064 -0.004522633 -0.039184056 -0.07233895 -0.04148427 0.018890332 -0.06600645
-0.060882024 0.005650464 0.022717366 0.09277354 -0.029909959 -0.029004797 -0.05440322 -0.13774359
-0.05872997 -0.030407216 -0.05887374 -0.1439241 -0.08999239 -0.06874386 -0.013512516 0.003749905
0.015145222 -0.03989674 -0.06666104 -0.1144146 0.055226885 0.058671765 -0.07781293 -0.062347643
-0.10291334 -0.0017366161 -0.0031241854 -0.11155293 -0.008304763 -0.104312345 -0.11937963 0.05152654
0.19555265 0.055285748 -0.010379154 -0.045273297 0.040558595 0.18773107 -0.0064167287 -0.0042159134
0.024568582 -0.0043249954 -0.007200207 0.010788287 0.008676553 0.06479977 0.050885454 0.058247503
0.11270446 0.055202566 0.029023284 0.028384324 -0.053667728 0.037885234 0.0525267 0.106164075
-0.005125804 0.039225575 0.048519716 0.078354985 0.018860785 -0.03494296 -0.0011021623 0.019283209
0.03524284 -0.010154522 0.0069377576 0.0418752 0.032926697 0.020275801 -0.019687075 -0.009387541
-0.03921698 0.033118792 0.033507623 -0.0411194 -0.012228172 -0.039012577 0.028345993 -0.017011968
-0.030225864 -0.08141701 0.051280607 -0.057937317 -0.08908744 -0.13418208 -0.10571926 -0.0059432453
-0.06953914 -0.14624977 -0.11606536 0.023084061 0.030288704 0.04841909 -0.073688865 -0.11629263
0.042619314 0.02782106 0.004426194 0.05909423 -0.14783187 -0.00061852613 0.026467523 -0.076406494
0.117793694 -0.12047496 0.021999482 0.05006673 0.026660286 0.042696346 0.031651754 0.019667301
00000000: 850a c23c 0409 6d3d 311a f23c f0af 753d
00000010: 9bb4 413d 6d84 733c a08d 0c3c d68c 06bd
00000020: 9762 3d3d 2b78 5ebc 5063 7bbd 21e7 2e3c
00000030: 9998 8b3c 1448 623b 641b 793d 0e23 82bd
00000040: f912 423d e8ab 8cbb d177 633d b33a 2dbd
00000050: 5696 43bd 162f 03bc b9ed 7abd 7c9c 29bd
00000060: 6739 4c3c 7862 9ebd 138d 78bd d79c a63c
00000070: 9ffb 003d 4682 6b3d d52f 1bbd 6796 e23b
00000080: 84fb 803d e9f7 883d a175 bbb7 3f11 82bd
00000090: d132 f1bc 6a7b 913c fe9f c53b 19fa a0ba
000000a0: 7c33 a0bc d170 b83c bd07 c5bc 5e61 afbc
000000b0: f7bd b5bc bcf5 263b e82b 093c 11f7 8cbd
000000c0: 24c4 dabc 9028 1abd b5c9 023e ba2e 263d
000000d0: 362e e4bc 27a7 153c 2d9d 08be 3510 89bc
000000e0: 96dc 5abc f5c7 acba 0076 7d3d 24fd 9a3c
000000f0: b906 ecba 29f3 38bd 46a4 9cbc b6c7 76bb
00000100: dbc9 993c bbd5 e8bd f7f9 c4bc 0373 22bb
00000110: fa3d 77bc ae0f 27bc c1a5 d5bd ab2b 2fbd
00000120: 49dd 63bd b8be 85bc fc2d c63d 1bef 283d
00000130: 0905 3a39 870c 97bb 0ace 283d d857 873c
00000140: 9cbb aebc 74b5 84bd 72c5 363c a2da 473d
00000150: e266 803d 09ad 65bd a4fd ffbc 2c39 183c
00000160: cd28 81bc b1db c53c 6555 dc3c 0345 ebbc
00000170: abbe 8e3b 9b90 bdbc 472a 463d 2f63 2cbd
00000180: 7155 71bc 5977 dabc 5525 b43c c8e0 a13c
00000190: e066 87bc 2c58 05bd 28c0 683c 9769 863c
000001a0: e689 9c3d 166e 8dba c09b 133d 26e9 3cbb
000001b0: 7fd1 0d3d 6825 013d 7d94 93bb e573 d5bc
000001c0: aa4e 203d e483 963d 618d 3ebb 0444 c3bb
000001d0: 2bff 6fbc 4424 993c 6aac a53c c272 92bc
000001e0: 929b 10bd 957b 2bbd 5454 e33c 6316 84bc
000001f0: 4ef8 f9bc 75ba 473c 3922 7fbd d4ac e8bc
00000200: 192c 683d 7a67 11bd a656 51bd 23e3 b1bd
00000210: 4ebe 87bc 23ef 82bc b2e0 8cbd 202b c9bd
00000220: 17e5 4cbc a05e 9d3d 9832 94bb 767f 20bd
00000230: 7226 94bd 69eb 29bd e6bf 9a3c 642e 87bd
00000240: 6e5f 79bd 8727 b93b c519 ba3c 0e00 be3d
00000250: bb05 f5bc 789b edbc e9d5 5ebd a80c 0dbe
00000260: d68e 70bd 8e18 f9bc 9725 71bd d760 13be
00000270: ee4d b8bd 95c9 8cbd 9a63 5dbc f7c0 753b
00000280: aa23 783c c46a 23bd 9585 88bd 3452 eabd
00000290: 9635 623d ce51 703d 635c 9fbd 3e60 7fbd
000002a0: 3bc4 d2bd 2b9f e3ba 22bf 4cbb dd75 e4bd
000002b0: b310 08bc b6a1 d5bd 4f7d f4bd 7e0d 533d
000002c0: f43e 483e 4f73 623d 540d 2abc 7e70 39bd
000002d0: c520 263d 933c 403e 6c43 d2bb a525 8abb
000002e0: 0d44 c93c b1b8 8dbb b7ef ebbb 5bc1 303c
000002f0: 1a28 0e3c beb5 843d 446d 503d ef94 6e3d
00000300: 99d1 e63d 161c 623d 3dc2 ed3c 3e86 e83c
00000310: b1d2 5bbd 8c2d 1b3d 3d26 573d 8d6c d93d
00000320: 5cf6 a7bb ffaa 203d 9cbc 463d 9478 a03d
00000330: ef81 9a3c 5920 0fbd 6e76 90ba d2f7 9d3c
00000340: cc5a 103d 275f 26bc 2156 e33b 5485 2b3d
00000350: 25de 063d 7019 a63c ca46 a1bc 33ce 19bc
00000360: fca1 20bd 92a7 073d 4a3f 093d d16c 28bd
00000370: ac58 48bc a7cb 1fbd db35 e83c af5c 8bbc
00000380: 3b9c f7bc f6bd a6bd 9d0b 523d ae4f 6dbd
00000390: 7a73 b6bd 0767 09be 5783 d8bd 8ebf c2bb
000003a0: 896a 8ebd 80c2 15be adb3 edbd c91a bd3c
000003b0: 0420 f83c 1953 463d 30ea 96bd d52a eebd
000003c0: 9791 2e3d fee8 e33c 9b09 913b cb0c 723d
000003d0: 3d61 17be 9624 22ba 6bd2 d83c 027b 9cbd
000003e0: d23d f13d 93bb f6bd 4238 b43c c512 4d3d
000003f0: ac66 da3c 5de2 2e3d 45a5 013d 521d a13c

conv2.bias f4 [32]
0.0659488 0.022635452 -0.012656498 -0.022071382 -0.030020643 -0.0042026015 0.031162396 -0.009409247
0.0858212 0.04398087 0.026555197 0.106007874 0.011743247 0.057909295 0.045260187 0.002166402
-0.005804705 0.022846254 0.047165822 0.013756679 -0.053487897 -0.005922326 0.0126907425 -0.0027711587
0.005132734 -0.0384597 0.046670135 -0.011054994 0.041008722 -0.04904318 0.032692064 0.020228403
00000000: 2a10 873d fc6d b93c 335d 4fbc 0bcf b4bc
00000010: daed f5bc fab5 89bb 4848 ff3c 3e29 1abc
00000020: 06c3 af3d 4925 343d 498a d93c a81a d93d
00000030: bf66 403c 4c32 6d3d bf62 393d 32fa 0d3b
00000040: 6535 bebb 1128 bb3c f330 413d b263 613c
00000050: 2016 5bbd 1210 c2bb d5ec 4f3c 549c 35bb
00000060: 7e30 a83b eb87 1dbd 2f29 3f3d 0120 35bc
00000070: c3f8 273d 80e1 48bd 1de8 053d 09b6 a53c

dense1.weight f4 [10, 512]
-0.012922032 0.039507832 0.06334857 0.08375708 0.03340194 0.0037844833 0.0028373909 0.08350415
0.06107301 0.010324266 0.022346996 -0.034207296 -0.0008002549 -0.060414795 0.0071408437 -0.01676454
0.06945599 0.040758695 0.030932589 0.053494684 0.026727675 -0.030100917 -0.0027503795 0.012585422
0.018433567 0.019865628 -0.020963846 -0.017748138 -0.071196415 -0.028145544 -0.028949076 0.01351646
0.079250395 0.05296847 0.0009821686 0.025917934 0.053113177 -0.0024791628 -0.0022868088 0.0023923756
-0.05678269 0.05190675 0.011621869 0.021561064 -0.07780369 -0.01481658 -0.012685308 -0.02229886
0.06162648 0.053919435 0.012597635 0.015405929 0.031217916 0.020736951 0.033971906 0.041702885
-0.03478002 0.029344663 0.0024418803 -0.019865148 -0.054066766 0.012194912 0.0133944005 0.016115617
-0.008109577 -0.021329388 -0.001736847 -0.027426222 -0.04164374 -0.006982525 -0.03568626 0.03536974
-0.010696293 -0.045012627 -0.057369385 0.0964322 -0.081891045 -0.09914176 -0.030294001 0.01757137
0.03766472 0.0034474689 0.009437775 -0.049423616 0.04922859 -0.007256173 -0.0382502 -0.024620444
-0.019529361 -0.0053834026 0.01507121 0.03017289 0.019989448 0.021733636 -0.01709531 -0.034788586
0.003436422 0.026986679 0.041134052 -0.046914924 -0.019549195 0.02450182 -0.020988774 -0.06377696
-0.0071936753 0.045190718 0.02559504 -0.031268623 -0.0061420677 0.0003680839 0.002421352 -0.013255066
0.09090413 -0.026405748 -0.015380311 0.003050962 0.05599664 -0.015523448 0.033079956 0.015217253
-0.028653726 0.030208156 -0.0012638523 0.0074080285 -0.077061236 -0.045276135 -0.025884517 -0.017997766
0.07162501 0.025524419 -0.059230197 -0.040986404 0.04154304 -0.022481304 0.023944953 0.039132744
-0.019852566 -0.015125297 -0.014633062 0.0037482772 -0.12140232 0.006689607 -0.028731069 0.07253122
0.09939623 -0.040288202 -0.014075342 0.008384705 -0.031124987 -0.06536844 -0.03950173 -0.020396871
0.022222564 -0.008413835 -0.050292004 0.023599207 -0.023288876 -0.061358165 -0.026991274 0.018470794
0.06976552 0.051937383 -0.019095242 0.02026949 0.048943568 0.061723538 -0.011481727 0.06486704
-0.036497734 0.00645314 0.015756907 0.108027846 -0.0006353058 0.04609793 -0.040981848 0.048565026
0.026084343 -0.013740019 0.037789896 -0.043963388 -0.040681493 -0.009512799 0.024155945 -0.074515596
-0.01482989 -0.0025819885 0.03885091 0.038943715 -0.018091265 0.045342896 0.08647893 0.069224834
-0.046467245 -0.026597504 -0.002649989 0.10316574 -0.018132191 0.010377365 -0.014073976 -0.018204425
0.012271479 0.056435794 0.006930397 -0.078441456 0.0020477741 0.053298846 0.050563257 -0.12722336
0.037824944 -0.022185296 0.024787055 0.046363115 0.043934386 -0.053111922 -0.02007646 0.03486077
-0.01914402 -0.013710972 -0.0051567503 -0.040474284 0.013649803 -0.06052242 -0.07528662 -0.09196848
-0.036292005 0.03825477 0.02045591 0.12044077 0.0105236 0.07526118 0.019649774 0.08566372
-0.028771311 -0.0005766026 -0.0035080963 0.011884633 -0.060595457 -0.08929484 -0.069375545 -0.09202161
-0.119932696 -0.038391415 0.024844607 -0.0016730593 -0.07908766 -0.04085477 -0.002407769 -0.05421747
0.029221587 -0.115388274 0.020055555 -0.05611927 0.051517848 -0.089473926 -0.014596359 -0.040007666
00000000: eeb6 53bc f7d2 213d e5bc 813d d588 ab3d
00000010: 79d0 083d 1805 783b 85f3 393b 3904 ab3d
00000020: b127 7a3d 1c27 293c 0c11 b73c f31c 0cbd
00000030: 32c8 51ba 8175 77bd bdfd e93b ca55 89bc
00000040: f13e 8e3d 97f2 263d 5766 fd3c 3e1d 5b3d
00000050: fff3 da3c 3396 f6bc b63f 34bb 1633 4e3c
00000060: fe01 973c 3ebd a23c 5fbc abbc 8b64 91bc
00000070: 6dcf 91bd 7c91 e6bc 9d26 edbc 2474 5d3c
00000080: 084e a23d 77f5 583d 1cbc 803a d951 d43c
00000090: 348d 593d 7379 22bb 49de 15bb 67c9 1c3b
000000a0: f794 68bd 2c9c 543d a769 3e3c d4a0 b03c
000000b0: 8b57 9fbd 3ec1 72bc 0ad6 4fbc 19ac b6bc
000000c0: 0c6c 7c3d a0da 5c3d 5066 4e3c 2669 7c3c
000000d0: b7bc ff3c 8ae0 a93c 2026 0b3d a5d0 2a3d
000000e0: 7f75 0ebd 3864 f03c f407 203b 3cbc a2bc
000000f0: 1d75 5dbd 2bcd 473c 3074 5b3c e604 843c
00000100: 08de 04bc f8ba aebc eaa6 e3ba f5ac e0bc
00000110: a092 2abd aacd e4bb c12b 12bd dcdf 103d
00000120: 813f 2fbc 295f 38bd 29fc 6abd 3f7e c53d
00000130: 7eb6 a7bd d60a cbbd 202b f8bc d5f1 8f3c
00000140: 5246 1a3d eeee 613b e6a0 1a3c 6b70 4abd
00000150: eba3 493d 31c5 edbb 3eac 1cbd d0b0 c9bc
00000160: 0afc 9fbc 4167 b0bb 3ded 763c 232d f73c
00000170: e9c0 a33c bd0a b23c 770b 8cbc 7a7e 0ebd
00000180: 9835 613b 2b13 dd3c 2e7c 283d dd29 40bd
00000190: a225 a0bc 0ab8 c83c a6f0 abbc 7f9d 82bd
000001a0: ecb8 ebbb e719 393d b0ac d13c 8713 00bd
000001b0: 6643 c9bb 63fb c039 8caf 1e3b c72b 59bc
000001c0: f22b ba3d de50 d8bc b3fd 7bbc a6f2 473b
000001d0: bc5c 653d 0f56 7ebc d97e 073d c951 793c
000001e0: 38bb eabc 1877 f73c d9a7 a5ba 0cbf f23b
000001f0: 48d2 9dbd 7873 39bd c40b d4bc 0d70 93bc
00000200: 22b0 923d 9618 d13c 5d9b 72bd 5ce1 27bd
00000210: 0929 2a3d b62a b8bc 3528 c43c a849 203d
00000220: d9a1 a2bc 18d0 77bc 83bf 6fbc a8a5 753b
00000230: c8a1 f8bd 7e34 db3b 6b5d ebbc 408b 943d
00000240: 4090 cb3d 3e05 25bd 439c 66bc 0060 093c
00000250: d4f9 febc e3df 85bd 91cc 21bd 5717 a7bc
00000260: 180c b63c 2fda 09bc fdfe 4dbd 2053 c13c
00000270: 50c8 bebc b352 7bbd ce1c ddbc 1050 973c
00000280: 3ae1 8e3d 4bbc 543d a06d 9cbc 340c a63c
00000290: 0d79 483d d2d1 7c3d da1d 3cbc 03d9 843d
000002a0: a67e 15bd dd74 d33b a114 813c b43d dd3d
000002b0: a78a 26ba 2fd1 3c3d 95dc 27bd 1fec 463d
000002c0: d5ae d53c d11d 61bc 94c9 1a3d f412 34bd
000002d0: a3a1 26bd 92db 1bbc b0e2 c53c a29b 98bd
000002e0: 11f9 72bc 9436 29bb 2222 1f3d 7283 1f3d
000002f0: 2234 94bc 79b9 393d de1b b13d c0c5 8d3d
00000300: 7054 3ebd 02e3 d9bc 70ab 2dbb 8f48 d33d
00000310: f689 94bc d305 2a3c 8996 66bc 7221 95bc
00000320: 500e 493c 3829 673d 6218 e33b eaa5 a0bd
00000330: f333 063b e44f 5a3d 6b1b 4f3d d746 02be
00000340: 54ee 1a3d f0bd b5bc 390e cb3c 40e7 3d3d
00000350: 8bf4 333d e38b 59bd 6377 a4bc 2bca 0e3d
00000360: ebd3 9cbc fca3 60bc f5f9 a8bb 5dc8 25bd
00000370: 6ca3 5f3c 5be6 77bd df2f 9abd f859 bcbd
00000380: eda6 14bd 09b1 1c3d 2793 a73c a7a9 f63d
00000390: 2d6b 2c3c 8922 9a3d 90f8 a03c 7670 af3d
000003a0: d0b1 ebbc 2527 17ba 17e8 65bb c4b7 423c
000003b0: f132 78bd 37e0 b6bd c414 8ebd d375 bcbd
000003c0: 469f f5bd 5140 1dbd eb86 cb3c 8e4a dbba
000003d0: b6f8 a1bd 5557 27bd a9cb 1dbb 2313 5ebd
000003e0: 1c62 ef3c b050 ecbd 8c4b a43c 52dd 65bd
000003f0: 6104 533d 1b3e b7bd 9125 6fbc 14df 23bd

dense1.bias f4 [10]
0.03298439 -0.039127138 -0.023182582 0.040289447 -0.029378789 0.02062535 0.06550878 0.030707277
0.002122115 -0.04521188
00000000: a41a 073d c743 20bd 66e9 bdbc 8c06 253d
00000010: c9ab f0bc 7ef6 a83c 7829 863d d48d fb3c
00000020: 2f13 0b3b 1830 39bd
