saved_weights/Model_epoch_no_2_train_acc_85.92_val_acc_86.19.pth (torch_old, 74657 bytes, 6 tensors)

conv1.weight f4 [16, 1, 5, 5]
0	0x3dcef364	0.10105017
1	0xbe91e40c	-0.28494298
2	0xbec693e5	-0.3878471
3	0xbe931964	-0.2873031
4	0xbdb1ad69	-0.086756535
5	0xbe0d9e09	-0.13829817
6	0xbe955142	-0.29163557
7	0x3dc03519	0.093851276
8	0x3c07d627	0.008290804
9	0x3cfcb270	0.030846804
10	0xbdf4f94f	-0.11961614
11	0x3d975f2d	0.073912
12	0xbda15131	-0.07876814
13	0xbe24bbb7	-0.16087233
14	0x3e015855	0.12631352
15	0x3e8d9c79	0.27658442
16	0x3e250fbb	0.16119282
17	0xbb9c20c2	-0.004764647
18	0x3ca6c6f1	0.020358535
19	0x3ddf0e7a	0.10891433
20	0x3d956e13	0.072963856
21	0x3cedecec	0.029043637
22	0x3e040832	0.12893751
23	0x3e51f304	0.2050286
24	0x3da66ceb	0.08126243
25	0x3e309720	0.1724515
26	0x3e286226	0.1644369
27	0xbd13f7f2	-0.03612513
28	0xbdd8bb9c	-0.10582659
29	0xbd239da1	-0.03994525
30	0x3e5a7c90	0.2133658
31	0x3c83a1cd	0.016068364
32	0xbdfe765a	-0.124249175
33	0x3cbd096e	0.023075785
34	0x3e4b1c4a	0.1983501
35	0xbdbc0035	-0.09179727
36	0x3e68cdfe	0.2273483
37	0x3e0b8e47	0.13628493
38	0x3c8202c3	0.015870458
39	0xbd8d0e67	-0.06887513
40	0x3e0d15c6	0.13777837
41	0x3e2d34fa	0.1691474
42	0x3e2d1d84	0.1690579
43	0x3e10c332	0.14136961
44	0x3db45ac4	0.08806375
45	0x3e929b0b	0.28633913
46	0x3d83c028	0.06433135
47	0xbd10d055	-0.03535493
48	0x3e2f2cde	0.17106959
49	0xbdbe4222	-0.092899576
50	0xbd2f2ecf	-0.04276925
51	0x3dc47ff4	0.095947176
52	0xbe53cda6	-0.20683917
53	0xbec6ea86	-0.38850802
54	0xbe68b838	-0.22726524
55	0x3d1e185b	0.038597446
56	0xbbf44cb4	-0.007455433
57	0xbeb4f990	-0.3534665
58	0xbf423ea7	-0.7587685
59	0xbf0fb020	-0.5612812
60	0xbc9c88fc	-0.019108288
61	0xbe30f09e	-0.17279288
62	0x3caad524	0.020853586
63	0xbe9be167	-0.30445406
64	0xbe964fd0	-0.29357767
65	0x3e852b86	0.26009768
66	0xbd6c5a19	-0.05770311
67	0xbe04c2b7	-0.12964903
68	0xbe2cedbf	-0.16887568
69	0xbe3b16e9	-0.18270458
70	0x3e7de454	0.24794132
71	0x3e571314	0.21003371
72	0xbcd2c3b5	-0.025728086
73	0x3df6f879	0.12059111
74	0xbd1075ee	-0.035268717
75	0xbe93f6f7	-0.28899357
76	0xbe94a044	-0.29028523
77	0xbcdd482a	-0.02701195
78	0x3dc3a40d	0.095527746
79	0x3c584552	0.013200121
80	0x3dd043b0	0.1016916
81	0xbdd93b17	-0.106069736
82	0x3d2eadf5	0.042646367
83	0xbe00501b	-0.12530558
84	0x3d5b807b	0.053589325
85	0x3e269524	0.1626783
86	0xbe281c6c	-0.16417092
87	0x3e7fa4c9	0.24965204
88	0x3da56829	0.080765076
89	0x3e338026	0.17529353
90	0x3d55de71	0.05221409
91	0xbe2200e6	-0.15820655
92	0xbc1a236e	-0.009407861
93	0x3cb83776	0.022487383
94	0xbc667771	-0.014066563
95	0x3d9f2e51	0.07772506
96	0xbe73849a	-0.23781052
97	0x3e949da8	0.29026532
98	0x3e598e45	0.21245678
99	0xbdee0dd9	-0.11623735
100	0xbcac3cc7	-0.021025075
101	0xbe5e6f51	-0.21722151
102	0xbde5b3bc	-0.11215922
103	0x3c9fd034	0.019508459
104	0x3e6a8f7d	0.22906299
105	0xbdc55734	-0.09635773
106	0xbdaf93ef	-0.08573138
107	0xbd9c98a2	-0.076463
108	0x3e346c3d	0.17619415
109	0x3d38d540	0.045125246
110	0xbd066e15	-0.032819826
111	0xbc8cf579	-0.017206894
112	0x3e2f7de6	0.1713787
113	0xbc91053b	-0.01770269
114	0x3e3cce95	0.1843818
115	0xbd1b28a1	-0.037880544
116	0x3d7358df	0.059410926
117	0x3e6ab7bb	0.2292165
118	0x3e5a2c8c	0.21306056
119	0xbb91aea3	-0.004445867
120	0xbd10dae5	-0.035365004
121	0x3dd02b6b	0.10164531
122	0x3c0bc89a	0.008531714
123	0x3ea09f89	0.31371716
124	0x3e82784d	0.25482407
125	0x3d919061	0.07107616
126	0x3c34a149	0.0110247815
127	0xbda8ecce	-0.08248292
128	0x3e9e94a2	0.30972773
129	0x3dccf034	0.100067526
130	0x3d8f63f8	0.070014894
131	0xbe848c8c	-0.2588848
132	0xbdd3a354	-0.10333887
133	0x3e84eee7	0.25963518
134	0x3d5d8886	0.054085277
135	0xbda7386e	-0.0816506
136	0xbc12d525	-0.00896195
137	0x3e10192c	0.14072102
138	0x3de716d0	0.11283648
139	0xbb6aaf04	-0.0035809884
140	0xbe3d4c52	-0.18486145
141	0x3aa8dc5d	0.0012883056
142	0x3e042ea5	0.12908418
143	0x3e52b176	0.20575508
144	0x3e07e077	0.1326922
145	0xbdde98df	-0.108690016
146	0xbe6fa99a	-0.23404542
147	0xbd0a95f9	-0.03383443
148	0x3e506b98	0.20353544
149	0x3e3cd514	0.18440658
150	0x3e3ac574	0.18239385
151	0x3dec678f	0.1154319
152	0x3e1bef89	0.15228094
153	0x3d63f42e	0.05565279
154	0xbe359def	-0.17736028
155	0x3d745598	0.05965194
156	0x3e738bd0	0.23783803
157	0x3e4b2a40	0.19840336
158	0x3dcf7161	0.10129047
159	0x3d963dd2	0.0733601
160	0xbe00e71a	-0.12588158
161	0xbcce6bad	-0.025197828
162	0x3e292549	0.1651813
163	0x3d78f891	0.060783926
164	0xbc5e7ae4	-0.013579104
165	0xbe19bd28	-0.15013564
166	0xbe757323	-0.23969702
167	0xbe4fcb3b	-0.2029237
168	0xbd1460f1	-0.036225263
169	0xbb7b097f	-0.003830522
170	0xbe4b0457	-0.19825874
171	0xbe1ba397	-0.15199123
172	0x3dadab06	0.08479886
173	0xbd308d4e	-0.04310351
174	0xbc45060e	-0.012025369
175	0xbdcd65c4	-0.10029176
176	0x3dc9b886	0.09849648
177	0xbe564235	-0.20923693
178	0x3dda8f43	0.10671856
179	0xbd16602c	-0.03671281
180	0xbe1f3abd	-0.1554975
181	0x3d1828b2	0.037148185
182	0xbde97e13	-0.11401
183	0x3d71c882	0.05902911
184	0xbce189eb	-0.027531585
185	0xbdb447cf	-0.08802759
186	0x3e4a32b6	0.19745907
187	0xbdbb5344	-0.09146741
188	0xbda9b30c	-0.082861036
189	0xbd0063aa	-0.031345047
190	0x3e52bfe7	0.20581017
191	0x3d835635	0.06412927
192	0xbe6c1d3e	-0.2305803
193	0x3e44b5fa	0.19210044
194	0xbdd30ffe	-0.10305785
195	0x3e76c8ce	0.24100038
196	0x3e74a2d3	0.23890238
197	0xbc9896bb	-0.018626561
198	0x3e9f42e5	0.31105724
199	0x3d992f02	0.07479669
200	0x3c12217e	0.008919118
201	0x3da7914d	0.08182011
202	0x3df3fdab	0.11913618
203	0xbe592eec	-0.21209306
204	0x3abdb281	0.0014472754
205	0x3e174684	0.14772993
206	0x3e688e0f	0.22710441
207	0x3e861f8f	0.26195952
208	0xbe24f399	-0.1610855
209	0xbdb33cd9	-0.0875184
210	0x3dd5a8ef	0.10432612
211	0x3e83c946	0.25739497
212	0x3e045a51	0.12925078
213	0xbe3e0487	-0.18556415
214	0x3e147abc	0.14499944
215	0x3d9e919e	0.07742618
216	0xbddfa161	-0.109194525
217	0x3d9fa973	0.07795992
218	0xbeb623e1	-0.35574248
219	0xbdac4721	-0.08412004
220	0xbe28a839	-0.16470422
221	0x3e2ad60e	0.16683218
222	0xbc64fceb	-0.013976316
223	0xbea55043	-0.32287797
224	0xbe5649a0	-0.20926523
225	0x3d7a7fbf	0.061156984
226	0x3df068e5	0.11738757
227	0x3e2acb28	0.1667906
228	0x3e990bb0	0.2989173
229	0x3c6e74af	0.014554187
230	0xbe182804	-0.14859015
231	0x3d408da6	0.047010086
232	0x3e5f5512	0.21809795
233	0x3e459636	0.19295582
234	0xbe2c3f19	-0.16820945
235	0x3e1bb32a	0.15205064
236	0x3ddd2be7	0.10799389
237	0x3d89c2f2	0.06726636
238	0xbd747be6	-0.05968847
239	0xbe1d4671	-0.15358903
240	0x3d34e51f	0.04416382
241	0x3e63bd47	0.22240172
242	0xbda66d1e	-0.08126281
243	0x3e61ba8a	0.22043815
244	0xbe6b8f86	-0.23003969
245	0xbd922009	-0.071350165
246	0xbe4e128e	-0.20124266
247	0x3c02899a	0.007967377
248	0x3e0b8a6c	0.13627023
249	0xbdb3751b	-0.087625705
250	0x3e31a8a7	0.17349492
251	0xbe11c7f1	-0.14236428
252	0xbe989b0a	-0.29805785
253	0xbe3ebfaf	-0.18627809
254	0xbe0384fd	-0.128437
255	0x3ea84525	0.32865253

conv1.bias f4 [16]
0	0x3e575904	0.2103005
1	0xbbfd3e8a	-0.0077284025
2	0x3e92b5ab	0.28654227
3	0xbcf67929	-0.03008707
4	0x3dd5e849	0.104446955
5	0x3e2dfe3c	0.16991514
6	0x3e67ce44	0.22637278
7	0x3d04c914	0.032418326
8	0x3de65ae4	0.11247805
9	0x3d3cbfea	0.04608146
10	0xbc0954d5	-0.008382042
11	0xbd03633c	-0.03207706
12	0x3bbff816	0.0058584316
13	0x3ce37a7b	0.027768364
14	0x3de7c7b7	0.113173895
15	0xbdb8ee51	-0.0902983

conv2.weight f4 [32, 16, 5, 5]
0	0x3e34dbba	0.17661944
1	0x3e649826	0.22323665
2	0x3e199e52	0.150018
3	0x3e41193c	0.18857282
4	0x3e826869	0.25470284
5	0x3dd0ff1a	0.10204907
6	0x3d0bae0b	0.034101527
7	0x3e050195	0.12988885
8	0x3e505d59	0.2034811
9	0xbbd77186	-0.0065748123
10	0x3d916836	0.07099955
11	0x3dad2ecf	0.08456194
12	0x3d300250	0.042970955
13	0x3cda3e91	0.026641162
14	0x3d6e09c3	0.05811478
15	0x3dfcf3e6	0.123512074
16	0x3dd03b6d	0.101675846
17	0xbc9e352d	-0.019312466
18	0x3c6e69a2	0.014551552
19	0x3e08edda	0.13371983
20	0x3decc67b	0.11561295
21	0x3e45381c	0.19259685
22	0x3df1ced0	0.118070245
23	0x3d98d8cd	0.074632265
24	0x3e0e350f	0.13887428
25	0xbc9134c6	-0.01772536
26	0xbcad85d2	-0.021181975
27	0x3d3fdc7b	0.046841126
28	0x3ccd4a18	0.025059745
29	0xbca0dc6e	-0.019636359
30	0xbc1a19fd	-0.00940561
31	0xbb876a74	-0.0041325632
32	0x3c8e4f99	0.01737194
33	0x3baaa14c	0.0052072164
34	0xbcf90c06	-0.030401241
35	0xbd8a6739	-0.067579694
36	0x3d1712a6	0.03688302
37	0x3d39e271	0.045381967
38	0x3c11f379	0.008908146
39	0xbcb0be74	-0.02157519
40	0xbdbb59a7	-0.09147959
41	0xbddb5331	-0.10709227
42	0xbd6ea3c0	-0.058261633
43	0xbd934592	-0.07191004
44	0xbd852b70	-0.06502426
45	0xbd0b2fbb	-0.033981066
46	0xbd9997cc	-0.07499656
47	0xbdb21639	-0.08695645
48	0x3b325e21	0.002721675
49	0xbd5c65ec	-0.053808138
50	0xbd22ffd1	-0.039794747
51	0xbdb7e13d	-0.08978508
52	0x3cfc242a	0.030778963
53	0xbdb5ff88	-0.08886629
54	0xbd722bf4	-0.05912395
55	0xbda3ac95	-0.07991902
56	0xbe39d8b5	-0.18149073
57	0xbe6daf56	-0.23211417
58	0xbe37b2d7	-0.17939316
59	0xbc5106c7	-0.0127579635
60	0xbd132249	-0.03592137
61	0xbe51d918	-0.20492971
62	0xbdc8e119	-0.09808559
63	0xbd34bbb3	-0.044124316
64	0x3cbd0830	0.023075193
65	0x3e3116cb	0.17293851
66	0xbb0af73c	-0.0021204492
67	0x3ddd43fb	0.10803982
68	0x3cbe4c43	0.023229724
69	0x3e0755aa	0.13216272
70	0x3e82739e	0.25478834
71	0x3e17a993	0.14810781
72	0x3e0f84cd	0.14015503
73	0xbd9c3aff	-0.0762844
74	0x3ce9c7ae	0.028537598
75	0x3e034c39	0.12822045
76	0x3bdf8db2	0.0068223113
77	0x3d7b1de4	0.061307803
78	0x3d2ff9a2	0.042962678
79	0x3e13db91	0.14439227
80	0x3d9eba48	0.07750374
81	0x3d919d76	0.071101114
82	0x3db6016b	0.08886989
83	0xbdce4226	-0.100712106
84	0xbcd039d8	-0.025418207
85	0xbc724ab7	-0.014788321
86	0xbc955b71	-0.01823208
87	0x3cb488d9	0.02203791
88	0xbe256d58	-0.16154993
89	0xbda04522	-0.07825686
90	0xb988ba70	-0.00026078848
91	0x3db439bc	0.088000745
92	0x3d4bbddd	0.049741615
93	0xbe30362e	-0.17208168
94	0x3d1c4820	0.03815472
95	0xbd924c54	-0.07143465
96	0x3db48434	0.08814278
97	0x3de92028	0.113830864
98	0xbd14313f	-0.036179777
99	0x3d805bbd	0.06267498
100	0x3c8c56b7	0.017131193
101	0x3d4b0c33	0.04957218
102	0xbcc2b053	-0.023765719
103	0xbc3cf1a1	-0.011532218
104	0xbcdc4775	-0.026889542
105	0x3d5cdd92	0.053922243
106	0xbbf831d9	-0.0075743017
107	0xbc1e337a	-0.009655828
108	0x3cfadda3	0.030623263
109	0xbccb2173	-0.024796223
110	0xbc74e61b	-0.01494744
111	0xbc69d819	-0.014272713
112	0xbce4f6f4	-0.027949788
113	0xbd890da3	-0.06692054
114	0xbcc4f953	-0.024044668
115	0xbda18f82	-0.078887
116	0xbcbf0884	-0.02331949
117	0xbd773a30	-0.060358226
118	0xbd7cd47e	-0.061726086
119	0xbd7d3350	-0.061816514
120	0xbd7ee0af	-0.062225994
121	0xbd9fef74	-0.07809344
122	0xbb86ce73	-0.004113966
123	0x3c8f968d	0.017527843
124	0xbc548079	-0.012970083
125	0x3cfbf03d	0.030754203
126	0xbc9320ae	-0.017959919
127	0x3c4df00b	0.012569438
128	0xbba0bae0	-0.0049050897
129	0x3cd05358	0.025430366
130	0xbbd429b3	-0.0064746975
131	0x3d8fc806	0.07020573
132	0x3cb0c301	0.02157736
133	0x3d05a78e	0.032630496
134	0xbd8b23e1	-0.06793953
135	0x3d0c8c85	0.034313697
136	0x3d8a516b	0.067538105
137	0x3d810897	0.063004665
138	0x3bca3e31	0.0061719646
139	0xbd3bb682	-0.04582835
140	0xbda103cf	-0.078620546
141	0x3c4c0b8e	0.012453927
142	0xbce868f1	-0.028370352
143	0xbd1ec5c9	-0.03876284
144	0xbdd7aeaa	-0.105313614
145	0xbcaa5746	-0.020793568
146	0xbd87378a	-0.0660239
147	0xbcd836d7	-0.026393337
148	0xbce84f5b	-0.028358152
149	0xbd42c64d	-0.047552396
150	0xbd48a3be	-0.04898428
151	0x3d82bb8f	0.0638343
152	0xba23a35f	-0.0006242301
153	0xbd5d965f	-0.054098483
154	0x3ca4aba8	0.020101383
155	0x3df18d05	0.117944755
156	0x3dc4a15b	0.096010886
157	0x3d491ef1	0.049101774
158	0x3b880b9d	0.004151775
159	0xbbd7ed4f	-0.0065895687
160	0x3c882d8d	0.016623283
161	0x3d5b5370	0.05354637
162	0x3d15e72e	0.036597423
163	0x3cc2f7ea	0.023799855
164	0xbd0707db	-0.032966476
165	0xbd0c867e	-0.03430795
166	0x3d6c4156	0.057679497
167	0x3c14e656	0.0090881195
168	0x3c2212e5	0.0098922
169	0x3cd51c10	0.026014358
170	0xbcc5acd2	-0.024130259
171	0xbc25565d	-0.010091391
172	0xbd89b928	-0.06724769
173	0xbcd91b98	-0.026502416
174	0xbcceba6b	-0.025235375
175	0x3d36fce2	0.04467476
176	0x3c1f6447	0.009728498
177	0x3d96ccc5	0.073632754
178	0x3d95eea3	0.07320907
179	0x3d1cb0f1	0.038254682
180	0x3cf119d1	0.029431256
181	0x3c520265	0.012817954
182	0x3d5b714a	0.053574838
183	0xbb5e4713	-0.0033916875
184	0xbcb7a0d4	-0.022415556
185	0xbd6fbebf	-0.05853152
186	0xbd4a51be	-0.04939436
187	0x3c8f90b3	0.017525053
188	0x3ccf3f03	0.025298601
189	0xbbabd7c5	-0.0052442276
190	0xbc8b0ccf	-0.016973881
191	0xbd61e453	-0.055149388
192	0xbd5d1a34	-0.053980067
193	0xbca59c41	-0.02021611
194	0xbb1637b4	-0.0022921385
195	0x3d828a7f	0.06374072
196	0xbb94cbe7	-0.0045409086
197	0xbd02d0de	-0.031937473
198	0xbd2d2830	-0.042274654
199	0xbc057f24	-0.0081479885
200	0xbd1d6253	-0.038423847
201	0xbd1d6f4f	-0.03843623
202	0xbd7b189a	-0.06130276
203	0x3d859f87	0.06524568
204	0x3e241a02	0.16025546
205	0x3d0634f4	0.032765344
206	0x3d9fdbbf	0.07805585
207	0x3d105ee1	0.035246734
208	0x3dce757c	0.10081002
209	0x3e20b6c5	0.15694721
210	0xbc154889	-0.009111532
211	0x3da06cc0	0.078332424
212	0x3d57ada5	0.052655835
213	0x3e06e7a0	0.13174295
214	0x3e382d61	0.1798606
215	0x3c8e9274	0.017403819
216	0x3c13b59f	0.00901547
217	0x3c3cb437	0.011517576
218	0x3d98a22d	0.074528076
219	0x3d9a3d0d	0.07531176
220	0x3dc68911	0.09694112
221	0x3dc1954c	0.09452304
222	0x3d39874d	0.04529505
223	0x3bfb060a	0.007660632
224	0x3e1b277c	0.15151781
225	0xbd05ecf0	-0.032696664
226	0xbc51ec45	-0.012812679
227	0x3c84c041	0.016204955
228	0x3c0fbaa4	0.008772526
229	0x3cd7fac7	0.026364697
230	0xbc8b9ab3	-0.01704154
231	0x3c953c96	0.018217366
232	0x3d4f884d	0.050667096
233	0x3d811ad9	0.06303949
234	0x3bcc3bad	0.0062327
235	0x3d2b71f7	0.041856732
236	0x3d3a445b	0.045475345
237	0x3d9bd66b	0.07609256
238	0x3dbe6236	0.09296076
239	0x3aa9e6a0	0.0012962408
240	0x3ccdef13	0.025138414
241	0x3c8b0801	0.01697159
242	0x3d259278	0.040422887
243	0x3cdc0b7b	0.026860943
244	0xbc21d15d	-0.009876576
245	0xbd2639fa	-0.040582635
246	0xbdcff699	-0.10154457
247	0xbd162303	-0.036654484
248	0x3ba0c873	0.004906708
249	0xbdb0dd7c	-0.08635995
250	0x3c11a154	0.008888561
251	0x3daaec39	0.08345837
252	0x3e014974	0.12625676
253	0x3d97243f	0.0737996
254	0x3d96878f	0.073500745
255	0xbdaddb5e	-0.084891066

conv2.bias f4 [32]
0	0x3d9e4f4d	0.07729969
1	0x3dad8605	0.08472828
2	0xbc959bb9	-0.01826273
3	0xbd152556	-0.03641256
4	0xbd9e590d	-0.07731829
5	0x3d3467bd	0.044044245
6	0xbd75b03e	-0.05998253
7	0x3c7e26a6	0.015512144
8	0x3d8498da	0.064744666
9	0xbd6d4f55	-0.057936985
10	0xbd008fd9	-0.031387184
11	0x3d42a1e4	0.047517672
12	0x3c8ef200	0.017449379
13	0xbceb4631	-0.028719993
14	0xbd0d6a1a	-0.034525014
15	0xbc9061d1	-0.017624767
16	0xbbd95b54	-0.0066332016
17	0x3d68b613	0.056814265
18	0xbd2da346	-0.042392038
19	0x3d5f6c6b	0.054546755
20	0x3c0c692a	0.008569995
21	0x3cc5a8d3	0.024128353
22	0x3d4b3959	0.049615238
23	0x3cbcbdb3	0.023039674
24	0xbd02bb47	-0.031916883
25	0xbd5b5799	-0.053550337
26	0xbd69416a	-0.05694715
27	0x3db94f15	0.09048287
28	0x3c88f5ff	0.016718863
29	0x3d6b9716	0.057517134
30	0x3c717796	0.014737984
31	0x3d3fee71	0.046858255

dense1.weight f4 [10, 512]
0	0x3cdc0f92	0.026862893
1	0xbbe0d4bc	-0.0068612974
2	0x3c8ed49f	0.01743537
3	0x3d2572f7	0.040392842
4	0x3d9dfca8	0.07714206
5	0x3d8c1045	0.06839041
6	0x3dc3e8db	0.09565898
7	0x3d3cd669	0.046102915
8	0xbd20cef5	-0.03925987
9	0xbd2790f3	-0.04090972
10	0x3ce90853	0.028446352
11	0xbcde1104	-0.027107723
12	0x3ceb4131	0.02871761
13	0xbd37bcdd	-0.04485785
14	0xbcd82592	-0.026385102
15	0xbd1e2b1e	-0.03861534
16	0x3dd514fb	0.10404392
17	0x3c4900e5	0.01226828
18	0xbc008bdc	-0.007845845
19	0x3d1ed630	0.038778484
20	0x3dd5158d	0.10404501
21	0x3ae67eca	0.0017585394
22	0x3ce64c17	0.028112454
23	0xbc213695	-0.0098396735
24	0xbd2b8f32	-0.04188461
25	0x3c1a3840	0.009412825
26	0x3c8a5a70	0.016888827
27	0x3d7882c0	0.060671568
28	0xbe1e8d81	-0.15483667
29	0xbd5214cd	-0.05128937
30	0x3d396224	0.04525961
31	0x3cc726f6	0.02431057
32	0x3ce0bba7	0.02743323
33	0x3c95af9d	0.018272216
34	0xbc63e575	-0.013909687
35	0x3ce0880c	0.027408622
36	0x3c08ab31	0.008341596
37	0xbd2477da	-0.04015336
38	0xbd0a06e7	-0.03369799
39	0x3d0636e5	0.032767195
40	0x3a863bb0	0.0010241177
41	0x3d1c0a3a	0.03809569
42	0xbd207654	-0.039175346
43	0x3b02adee	0.0019940096
44	0xbaf81c0c	-0.0018929257
45	0x3c7e5a6a	0.015524486
46	0x3c09d408	0.008412369
47	0xbc6ae45d	-0.014336673
48	0xbd0b6b6b	-0.03403799
49	0x3c62c1dc	0.013840165
50	0xbd78f8a8	-0.060784012
51	0xbdf03803	-0.117294334
52	0x3d26bbd7	0.04070648
53	0x3d3df9c1	0.046380762
54	0x3c1e2936	0.00965338
55	0xbe1951cc	-0.1497261
56	0xbc7f64c5	-0.01558799
57	0x3d35ccce	0.04438477
58	0xbd53f892	-0.051750727
59	0x3ca0efba	0.01964556
60	0xbd1fe269	-0.03903428
61	0x3d1aa020	0.037750363
62	0x3bba7221	0.0056898748
63	0x3d10185f	0.035179492
64	0x3d139eef	0.036040243
65	0x3c236a10	0.009974018
66	0x3bf725b4	0.0075423364
67	0x3d473698	0.04863605
68	0xbd10da44	-0.035364404
69	0x3ce6f493	0.028192794
70	0xbcb45422	-0.022012774
71	0x3d16efbb	0.03684972
72	0x3c6740bc	0.014114555
73	0xbd11e74f	-0.035620984
74	0xbddd8a74	-0.108174235
75	0xbce47219	-0.027886437
76	0x3d4e6071	0.050384942
77	0xbd8fc377	-0.07019704
78	0xbe30dc93	-0.17271642
79	0xbdae92df	-0.08524107
80	0xbd90aeae	-0.070645675
81	0x3ca1d5b7	0.019755227
82	0xbb28e57c	-0.002577155
83	0xbd07b240	-0.033128977
84	0xbd24c9c5	-0.040231485
85	0xbd9616ab	-0.07328542
86	0x3cf0e158	0.029404327
87	0xbca9ed8f	-0.02074316
88	0x3d9c0e12	0.07619871
89	0xbd207181	-0.039170746
90	0xbccaa251	-0.024735602
91	0xbda4d6c4	-0.08048776
92	0x3d3b5626	0.045736454
93	0xbd96c8f9	-0.07362551
94	0xbcbb4940	-0.022862077
95	0xbe2f4b2e	-0.17118523
96	0x3ce93506	0.028467666
97	0xbd25337a	-0.040332295
98	0x3bcd8368	0.0062717684
99	0xbce87a32	-0.02837858
100	0x3d015b67	0.03158131
101	0xbd0f3548	-0.034962922
102	0x3b1b93a0	0.0023739114
103	0x3c3dbe8a	0.011581073
104	0xbbf0fe30	-0.0073545203
105	0xbd0bf12b	-0.034165543
106	0xbc58d3c6	-0.0132340845
107	0xbcaa41b2	-0.02078328
108	0x3cb94a82	0.022618536
109	0x3cbf3d66	0.023344707
110	0x3bc48758	0.0059975795
111	0x3cc013ae	0.023446884
112	0x3d6d7ce9	0.05798045
113	0x3c90c35b	0.017671278
114	0xbbaf1579	-0.005343136
115	0x3d57438d	0.052554656
116	0x3d2c251e	0.042027585
117	0x3d15b3af	0.036548313
118	0x3d16eda4	0.036847726
119	0xbc9921dc	-0.018692903
120	0xbc4ceeb6	-0.012508085
121	0xbcef6ee0	-0.029227674
122	0x3d30b570	0.043141782
123	0xbd16b98c	-0.036798045
124	0xbdc9327a	-0.09824081
125	0xbb79941e	-0.003808267
126	0xbd146bcb	-0.036235612
127	0xbdb4f81f	-0.08836388
128	0x3c92859b	0.017885974
129	0x3c9293bb	0.017892709
130	0x3d32785d	0.04357182
131	0x3c55b2a6	0.013043081
132	0x3d7c00f3	0.061524343
133	0x3a53db9c	0.00080817356
134	0x3cf8a038	0.030349836
135	0xbd1fff93	-0.039062094
136	0xbcafc73f	-0.021457313
137	0xbc6ce868	-0.014459707
138	0x3b2d5363	0.0026447407
139	0x3ceab2fb	0.028649798
140	0xbd54ae9e	-0.05192434
141	0xbcd39c3b	-0.025831332
142	0x3c317a1d	0.010832337
143	0x3d3c0b1a	0.045909025
144	0x3beb6846	0.007184061
145	0xbdbecea9	-0.09316761
146	0x3d8eee41	0.06979037
147	0xbcb50fb4	-0.022102214
148	0xbdc84b73	-0.09780016
149	0xbca089d5	-0.019596973
150	0x3d06b94a	0.03289155
151	0x3d536199	0.05160675
152	0xbbbb431d	-0.0057147876
153	0xbd966de3	-0.07345178
154	0x3d29dbc4	0.04146935
155	0x3d982f38	0.07430881
156	0x3daf9152	0.085726395
157	0xbd5ceb7f	-0.053935524
158	0xbddf642d	-0.10907779
159	0xbd8c2ba8	-0.06844264
160	0xbdd9b132	-0.106295004
161	0xbc11fa8a	-0.008909831
162	0x3b2cc3b1	0.0026361758
163	0x3c545a67	0.012961007
164	0xbcbf9302	-0.023385528
165	0xbd493a05	-0.049127597
166	0xbd142a29	-0.03617302
167	0x3c3e661d	0.011621025
168	0xbaab2691	-0.0013057758
169	0xbdcd916a	-0.10037501
170	0xb6a22bff	-4.833098e-06
171	0xbbab480b	-0.005227094
172	0x3de68868	0.11256486
173	0xbd8348c3	-0.064103626
174	0x3c7f3d07	0.015578515
175	0xbd35c2f4	-0.044375375
176	0x3d8878ac	0.06663641
177	0xbd2bc70c	-0.041937873
178	0x3d69823f	0.057008978
179	0x3dd22910	0.10261738
180	0xbb53f879	-0.0032344146
181	0x3d25dbb8	0.040492743
182	0x3dcc8825	0.09986905
183	0x3dc42da8	0.09579021
184	0xbd7a7b9f	-0.06115305
185	0xbc80b55c	-0.015711479
186	0x3db23901	0.08702279
187	0x3c960cb5	0.018316606
188	0xbd547e7c	-0.051878437
189	0xbd512d70	-0.051068723
190	0xbd039c9e	-0.032131784
191	0x3b32c20d	0.0027276308
192	0x3bd1c064	0.0064011086
193	0x3c88a019	0.016677903
194	0x3d7b3090	0.06132561
195	0xbda71c90	-0.08159745
196	0xbd876ed1	-0.066129334
197	0xbd56e620	-0.052465558
198	0x3c2f78e8	0.010709979
199	0x3ca1be6b	0.019744119
200	0x3c25f058	0.010128103
201	0xbc93443c	-0.017976873
202	0x3d09c57e	0.03363561
203	0xb99d55fc	-0.00030009437
204	0xbd753e5b	-0.05987392
205	0xbde6e8bf	-0.112748615
206	0xbd3197ae	-0.043357544
207	0x3ca2076f	0.019778935
208	0x3d034420	0.03204739
209	0x3d0ca577	0.034337487
210	0x3c957ea9	0.018248873
211	0xbdcefc8a	-0.10106762
212	0x3d866357	0.06561916
213	0x3d3b0e30	0.045667827
214	0x3ce3a218	0.027787253
215	0x3d2ed4a5	0.042683262
216	0x3d194bb9	0.03742573
217	0xbcf00dbd	-0.029303426
218	0xbd91c437	-0.07117503
219	0x3bd36734	0.0064515118
220	0xbe0b1ebe	-0.13585946
221	0xbc7ce66d	-0.015435797
222	0xbe01869f	-0.1264901
223	0x3d7228de	0.059121005
224	0xbbde0abd	-0.0067761824
225	0xbd46054a	-0.048344888
226	0x3c477b10	0.0121753365
227	0xbd50e4d2	-0.05099947
228	0xbbda07f4	-0.00665378
229	0xbd37ac44	-0.04484202
230	0x3cd7ec68	0.026357844
231	0xbbcbe889	-0.0062227887
232	0xbd2c6e29	-0.042097244
233	0xbd19d8b4	-0.03756018
234	0xbc06e37c	-0.008232947
235	0xbc5a50c7	-0.013324923
236	0xbc95bf21	-0.018279614
237	0x3c4b7fb2	0.012420582
238	0xbd40ef8d	-0.047103453
239	0xbd21e43a	-0.039524294
240	0x3c375323	0.011189255
241	0xbc3ffd58	-0.011718117
242	0x3d05fde7	0.032712843
243	0xbdd91699	-0.10600013
244	0xbd65c84a	-0.056099214
245	0xbc817a2e	-0.01580533
246	0xbd3a8362	-0.045535453
247	0xbd080d60	-0.03321588
248	0x3d1e11f8	0.038591355
249	0xbd661055	-0.05616792
250	0x3c855f99	0.016280936
251	0x3d33a76f	0.04386085
252	0x3d1bb90b	0.038018268
253	0xbc50edc0	-0.0127519965
254	0xbd04ac21	-0.032390717
255	0x3d5faebc	0.05461

dense1.bias f4 [10]
0	0x3d63f37d	0.05565213
1	0xbc84554f	-0.01615396
2	0x3adc288a	0.001679675
3	0x3d408dd1	0.047010247
4	0xbdc01a61	-0.093800314
5	0xbd4c452f	-0.049870666
6	0x3da48b1f	0.08034348
7	0x3d2726d5	0.040808517
8	0x3b14a414	0.0022680806
9	0x3ca05bbb	0.01957499
