saved_weights/Model_epoch_no_8_train_acc_90.86_val_acc_89.48.pth (torch_old, 74661 bytes, 6 tensors)

conv1.weight f4 [16, 1, 5, 5]
00000000: c275 8a3e faee 883e f255 e23d 40a4 913e
00000010: 57ce 87bd 04c1 16be 5925 f6bc 324b 93be
00000020: f812 adbd 2cc2 15be 0225 ccbd 037a 70be
00000030: 6342 c6be f888 173b b837 f13d a829 e2bc
00000040: 4b5e 7dbe 19f4 81bc 3c52 633e cd47 a93e
00000050: 2e83 5f3e f607 72be a452 71be 8dbb 5d3e
00000060: f21b 9f3e 5886 5a3d 4f97 0bbe 8f50 ef3d
00000070: 13f4 913e c50c 58be e706 163e e7a5 11be
00000080: 1a9d cbbc 632e 663d 0679 b7bd 33fe 1b3e
00000090: c630 44be 3f92 35bd 7738 bd3d 45ce 3a3d
000000a0: 84d9 093e d856 1ebe 34c1 563b 1c68 473e
000000b0: cc5e 90bc 7747 2bbd 5fdf 8dbe 45b0 923e
000000c0: 76d3 be3d a690 1cbe de9a 703e 58bb 8f3d
000000d0: f1d9 593e d09f 60be d449 053e 124c af3d
000000e0: 5480 523e ac5e 1abe 020c 53be 7303 fd3d
000000f0: 4b33 103d 0ca5 d4be 4883 6cbe 021c 303e
00000100: 7e07 06bd b6a1 bbbe b390 bcbf 3ec7 96bf
00000110: 0c21 abbd 13af 503e 7003 10be 1e93 a9bf
00000120: 71b6 7fbf 0880 2bbd 2921 04be 76e3 c23b
00000130: 9080 0bbe 68b1 aabe a2eb d1bc e315 58be
00000140: 4b62 163e 04e3 703d d828 04bd bc61 b3be
00000150: e02b b3be 6abc a63d e68e 923e daf6 743d
00000160: 981b f9bd 0fcb 5dbe afea 5f3e 0ecf 903e
00000170: 30d3 ba3e 2fa3 7b3e e77b 8abd c8d9 a1bd
00000180: f7dd a0bd 6669 f93c 53e3 0f3e c0e6 d13d
00000190: 666c 573e 475a 9a3e 96b8 b9bd c40b 2b3e
000001a0: 54a1 863d 57cd 553e e968 0f3e 6707 6b3e
000001b0: 7a60 1b3e efd8 99bd fbd3 823e 306c d93c
000001c0: 435e 283d deed ecbd 3c01 9cbd f749 3abe
000001d0: 7c89 efbd e2b3 253e 3f4b 553e 8dd8 dcbd
000001e0: 6688 8cbe 8b69 cabd 5dbf 6dbe ec20 86be
000001f0: 91b3 d2bd 38a7 1f3e 6b24 b93e 77b0 03bd
00000200: 39ba 2bbe 8851 083e 7fc3 04be 40d3 913e
00000210: d780 04be 06ab 49be 97f2 b3be 710b 7cbe
00000220: 64c0 a63e a600 2abe 814c ccbd 1278 06bd
00000230: dab2 30be 8f65 6c3e 8b3d 173e 74c4 2abe
00000240: 17bc 2b3e 70d2 89bc 8647 853e 9c43 82bd
00000250: 6a53 23bd 1856 e13b 9ff0 c0bd a307 c4bd
00000260: 6f8d b23e d87c adbd b0ea 8b3d 08c1 0fbe
00000270: 271c a2bd a219 a93e fb83 67be 7d03 573b
00000280: 2ad2 e3bd 27c2 f6bd da2d b03e d63d 78be
00000290: 19c8 35bd 4705 653e 1b45 78bd c4ab 193e
000002a0: f708 83be 04d7 9fbd e7b2 a53d 7a41 37be
000002b0: cd19 8b3e 740b ce3d a12c a8bb b796 1bbe
000002c0: 0567 4dbe fb90 4abe 7fc4 343e 630b a03e
000002d0: 0968 acbb d1e6 103e d757 ffbc 6a7d 593e
000002e0: 7715 6e3e b54f b93d 3960 3abe 1080 d6bc
000002f0: 1d9b 883d dbf3 f9bc 626c b1bd 34d0 b43d
00000300: 5672 f43d 8afa a6bd 2b4b 0c3e dcef 183e
00000310: b657 d53b 71b9 45be c7ba 0e3d 1bf6 60bd
00000320: c828 f43c ab9e 68be aaa6 30be d9c0 e73e
00000330: 773e bd3d 381d 963c 89fc b4be 869f babe
00000340: 4386 c43e ee2d 1ebe 5f10 113e 0b10 753e
00000350: 8a6d 8fbe 455d 813e b0d5 19be bf09 703e
00000360: 13e8 e83d 407d a6bd 8eb5 6fbd fb16 6b3e
00000370: 563e 4cbe 0e70 2abd 9d4a d2be 1581 97bd
00000380: bef9 ad3e 16bf 0ebf 5213 d8be 9e33 a2be
00000390: 0514 0c3d b7bf 3c3c 1870 07be c0b4 5bbd
000003a0: dcdc 07be 8334 30be 2df1 db3d 31eb 8fbc
000003b0: a423 b23e 1f50 983d 047a 68bd 7a59 a73c
000003c0: a4e0 833d 50af 843e f2c1 16bc e1e1 d73d
000003d0: 9deb 213e a5e3 bb3e 77bc 9b3c 1799 12bd
000003e0: d7b6 9ebc f43b 803e 1af0 a4be d4e7 473e
000003f0: 6725 523e 0632 f4bc 00da 4e3d 2cec 75be
0.27042967 0.26744825 0.11051549 0.28445625 -0.06631153 -0.14722067 -0.030047106 -0.28768307
-0.084508836 -0.14624852 -0.09967996 -0.23484044 -0.38722524 0.0023122411 0.11778206 -0.027607754
-0.24743001 -0.015863465 0.22199339 0.33062592 0.21827385 -0.2363585 -0.23566681 0.21653576
0.31076008 0.053350776 -0.13631938 0.11685287 0.28506526 -0.21098621 0.1465107 -0.14223443
-0.024855185 0.05619658 -0.0895863 0.15233688 -0.1915923 -0.044328924 0.092392854 0.04560687
0.13461882 -0.15462816 0.0032768967 0.19473308 -0.017623328 -0.0418162 -0.2770948 0.28650108
0.09317677 -0.15289554 0.23496577 0.07018155 0.21274544 -0.21935964 0.13016444 0.08559431
0.20556766 -0.15075177 -0.2061005 0.123541735 0.035205167 -0.4153217 -0.23096955 0.17198184
-0.03272199 -0.36646813 -1.4731659 -1.1779554 -0.083559126 0.20379286 -0.14063811 -1.3248022
-0.9988776 -0.041870147 -0.12903275 0.0059475256 -0.13623261 -0.33338475 -0.025625054 -0.21102099
0.14685933 0.05881025 -0.032265514 -0.35035503 -0.3499441 0.08141406 0.28624648 0.05980573
-0.12163466 -0.21659492 0.21866868 0.2828297 0.36489248 0.24573968 -0.06761914 -0.079028666
-0.078548364 0.030445766 0.14051561 0.1024909 0.21037444 0.30147 -0.0906841 0.16703707
0.0657374 0.20879112 0.14004864 0.22952043 0.15173522 -0.0751208 0.25552353 0.026540846
0.04110552 -0.11568807 -0.07617423 -0.18192278 -0.11696145 0.16181901 0.20829485 -0.10783491
-0.27447814 -0.09883412 -0.2321753 -0.26196992 -0.10288156 0.15591133 0.36160597 -0.032150712
-0.16770257 0.13312352 -0.12965201 0.28481483 -0.12939773 -0.19694147 -0.3514602 -0.2461374
0.32568657 -0.1660181 -0.099755295 -0.03282935 -0.17255726 0.23085617 0.1476957 -0.16676503
0.1677097 -0.016823977 0.2603113 -0.06360552 -0.03987447 0.0068767183 -0.09420895 -0.09571769
0.3487353 -0.08471078 0.068318725 -0.1403848 -0.07915526 0.3302737 -0.2260894 0.0032808476
-0.1112407 -0.1204875 0.34409982 -0.24242339 -0.04438028 0.22365294 -0.06061278 0.1500693
-0.25592777 -0.07804683 0.080907635 -0.17896071 0.27168122 0.10060778 -0.0051322733 -0.15194212
-0.2005883 -0.19781868 0.17653082 0.31258687 -0.0052614254 0.1415055 -0.031169815 0.21239248
0.23250376 0.09048406 -0.18200769 -0.026184112 0.066702105 -0.030511787 -0.086632505 0.08828774
0.1193587 -0.08153255 0.1370055 0.14935249 0.0065107 -0.19309022 0.034846094 -0.054922204
0.029804602 -0.22716777 -0.17251077 0.4526432 0.0924043 0.01832448 -0.3534892 -0.36449832
0.38383684 -0.15447208 0.14166401 0.23931901 -0.2801326 0.25266472 -0.15022922 0.23441218
0.1137239 -0.08129358 -0.058522753 0.22957985 -0.19945654 -0.04161077 -0.4107255 -0.07397667
0.339796 -0.55760324 -0.4220224 -0.31680006 0.03419878 0.011520318 -0.13226354 -0.053639174
-0.13267845 -0.17207532 0.1073936 -0.017568203 0.34792817 0.07437157 -0.05675699 0.020428408
0.06439331 0.25915003 -0.009201514 0.1054113 0.15812536 0.36697116 0.019010765 -0.03579053
-0.019374294 0.2504574 -0.32214433 0.19522029 0.2052208 -0.02980901 0.05050087 -0.24015874

conv1.bias f4 [16]
00000000: d663 7ebb 1f9b 4bbc 5ccf cc3e eb2b 0bbd
00000010: a58f 45bc 7283 9bbc b0d8 35bb 2da6 e2bc
00000020: 4aeb 6e3c cad4 8b3c eff7 e9bb 2b45 103d
00000030: 3c88 7c3d 8762 243e 96ce 853e 9d00 f1bb
-0.003881683 -0.0124271205 0.40001953 -0.03397743 -0.012058173 -0.018983576 -0.0027747564 -0.02766713
0.0145824645 0.01706924 -0.0071401517 0.035222214 0.06165336 0.1605321 0.26134175 -0.0073548094

conv2.weight f4 [32, 16, 5, 5]
00000000: 04bc 373c 81c1 afbc cf61 19bd 7723 db3d
00000010: 678f 8fbb a9ee c8bd 0692 18be 5701 353d
00000020: b584 153e 3cfe 993d 04eb 463c 25b5 49bd
00000030: 8260 e73d e3e6 563d a2bb 533d 81a0 aa3b
00000040: 3a0a ecbd 2e8a 833c 6bd5 623e d014 e73d
00000050: 2ce3 823c a516 8fbe f7d5 93bd 81e8 3e3e
00000060: 5bdf 43be fa27 983d bec1 a7bc f6fe 92bd
00000070: c79f 82bd 67c0 1fbd ea9e e53c 5521 f53a
00000080: f1b8 263d b815 093d ad02 6dbd ed83 0d3d
00000090: e5e3 f33c e510 073c 4f87 94bd 0025 98bc
000000a0: 92e4 333d 697b ebbc 7dde d43d 9442 d6b9
000000b0: 02f7 923d 52cb 003c 290e 98bc 9845 523d
000000c0: 79e9 1fbd fbd4 b9bc 5dee 4ebe 5710 b2bc
000000d0: df2f ab3d 80a2 f13d 9eb6 523e 48b9 7abd
000000e0: 4247 9dbd 7af3 debc ff01 373d 5027 493e
000000f0: beeb 44be 603f 3abe 7ea9 cdbc 4681 b4bc
00000100: 7768 f63d 5604 80be 80dc d7bc 12ea 82bd
00000110: 386f 1a3d d639 943d c220 0cbe f61b 4a3b
00000120: 1211 843d 448e 153e 005d 673e 060f ef3d
00000130: 5111 dc3d fbd8 d13d 7fdc e13d fdf6 df3d
00000140: bf18 f93d a5e0 d03d 69e4 753d 7030 043c
00000150: c6d5 163e e5c5 b73d 8f4f af3d 74f9 9fbd
00000160: 341d 263d 6e45 b13d 4efc f93d d467 453e
00000170: 6299 a5bd 437b ce3c db49 d2bd 29e5 083e
00000180: c4d8 9c3d ebc2 66bd 97d3 2d3d 3146 be3d
00000190: acee a5bd 3e18 f23b 3b47 1bbd 76b4 fdbd
000001a0: d073 d5bd 9964 8d3d a4ba f6ba 7f51 383d
000001b0: 5533 8ebb 20fc cfbd 0ec7 ab3d 1e26 853d
000001c0: 763f 37bd 90f8 7f3c 1a4c 01be f762 8b3c
000001d0: 955a 4a3d 5eb0 06bd 60a2 2d3d c1fd 42bc
000001e0: 9553 19bd 1381 b83d 1c74 9f3d 528d db3c
000001f0: 6aee fd3b e505 97bd 38d9 4a3d 972d 93bd
00000200: 1a04 c4bd 4137 88bd 3c46 84bd 75fd 393d
00000210: 84c7 4d3d abc4 56bd 5fb7 4ebd b74f 0ebd
00000220: 4981 983d 5c30 393d 0ef3 c73d c2c3 a1bd
00000230: 5123 70bd 9c4d 083e f8ef 483d 46ac 623d
00000240: 1709 c2bd 6b25 22bc dc9d 2c3b fa0e d4bd
00000250: 60cb a33a 0ee6 b8bd b195 023d 8abd 783c
00000260: 898d 93bd dace 14be b403 d4bd 92fb fa3d
00000270: a381 a83d f3ee 6c3c 11f3 4a3d 8228 ad3c
00000280: 4afc ff3d e103 743c 70df 3cbb 0bcb 373c
00000290: dff0 eebd 3d09 4b3e 25eb e23c 2e73 413d
000002a0: 7b44 023d 925b 2abe 831d 283d 056b c8bc
000002b0: 5be3 343c a547 42bd 707d 01be 1f9c 1a3d
000002c0: 4231 c3bd e634 ddbd 54a8 00be 0293 29bd
000002d0: 3569 7b3d 0d94 64bd 3c07 4e3c 825a 79bd
000002e0: 9d81 b8bb 7d54 ae3c 52c7 493d cd43 653d
000002f0: 099a 7dbd 54bc fcbb fc27 c33d eef1 153c
00000300: 200f b53d 3d34 113d 7873 043d e04a 653d
00000310: 4847 77bc 873f b03d 091c d13b 3099 0abb
00000320: 00ee f3bd 41ed c2bd a0ab aebc 7003 ca3d
00000330: 2dd6 033e d8d9 713c 1fd5 e3bc 8cf5 3b3d
00000340: c666 48bc b7ff a23c 6f31 823d dab1 da3c
00000350: 1bb7 693d fec0 ce3d a3d5 d43c 8a08 c8bb
00000360: 8bb2 00be 821f 133e 2a4d 9e3c ff03 40be
00000370: 5703 17be 2f51 afbe 1779 26be e71e 4fbd
00000380: a683 82be ca02 f8bd a903 edbd b57f cd3c
00000390: d031 413e fa63 243e ee8c 15be d333 953d
000003a0: 84e5 833d 4b03 043e ce44 543d 8968 aabd
000003b0: 80c9 843d 9f07 7f3d 5ed2 4d3e 6134 a13d
000003c0: 3adb ec3d 9a4b f13c ef86 0e3e ed5b 163e
000003d0: bdf4 293e 6f57 7f3d 88e8 793d 1e62 aa3d
000003e0: 2f49 bcbd dccf 82be 49d1 db3d 2abb 28be
000003f0: 6dcb 82be 0834 bdbd 3df8 d4bd 0178 183e
0.01121426 -0.021454575 -0.037446793 0.10700124 -0.0043811086 -0.09811146 -0.14899454 0.04419073
0.14601405 0.075191945 0.012140993 -0.04924502 0.11297704 0.052466284 0.051692612 0.005207122
-0.11525388 0.0160571 0.22151725 0.112832665 0.015977465 -0.27946964 -0.07218545 0.1864338
-0.19128172 0.074295 -0.020478126 -0.07177536 -0.06378131 -0.03900185 0.028029878 0.001870195
0.040703718 0.03346798 -0.05786388 0.034549642 0.029771755 0.008243774 -0.072523706 -0.01857233
0.043919154 -0.02874537 0.10393999 -0.00040866865 0.07176019 0.007860975 -0.01856144 0.0513359
-0.039041016 -0.022684565 -0.20208116 -0.021736307 0.0835874 0.117985725 0.20577475 -0.061211854
-0.07679607 -0.027215708 0.044679638 0.19643903 -0.19230554 -0.18188238 -0.025105234 -0.022034299
0.12031644 -0.25003308 -0.02635026 -0.063923016 0.037703723 0.07237594 -0.13684371 0.003083942
0.064485684 0.14605051 0.2259407 0.11672787 0.1074549 0.10246464 0.110283844 0.10935781
0.12162923 0.101990975 0.060032282 0.008068189 0.14729986 0.08973292 0.085600965 -0.07811251
0.040555194 0.08655821 0.122063264 0.19277889 -0.08085896 0.02520526 -0.10267993 0.13368668
0.07658532 -0.056338232 0.042438116 0.09290732 -0.08102164 0.007388144 -0.037909728 -0.12387936
-0.1042248 0.06903953 -0.0018823934 0.044999596 -0.0043396153 -0.10155511 0.08387576 0.06501411
-0.044738255 0.015623227 -0.12626687 0.017014964 0.049402792 -0.03288304 0.04239118 -0.01190132
-0.037433226 0.09008994 0.07785818 0.026800785 0.0077493684 -0.07374171 0.049523562 -0.0718643
-0.09571095 -0.06651164 -0.06458709 0.04540773 0.0502391 -0.05243365 -0.050467845 -0.03474399
0.07446534 0.045212135 0.09763156 -0.07898666 -0.05862743 0.13310856 0.049056977 0.055340074
-0.0947439 -0.009896616 0.0026339209 -0.10354419 0.0012496524 -0.090282544 0.031881038 0.015181908
-0.0720473 -0.14532033 -0.10352269 0.122550145 0.08227851 0.014461267 0.049548212 0.02113748
0.12499292 0.014893503 -0.0028819703 0.011217843 -0.11667036 0.19827743 0.027700016 0.047228985
0.03180359 -0.16636494 0.04104377 -0.024465093 0.011040534 -0.047431607 -0.12645507 0.037746545
-0.095308796 -0.10801105 -0.12564212 -0.041399963 0.06137963 -0.055805255 0.012574967 -0.06087733
-0.0056306855 0.021280522 0.049262352 0.055972863 -0.061914477 -0.00771288 0.09529111 0.009151919
0.088407755 0.03545021 0.032336682 0.05597961 -0.015092678 0.08605867 0.006381516 -0.0021148436
-0.11910629 -0.09517909 -0.021322072 0.09863937 0.1287467 0.014761411 -0.027811585 0.04588847
-0.012231534 0.019897325 0.06357085 0.026696134 0.05705939 0.10095404 0.025980776 -0.0061045336
-0.12568109 0.14367488 0.019323904 -0.18751524 -0.14747368 -0.34241626 -0.1625713 -0.05056658
-0.25491065 -0.12109907 -0.11572964 0.02508531 0.18866658 0.16053763 -0.14604542 0.07285275
0.06440261 0.12891881 0.05182343 -0.0832072 0.064837456 0.062263127 0.2009978 0.078713186
0.11565252 0.029454995 0.1391866 0.14683504 0.16597266 0.062339243 0.061012775 0.083194956
-0.09193646 -0.2554921 0.10733277 -0.16477647 -0.25545827 -0.0923844 -0.1039891 0.14889528

conv2.bias f4 [32]
00000000: 3781 383d 554f 903c c3b0 d43d 162e 1e3e
00000010: 304a 3f3b 60d6 9d3c f60c edbc c797 4c3d
00000020: fe3d fa3d 21dc bc3d 8ad4 fc3d 37bc 483e
00000030: 8a21 82bd 6bb5 4cbd 91fa 983d 45ff 87bc
00000040: 5e72 493e bd4a 1b3c da13 15bd 6817 a9bd
00000050: dfd5 013e 4ce4 2d3e 81c5 463e 17bc 323d
00000060: 2104 de3d 1350 803d 85e0 033d bc22 e9bd
00000070: c0bc 943d 7ac5 163e 8d64 41bd f46c febd
0.045045104 0.017615953 0.10385277 0.15447268 0.0029188506 0.019267261 -0.028936844 0.049949434
0.12218855 0.09221674 0.12345226 0.19603048 -0.06354053 -0.0499777 0.07469667 -0.016601214
0.19672534 0.009478268 -0.036395885 -0.082564175 0.12679242 0.1698162 0.1941128 0.043636408
0.10840631 0.06265273 0.03219654 -0.11383578 0.07262564 0.14723769 -0.047215033 -0.12423125

dense1.weight f4 [10, 512]
00000000: f956 95bd 2b49 063e 8f23 3c3c 97d0 42bd
00000010: 293f 8bbc 8877 b6bc ed92 803d 657b b03c
00000020: 17f3 a23c d3f4 87bd ecb6 823c 6074 6c3d
00000030: 5d3a 633c 6813 c33c 07a9 bd3d d65a 5b3d
00000040: 7f4b 283d 9cc2 27bc 03cb 253d a807 aa3d
00000050: 34f0 573d 0d5f a23c 4709 093d 8f51 873c
00000060: ce8e 6f3d 0079 493c 76c9 cfbb c7d3 84bd
00000070: fc59 1e3c e140 b6bc 4336 9fbc 8b8b 7fbc
00000080: 1e61 6fbd 8968 0dbd 6d98 c3bd b81f 983d
00000090: 1305 8cbc f6f8 633c 5f53 ed38 96aa 6a3d
000000a0: 6ef7 963d ac3c 89bd d1a0 ad3d d15c c1bb
000000b0: f999 f73d afa9 95bd 5470 993a 2f23 723b
000000c0: 1fc7 323d 0c65 cf3c 7202 a23d 10dd 963d
000000d0: aeaf ec3d 5f83 e1bc ff09 0d3d 4411 3f3e
000000e0: b2d6 9a3d b99f f4bd a296 0cbd 15c8 08bd
000000f0: d1ae 03bc b4b6 5abe 70cb 483d 9ed6 ecbd
00000100: f89d 733b b23c 2cbd 61b6 aa3c ea84 e6bc
00000110: 9f96 da3d d13a 40bd 17a5 3bbd 481b a33d
00000120: 99cc a93d e18b 993c 48ef 18bd 6800 733d
00000130: 37d2 4ebd 8c51 2dbe a14b a33c 3677 96be
00000140: f20a cabc 2131 903d 70eb a03c 33a4 ad3d
00000150: 29b8 51bc 7b18 773d ed48 a53d d3a7 853d
00000160: 40dd e53c 27da f23d 8ad5 adbb f4bf b1bc
00000170: 78a2 943d 3fd7 463d 3094 a43d 83cb ab3c
00000180: 6afe 443e 8d9b 023d d097 0dbd bd6a 5d3c
00000190: 99d9 ec3d 3b56 2f3d 70b5 a4bd 8fbd 9c3d
000001a0: 3969 453d 6fa8 bcbd c15e 80bd 71d0 023e
000001b0: d76a cbbd 5e81 15be 4cd4 1bbe ed9e eabc
000001c0: ccf1 8f3d 527b 8f3c f064 f7bb 557a f0bb
000001d0: 526e 15bd b44e 8a3d 0f35 8abd 5030 13bd
000001e0: b0e6 1cbd 8a81 b5bc aae9 3bbc b6cd c4bd
000001f0: 138c c23c b685 c93c 8870 c53c 609d a3bd
00000200: 0433 093d c6ee 0dbe ca92 80bd 46e4 cebd
00000210: 0a64 8d3d 3082 2dbe a6ea 85bd 30aa de3d
00000220: 7514 3e3e 8f88 1abd 9798 853d d6ef a83d
00000230: 507c da3d c594 72bd 63a1 e73d e7fa 2abd
00000240: 430f c83d f7ce c5bc e8aa d73c 3a4d e53d
00000250: 14ce f9bc 538f 4dbd 66cc 57bb e21e a13c
00000260: f7cf 45bc 1ff7 7c3b d176 e9bc 5b76 9f3c
00000270: e70d debd 4f14 d7bc d942 3a3c b248 96bd
00000280: 5c8d 06bd ebc4 b1bc 6255 93bd 2be7 37be
00000290: c264 85bd 4eaf 1abd c5a5 b4bd 79c6 3138
000002a0: 7105 adbd 442c d03c 569a b03c 8be1 643d
000002b0: f280 0d3c 49cf 443e 6f78 b13d 6386 013e
000002c0: f4e8 843d c625 b23d ea7f 95be 93d1 e8bc
000002d0: 569d d03d e6aa 6ebc 809c 823d 214b b8bc
000002e0: 2713 ad3d 18fa 8a3c 7be8 1ebd 4739 84bb
000002f0: 4499 a23d a2cc 9c3d ac9a da3d 4835 003d
00000300: b6aa 963b 4ff7 5e3d 13d0 96bd f32f f63d
00000310: 9de7 053d a32a 84bd 9508 b3bc 821f 803d
00000320: 9aaf 21bd 1711 14be 7994 82bd 7869 a7bc
00000330: 79b6 60bd 2885 9cbd d021 a23d 199f 00bd
00000340: 4c7d 17bd b29a e93d 6106 033e 990d 65be
00000350: 637f d3bd 4ec1 d2bd bbea 543d 23c9 a0be
00000360: a742 d33d 48b1 bbbd 448f d1bb 8042 3ebd
00000370: 7e69 37bb 47f5 62bd 490d f9bd 4545 673e
00000380: b3c1 2a3d f477 083d b81d 1b3d a9ab 94bb
00000390: 3cc6 773d 3dcb ab3c 53a9 a73d acec 15bc
000003a0: 9613 263d e54b 9a3c 22b7 65bb 0568 913b
000003b0: 9690 f1bd 066d cbbc 3910 a0ba 4f52 aabd
000003c0: 3e00 dc3d d951 cf39 897e 5ebb bbbd 213d
000003d0: 5b26 133e 60a7 af3d b25d 4abd e119 1d3c
000003e0: 0999 ab3d 80b8 cd3c c1bf 9ebd dd95 37bc
000003f0: 8ed3 1d3d 2614 7abe 685a f1bd 5057 6dbd
-0.07291979 0.13113849 0.011483087 -0.047562208 -0.01699789 -0.022273794 0.06278024 0.021543214
0.019891305 -0.066384934 0.015956365 0.05772817 0.013868895 0.023812965 0.09260755 0.053553425
0.041087624 -0.01023927 0.04047681 0.083022416 0.05271931 0.019820714 0.033456113 0.016518382
0.0584858 0.012296915 -0.0063411547 -0.06485706 0.009665009 -0.022247734 -0.019435054 -0.0155972345
-0.058442228 -0.03452352 -0.09550557 0.07427925 -0.017092263 0.013914337 0.0001131657 0.05729159
0.07371412 -0.06701025 0.08477939 -0.005900957 0.12089915 -0.07307755 0.001170645 0.003694724
0.043646928 0.025316738 0.07910623 0.07366383 0.11556946 -0.027528463 0.03443336 0.1865893
0.07560481 -0.11944527 -0.034323342 -0.033393938 -0.008037285 -0.21358758 0.049022138 -0.115643725
0.0037173014 -0.04205007 0.020838918 -0.02813955 0.1067326 -0.04693109 -0.04581174 0.07964188
0.08290977 0.018743457 -0.03733757 0.05932656 -0.050493445 -0.16925639 0.019933524 -0.29387826
-0.024663422 0.070406206 0.019643515 0.08478584 -0.012800255 0.06032608 0.0807055 0.065261506
0.028059602 0.118580155 -0.005304997 -0.021697976 0.07257551 0.04854512 0.08036077 0.020971065
0.19237676 0.031886626 -0.034568608 0.013514218 0.11564941 0.042806845 -0.08042419 0.07653343
0.04819605 -0.09211814 -0.06268073 0.12774827 -0.099324875 -0.14600131 -0.15217704 -0.028640235
0.07028541 0.017514858 -0.0075498745 -0.007338802 -0.036482163 0.06753293 -0.067484014 -0.035934746
-0.03830594 -0.022156496 -0.011469284 -0.09609549 0.023748433 0.024599891 0.02410151 -0.07989001
0.033495918 -0.13860616 -0.06277998 -0.101021335 0.069038466 -0.16944194 -0.06538896 0.108723044
0.18562491 -0.03772789 0.06523245 0.0824887 0.10668242 -0.05922391 0.11310079 -0.041743185
0.09768536 -0.02414654 0.026326612 0.111963704 -0.030493774 -0.050185513 -0.0032928227 0.019668046
-0.012073508 0.0038599444 -0.028499039 0.019465616 -0.108424954 -0.026254801 0.011368477 -0.07338084
-0.032849655 -0.021700343 -0.0719402 -0.17959277 -0.06513359 -0.03776484 -0.088206805 4.238493e-05
-0.084483035 0.025411732 0.021557968 0.055879157 0.0086367 0.19219698 0.08665549 0.1264892
0.06489745 0.08698611 -0.29199153 -0.028420245 0.101862594 -0.014567113 0.06377506 -0.022496762
0.08450919 0.016964957 -0.03879593 -0.0040351483 0.07939389 0.07656218 0.106740326 0.031300813
0.004597987 0.05443507 -0.07363906 0.12020864 0.032691587 -0.06453445 -0.021854678 0.0625601
-0.039474107 -0.14459644 -0.06375975 -0.020436034 -0.05486152 -0.07642585 0.079166055 -0.031401727
-0.036984727 0.11406459 0.12795402 -0.22368468 -0.103270315 -0.10290776 0.05198167 -0.31403455
0.10315447 -0.09164673 -0.0063952524 -0.046450138 -0.0027986462 -0.055409696 -0.12160737 0.22585018
0.041688632 0.03331752 0.03787014 -0.004537065 0.060491785 0.020970935 0.08186593 -0.009150665
0.040546022 0.018835017 -0.0035051783 0.004437449 -0.11795156 -0.02483226 -0.0012211866 -0.0831648
0.10742234 0.00039543098 -0.0033949933 0.03948758 0.143701 0.08576846 -0.04940576 0.00958869
0.083787985 0.02511239 -0.07751418 -0.011205164 0.038531832 -0.24421749 -0.11784822 -0.057944596

dense1.bias f4 [10]
00000000: 360e 00bc 21e5 d8bc 7a7a f93d dd47 5a3c
00000010: ea54 58be ac59 dfbd 6de8 3c3c 4a51 913d
00000020: 18a8 e83d 7409 223d
-0.007815888 -0.026476445 0.12181564 0.013322798 -0.21126142 -0.109057754 0.011530024 0.07095583
0.11360186 0.039559796
