saved_weights/Model_epoch_no_7_train_acc_90.68_val_acc_89.58.pth (torch_old, 74661 bytes, 6 tensors)

conv1.weight f4 [16, 1, 5, 5]
000000 86 60 88 3e c1 ba 7a 3e f5 c9 bb 3d 28 46 8d 3e
       0.26636142 0.24485303 0.091693796 0.27592587
000010 4e 27 83 bd 4d 84 20 be 5d 24 09 bd 97 6a 91 be
       -0.06403981 -0.15675469 -0.033481944 -0.28401634
000020 89 64 a7 bd b3 a7 0c be e1 7e cb bd 49 01 63 be
       -0.081734724 -0.13735847 -0.099363096 -0.22168459
000030 9a 19 c0 be ca da 4c 3a 64 19 e3 3d 3f b3 cc bc
       -0.37519532 0.00078145845 0.11088827 -0.024987815
000040 a5 c2 72 be 7d 1c 90 bc d5 88 5d 3e 98 06 a2 3e
       -0.23707063 -0.01759171 0.21634229 0.31645656
000050 6f af 61 3e 39 40 62 be a4 0d 70 be e9 b9 53 3e
       0.22039579 -0.22094811 -0.23442703 0.20676388
000060 e4 db 9c 3e 8c ad 23 3d c6 af 01 be 75 99 ed 3d
       0.30636513 0.03996043 -0.12664708 0.11601535
000070 8a c2 8c 3e 83 8e 55 be 97 12 0b 3e 12 c7 10 be
       0.27492172 -0.20855145 0.1358131 -0.1413844
000080 88 1c 15 bd 40 f5 27 3d 31 26 c2 bd f8 1c 09 3e
       -0.036404163 0.041005373 -0.09479941 0.13389957
000090 9c 3d 41 be 2d 59 5b bd 3a 4b ad 3d ba d8 11 3d
       -0.18871158 -0.05355184 0.08461614 0.035607077
0000a0 1d 75 fe 3d 70 1a 14 be cd e8 d4 bb 14 53 3f 3e
       0.12424681 -0.1446321 -0.0064974786 0.18684036
0000b0 28 bf bb bc be e7 3c bd ac f9 88 be 00 37 88 3e
       -0.022918299 -0.046119444 -0.26752985 0.26604462
0000c0 0b a2 a7 3d 89 40 1f be 19 89 68 3e 8e 1b 7e 3d
       0.08185204 -0.15551962 0.22708549 0.062037997
0000d0 f0 39 50 3e b7 44 64 be 6e c8 f3 3d bc ca a2 3d
       0.20334601 -0.22291838 0.11903463 0.07948825
0000e0 c7 a1 4b 3e 67 8f 1b be 47 50 53 be 92 a0 e1 3d
       0.19885932 -0.15191422 -0.20636092 0.110169545
0000f0 81 32 08 3d 99 94 cb be 04 52 57 be 60 92 22 3e
       0.03325129 -0.3976181 -0.2102738 0.1587615
000100 98 79 2f bd d0 61 bb be 05 8a ae bf c4 70 8b bf
       -0.04284057 -0.36598063 -1.363587 -1.0893788
000110 45 20 c8 bd b2 07 3b 3e 37 c1 11 be a2 91 9c bf
       -0.0977178 0.18264654 -0.14233862 -1.2231944
000120 51 74 6e bf e6 7b 27 bd f8 22 05 be d2 27 e7 3a
       -0.93146235 -0.040889643 -0.13001621 0.0017635769
000130 f2 e5 0f be 87 54 a5 be e4 f1 e0 bc c8 f5 56 be
       -0.14052561 -0.32291052 -0.027459092 -0.20992196
000140 e6 8c 0e 3e 6c d7 3c 3d d8 29 ee bc 91 0d aa be
       0.13920936 0.04610388 -0.029072687 -0.33213475
000150 12 79 b0 be ab 5b a3 3d 20 09 8e 3e ae e3 40 3d
       -0.3446737 0.07976469 0.27741337 0.047092132
000160 15 bd f1 bd e4 80 4f be 08 55 5d 3e 84 32 8e 3e
       -0.11803643 -0.20264012 0.21614468 0.27772915
000170 11 d0 b3 3e d2 67 6e 3e f1 61 8c bd 4c 53 8f bd
       0.3511968 0.23281792 -0.06854618 -0.069983095
000180 c5 ac 8e bd e6 48 eb 3c 1c 1a 0b 3e 4c 4f cc 3d
       -0.06966547 0.028721284 0.13584179 0.09976062
000190 79 d0 5f 3e 9f 99 98 3e 8f 2e ba bd ca a6 26 3e
       0.2185687 0.29804704 -0.090909116 0.16274562
0001a0 e5 f6 83 3d 56 2a 52 3e 44 ac 12 3e e3 7a 6e 3e
       0.06443576 0.20523962 0.14323527 0.23289065
0001b0 cb 80 1a 3e a3 53 92 bd 67 9d 81 3e 34 a7 f1 3c
       0.15088193 -0.07144859 0.253154 0.029498674
0001c0 a8 f2 30 3d 5e fd dc bd bb 18 8a bd ec ba 2f be
       0.043200165 -0.107905135 -0.06742998 -0.17161149
0001d0 d4 90 eb bd 48 77 24 3e 74 0c 5a 3e 00 3c db bd
       -0.11502233 0.16061127 0.21293813 -0.107048035
0001e0 fc 9b 88 be cb 3d a5 bd fd 37 63 be 4a db 7e be
       -0.26681507 -0.08068427 -0.22189327 -0.2488834
0001f0 53 e0 d0 bd 34 3f 1c 3e c6 0d af 3e 0c 76 f8 bc
       -0.101990364 0.15258485 0.34190196 -0.030329727
000200 86 11 1f be 9f 53 03 3e d4 4c 06 be 2f 26 85 3e
       -0.15534028 0.12824868 -0.13115245 0.26005694
000210 be 54 f6 bd f3 37 3b be 74 b4 ad be 37 3d 72 be
       -0.12027882 -0.18283062 -0.33926737 -0.23656164
000220 85 4f 9c 3e 25 33 26 be 29 36 c4 bd b4 95 16 bd
       0.3052942 -0.16230448 -0.09580643 -0.03676386
000230 23 62 2f be 89 ae 63 3e 79 5b 17 3e 4e e0 2a be
       -0.1712728 0.22234549 0.14780988 -0.16687128
000240 a8 f5 22 3e cd c1 be bc 3b e9 81 3e 10 b4 85 bd
       0.15914023 -0.02328577 0.25373253 -0.06528485
000250 c8 93 20 bd 51 fa 95 3b 1b 46 bd bd d5 48 99 bd
       -0.039203435 0.004576959 -0.09241887 -0.07484595
000260 b5 c1 aa 3e 89 e6 90 bd 6b 14 8e 3d 53 3b 10 be
       0.33350912 -0.07075221 0.06937488 -0.1408513
000270 33 cb 92 bd fe c0 95 3e 81 63 57 be 04 0d 3f bc
       -0.071676634 0.29248804 -0.21034051 -0.011660818
000280 6b 22 ff bd a0 4c fd bd 20 2c a3 3e 8e 38 67 be
       -0.124577366 -0.12368131 0.31869602 -0.22580168
000290 7d 31 84 bd 62 8d 54 3e a2 ce 71 bd c1 d5 06 3e
       -0.06454752 0.20757058 -0.05903495 0.13167478
0002a0 7e 12 7d be 38 4b c1 bd 88 40 a4 3d 3c 90 33 be
       -0.24714085 -0.09438175 0.08020121 -0.1753549
0002b0 8a e0 80 3e 4f 32 d8 3d be d7 c3 bb af 48 08 be
       0.2517131 0.105564706 -0.005976646 -0.13308977
0002c0 90 09 39 be 18 83 41 be b2 0f 3d 3e 5b 42 9d 3e
       -0.18070054 -0.18897665 0.18463019 0.30714688
0002d0 a3 4b 0a 3c ae 0b 1b 3e ee b2 b9 bc f4 d4 68 3e
       0.008440885 0.15141174 -0.022668328 0.22737485
0002e0 f9 be 79 3e 5f b5 d9 3d 3f 82 2a be 20 d4 6d bc
       0.24389257 0.10630297 -0.16651247 -0.014515907
0002f0 34 ff 91 3d f1 12 af bc af b5 84 bd 5d ed dd 3d
       0.07128754 -0.021371337 -0.06479966 0.10836289
000300 57 68 01 3e 0c 71 8b bd eb 7b 20 3e 73 e4 2a 3e
       0.12637459 -0.06808671 0.15672271 0.16688709
000310 11 09 d4 3c a1 2f 3c be e2 6d 47 3d dd 75 0d bd
       0.02588323 -0.18377544 0.048688777 -0.03453623
000320 aa e3 de 3c a4 f2 5c be c4 3c 2e be c2 34 d9 3e
       0.027208168 -0.21576935 -0.17015368 0.42423064
000330 b1 b3 ad 3d 16 10 9a 3c b3 ce ab be 6e b2 b8 be
       0.08481539 0.018806498 -0.33556136 -0.3607363
000340 a4 66 b9 3e 4c 7c 0e be b7 b0 0f 3e c6 f0 6c 3e
       0.3621112 -0.13914603 0.14032255 0.23138723
000350 e9 5d 8a be 70 62 7f 3e be 54 0c be 07 40 71 3e
       -0.27024773 0.24939895 -0.13704202 0.2355958
000360 8c 4a d7 3d 68 08 99 bd 10 34 79 bd a9 59 70 3e
       0.105122656 -0.074723065 -0.060840666 0.23471703
000370 7a 93 42 be 38 9d 32 bd 2a 87 cd be 63 ef 79 bd
       -0.1900157 -0.043606967 -0.40142184 -0.061019313
000380 04 37 af 3e bb fa 0a bf 73 18 d1 be c1 32 a1 be
       0.3422166 -0.54288834 -0.40838966 -0.31484035
000390 97 18 f9 3c a1 53 c9 3b e8 12 07 be 76 d8 66 bd
       0.030407233 0.0061440025 -0.13190806 -0.056358777
0003a0 4e fa 04 be b5 6a 30 be f6 53 d4 3d 7f 04 b4 bc
       -0.12986109 -0.17228206 0.10367577 -0.0219748
0003b0 01 e0 aa 3e 5f 70 7e 3d 27 a9 7f bd 71 9f a9 3c
       0.33374026 0.062118884 -0.062417176 0.02070591
0003c0 5c 85 87 3d 25 1d 84 3e a5 1b 13 bc b6 a3 cc 3d
       0.06617233 0.25803486 -0.008978759 0.09992163
0003d0 51 7c 1f 3e ec 23 b4 3e 0c 92 37 3c 08 ca 1d bd
       0.15574767 0.35183656 0.011204254 -0.03852275
0003e0 d3 e1 aa bc 52 a6 7c 3e a8 69 a4 be 32 4c 43 3e
       -0.020859635 0.24672821 -0.3211186 0.19072035
0003f0 d1 22 4f 3e ee db eb bc a7 34 5b 3d 55 59 72 be
       0.20228125 -0.028791394 0.05351701 -0.2366689

conv1.bias f4 [16]
000000 76 e4 ec bb 4a b2 1a bc 7b 1e c6 3e 3a f2 13 bd
       -0.007229383 -0.0094419215 0.3869513 -0.036119677
000010 1b 5f 71 bc 98 4b ba bc a7 eb 82 3b cc f2 ad bc
       -0.014732148 -0.022741124 0.003995377 -0.021233939
000020 ad 3d 0c 3d b4 14 65 3c a6 39 2e bb 9b 01 26 3d
       0.034238506 0.013981987 -0.0026584654 0.040528875
000030 8a 02 57 3d 16 65 2a 3e cd 07 80 3e cf a9 dc bb
       0.052492656 0.16640124 0.25005952 -0.00673411

conv2.weight f4 [32, 16, 5, 5]
000000 43 b1 a8 3c 29 8c 99 bc 53 c3 66 bd 1f 9a aa 3d
       0.020592337 -0.018743591 -0.05633862 0.083301775
000010 e5 84 69 bc 8a 0c 9c bd 7a 30 15 be 1c 0b 02 3d
       -0.014252876 -0.07619579 -0.14569274 0.031748876
000020 aa ca 00 3e 02 87 89 3d 05 b8 fd 3c 24 a2 43 bd
       0.1257731 0.06715204 0.030971536 -0.04776205
000030 61 c3 e5 3d 65 1b 67 3d 15 96 54 3d b8 f4 d6 3c
       0.11218906 0.05642261 0.051900942 0.026239738
000040 25 93 03 be 47 47 3b 3c 15 85 53 3e 2a ff b1 3d
       -0.128491 0.011430568 0.20656236 0.08691247
000050 7c c2 f3 3c 0a 57 88 be f1 ab 9b bd 1b f4 0b 3e
       0.029755823 -0.26628906 -0.076011546 0.13667338
000060 0c 7a 43 be c3 7c a4 3d cb 24 92 bc 4e 9b a2 bd
       -0.19089526 0.08031609 -0.01783981 -0.07939778
000070 72 60 91 bd eb 36 75 bd ab 5d 11 3d f3 9b 9b 3b
       -0.070984736 -0.059866827 0.03548972 0.004748815
000080 49 8c ec 3c 6f 33 9b 3c 08 1d 8d bd 04 23 06 3d
       0.028875487 0.018945424 -0.06890303 0.032748237
000090 89 e7 b7 3c f2 53 a7 3b 98 53 98 bd 0b fa c9 bc
       0.022449272 0.0051064426 -0.07437819 -0.024655363
0000a0 a7 ff 52 3d 94 06 ec bc c7 15 c3 3d fa c9 f1 bb
       0.05151334 -0.02881173 0.09525638 -0.007378814
0000b0 ff 67 47 3d c8 2b f2 3b fc 48 61 bc e5 7b 6b 3d
       0.048683163 0.007390473 -0.013750311 0.057491202
0000c0 ed 05 41 bd ed 19 dd bc 54 9c 67 be df 2e ff bc
       -0.047124792 -0.026989901 -0.22618228 -0.03115028
0000d0 b2 d1 9e 3d 78 4e ed 3d 6a 9e 5b 3e cd 30 b4 bd
       0.0775484 0.11587232 0.21447149 -0.087983705
0000e0 c6 8f 87 bd 4b b9 c5 bc 66 01 47 3d 4e 43 57 3e
       -0.066192195 -0.024136206 0.048585318 0.21021768
0000f0 83 da 47 be 91 4c 34 be cb 5e 97 bb fa 40 ff 3a
       -0.1951695 -0.17607333 -0.0046194545 0.001947432
000100 ef 15 0f 3e fe c6 71 be 97 11 69 bc 06 87 35 bd
       0.13973211 -0.23611066 -0.014225385 -0.04431822
000110 19 4f 37 3d 09 f1 9e 3d 1d 7e 04 be 79 77 d6 bb
       0.044753168 0.077608176 -0.12938733 -0.006545004
000120 18 e7 63 3d e2 ae 01 3e 4e 74 58 3e d1 34 de 3d
       0.05564031 0.12664369 0.21138117 0.10849918
000130 46 4d b8 3d 4b 82 c7 3d 42 47 f1 3d b3 44 08 3e
       0.08999114 0.09741648 0.117811695 0.13307457
000140 77 07 0b 3e 49 42 e0 3d ae 23 7e 3d 8d 26 69 3c
       0.13577066 0.10950143 0.062045746 0.014230383
000150 a6 e2 0f 3e 0a 5d 9f 3d e4 b8 9c 3d 00 93 82 bd
       0.14051303 0.07781418 0.076524526 -0.06375694
000160 a1 91 92 3d 97 25 be 3d b7 a2 eb 3d c7 52 3a 3e
       0.07156683 0.092845134 0.11505645 0.1819564
000170 10 cd 94 bd 23 d3 1f 3d aa 35 9d bd 6c 98 fd 3d
       -0.07265675 0.039019715 -0.07676251 0.12382588
000180 23 5a 92 3d d1 f6 1e bd 38 be 1d 3d 69 80 b7 3d
       0.071460985 -0.0388096 0.038511485 0.08960039
000190 f4 3e 8b bd 51 38 6b 3c 68 dd 0e bd b3 bf e8 bd
       -0.06799117 0.014356689 -0.03487912 -0.11364689
0001a0 01 61 cc bd 94 17 ab 3d 5e f9 13 3b 82 01 1b 3d
       -0.099794395 0.083541065 0.0022579054 0.037843235
0001b0 16 ab b8 3a 74 87 be bd 5f 86 b7 3d a0 e9 84 3d
       0.0014089074 -0.093031794 0.08961176 0.06489873
0001c0 b5 73 03 bd de 14 cb 3c 27 47 f5 bd bd d5 8b 3c
       -0.03209277 0.024790224 -0.11976462 0.017069692
0001d0 65 97 44 3d 92 d3 15 bd b1 32 fe 3c 0a f7 db bc
       0.047995944 -0.036578722 0.03103003 -0.026851196
0001e0 1e aa 17 bd 0d 02 a9 3d df 56 8b 3d ce a2 92 3c
       -0.03702747 0.08252344 0.06803679 0.017899897
0001f0 a5 d3 6c 3a cf ad 59 bd 63 8a 45 3d a7 bb 93 bd
       0.0009034223 -0.053144272 0.04822768 -0.07213526
000200 8d 47 d4 bd 4e 2e 96 bd 2b 2d 5c bd 13 8a 23 3d
       -0.1036521 -0.07333051 -0.053754013 0.0399266
000210 ee d2 2e 3d 58 fe 5d bd 9c eb 7a bd 41 7a e3 bc
       0.042681627 -0.05419764 -0.06125985 -0.027768256
000220 24 44 80 3d 38 21 2b 3d bd 05 d6 3d f0 e8 8d bd
       0.06262997 0.041779727 0.10450313 -0.06929195
000230 94 ef 6f bd 3f 5c f5 3d 5f 36 28 3d 85 ba 48 3d
       -0.05857809 0.11980485 0.041067477 0.049006004
000240 08 ab bb bd 74 ba 66 bc f1 30 e8 3b ea f6 c5 bd
       -0.09163481 -0.01408254 0.0070859124 -0.09666236
000250 a1 5b bc bb 53 1d ad bd 3e cd 57 3d 8d be 9b 3c
       -0.0057482277 -0.08452859 0.05268597 0.01901176
000260 f6 c1 82 bd 04 69 18 be c4 6c e9 bd 7f cb dd 3d
       -0.06384651 -0.1488381 -0.113976985 0.108298294
000270 14 a5 9e 3d b0 75 63 3c 68 be 15 3d 65 6b ba bb
       0.0774633 0.013883039 0.03655854 -0.005689072
000280 47 6f ca 3d a6 da d6 3b 49 99 0b bc 07 cf de 3b
       0.09884506 0.0065568266 -0.008520433 0.006799582
000290 da e1 ec bd f4 4b 24 3e d0 ae 0c 3d fb 70 15 3d
       -0.11566515 0.16044599 0.0343464 0.0364847
0002a0 16 cf 86 3c 28 68 10 be 5a 88 94 3c 79 79 18 bc
       0.016456168 -0.14102232 0.018131424 -0.009306305
0002b0 b4 85 54 3c 66 6c 4d bd b9 61 08 be d1 89 22 3d
       0.01297133 -0.050152205 -0.13318528 0.039682213
0002c0 a9 f2 b0 bd e9 81 da bd 2f 47 08 be 3a 2c 3f bd
       -0.08640034 -0.1066931 -0.13308404 -0.046673037
0002d0 ed 20 80 3d 26 f9 4e bd d0 b8 5c 3c cd 06 92 bd
       0.0625628 -0.050530575 0.013471797 -0.071302034
0002e0 51 6d 76 bc a5 16 be 3c 00 46 5a 3d 8e 4e 56 3d
       -0.0150407115 0.023204157 0.053289413 0.05232101
0002f0 69 f3 93 bd 10 7d 8c bc 93 8d b8 3d af 39 c0 3b
       -0.07224161 -0.017149478 0.09011378 0.0058662514
000300 8c 3f 99 3d 82 be e4 3c 53 62 9b 3c 96 6b 6a 3d
       0.07482824 0.027922872 0.018967783 0.05723151
000310 94 5e a8 bc 44 5a 9e 3d 7a d4 43 3b 40 54 cd bb
       -0.02055291 0.077320606 0.0029881285 -0.006266147
000320 2f aa d7 bd ea d8 a2 bd 73 a1 2d bd 53 23 8c 3d
       -0.10530507 -0.07951529 -0.042390298 0.06842675
000330 29 20 e4 3d fa 1a b9 3c ec 92 cf bc e8 f7 ea 3c
       0.111389466 0.022595871 -0.025338612 0.028682664
000340 1d ca 88 bc d1 fa e4 3b ba 71 82 3d a6 73 89 3b
       -0.016697938 0.0069879075 0.06369348 0.0041946946
000350 d3 33 4a 3d b6 a8 c0 3d 68 cb e1 3c 2a 2f 93 3b
       0.04936583 0.09407179 0.027562812 0.0044917064
000360 8b fa 04 be e0 9f 04 3e 0e 4f 07 3c 7f e2 37 be
       -0.129862 0.12951612 0.008258594 -0.17957495
000370 a3 b4 0b be 38 f0 af be d9 4a 23 be d5 d7 32 bd
       -0.13643126 -0.3436296 -0.15946521 -0.043662865
000380 9d 46 65 be 53 1d ea bd c8 60 fb bd e6 b1 5e 3a
       -0.22390218 -0.114313744 -0.12274319 0.0008495137
000390 97 30 2f 3e b2 f4 26 3e 25 3e 09 be 44 e0 89 3d
       0.1710838 0.16304281 -0.13402613 0.067322284
0003a0 53 18 4c 3d a3 d3 d2 3d 47 c1 09 3d 1c a9 a9 bd
       0.049827885 0.10294273 0.03363159 -0.08284208
0003b0 87 87 39 3d ea 8b 4a 3d 1a 9b 3e 3e d4 ac a6 3d
       0.045295265 0.04944984 0.18613854 0.08138433
0003c0 f8 3e ce 3d 90 8f e8 3c d7 87 01 3e 8f 72 13 3e
       0.10070604 0.028388768 0.12649475 0.1439917
0003d0 28 74 38 3e b4 f8 4a 3d 3f 5d 43 3d 88 a1 a6 3d
       0.1801306 0.049553588 0.04769635 0.081362784
0003e0 ea a3 a6 bd f1 b7 52 be a1 94 db 3d 24 23 25 be
       -0.08136733 -0.2057798 0.10721708 -0.16126686
0003f0 3b eb 5c be 20 e0 02 be b2 bc e7 bd 80 02 06 3e
       -0.21574108 -0.1278081 -0.11315288 0.13086891

conv2.bias f4 [32]
000000 b9 53 29 3d 40 6b 83 3c 62 28 bf 3d 8e eb 05 3e
       0.04133961 0.016042352 0.09333874 0.13078138
000010 15 11 12 3b 4b d0 61 3c 4c 5b 94 bc 61 8b 35 3d
       0.0022288014 0.013782571 -0.01810994 0.044322375
000020 27 2a ea 3d 4e ac b9 3d 64 4e d2 3d 91 aa 41 3e
       0.11433821 0.09066068 0.10268858 0.18912722
000030 c3 2f 79 bd 73 85 f6 bc 1c 0d a4 3d f0 23 ae bc
       -0.060836565 -0.03009293 0.08010313 -0.02125737
000040 ea 1a 42 3e bd 4a 1b 3c e9 86 3c bd 7e f9 ab bd
       0.1895558 0.009478268 -0.046027098 -0.08397196
000050 c2 ae e7 3d d9 a1 1d 3e 71 f7 2e 3e f9 c4 1f 3d
       0.11312629 0.15393771 0.17086579 0.039006207
000060 58 a2 ce 3d 6a a1 5d 3d 33 3b 01 3d ea ae e0 bd
       0.10089558 0.054109015 0.031550597 -0.10970862
000070 cf b5 3f 3d 3e 1e 06 3e e7 d3 20 bd fc 37 e1 bd
       0.046804246 0.13097474 -0.039264586 -0.10997006

dense1.weight f4 [10, 512]
000000 6c 4e 85 bd 7e 4b fc 3d 82 d9 a0 3b 3a d2 26 bd
       -0.065090984 0.123190865 0.0049087415 -0.04072783
000010 ab d5 96 bc 14 df 81 bc 3a 67 62 3d f8 2a a1 3c
       -0.018412432 -0.015853442 0.055274226 0.01967381
000020 56 44 08 ba ae 82 66 bd ee 7b d2 3c 75 df 63 3d
       -0.0005198171 -0.05627697 0.02569386 0.055633027
000030 17 29 d7 bb 45 da ed 3c 07 48 a3 3d 2d ca 74 3d
       -0.0065661776 0.029034743 0.079727225 0.059763122
000040 5e 13 10 3d cf 3d 31 bc a6 1a 37 3d 9e 9d aa 3d
       0.03517472 -0.010817959 0.04470315 0.08330844
000050 ca b3 22 3d d1 e4 4e 3c fd 62 f6 3c c6 a5 85 3c
       0.03972224 0.012627796 0.030076498 0.016314398
000060 2b f1 69 3d e2 f1 99 3a e5 04 ed bb ef 26 86 bd
       0.05711476 0.001174506 -0.0072332495 -0.06550395
000070 24 1e 66 3c 83 47 ec bc d4 d0 94 bc 4e 65 e9 bc
       0.014045272 -0.028842693 -0.018165983 -0.028490689
000080 fe 8f 42 bd 50 4d 22 bd 2f 77 c8 bd e8 1b 9d 3d
       -0.047500603 -0.039624512 -0.097883575 0.07671338
000090 b4 9a 73 bc cc 7a 90 3c ca 0d 4c bc 96 42 73 3d
       -0.014868427 0.01763668 -0.012454459 0.059389673
0000a0 52 99 7f 3d 1b 02 67 bd 1a f0 9b 3d 8d ba 36 3b
       0.062402077 -0.056398492 0.07614155 0.002788219
0000b0 84 d8 e4 3d 91 df b7 bd 8a ca ff 39 8a 71 2b 3c
       0.111741096 -0.08978189 0.00048788293 0.010464082
0000c0 62 02 28 3d 83 6d 83 3c fb 25 98 3d f3 a0 9d 3d
       0.041017897 0.01604343 0.07429119 0.07696714
0000d0 8e 20 eb 3d fd da e5 bc 73 0c 15 3d 23 17 28 3e
       0.11480819 -0.028058523 0.036388826 0.16415076
0000e0 c5 28 9e 3d c9 2a e4 bd 26 0b 02 bd 59 5a bd bc
       0.0772262 -0.11140973 -0.031748913 -0.02311437
0000f0 5d 6a 3f bb 0e dc 57 be 72 de c3 3c d1 5d e8 bd
       -0.0029207685 -0.21080038 0.023909781 -0.11346019
000100 55 1b bd 3b b6 4a 2b bd 7c cf bb 3c 63 26 32 bc
       0.0057710805 -0.041819297 0.022926085 -0.01087341
000110 82 83 d7 3d 31 9c 44 bd 23 cf 3a bd b6 e7 92 3d
       0.1052313 -0.04800052 -0.045607697 0.071731016
000120 61 2f a1 3d f5 2a 16 3c 89 10 f6 bc 09 df 56 3d
       0.07870365 0.009165515 -0.030037181 0.052458797
000130 c7 c1 50 bd a8 85 31 be af e2 96 3c 22 78 91 be
       -0.05096605 -0.17336142 0.018418638 -0.28411967
000140 f0 87 09 bd 5e ab 5e 3d 77 bc a7 3c 19 de b9 3d
       -0.033576906 0.054362647 0.02047561 0.09075565
000150 3d 37 80 bc 51 eb 04 3d 8d ec 91 3d f0 6f 86 3d
       -0.01565134 0.032450978 0.071251966 0.06564319
000160 a2 d6 03 3d 09 2d d8 3d ca 9b be bb 18 98 a4 bc
       0.03218711 0.10555465 -0.0058169113 -0.020092055
000170 be 08 97 3d d5 be 45 3d b8 41 9a 3d af e1 97 3c
       0.07374714 0.048277695 0.07532066 0.018540232
000180 3e e6 43 3e 85 0d 20 3c bd b4 11 bd 07 79 9c 3c
       0.19130799 0.009768848 -0.035572756 0.01910068
000190 db 4c ec 3d ce 83 d5 3c 57 3d bb bd e3 0c 9f 3d
       0.115380965 0.026063826 -0.09142559 0.0776613
0001a0 22 c1 2a 3d 89 0e ba bd ff 4b 85 bd 49 cf ec 3d
       0.041688092 -0.090848036 -0.06508636 0.11562974
0001b0 b5 97 cf bd 58 90 13 be 4a 12 15 be 23 ad 0d bd
       -0.10136358 -0.14410532 -0.14557758 -0.034588944
0001c0 aa 4d 76 3d 8a ed 5a 3c cf 28 c3 bb e4 17 84 ba
       0.06013266 0.013362298 -0.0059557925 -0.0010077921
0001d0 48 05 f6 bc 4a 63 7d 3d 7b 19 6b bd 16 fb 19 bd
       -0.030031815 0.061862268 -0.057397347 -0.03759297
0001e0 a1 56 f9 bc 46 f5 ba bc 11 78 63 bb f1 a8 b0 bd
       -0.030436816 -0.022822034 -0.0034709016 -0.08625973
0001f0 61 6d a7 3c aa 3a d3 3c 1f a7 af 3c 31 c3 8c bd
       0.020437898 0.02578481 0.021441994 -0.06873167
000200 63 86 08 3d 88 ad 06 be ba 1d 88 bd 15 7b cc bd
       0.033331286 -0.13152134 -0.06646295 -0.099844135
000210 44 bb 94 3d ff 0a 1c be 2d 6b 7c bd fd b2 b3 3d
       0.072622806 -0.1523857 -0.06162565 0.08774374
000220 66 78 2d 3e b4 19 2b bd 57 c9 5e 3d 5f 32 a9 3d
       0.1694046 -0.04177256 0.05439123 0.08261561
000230 90 11 c1 3d 03 88 83 bd e6 2b d0 3d 61 9c 0d bd
       0.09427178 -0.064224266 0.10164623 -0.034572963
000240 be bc ba 3d a3 8d c3 bc e4 05 aa 3c 78 b4 d6 3d
       0.09118031 -0.023871249 0.020754762 0.104836404
000250 ec 06 5b bd a6 ce 7c bd ee 75 e6 ba e5 8e 8e 3c
       -0.053473398 -0.061720513 -0.0017582753 0.017402122
000260 11 1e 8f bc 61 c2 d7 bb be 8a 0a bd f9 94 63 3c
       -0.017470391 -0.006584451 -0.03382372 0.013890498
000270 a1 62 b0 bd 61 25 58 bc 8e 0f 13 3c e5 4e 84 bd
       -0.08612562 -0.013192506 0.0089758765 -0.064603604
000280 6d c6 24 bd 5c cf e8 bc eb a6 93 bd f0 9a 2d be
       -0.040228296 -0.02841919 -0.072095715 -0.16953635
000290 05 0d 6e bd 2c 29 0b bd 03 11 a9 bd a7 45 c9 bb
       -0.058117885 -0.03397481 -0.08255198 -0.0061423364
0002a0 49 4b a4 bd 94 a9 eb 3c e4 2e ac 3c 89 27 60 3d
       -0.08022172 0.028767385 0.021018453 0.054725204
0002b0 a0 a0 a1 bb 12 68 3c 3e be d5 b3 3d e5 a4 fd 3d
       -0.004932478 0.18399075 0.087810025 0.12384967
0002c0 a1 d9 8a 3d 11 af 97 3d 35 2a 8e be a0 52 0d bd
       0.06779791 0.07406438 -0.27766576 -0.034502625
0002d0 54 f9 d4 3d 21 33 00 bc 08 8d 3f 3d a4 a9 ae bc
       0.10399118 -0.00782469 0.046765357 -0.021321125
0002e0 d2 e0 b2 3d 8d 01 8c 3c 51 75 d9 bc f5 96 4a 3b
       0.08734287 0.017090583 -0.026545199 0.0030912731
0002f0 90 a3 ac 3d 74 fb 86 3d 81 b7 d3 3d b9 5a c8 3c
       0.084296346 0.065909296 0.10337735 0.024457322
000300 66 15 0f 3a 0c 30 12 3d 5b 6a 93 bd 69 f2 e4 3d
       0.00054582057 0.035690352 -0.0719802 0.111790486
000310 ca 15 0a 3d 06 d4 7c bd 33 a0 f4 bc af 7e 7f 3d
       0.033712186 -0.06172564 -0.029861545 0.062376674
000320 8a c5 2f bd 92 3e f7 bd a9 cc 50 bd 12 a0 8b bc
       -0.042912997 -0.12072481 -0.05097643 -0.0170441
000330 fb c6 2e bd 48 3e 88 bd 8e 48 92 3d 9a de fc bc
       -0.04267023 -0.06652504 0.07142745 -0.030867863
000340 ac 93 1b bd c9 ea bb 3d 6a db d8 3d 57 06 55 be
       -0.037982628 0.09175641 0.10588725 -0.208032
000350 25 fd d7 bd 91 4e ce bd 7a 0a 0c 3d af 98 98 be
       -0.1054633 -0.10073579 0.03418968 -0.29803988
000360 85 87 c7 3d 3c ea a5 bd 72 d3 8d bc 56 69 5e bd
       0.09742645 -0.08101317 -0.017312739 -0.054299675
000370 b2 5a 05 3b 68 a4 0c bd 2f fe b6 bd c4 cf 54 3e
       0.0020348248 -0.034336478 -0.089352004 0.20782381
000380 09 d4 60 3d 16 4d d6 3c e2 af 00 3d fe 52 cd 3a
       0.054889712 0.026159804 0.031417735 0.0015664992
000390 f8 fc 50 3d 36 35 82 3c 7b dc 98 3d 37 96 6e bc
       0.0510225 0.015894514 0.07463928 -0.014562181
0003a0 cc fe f3 3c fc 6d 5b 3c 8e 05 e2 bb 14 7d 14 38
       0.029784583 0.013392922 -0.006897635 3.5402438e-05
0003b0 57 f3 f3 bd a0 04 a5 bc 6a e9 54 bb 16 51 84 bd
       -0.11911648 -0.020143807 -0.0032487758 -0.064607784
0003c0 04 75 da 3d 8f c0 28 bc f6 0d 73 bc b4 a5 16 3d
       0.1066685 -0.010299816 -0.0148348715 0.03677912
0003d0 e9 3f 0c 3e 09 32 a0 3d fa 47 47 bd d6 27 00 3c
       0.13696255 0.078220434 -0.048652627 0.007821998
0003e0 2a 57 ad 3d 90 67 00 3d 04 4e 95 bd 30 ab 1b bc
       0.08463891 0.031348765 -0.07290271 -0.0095012635
0003f0 67 67 16 3d 67 ed 75 be 63 88 ea bd 5a ae 56 bd
       0.036719706 -0.24016343 -0.11451795 -0.05241237

dense1.bias f4 [10]
000000 81 b8 e9 bb 7c 86 c7 bc 37 1b ed 3d f0 44 36 3c
       -0.0071325903 -0.02435612 0.115774564 0.011124834
000010 04 b3 49 be e2 7b db bd da 8b e4 3b 91 b6 96 3d
       -0.19697195 -0.10716988 0.0069746794 0.073590405
000020 5b 37 d9 3d 7c 74 0e 3d
       0.10606261 0.034779057
