saved_weights/Model_epoch_no_16_train_acc_93.75_val_acc_90.75.pth (torch_old, 74661 bytes, 6 tensors)

conv1.weight f4 [16, 1, 5, 5]
0	0x3e93bff6	0.28857392
1	0x3ec3b8bd	0.38226882
2	0x3e4181c4	0.18897158
3	0x3ea11b56	0.31466168
4	0xbdb76a7e	-0.08955859
5	0xbdf561ef	-0.1198157
6	0xbced1ed8	-0.028945372
7	0xbebabaa4	-0.3647052
8	0xbe158c88	-0.1460439
9	0xbe6771b9	-0.22601976
10	0xbdfff777	-0.12498372
11	0xbe8d0819	-0.2754524
12	0xbeeed547	-0.46647093
13	0xbce2b935	-0.027676204
14	0x3e147cce	0.14500734
15	0xbc60c175	-0.013717999
16	0xbe92a503	-0.2864152
17	0x3d1081a1	0.035279874
18	0x3e75d1c4	0.240058
19	0x3ec63050	0.38708735
20	0x3e84a573	0.25907478
21	0xbe9c6768	-0.30547643
22	0xbe8f7dab	-0.28025565
23	0x3e9095b6	0.2823922
24	0x3eaf310f	0.34217116
25	0x3dc41159	0.09573621
26	0xbe67e628	-0.22646391
27	0x3db065cc	0.08613166
28	0x3ea510cb	0.32239375
29	0xbe627939	-0.22116555
30	0x3e5613e8	0.20906031
31	0xbe37220c	-0.17884082
32	0xbce5a10a	-0.028030891
33	0x3df2c919	0.118547626
34	0xbdc628e8	-0.09675771
35	0x3e785fed	0.24255343
36	0xbe8dc05b	-0.27685818
37	0xbda4c81a	-0.08045979
38	0x3de1d28d	0.110264875
39	0x3d992e72	0.07479562
40	0x3e4cbe59	0.19994487
41	0xbe8dda03	-0.27705392
42	0x3c106339	0.008812719
43	0x3e53a32c	0.20667714
44	0xbd371bcb	-0.04470424
45	0xbd677eea	-0.05651752
46	0xbec3537b	-0.38149628
47	0x3ec1268b	0.37724718
48	0x3dcf6e02	0.10128404
49	0xbe473108	-0.19452298
50	0x3e884d0f	0.2662129
51	0x3d84181e	0.064499125
52	0x3e6bf498	0.23042524
53	0xbe85f599	-0.2616394
54	0x3e22fcdd	0.15916772
55	0x3e0fdad2	0.14048317
56	0x3e8c8ce7	0.2745125
57	0xbe33625f	-0.17517994
58	0xbe8930c4	-0.26795018
59	0x3e28a9da	0.16471043
60	0x3d846075	0.0646371
61	0xbefde04c	-0.49585187
62	0xbecbff7e	-0.39843363
63	0x3e396008	0.1810304
64	0xbd3ec2dd	-0.046572555
65	0xbea75583	-0.32682428
66	0xc009d8d9	-2.1538603
67	0xbfd927f3	-1.6965317
68	0xbd22ad96	-0.039716326
69	0x3e8f9bf6	0.28048676
70	0xbd34a8df	-0.04410636
71	0xbff6db19	-1.9285613
72	0xbfc056bd	-1.502647
73	0xbddeb0ab	-0.108735405
74	0xbe1837d5	-0.14865048
75	0x3c83b0b0	0.016075462
76	0xbe048d3c	-0.12944502
77	0xbedf7aa3	-0.43648252
78	0xbd329641	-0.043600325
79	0xbe3e7cb0	-0.18602252
80	0x3e2ddd8b	0.16979043
81	0x3da09366	0.07840614
82	0xbd9a1920	-0.075243235
83	0xbeef4425	-0.46731678
84	0xbec3da52	-0.38252503
85	0x3d94a279	0.07257552
86	0x3e94ee22	0.2908793
87	0x3dadebf0	0.08492267
88	0xbe36ca63	-0.17850642
89	0xbe8328ee	-0.25617164
90	0x3e83decb	0.25755915
91	0x3e9bb2e9	0.30409935
92	0x3ee0a51c	0.43875968
93	0x3e999581	0.29996875
94	0xbd93bdbf	-0.072139256
95	0xbde23060	-0.11044383
96	0xbe081cd2	-0.13292244
97	0x3cfab933	0.030605888
98	0x3e36dc4e	0.17857477
99	0x3dda997d	0.10673807
100	0x3e49ded5	0.1971391
101	0x3eac1655	0.33610788
102	0xbdcdc8a2	-0.10048033
103	0x3e4912c8	0.1963607
104	0x3d9ea188	0.077456534
105	0x3e6370b5	0.22210963
106	0x3e0d85f0	0.13820624
107	0x3e519cc4	0.20469958
108	0x3e166079	0.14685239
109	0xbdde6f01	-0.10861016
110	0x3e979766	0.29607695
111	0x3ce96549	0.02849068
112	0x3d874872	0.06605615
113	0xbdfbd4eb	-0.1229647
114	0xbdf729ca	-0.120685175
115	0xbe51ec38	-0.20500267
116	0xbd9e8190	-0.07739556
117	0x3e5c5133	0.2151535
118	0x3e88255b	0.26591
119	0xbdc3d428	-0.0956195
120	0xbe996e16	-0.299668
121	0xbe1fca26	-0.15604457
122	0xbe6ee1cf	-0.23328327
123	0xbe8e4353	-0.2778574
124	0xbddba586	-0.107249305
125	0x3e292e11	0.16521479
126	0x3edd458e	0.4321713
127	0xbcf0751c	-0.029352717
128	0xbe505bb8	-0.20347488
129	0x3e1a08a4	0.15042359
130	0xbe116343	-0.14198022
131	0x3eba91b5	0.3643929
132	0xbe291e84	-0.16515547
133	0xbe68491a	-0.22684136
134	0xbed0bd9f	-0.4076967
135	0xbeac07c3	-0.33599672
136	0x3ec4d936	0.3844697
137	0xbe3b3b49	-0.18284334
138	0xbdb22ded	-0.08700166
139	0xbc89636f	-0.016771046
140	0xbe5fcdbb	-0.21855824
141	0x3e855aa0	0.26045704
142	0x3e082aed	0.13297625
143	0xbe2a3d24	-0.16624886
144	0x3e45098f	0.19241928
145	0xbca5a5ec	-0.02022072
146	0x3e98c2d1	0.29836133
147	0xbda7c0a0	-0.08191037
148	0xbd66da40	-0.056360483
149	0x3c30a142	0.010780634
150	0xbdbe6981	-0.09297467
151	0xbe2b96a4	-0.16756684
152	0x3ed14659	0.40873984
153	0xbe150970	-0.14554381
154	0x3d5a8ffb	0.053359967
155	0xbe0ed796	-0.13949427
156	0xbe0ab6f8	-0.1354636
157	0x3ef75dee	0.4831385
158	0xbea33c83	-0.31882104
159	0x3ce8dd8f	0.02842596
160	0xbdcc3a5b	-0.09972068
161	0xbe0aa488	-0.13539326
162	0x3ed96353	0.4245859
163	0xbeb481db	-0.35255322
164	0x3ca5bdaf	0.02023205
165	0x3e8d6ebf	0.27623555
166	0xbdc91429	-0.09818298
167	0x3e5d7d93	0.21629934
168	0xbe9a2c80	-0.30112076
169	0xbd242c4e	-0.040081315
170	0x3d962dcf	0.07332956
171	0xbe6f43e2	-0.23365739
172	0x3e9bac02	0.3040467
173	0x3d89924c	0.06717357
174	0xbc8802c4	-0.016602881
175	0xbe66e7dc	-0.22549385
176	0xbe833f58	-0.25634265
177	0xbe367abb	-0.17820255
178	0x3e2657f6	0.16244492
179	0x3ec8749d	0.3915147
180	0x3bef03e0	0.007294163
181	0x3e2ee8e2	0.17081025
182	0xbb250c09	-0.0025184175
183	0x3e67dc79	0.22642697
184	0x3e6c0c5f	0.23051594
185	0x3dc72c01	0.0972519
186	0xbe4d98fb	-0.20077889
187	0xbcfede1b	-0.031111768
188	0x3dc5d8f9	0.09660525
189	0xbd99371d	-0.07481215
190	0xbe069e5e	-0.1314635
191	0x3d95c612	0.073131695
192	0x3e21f8b7	0.15817533
193	0xbdb80dea	-0.08987029
194	0x3dc2fdb2	0.09521045
195	0x3e090a97	0.13382946
196	0x3a98bc81	0.0011652858
197	0xbe29ad3a	-0.16569987
198	0x3d36d869	0.04463998
199	0xbdb58929	-0.08864052
200	0x3d3b768e	0.04576736
201	0xbe973739	-0.2953432
202	0xbe3ab486	-0.18232927
203	0x3f11a188	0.568871
204	0x3dc032cc	0.09384689
205	0xbaf9ee31	-0.0019068179
206	0xbee4a6f2	-0.4465862
207	0xbec6bd68	-0.3881638
208	0x3ef4232a	0.47683078
209	0xbe5fee94	-0.21868354
210	0x3e43053c	0.19044966
211	0x3e8ecfbd	0.27892867
212	0xbe9cea5c	-0.30647552
213	0x3e8ba667	0.27275392
214	0xbe58fe89	-0.21190847
215	0x3e7fe8ba	0.24991122
216	0x3e2290a1	0.15875484
217	0xbe02ec9e	-0.12785575
218	0xbcbdd5b0	-0.023173183
219	0x3e7e5a30	0.24839091
220	0xbe5c113e	-0.21490952
221	0xbcd18277	-0.025574906
222	0xbee94222	-0.45558268
223	0xbdcd8c57	-0.10036533
224	0x3ec80d5c	0.39072692
225	0xbf2df26f	-0.6794805
226	0xbf045963	-0.51698893
227	0xbeaf0faf	-0.34191653
228	0x3a9ad54c	0.0011812835
229	0xbc8c1060	-0.017097652
230	0xbdf6e9ee	-0.12056337
231	0xbd08ec54	-0.033428505
232	0xbe0b787e	-0.13620183
233	0xbe3d28f8	-0.1847266
234	0x3db60788	0.08888155
235	0xbc4ea472	-0.012612449
236	0x3ed630ea	0.41834193
237	0x3e13b3a3	0.14423995
238	0xbbbe335b	-0.005804462
239	0x3bd8b78f	0.0066136788
240	0x3d32d558	0.04366049
241	0x3e8ccb07	0.27498648
242	0xbca6abf6	-0.02034567
243	0x3deca4ad	0.11554847
244	0x3e16db34	0.14732057
245	0x3ee3b2e3	0.44472417
246	0x3dc2cd99	0.09511871
247	0xbca00d47	-0.019537581
248	0xbcf2a7af	-0.029620973
249	0x3e70d563	0.235189
250	0xbeaa5a38	-0.33271956
251	0x3e54e7a6	0.20791492
252	0x3e559980	0.20859337
253	0xbd019498	-0.03163585
254	0x3c932c37	0.01796542
255	0xbe89d5d5	-0.26920953

conv1.bias f4 [16]
0	0xbd14b81d	-0.036308397
1	0xbcf34f3c	-0.029700868
2	0x3eeb036a	0.45901042
3	0xbd496254	-0.04916604
4	0xbc85ef0d	-0.01634934
5	0xbd1c873f	-0.03821492
6	0xbc75fb72	-0.0150135625
7	0xbd562aee	-0.052287035
8	0x3be306f1	0.0069283177
9	0xbc1aa086	-0.009437686
10	0xbc24d17f	-0.010059713
11	0x3d051095	0.032486517
12	0x3d708e9a	0.058729745
13	0x3e053cfe	0.13011548
14	0x3e92c3a9	0.28664902
15	0xbd639ad2	-0.05556757

conv2.weight f4 [32, 16, 5, 5]
0	0xbdd5e40b	-0.10443886
1	0x3da56ca8	0.08077365
2	0xbcdeed9f	-0.027212916
3	0x3e0f2c17	0.13981663
4	0xbd1d13cc	-0.038348958
5	0xbe5eb0fd	-0.21747203
6	0xbe3f555c	-0.18684906
7	0xbd6bccdb	-0.057568412
8	0x3e46b24e	0.19403955
9	0x3d8fc372	0.070197
10	0xbd8da2f9	-0.0691585
11	0xbe07bd56	-0.1325582
12	0x3d6e1562	0.05812586
13	0xbd3087eb	-0.04309837
14	0x3e45dcd0	0.19322515
15	0xbc272f76	-0.010204187
16	0xbdd93427	-0.106056504
17	0x3db95a79	0.090504594
18	0x3ea68259	0.32521322
19	0x3e909d09	0.28244808
20	0x3b5236d8	0.0032076146
21	0xbed1cec7	-0.4097807
22	0x3cc92d55	0.024557749
23	0x3eb9573c	0.36199367
24	0xbe728d55	-0.23686726
25	0x3adb7ea2	0.0016746114
26	0x3d46a4d8	0.04849705
27	0xbbd2c336	-0.0064319624
28	0xbc9f67db	-0.019458702
29	0x3da5d568	0.08097345
30	0xbda9e7e3	-0.08296182
31	0x3da6e02f	0.081482284
32	0x3dae5adc	0.08513424
33	0x3e40926e	0.18805858
34	0x3c0252d6	0.00795432
35	0xbcd030c2	-0.025413875
36	0x3da9d36d	0.082922794
37	0x3c9b2954	0.018940605
38	0xba976bb0	-0.0011552479
39	0xbd0d4e2c	-0.03449838
40	0xbce86d52	-0.02837244
41	0xbb10f4e2	-0.0022118618
42	0x3dd59d81	0.10430432
43	0x3c38df75	0.011283745
44	0x3e59bffa	0.2126464
45	0x3d02fdde	0.031980388
46	0xbe56f307	-0.20991145
47	0x3d52ef9f	0.05149805
48	0xbcafd372	-0.02146313
49	0x3cc5b1b2	0.024132583
50	0xbdf1a1fc	-0.11798474
51	0xbc1c26b6	-0.009530714
52	0x3d5eacf3	0.054364156
53	0xbc9621ce	-0.018326666
54	0x3dec27c1	0.1153102
55	0x3c6bc0ae	0.0143892
56	0xbe1b3ddd	-0.15160318
57	0xbda8104e	-0.08206235
58	0x3d021b6e	0.03176444
59	0x3e2c9b70	0.1685617
60	0xbe20f2b2	-0.15717581
61	0xbe80fa75	-0.25191084
62	0xbe1e2718	-0.154446
63	0xbdceadcf	-0.10091745
64	0xbdaf4415	-0.085579075
65	0xbe37a4e5	-0.17933996
66	0xbd610cf1	-0.054943983
67	0xbe1db8cf	-0.1540253
68	0xbd119fef	-0.035552915
69	0xba7d829d	-0.0009670647
70	0xbe03fe55	-0.12889989
71	0x3da4de36	0.08050196
72	0x3d94cb7c	0.07265374
73	0x3e66a682	0.22524455
74	0x3e367f75	0.17822058
75	0x3e12fa47	0.14353286
76	0x3de632f4	0.11240187
77	0x3e034511	0.12819315
78	0x3d5d36ea	0.05400745
79	0x3d41ac55	0.04728349
80	0x3d3dfbc8	0.046382695
81	0x3d685248	0.056719095
82	0x3d86c218	0.06579989
83	0xbc4e239a	-0.01258173
84	0x3e37ccb1	0.17949177
85	0x3e335d64	0.17516094
86	0x3e168a16	0.14701113
87	0xbe203ede	-0.15648982
88	0xbd89dde6	-0.06731777
89	0x3e1a4db8	0.1506871
90	0x3e0b4eb1	0.13604237
91	0x3ea51f39	0.32250383
92	0xbdbcdf71	-0.092223056
93	0x3ab61103	0.0013890568
94	0xbe24042d	-0.16017218
95	0x3e917054	0.28406012
96	0x3dfc5121	0.123201616
97	0xbdc9b5ed	-0.09849153
98	0x3da7c6d0	0.08192217
99	0x3e1f6b3a	0.15568247
100	0xbd8b85dc	-0.06812641
101	0x3c880829	0.016605454
102	0xbcc4ff0b	-0.024047395
103	0xbe2a5883	-0.16635327
104	0xbdb44568	-0.08802301
105	0x3d4d9bd7	0.05019745
106	0x3b9447e8	0.0045251735
107	0x3e0b7195	0.13617547
108	0x3c99380c	0.018703483
109	0xbddd828a	-0.10815914
110	0x3e028812	0.12747219
111	0x3e2eb58c	0.17061442
112	0xbd64c1bf	-0.055848833
113	0x3d1a6c2e	0.037700824
114	0xbde42772	-0.11140336
115	0xbceaa39a	-0.028642464
116	0x3d41c718	0.04730901
117	0xbd89bcb3	-0.06725445
118	0x3dbd7fff	0.09252929
119	0x3cb4a435	0.022050956
120	0xbd71dce7	-0.05904856
121	0x3da1d00d	0.07901011
122	0x3e001cac	0.12510937
123	0x3d42069f	0.047369596
124	0xbb347844	-0.0027537504
125	0xbe5cf266	-0.21576843
126	0x3d940b28	0.072286904
127	0xbdea4113	-0.11438193
128	0xbd72a88e	-0.059242778
129	0xbc133bfe	-0.008986471
130	0xbe17e399	-0.14832915
131	0x3d923678	0.07139295
132	0x3d601639	0.054708693
133	0xbd64a90e	-0.055825286
134	0x3cd21d38	0.025648698
135	0xbd302373	-0.043002557
136	0x3e148a67	0.14505921
137	0xbc2726e3	-0.010202142
138	0x3cf72b4e	0.030172016
139	0xbd9cbeb8	-0.07653564
140	0xbde8ced6	-0.11367576
141	0x3e661bae	0.22471496
142	0x3df3bd30	0.11901319
143	0x3db6f63c	0.08933684
144	0xbdb1d35e	-0.08682893
145	0x3ae0cb8b	0.0017150504
146	0xbaac961b	-0.0013167294
147	0xbe4fd6d0	-0.20296788
148	0x3db35415	0.08756272
149	0xbdf5973f	-0.119917385
150	0xbdd7c6f8	-0.10535997
151	0xbd8e0098	-0.06933707
152	0xbe1ba009	-0.15197767
153	0xbe2e8e00	-0.17046356
154	0xbe10c31e	-0.14136931
155	0x3e1603d3	0.14649896
156	0x3d524e01	0.05134392
157	0x3d6db7a7	0.058036473
158	0x3e02a18d	0.12756939
159	0x3d112765	0.03543796
160	0x3e499239	0.19684686
161	0x3ce9e59c	0.02855187
162	0x3da5a581	0.08088208
163	0xbd60ac58	-0.05485186
164	0xbe59a059	-0.21252574
165	0x3eb6264f	0.35576102
166	0xbbc066a6	-0.0058716116
167	0x3dde9b58	0.10869473
168	0x3e1125ed	0.14174624
169	0xbe9e4b8e	-0.3091702
170	0x3dbebbf6	0.093131945
171	0xbd9dba4d	-0.0770155
172	0xbd5d63ad	-0.054050136
173	0xbd3ad688	-0.04561475
174	0xbdaef365	-0.085425176
175	0x3d3d0132	0.046143718
176	0xbe0d9942	-0.13827994
177	0xbe022e5d	-0.12712999
178	0xbe343ba3	-0.17600875
179	0xbd87c296	-0.06628911
180	0x3cdbd1bf	0.026833413
181	0xbdab2682	-0.08356954
182	0x3c14d0f8	0.009083025
183	0xbd3a438b	-0.04547457
184	0xbc84c074	-0.01620505
185	0x3ca59cf8	0.02021645
186	0xbb4f9b7f	-0.0031678376
187	0xbba1f662	-0.004942701
188	0xbdb08365	-0.086188115
189	0xbcbddaff	-0.023175715
190	0x3df3c05d	0.11901925
191	0x3b12ff25	0.002242991
192	0x3e0cf9cb	0.13767163
193	0x3c5e9228	0.013584651
194	0x3da64879	0.08119292
195	0xbc844f7b	-0.01615118
196	0x3bd0d32c	0.00637283
197	0x3e3a1058	0.18170297
198	0xbd01dc89	-0.03170446
199	0xbc9b63cb	-0.018968483
200	0xbe6b7f79	-0.22997846
201	0xbe4b323c	-0.19843382
202	0xbd7b476c	-0.06134741
203	0x3e3d1d93	0.18468313
204	0x3ded4616	0.115856335
205	0xbd90aa00	-0.07063675
206	0x3da35ebe	0.07977055
207	0x3dceee64	0.10104063
208	0xbc23fa51	-0.010008411
209	0x3da7da33	0.08195915
210	0x3d4458eb	0.04793636
211	0x3e25990c	0.16171664
212	0x3d931169	0.07181055
213	0x3df848d4	0.12123266
214	0x3d2f0573	0.042729806
215	0x3b3d1a83	0.0028854914
216	0xbe3de0ef	-0.18542837
217	0x3e6e5b95	0.23277123
218	0x3c5f4015	0.013626118
219	0xbe928ce4	-0.28623116
220	0xbe37dc23	-0.17955069
221	0xbec34d65	-0.38144985
222	0xbda89441	-0.08231402
223	0xbe7ee577	-0.24892221
224	0xbea5eebe	-0.32408708
225	0xbe1f70f9	-0.1557044
226	0xbe0696be	-0.13143441
227	0x3db3000b	0.087402426
228	0x3e6ceb99	0.23136748
229	0x3dc18ead	0.09451041
230	0xbe8eab30	-0.2786498
231	0x3dd1c312	0.10242285
232	0x3d98fa75	0.07469646
233	0x3e28a39a	0.16468659
234	0x3d1f4d85	0.038892288
235	0xbdde5bff	-0.108573906
236	0x3e0e5e6a	0.13903204
237	0x3dc596e8	0.09647924
238	0x3e55ae91	0.20867373
239	0x3dac11c0	0.08401823
240	0x3e3ad765	0.18246229
241	0xbb1ade6e	-0.0023631114
242	0x3e3aa5e7	0.18227349
243	0x3e4127cf	0.18862842
244	0x3e5e1633	0.21688156
245	0xbca28d26	-0.019842695
246	0x3de08d44	0.10964444
247	0x3ddbc83a	0.107315496
248	0x3bd824e6	0.0065961955
249	0xbe9def70	-0.3084674
250	0x3dc129c9	0.09431798
251	0xbe570b87	-0.21000491
252	0xbee57000	-0.44812012
253	0xbd067cd9	-0.032833908
254	0xbd9e465f	-0.07728266
255	0x3e3a3d8e	0.18187544

conv2.bias f4 [32]
0	0x3cee8277	0.029114945
1	0x3d88f240	0.066868305
2	0x3d95a27b	0.07306381
3	0x3e74f624	0.2392202
4	0x3d10c8eb	0.03534786
5	0xbd364a6a	-0.04450456
6	0xbdafe221	-0.085880525
7	0x3d587d3c	0.052853808
8	0x3e035624	0.12825829
9	0x3e1f2248	0.15540421
10	0x3e36b1ae	0.17841217
11	0x3e51f13d	0.20502181
12	0xbd7ee25f	-0.062227603
13	0xbe22e367	-0.1590706
14	0x3d988243	0.074467205
15	0xbd154e3e	-0.03645157
16	0x3e65d764	0.22445446
17	0x3c1b4abd	0.009478268
18	0xbc9ec3eb	-0.01938053
19	0xbd826ce4	-0.063684255
20	0x3e43f5e7	0.19136773
21	0x3e6aba56	0.22922644
22	0x3ea70ca7	0.3262684
23	0x3c58a9d6	0.013224086
24	0x3e29bc67	0.16575776
25	0x3ddc9aeb	0.10771736
26	0x3cadb98d	0.021206642
27	0xbe168bc0	-0.14701748
28	0x3e006c73	0.1254137
29	0x3e830d22	0.25595957
30	0xbda6f8be	-0.081529126
31	0xbe6410da	-0.22272053

dense1.weight f4 [10, 512]
0	0xbdd3eb6a	-0.10347636
1	0x3e33662b	0.17519443
2	0x3d1a3c34	0.03765507
3	0xbe0532b9	-0.1300763
4	0xbcb7058b	-0.02234151
5	0xbd8b03c9	-0.06787831
6	0x3db38147	0.08764892
7	0x3d39f436	0.045398913
8	0x3cd8eb3f	0.026479362
9	0xbdabc1d4	-0.08386579
10	0x3cd96d71	0.026541444
11	0x3da9e05b	0.082947455
12	0x3d432021	0.047638062
13	0x3d340041	0.043945555
14	0x3e8134a9	0.2523549
15	0x3d378809	0.044807468
16	0x3ceab1ed	0.028649295
17	0xbd0a9238	-0.03383085
18	0x3c19a4ac	0.00937764
19	0x3dff43de	0.124641165
20	0x3d958569	0.073008366
21	0x3c2e7815	0.010648747
22	0xbbccd487	-0.006250921
23	0xbd7c8a81	-0.061655525
24	0x3dacb897	0.08433645
25	0x3d68b187	0.05680993
26	0xbd4d90b4	-0.050186828
27	0xbddfd18d	-0.109286405
28	0x3bdbc5bb	0.006706921
29	0xbd8d260e	-0.06892024
30	0xbcf1d588	-0.029520765
31	0x3ca06545	0.01957954
32	0xbe05f23a	-0.13080683
33	0x3c3d1fc8	0.011543222
34	0xbe1d9f6f	-0.1539285
35	0x3e0c488e	0.13699552
36	0xbd6e8eca	-0.058241643
37	0xbd0ad17c	-0.033891186
38	0x3c98d50f	0.018656282
39	0x3da16c90	0.07882035
40	0x3e34564f	0.17611049
41	0xbe035ea1	-0.12829067
42	0x3dcfae01	0.101406105
43	0xbc3783df	-0.011200874
44	0x3e0e1a83	0.13877301
45	0xbce37c6e	-0.027769294
46	0x3c8afb2e	0.016965475
47	0x3c5f219b	0.013618852
48	0x3d3604b9	0.044438098
49	0x3cbee366	0.023301791
50	0x3e248ee6	0.16070136
51	0x3d809b53	0.06279626
52	0x3dfb689d	0.12275813
53	0xbd1fe177	-0.03903338
54	0xbd0ed29e	-0.03486883
55	0x3e6f499d	0.23367925
56	0x3dbacbc7	0.09120899
57	0xbe0e5b57	-0.13902031
58	0xbdb7a306	-0.08966641
59	0xbd1d107d	-0.038345803
60	0xbcbcb49e	-0.023035344
61	0xbe7b0bd2	-0.24516228
62	0x3df0e675	0.11762706
63	0xbe00c529	-0.1257521
64	0x3cfee2fe	0.031114098
65	0xbd9868fe	-0.07441901
66	0x3bc5a259	0.0060313162
67	0xbdf567e2	-0.11982705
68	0x3e00e314	0.12586623
69	0xbb4b467d	-0.0031017356
70	0xbcf7f466	-0.030267905
71	0x3d7525cc	0.0598505
72	0x3daa6a40	0.08321047
73	0x3e4f6584	0.20253569
74	0xbda3ef1f	-0.08004593
75	0x3da1f83f	0.07908677
76	0xbd927435	-0.07151071
77	0xbd7d81dc	-0.06189142
78	0x39ed2d39	0.00045237856
79	0xbeae31fa	-0.34022504
80	0x3cd696df	0.026194988
81	0x3dd34e30	0.103176475
82	0xbc1dcd62	-0.009631487
83	0x3d3d7f96	0.046264254
84	0xbcc80ec9	-0.024421113
85	0x3e07d732	0.13265684
86	0x3d98e1b8	0.074649274
87	0x3dcc2ce7	0.09969502
88	0x3c9370ca	0.017998118
89	0x3e2cb027	0.16864072
90	0xbd1514a8	-0.036396652
91	0xbd25e31b	-0.040499788
92	0x3cba41c7	0.022736443
93	0x3d439a25	0.047754426
94	0x3e06446f	0.13112043
95	0x3d320043	0.04345728
96	0x3e56bea4	0.20971161
97	0x3db98f78	0.090605676
98	0xbd652972	-0.05594773
99	0xbd0774de	-0.033070438
100	0x3de0a6b1	0.10969294
101	0x3d76e11b	0.06027327
102	0xbdd143d8	-0.10218018
103	0x3db42cce	0.08797608
104	0x3d22b441	0.039722685
105	0xbd9cd297	-0.07657354
106	0xbd810ce4	-0.06301287
107	0x3e10ecf9	0.14152898
108	0xbdd9b339	-0.10629887
109	0xbde60f9d	-0.11233447
110	0xbe771f4d	-0.24133034
111	0xbd0749eb	-0.033029478
112	0x3e4ea0a5	0.20178469
113	0x3d6a0453	0.05713303
114	0xbcd78e47	-0.02631296
115	0xbda04825	-0.078262605
116	0xbe02e81e	-0.12783858
117	0x3e134cd0	0.1438477
118	0xbe54df2a	-0.20788255
119	0xbd1aa689	-0.037756477
120	0xbdb7eb25	-0.08980397
121	0xbb1c28db	-0.0023828063
122	0xbd2d4b3d	-0.04230808
123	0xbe97dc78	-0.29660392
124	0x3da5eb5b	0.08101531
125	0x3cad85fd	0.021182055
126	0x3d8f4ca7	0.06997042
127	0xbd9ecd7e	-0.07754038
128	0x3c84ba5e	0.016202148
129	0xbe2143f3	-0.15748577
130	0xbb301bef	-0.0026872118
131	0xbe3c5706	-0.18392572
132	0x3d873af3	0.066030405
133	0xbe328889	-0.17434897
134	0xbe0eba99	-0.13938369
135	0x3e462d03	0.19353108
136	0x3e84ceb9	0.25938967
137	0x3cee489b	0.029087355
138	0x3cdea92c	0.027180277
139	0x3d3c6eab	0.04600398
140	0x3e0a3fc1	0.13500883
141	0x3bd6f083	0.006559433
142	0x3e06ebe7	0.13175927
143	0xbd1a045e	-0.03760182
144	0x3e02e468	0.12782443
145	0xbbd5b6b9	-0.0065220264
146	0x3ccc6ad6	0.024953287
147	0x3e02f6f8	0.12789524
148	0x3c9db29b	0.019250205
149	0xbcf242e5	-0.029572913
150	0xbd5d1c6a	-0.053982176
151	0xbd406ba9	-0.046977673
152	0xbdcf3802	-0.101181045
153	0x3d03450a	0.032048263
154	0x3cf8ce9b	0.030371955
155	0x3cf5a4bd	0.02998578
156	0xbe4e1f93	-0.20129232
157	0xbdaf1c03	-0.08550265
158	0x3d75c420	0.060001493
159	0xbd99369b	-0.07481118
160	0xbc9bafb3	-0.019004678
161	0xbc651bcf	-0.013983681
162	0xbd524a76	-0.051340543
163	0xbe62a776	-0.22134194
164	0xbdb7d002	-0.08975221
165	0xbdf5d394	-0.12003246
166	0xbe35ca43	-0.17752938
167	0x3d2c5807	0.042076137
168	0xbde95c2d	-0.11394534
169	0x3d112bff	0.03544235
170	0x3da5f4ff	0.0810337
171	0x3d068cfc	0.032849297
172	0x3e0cf10a	0.13763824
173	0x3e74816f	0.238775
174	0x3d5ef925	0.05443682
175	0x3e08cd92	0.13359669
176	0x3d1cab4b	0.038249295
177	0x3df3f438	0.119118154
178	0xbeba68d8	-0.36408114
179	0x3c2983b8	0.010346346
180	0x3e19ff34	0.15038759
181	0xbd1832dc	-0.03715788
182	0x3de85212	0.11343779
183	0xbd572551	-0.052525822
184	0x3e035157	0.12823997
185	0x3bb31a2b	0.005465766
186	0xbd9959b1	-0.074878104
187	0xbde0a36a	-0.10968669
188	0x3cc270e7	0.023735477
189	0x3e0e134b	0.13874547
190	0x3dfe3013	0.12411513
191	0x3d77388c	0.06035666
192	0x3d257d08	0.040402442
193	0x3e28b547	0.16475402
194	0xbe1111ba	-0.14166918
195	0x3e10b76e	0.14132473
196	0x3c1dfffd	0.009643552
197	0xbe04edac	-0.1298129
198	0x3c883040	0.01662457
199	0x3d2c8c60	0.04212606
200	0xbdbcc6af	-0.092175834
201	0xbe522560	-0.2052207
202	0xbe0b8b9d	-0.13627477
203	0xbcb86b43	-0.022512084
204	0xbdd7519a	-0.10513611
205	0xbdcbd61d	-0.09952948
206	0x3da518e8	0.08061391
207	0xbd11895c	-0.035531387
208	0xbd2ec60b	-0.042669337
209	0x3e4f2368	0.2022835
210	0x3e38ea1f	0.1805806
211	0xbe965f2b	-0.29369482
212	0xbe46d5c2	-0.1941748
213	0xbde48d7b	-0.11159798
214	0x3e2643a9	0.16236748
215	0xbea2308d	-0.31677666
216	0x3e264b2c	0.16239613
217	0xbdc6de8b	-0.097104155
218	0x3dc1d2f3	0.094640635
219	0xbd048fcc	-0.032363698
220	0x3ca5f4ae	0.020258274
221	0xbe081243	-0.13288216
222	0xbe254549	-0.16139711
223	0x3e544796	0.20730433
224	0xbdeb7143	-0.11496212
225	0x3d86eb6c	0.06587872
226	0x3d26ea0e	0.040750556
227	0xbd1748cd	-0.036934663
228	0x3ddabc36	0.1068043
229	0x3d5307bc	0.051521048
230	0x3de64286	0.11243157
231	0xba93ec97	-0.0011285719
232	0x3dfc344a	0.12314661
233	0x3d2fbbc8	0.04290369
234	0x3b269b34	0.0025422098
235	0x3d4cb163	0.049973857
236	0xbe0d7ae8	-0.13816416
237	0xbda2d2e9	-0.07950384
238	0xbc5ee940	-0.013605416
239	0xbe3122cc	-0.1729843
240	0x3dd67784	0.104720145
241	0x3c3a5bb8	0.0113744065
242	0x3d1c3041	0.038131956
243	0x3d6db7a1	0.05803645
244	0x3e3629a4	0.17789322
245	0x3dfc4434	0.12317696
246	0xbd2b777f	-0.041862007
247	0x3d667f50	0.05627376
248	0x3da9be6e	0.08288275
249	0x3d3c2f9f	0.045943853
250	0xbdaa14c4	-0.08304742
251	0xbc714a56	-0.014727196
252	0x3d50d879	0.050987694
253	0xbe85d20c	-0.26136816
254	0xbe0e397d	-0.13889118
255	0xbe0a88d6	-0.13528761

dense1.bias f4 [10]
0	0xbc9e2249	-0.019303458
1	0xbcd43a43	-0.025906688
2	0x3e14ee86	0.14544114
3	0x3ca3a100	0.019974232
4	0xbe968ccb	-0.29404292
5	0xbde52281	-0.11188222
6	0x3d28b789	0.041190658
7	0x3d82a7a5	0.06379632
8	0x3e3cc5ca	0.18434826
9	0x3d739abf	0.05947375
