saved_weights/Model_epoch_no_20_train_acc_93.89_val_acc_90.34.pth (torch_old, 74661 bytes, 6 tensors)

conv1.weight f4 [16, 1, 5, 5]
-0.27630538 -0.72206455 -0.9056398 -0.3854552 0.20132424 0.39052066 -0.33513615 -0.45125428
-0.17870992 0.29856092 0.22441526 0.27154982 0.128906 0.39474285 -0.04233447 0.43362787
0.005841189 -0.23625597 -0.08176947 0.23488614 -0.08520171 0.33057186 -0.24381158 0.117137484
0.17997053 0.028748158 0.14384712 0.5236318 0.4109267 0.18160903 0.15436277 0.14499474
0.029132139 -0.0100250505 -0.07592919 -0.07349238 -0.14991447 0.0020817972 0.04659823 0.010485905
-0.20640348 0.031228 0.009051884 -0.09968688 -0.08200746 -0.08420266 0.19397525 -0.15544333
-0.024414929 0.11698 0.00852321 -0.36220583 -0.11471111 0.23643127 -0.24495198 -0.103164025
-0.7972039 -0.25374758 0.04806436 0.17326301 -0.20682271 -0.4750654 0.32370016 0.3620096
-0.18546574 0.42615876 -0.2265007 -0.005625989 0.34906366 0.022157969 0.16369982 -0.03467903
0.2552981 0.12017364 0.43137744 0.25273007 0.523884 0.35866126 0.12645136 0.075057045
0.056127876 0.11991591 -0.02224472 0.26844049 0.24454354 -0.32291326 -0.28828964 -0.17090382
-0.12964723 0.10726837 -0.084295824 -0.4803614 -0.44829834 -0.05096973 0.1567691 -0.011885933
-0.3765574 -0.4832731 -0.04115659 0.09831959 0.0882007 -0.059603 -0.06518795 0.302864
0.20042045 -0.025093473 -0.3691222 -0.16933583 -0.014879426 0.07022678 -0.23115242 -0.24426207
0.03613378 0.07750887 0.044540104 -0.17023106 0.24067283 0.18711841 -0.1904532 -0.2425239
0.116950504 0.40771022 0.13404334 -0.020056864 -0.0025837435 0.05231228 -0.15219554 0.448855
0.5062659 0.058272842 0.19397783 -0.035079908 -0.051259637 0.15170226 0.31286016 0.11195076
0.16919397 -0.04458264 -0.18616155 0.25467017 0.10526858 0.047833126 -0.03918994 0.05252854
-0.21970947 -0.46263233 -0.09059411 -0.16115597 -0.350748 -0.6723759 0.33908284 -0.26099
-0.09893824 0.12561357 0.10948805 0.28696185 0.2423883 -0.2518222 -0.11478617 -0.19852212
0.28812125 -0.0809797 -0.09215459 -0.045237806 -0.11967946 0.49668223 -0.023208903 -0.2937739
-0.10324381 -0.10740179 0.38259712 -0.131828 -0.3729578 0.1157843 -0.0016017584 -0.012157951
-0.337999 0.3050043 0.34340864 -0.28499904 0.02565955 0.08311368 -0.108067565 -0.101347215
-0.030879619 0.12846889 0.19603528 -0.18644215 -0.107413046 -0.05299047 0.2993249 -0.22717696
0.15576401 0.18181472 0.1346729 -0.055101283 -0.07866971 -0.12574556 0.1933598 -0.2059704
-0.08574937 0.45170256 0.35521084 -0.06106517 0.22308214 0.34043357 0.2188813 -0.14177117
0.22430435 0.4027813 -0.14481723 0.18460639 -0.057831142 -0.12578449 -0.10043619 -0.10443953
-0.10212947 0.14121258 -0.35493192 -0.32973173 -0.014151876 0.1304221 0.0632299 -0.28430933
-0.5048108 -0.25153637 0.15041824 0.018180087 0.4088798 -0.0075941137 -0.12771852 0.040480737
0.02717971 -0.008068609 -0.32778636 -0.23085222 0.18853563 0.088322155 0.4352787 -0.30374566
-0.009540199 -0.14479113 -0.09896535 0.4871563 -0.36017907 -0.23923045 0.04311232 0.14770779
0.41263843 -0.36881882 0.34443894 0.19155188 -0.16228156 -0.041517217 -0.13931651 0.57966423
00000000: e677 8dbe 39d9 38bf 03d8 67bf 625a c5be
00000010: f127 4e3e 53f2 c73e f796 abbe cd0a e7be
00000020: bcff 36be fadc 983e 1dcd 653e 9408 8b3e
00000030: efff 033e bc1b ca3e e966 2dbd 7904 de3e
00000040: 7267 bf3b 16ed 71be c076 a7bd fe85 703e
00000050: 3c7e aebd b740 a93e bea9 79be c7e5 ef3d
00000060: 324a 383e 4281 eb3c a94c 133e bc0c 063f
00000070: fc64 d23e b8f7 393e 4611 1e3e 8079 143e
00000080: 86a6 ee3c 1c40 24bc c380 9bbd 2c83 96bd
00000090: 2e83 19be c36e 083b c9dd 3e3d 13cd 2b3c
000000a0: 6f5b 53be ddd1 ff3c 5a4e 143c a328 ccbd
000000b0: 87f3 a7bd 7272 acbd 73a1 463e 892c 1fbe
000000c0: d101 c8bc 3693 ef3d efa4 0b3c 0b73 b9be
000000d0: a9ed eabd 0a1b 723e b1d4 7abe a947 d3bd
000000e0: 8e15 4cbf 34eb 81be 22df 443d dc6b 313e
000000f0: 55c9 53be c63b f3be 07bc a53e 5359 b93e
00000100: bbea 3dbe 7b31 da3e cdef 67be 375a b8bb
00000110: 79b8 b23e a184 b53c eda0 273e 990b 0ebd
00000120: 6fb6 823e 991d f63d 81dd dc3e d665 813e
00000130: 431d 063f 73a2 b73e 777c 013e 82b7 993d
00000140: 58e6 653d 7996 f53d 8f3a b6bc 0871 893e
00000150: 9f69 7a3e e354 a5be b39a 93be 6901 2fbe
00000160: 3ec2 04be 85af db3d 4aa3 acbd eef1 f5be
00000170: 5c87 e5be a3c5 50bd 1488 203e 37bd 42bc
00000180: 22cc c0be 926f f7be d093 28bd c85b c93d
00000190: 92a2 b43d 4622 74bd 4381 85bd fd10 9b3e
000001a0: 053b 4d3e d490 cdbc 96fd bcbe 5f66 2dbe
000001b0: d6c8 73bc 0fd3 8f3d 38b3 6cbe d61f 7abe
000001c0: 0401 143d f8bc 9e3d af6f 363d 0d51 2ebe
000001d0: f072 763e f89b 3f3e 2a06 43be 2f58 78be
000001e0: bf83 ef3d 65bf d03e a842 093e 4b4e a4bc
000001f0: 0654 29bb 6745 563d 26d9 1bbe 53d0 e53e
00000200: a49a 013f 81af 6e3d 20a2 463e f3af 0fbd
00000210: a0f5 51bd d657 1b3e 352f a03e 7146 e53d
00000220: 2f41 2d3e 499c 36bd 22a1 3ebe 2164 823e
00000230: 0e97 d73d abec 433d a185 20bd 2b28 573d
00000240: 85fb 60be 25de ecbe 6889 b9bd 1206 25be
00000250: 3e95 b3be d420 2cbf 449c ad3e 7ba0 85be
00000260: 22a0 cabd d8a0 003e 453b e03d aaec 923e
00000270: a334 783e d7ee 80be 0315 ebbd 6249 4bbe
00000280: a184 933e afd8 a5bd 8cbb bcbd 474b 39bd
00000290: 811a f5bd 224d fe3e 9920 bebc 8869 96be
000002a0: 7e71 d3bd 78f5 dbbd c5e3 c33e ebfd 06be
000002b0: 53f4 bebe 5220 ed3d 18f2 d1ba 2432 47bc
000002c0: 340e adbe 8629 9c3e 42d3 af3e 65eb 91be
000002d0: fa33 d23c 8137 aa3d 8752 ddbd 218f cfbd
000002e0: 41f7 fcbc 598d 033e 79bd 483e b1ea 3ebe
000002f0: 5ffb dbbd 890c 59bd 1d41 993e 14a1 68be
00000300: 9a80 1f3e a32d 3a3e b1e7 093e e2b1 61bd
00000310: 961d a1bd 72c3 00be 1d00 463e e8e9 52be
00000320: 5e9d afbd 8f45 e73e 32de b53e 791f 7abd
00000330: a56f 643e 4f4d ae3e 6b22 603e 762c 11be
00000340: 0ab0 653e 5a39 ce3e f84a 14be 7509 3d3e
00000350: 59e0 6cbd a6cd 00be 7db1 cdbd 64e4 d5bd
00000360: 4129 d1bd 089a 103e a3b9 b5be 99d2 a8be
00000370: 45dd 67bc 5f8d 053e ae7e 813d fe90 91be
00000380: 483b 01bf 60c9 80be 3d07 1a3e 68ee 943c
00000390: b158 d13e 0bd8 f8bb a5c8 02be 21cf 253d
000003a0: fca7 de3c 3332 04bc 9dd3 a7be 8664 6cbe
000003b0: 7c0f 413e 3fe2 b43d dadc de3e 8d84 9bbe
000003c0: 7f4e 1cbc 2044 14be 58ae cabd 8d6c f93e
000003d0: 6469 b8be d4f8 74be 8b96 303d b640 173e
000003e0: 5845 d33e d2d5 bcbe 4d5a b03e 2d26 443e
000003f0: 232d 26be f50d 2abd fda8 0ebe e064 143f

conv1.bias f4 [16]
0.13790002 -0.0037058243 -0.005094259 0.3594721 -0.0137252305 0.03477139 -0.06927578 0.007596591
-0.08566712 -0.006037679 0.1043056 -0.0070319227 -0.005526568 -0.20016642 -0.015304339 0.0011222799
00000000: aa35 0d3e 6add 72bb beed a6bb ba0c b83e
00000010: cadf 60bc 726c 0e3d 76e0 8dbd d3ec f83b
00000020: 3e72 afbd b9d7 c5bb 2d9e d53d 0b6c e6bb
00000030: 3618 b5bb 6df8 4cbe 0dbf 7abc 7719 933a

conv2.weight f4 [32, 16, 5, 5]
0.68323076 0.24066438 0.21668538 0.053417157 0.1909408 -0.17785512 -0.056305125 0.4140249
0.08312317 0.09792689 -0.046075415 -0.08406679 0.08124101 0.04710583 0.09477878 -0.23434983
0.15331867 0.0059192004 -0.16678374 0.08296342 -0.2420296 0.23912145 -0.049073264 -0.04714212
-0.21125704 -0.22086118 -0.016490247 0.12861817 0.060252212 -0.038994174 -0.135115 -0.042932026
-0.034061372 -0.033071615 0.13177542 -0.14073254 -0.010049648 -0.0093482 0.056960173 0.095183395
0.017429553 -0.0032834178 0.11748333 0.053324167 0.15851611 0.085400954 0.05070876 0.10349946
0.03722935 0.18948859 0.23996048 0.059757505 0.07244909 -0.1293456 -0.14092438 -0.03440794
0.20985715 -0.17152202 0.08398938 0.31763345 0.11188587 -0.07933789 -0.12198423 -0.028649848
-0.02295028 0.12062753 -0.21541958 -0.046037894 0.023181263 0.031814147 0.11376362 -0.11497554
0.22586931 0.21742994 0.08440466 0.176743 0.04929603 -0.09082783 0.13071151 0.10202752
-0.0062251845 0.0234772 0.021623114 -0.071634255 0.06720926 -0.20138557 -0.18902789 -0.2025702
0.021910466 -0.16823158 -0.2326769 -0.18457669 -0.038412716 -0.37371576 -0.23075221 -0.38367796
-0.31670266 -0.14100967 -0.088191226 0.007252131 -0.26063812 -0.08165073 0.08704691 -0.109426886
-0.058514066 -0.045464713 0.19878024 -0.02867005 0.07173514 0.10664004 0.033347968 0.098655544
-0.016567336 -0.082815394 -0.030278986 0.12727877 0.09908604 0.09807044 0.09370446 0.22002953
0.24980164 0.1763934 0.1431766 -0.0016340935 0.21909878 -0.13252844 -0.08476259 0.18702772
0.024658848 -0.12301155 -0.22839777 0.043041255 0.050964575 0.16256414 0.09104784 -0.2261044
0.06248063 0.014719175 0.012378541 -0.0012074594 -0.25729805 0.0005444534 -0.011258937 0.14045043
0.017926587 0.11948272 0.11141933 0.29774335 0.19736278 0.2144886 0.09724953 0.16639628
-0.16613254 -0.030754076 0.032030135 -0.07311165 0.012767584 -0.050223064 -0.15436769 -0.14221549
-0.11624405 -0.027828543 -0.06250386 -0.16658302 -0.15658373 -0.073605515 0.108592466 0.07541437
-0.0872328 0.014440658 0.14816625 -0.28137463 0.07209192 0.13970537 0.016737876 0.029090688
-0.05100546 0.14229979 -0.24702656 -0.12716001 0.012233637 -0.0654877 0.028472193 0.0462475
-0.114574306 -0.022787377 -0.057642218 -0.021436233 0.03261315 0.03887425 0.028155908 0.10557797
0.009143753 0.06701146 0.09329984 0.28468555 0.21854778 0.26194602 -0.11928321 0.16310564
-0.48698398 -0.11627038 -0.09856667 0.20449604 -0.10192729 -0.18850765 -0.3751542 0.12886995
-0.10378261 0.086516924 -0.37920007 -0.3153305 -0.21413952 0.06550111 0.15099809 -0.23087244
-0.09583687 -0.060525656 0.041445885 -0.11265933 -0.2614705 -0.22690894 0.21704327 0.14046068
-0.0070140064 -0.77768785 0.31942904 0.22458845 0.31041706 0.14485371 -0.13029279 -0.049314152
0.048943218 0.23831901 -0.039338507 0.009119007 -0.16241921 -0.18360369 -0.032149527 -0.03770828
0.033949837 -0.23688912 -0.2708291 0.097009294 -0.17185147 -0.18295033 -0.3314235 -0.27497366
-0.2216918 -0.29179823 0.106324054 -0.10663247 -0.0002406376 0.036626887 -0.0038897814 -0.2316669
00000000: 36e8 2e3f b970 763e c6e2 5d3e f3cb 5a3d
00000010: fc85 433e a71f 36be 34a0 66bd 12fb d33e
00000020: 7b3c aa3d e58d c83d 93b9 3cbd 362b acbd
00000030: b061 a63d 0bf2 403d 611b c23d 67f9 6fbe
00000040: 92ff 1c3e daf5 c13b 5bc9 2abe bae8 a93d
00000050: 9cd6 77be 41dc 743e 0c01 49bd 1818 41bd
00000060: c453 58be 6f29 62be 8e16 87bc 7bb4 033e
00000070: 06cb 763d 5bb8 1fbd 965b 0abe 7ed9 2fbd
00000080: f083 0bbd 1a76 07bd 23f0 063e 311c 10be
00000090: 47a7 24bc 3129 19bc 124f 693d 83ef c23d
000000a0: 6cc8 8e3c 9c2e 57bb 1a9b f03d 716a 5a3d
000000b0: 0c52 223e b2e6 ae3d fdb3 4f3d 86f7 d33d
000000c0: ce7d 183d 4c09 423e 33b8 753e 49c4 743d
000000d0: 3060 943d 2c73 04be 7b4e 10be 57ef 0cbd
000000e0: cbe4 563e 78a3 2fbe a002 ac3d daa0 a23e
000000f0: 6b24 e53d e77b a2bd ded2 f9bd 16b3 eabc
00000100: 3a02 bcbc 910b f73d f396 5cbe 3b92 3cbd
00000110: a2e6 bd3c 8d4f 023d e7fc e83d 4c78 ebbd
00000120: 494a 673e f4a5 5e3e 5adc ac3d 1efc 343e
00000130: a2ea 493d f103 babd 3dd9 053e cef3 d03d
00000140: a2fc cbbb 4253 c03c f522 b13c fbb4 92bd
00000150: 02a5 893d 0538 4ebe 8790 41be 906e 4fbe
00000160: 947d b33c e644 2cbe da42 6ebe ac01 3dbe
00000170: a756 1dbd ac57 bfbe 4f4a 6cbe 7071 c4be
00000180: da26 a2be d764 10be 9a9d b4bd 49a3 ed3b
00000190: 5c72 85be 7f38 a7bd a645 b23d 341b e0bd
000001a0: 72ac 6fbd 3539 3abd 0c8d 4b3e 74dd eabc
000001b0: e0e9 923d 1866 da3d e197 083d eb0b ca3d
000001c0: 39b8 87bc 1e9b a9bd a30b f8bc 5e55 023e
000001d0: 9fed ca3d 28d9 c83d 20e8 bf3d 6c4f 613e
000001e0: 00cc 7f3e 79a0 343e e39c 123e 142f d6ba
000001f0: 6e5b 603e 89b5 07be 0298 adbd 3284 3f3e
00000200: 5a01 ca3c 7bed fbbd 1be1 69be 074c 303d
00000210: 3bc0 503d 3777 263e 4a77 ba3d e987 67be
00000220: b0eb 7f3d b228 713c 5dcf 4a3c 9d43 9eba
00000230: 92bc 83be a6b9 0e3a 6877 38bc 3dd2 0f3e
00000240: c7da 923c 5bb3 f43d d12f e43d d171 983e
00000250: 7819 4a3e e6a2 5b3e c32a c73d c963 2a3e
00000260: a61e 2abe f9ef fbbc 0832 033d 90bb 95bd
00000270: 212f 513c b3b6 4dbd 9012 1ebe f0a0 11be
00000280: 5c11 eebd aff8 e3bc 0602 80bd bd94 2abe
00000290: 7c57 20be 7dbe 96bd ba65 de3d d972 9a3d
000002a0: 1ca7 b2bd 8298 6c3c e5b8 173e 5610 90be
000002b0: eea4 933d ed0e 0f3e df1d 893c 984f ee3c
000002c0: 1aeb 50bd 09b7 113e 88f4 7cbe 3c36 02be
000002d0: 986f 483c 6a1e 86bd 843e e93c 056e 3d3d
000002e0: efa5 eabd 98ac babc 3f1a 6cbd 0a9b afbc
000002f0: 5e95 053d 9b3a 1f3d 38a7 e63c 4339 d83d
00000300: aecf 153c 4e3d 893d fd13 bf3d 4ec2 913e
00000310: fdca 5f3e ca1d 863e c14a f4bd 2a05 273e
00000320: f755 f9be 2a1f eebd 53dd c9bd 6967 513e
00000330: 41bf d0bd 2608 41be 3614 c0be 7cf6 033e
00000340: fa8b d4bd c92f b13d 8326 c2be 0073 a1be
00000350: 6447 5bbe 7225 863d 3e9f 1a3e d369 6cbe
00000360: 1f46 c4bd c0e9 77bd 29c3 293d efb9 e6bd
00000370: 76df 85be d15a 68be 9740 5e3e edd4 0f3e
00000380: c0d5 e5bb 8d16 47bf 348c a33e 84fa 653e
00000390: fcee 9e3e 8854 143e 796b 05be a3fd 49bd
000003a0: af78 483d e609 743e 6a21 21bd e367 153c
000003b0: 3951 26be 9b02 3cbe 39af 03bd ff73 1abd
000003c0: fc0e 0b3d 1093 72be 1daa 8abe cfac c63d
000003d0: d5f9 2fbe 5557 3bbe 57b0 a9be 59c9 8cbe
000003e0: 2d03 63be 9466 95be 6dc0 d93d 2062 dabd
000003f0: aa53 7cb9 1306 163d b4eb 7ebb 163a 6dbe

conv2.bias f4 [32]
0.05392178 0.11796518 0.36386657 0.056910656 -0.010793092 0.20373516 -0.001759925 -0.02466917
-0.027956827 0.017016675 0.014184799 -0.016719772 -0.124540925 0.17706342 -0.050752126 -0.020966666
0.02195187 0.08678659 0.020398518 -0.10204298 0.30785015 0.06395315 0.39540863 0.21486773
0.2374309 0.16332778 0.061223295 0.220518 0.02146953 0.002577634 -0.10297025 0.3364541
00000000: 16dd 5c3d ba97 f13d b84c ba3e 261b 693d
00000010: 82d5 30bc f39f 503e 49ad e6ba 0017 cabc
00000020: b705 e5bc 8e66 8b3c 5c67 683c e7f7 88bc
00000030: 500f ffbd 1d50 353e 76e1 4fbd 49c2 abbc
00000040: 68d4 b33c 2bbd b13d cb1a a73c e9fb d0bd
00000050: 899e 9d3e def9 823d 0073 ca3e 4906 5c3e
00000060: 1621 733e 663f 273e 47c5 7a3d 78cf 613e
00000070: dee0 af3c 86ed 283b 11e2 d2bd b643 ac3e

dense1.weight f4 [10, 512]
-0.042525936 0.12673222 -0.062900014 -0.17035769 0.025404163 -0.044439707 0.0012205184 -0.18191619
0.06785339 0.07743941 0.07855552 -0.012608939 -0.13002929 0.01451626 0.1385803 -0.11563668
-0.106942646 0.025889102 0.00980879 -0.06100447 0.03852156 0.060868695 0.12034138 0.06696955
0.25912797 0.0042160642 0.25531152 0.11617449 0.048313476 0.26070023 0.26946443 -0.16593291
-0.06250473 -0.07814786 0.085651144 0.09973574 -0.0145018585 -0.18092616 0.14546259 -0.11424918
-0.103143714 0.12070582 0.04678883 -0.07440293 -0.013084688 -0.08624395 -0.04797934 -0.16781355
0.24477893 0.031593867 0.12116861 0.16557176 -0.002207992 -0.0950764 0.07063637 0.075347975
0.16222657 -0.012323903 -0.14328131 0.041254845 -0.24195215 -0.0035879847 -0.22726646 -0.17550977
0.17175223 -0.0757438 0.19462904 0.16191304 -0.08441687 -0.15167202 0.0037472427 0.07781271
0.11690926 -0.18374304 0.00017182199 -0.044725344 -0.03721272 -0.1188293 -0.08566968 0.0668559
0.19360337 -0.06576596 0.067188144 0.086221576 0.09289241 -0.15915896 0.058291655 0.03083125
-0.1194514 -0.22079997 0.16009846 0.0623172 0.05754665 0.08859617 0.006744959 -0.07089224
0.029336935 -0.005919134 0.2826534 -0.034774803 -0.5584075 -0.14976642 -0.025742263 -0.43072483
-0.18027498 -0.041163076 -0.14483196 -0.18780243 -0.084131375 -0.30908963 -0.20702486 0.1601224
0.0922015 -0.03198902 0.039172262 -0.07179953 0.0022025148 0.054383285 -0.13805567 -0.025341786
0.07370777 0.1292203 -0.10396755 -0.006132673 0.08422892 0.040459372 -0.0051065776 -0.12169076
0.03868087 0.20312011 -0.03551171 -0.3283089 0.1566563 -0.0007980198 -0.16032661 0.08247045
0.28510037 -0.07298267 -0.010179462 -0.049801406 -0.46429488 0.057088036 0.30282056 0.13726911
0.06276866 0.1481994 0.10045554 -0.06097794 0.038117025 -0.00086619897 0.18039809 0.10414383
0.0034376557 -0.0025485402 0.016969869 -0.0754431 -0.08727955 0.0038700327 -0.05202711 -0.17082502
-0.071137995 0.0957311 -0.1688063 -0.019298203 0.2786023 -0.12949885 0.05506837 0.15362929
-0.027328663 -0.08210951 0.07009996 -0.14612417 -0.06555389 -0.0051974966 -0.0072290595 -0.14171596
0.032321513 0.040092 0.023790883 -0.3012994 0.08624606 0.0033264824 0.006335303 -0.2787157
0.18783478 0.14067185 0.01015253 -0.10299887 -0.05371677 0.07376127 -0.17196034 0.20634507
0.049589675 -0.27849 -0.10194435 -0.20110068 0.024289155 0.16777499 -0.15840755 -0.10527683
-0.3364378 -0.1554377 -0.10049778 0.11276137 -0.20297758 -0.0601642 -0.3439751 0.073961824
0.1519439 -0.013998292 -0.049323477 0.07417547 0.38415933 0.011589523 -0.108173616 0.055482324
0.21104583 0.11098705 -0.025658894 -0.05109206 0.089264326 0.09697657 0.07466568 0.10469776
-0.009740743 -0.04145765 0.021506444 -0.041124195 -0.051097 -0.018642914 0.005736214 -0.028148677
0.009865946 -0.006839198 0.0116661005 0.0290361 0.033198215 0.050860766 -0.025788061 -0.02911761
0.032826915 0.0018763018 0.035844974 0.033235442 -0.045890123 -0.011288292 -0.0002670171 0.020822741
0.026441162 0.009535184 0.00049893785 -0.0015597027 0.0077808076 -0.023242598 0.034130827 0.0041436534
00000000: ad2f 2ebd 17c6 013e b9d1 80bd 3f72 2ebe
00000010: 641c d03c 6906 36bd cdf9 9f3a 3d48 3abe
00000020: b8f6 8a3d 8e98 9e3d b7e1 a03d b995 4ebc
00000030: 6626 05be 9bd5 6d3c ffe7 0d3e ecd2 ecbd
00000040: bf04 dbbd 6215 d43c 0cb5 203c d3df 79bd
00000050: c9c8 1d3d 7451 793d 8b75 f63d 5527 893d
00000060: 6cac 843e e926 8a3b 31b8 823e e4ec ed3d
00000070: 5ae4 453d 807a 853e 3ef7 893e 51ea 29be
00000080: 7b02 80bd fc0b a0bd de69 af3d 4042 cc3d
00000090: 3499 6dbc b544 39be 25f4 143e 79fb e9bd
000000a0: 033d d3bd 9d34 f73d a5a5 3f3d 9060 98bd
000000b0: 2961 56bc aba0 b0bd fc85 44bd 51d7 2bbe
000000c0: 54a7 7a3e 9268 013d 4027 f83d a58b 293e
000000d0: f5b3 10bb 6ab7 c2bd cda9 903d 0a50 9a3d
000000e0: b91e 263e 32ea 49bc 56b8 12be d7fa 283d
000000f0: 4ec2 77be 6524 6bbb 8ab8 68be d5b8 33be
00000100: d1df 2f3e 911f 9bbd d64c 473e 88cc 253e
00000110: c0e2 acbd e94f 1bbe 4d94 753b 455c 9f3d
00000120: 1f6e ef3d 2327 3cbe 1d2b 3439 ec31 37bd
00000130: 5d6c 18bd c75c f3bd 9673 afbd bfeb 883d
00000140: f63f 463e 4eb0 86bd f099 893d f094 b03d
00000150: 603e be3d 91fa 22be 3bc3 6e3d d191 fc3c
00000160: f0a2 f4bd 6319 62be daf0 233e 5240 7f3d
00000170: 09b6 6b3d e971 b53d d104 dd3b f32f 91bd
00000180: 0354 f03c 4bf5 c1bb f2b7 903e 0670 0ebd
00000190: cbf3 0ebf 5e5c 19be 70e1 d2bc f787 dcbe
000001a0: 019a 38be 9d9a 28bd d44e 14be 484f 40be
000001b0: 124d acbd ff40 9ebe 53fe 53be 20f7 233e
000001c0: 24d4 bc3d eb06 03bd 1873 203d a20b 93bd
000001d0: 1158 103b 02c1 5e3d 775e 0dbe 9499 cfbc
000001e0: 19f4 963d 5452 043e f0ec d4bd 97f4 c8bb
000001f0: 3680 ac3d bab8 253d 1455 a7bb 0139 f9bd
00000200: d56f 1e3d b8fe 4f3e ba74 11bd 1b18 a8be
00000210: 826a 203e 3432 51ba a92c 24be 44e6 a83d
00000220: adf8 913e f077 95bd c2c7 26bc 8ffc 4bbd
00000230: 0fb8 edbe 25d5 693d 4c0b 9b3e 4690 0c3e
00000240: db8c 803d 95c1 173e a2bb cd3d 01c4 79bd
00000250: 9920 1c3d a111 63ba 47ba 383e 5c49 d53d
00000260: 4b4a 613b 6905 27bb 6504 8b3c e981 9abd
00000270: 9fbf b2bd 60a0 7d3b 611a 55bd c1ec 2ebe
00000280: ccb0 91bd ab0e c43d 8fdb 2cbe 4417 9ebc
00000290: f6a4 8e3e 599b 04be 5f8f 613d ff50 1d3e
000002a0: 5ce0 dfbc 0829 a8bd 9190 8f3d 93a1 15be
000002b0: 1e41 86bd c34f aabb bfe1 ecbb fd1d 11be
000002c0: 9063 043d 8237 243d 19e5 c23c ea43 9abe
000002d0: c6a1 b03d 1d01 5a3b 6098 cf3b d3b3 8ebe
000002e0: c357 403e 480c 103e cc56 263c 12f1 d2bd
000002f0: 1e06 5cbd 2610 973d 5f16 30be 1f4c 533e
00000300: 8b1e 4b3d 3e96 8ebe 33c8 d0bd 56ed 4dbe
00000310: 0dfa c63c 35cd 2b3e 9735 22be 619b d7bd
00000320: 9341 acbe 0f2b 1fbe c8d1 cdbd 6fef e63d
00000330: 5bd9 4fbe bc6e 76bd 811d b0be 4c79 973d
00000340: 2f97 1b3e 1859 65bc 6a07 4abd 4fe9 973d
00000350: 88b0 c43e fce1 3d3c 218a ddbd 6f41 633d
00000360: 661c 583e 2e4d e33d 9a32 d2bc e845 51bd
00000370: 37d0 b63d a79b c63d 52ea 983d c76b d63d
00000380: a397 1fbc 7fcf 29bd 482e b03c d871 28bd
00000390: 164b 51bd 06b9 98bc daf6 bb3b 0e98 e6bc
000003a0: c7a4 213c 5a1b e0bb 2c23 3f3c 1ddd ed3c
000003b0: dafa 073d 6153 503d 7c41 d3bc 0e88 eebc
000003c0: 8475 063d 3eee f53a 2ed2 123d e321 083d
000003d0: 48f7 3bbd 87f2 38bc 6efe 8bb9 7494 aa3c
000003e0: 239b d83c 7639 1c3c 27cb 023a f06e ccba
000003f0: 25f6 fe3b 4367 bebc c4cc 0b3d 7cc7 873b

dense1.bias f4 [10]
0.016979631 -0.07328843 0.14956804 0.057868928 -0.27101228 -0.2122691 0.12968643 0.073993035
0.058171764 0.058240857
00000000: de18 8b3c 3f18 96bd 5d28 193e f807 6d3d
00000010: 1fc2 8abe 125d 59be 85cc 043e a989 973d
00000020: 8445 6e3d f78d 6e3d
