saved_weights/Model_epoch_no_10_train_acc_91.53_val_acc_89.33.pth (torch_old, 74659 bytes, 6 tensors)

conv1.weight f4 [16, 1, 5, 5]
0	0xbed1a7f7	-0.4094846
1	0xbe224505	-0.15846641
2	0xbe8bd73d	-0.2731265
3	0xbe06d0af	-0.13165544
4	0xbe488b50	-0.19584394
5	0xbdef1e7d	-0.11675737
6	0x3e40406a	0.18774572
7	0xbe8c1342	-0.27358443
8	0xbe38fe40	-0.18065739
9	0xbc0d4f64	-0.008624885
10	0xbdc63878	-0.09678739
11	0x3d57fe54	0.05273278
12	0x3a9813f0	0.0011602622
13	0x3e9a0f94	0.3009001
14	0x3e27ff06	0.16405877
15	0x3e0fab39	0.1403016
16	0x3e01b457	0.1266645
17	0x3cbf93e4	0.02338595
18	0x3bc35f11	0.0059622605
19	0xbe552403	-0.20814519
20	0x3eaf49eb	0.34236082
21	0x3d14efc2	0.036361463
22	0x3cbe5171	0.023232194
23	0x3de73505	0.112894095
24	0x3e5334ff	0.20625685
25	0xbdcf28c8	-0.101152
26	0x3e097bd5	0.13426144
27	0x3e519713	0.20467786
28	0x3e8d3af2	0.27584034
29	0xbdc3c2f5	-0.095586695
30	0x3de9d82e	0.11418186
31	0x3e3b6ddd	0.18303628
32	0x3e383ea7	0.1799265
33	0x3dcf94a4	0.10135773
34	0x3d799713	0.06093509
35	0x3e20fe7a	0.15722075
36	0xbd71acbf	-0.059002634
37	0xbdd66b91	-0.104697354
38	0xbc8d6514	-0.017260112
39	0x3e1fef79	0.15618695
40	0xbd01523a	-0.031572558
41	0xbd852e2f	-0.065029494
42	0xbdf322ed	-0.11871896
43	0xbe263e01	-0.1623459
44	0x3c39f578	0.011350028
45	0xbec14778	-0.3774984
46	0xbe557ab1	-0.20847584
47	0xbe590129	-0.21191849
48	0xbd57e50c	-0.05270867
49	0xbd83c9b3	-0.064349554
50	0xbd587fac	-0.052856132
51	0x3c37ab60	0.011210293
52	0xbddb3b99	-0.10704727
53	0xbef6813d	-0.48145476
54	0xbf1bcc3f	-0.6085853
55	0x3cf85906	0.030315887
56	0x3e7bbf2f	0.2458465
57	0x3ea33498	0.31876063
58	0xbd46df9e	-0.0485531
59	0xbf1b3e70	-0.6064215
60	0xbcb423ff	-0.02198982
61	0xbd64f4a9	-0.05589739
62	0x3e2281bf	0.15869807
63	0x3e332a21	0.1749654
64	0xbea6b679	-0.3256109
65	0x3e4fcba3	0.20292525
66	0xbd75634d	-0.059909154
67	0x3d000be2	0.031261332
68	0x3e4b3611	0.19844843
69	0xbdbcb85f	-0.092148535
70	0x3e5e94be	0.21736428
71	0x3e655c5a	0.2239851
72	0x3e6fab56	0.23405203
73	0x3e8eb111	0.27869466
74	0x3e35bc39	0.17747582
75	0xbed890bb	-0.4229792
76	0xbef60aae	-0.48055023
77	0xbea867f3	-0.32891807
78	0xbe845874	-0.25848734
79	0xbe7d7727	-0.24752484
80	0xbe469c3a	-0.19395533
81	0xbdf5291d	-0.11970732
82	0x3e0d0a25	0.13773401
83	0x3e986876	0.29767197
84	0x3e7bec57	0.24601875
85	0x3d7258dd	0.059166778
86	0x3e91312a	0.28357822
87	0x3e6cf247	0.23139296
88	0x3e8ab2f3	0.27089652
89	0x3e3f9410	0.18708825
90	0xbe0ac91d	-0.13553281
91	0x3d83a13d	0.06427238
92	0x3e0491c9	0.12946238
93	0xbd085b7d	-0.033290375
94	0x3e0b99c3	0.13632874
95	0x3df4227e	0.11920641
96	0x3dbc63e4	0.0919874
97	0xbd48f274	-0.049059346
98	0x3c20958d	0.009801281
99	0x3d062dad	0.032758404
100	0x3e42967e	0.1900272
101	0x3e289177	0.1646174
102	0x3bae0fe3	0.0053119524
103	0xbde8b54d	-0.113627054
104	0xbe8b6631	-0.27226403
105	0x3d6335bc	0.055471167
106	0x3e365b24	0.17808205
107	0x3e6ce397	0.23133694
108	0xbd3cc88c	-0.046089694
109	0xbe7336e6	-0.23751411
110	0xbd6056f0	-0.05477041
111	0x3e704a40	0.23465824
112	0x3d022296	0.031771265
113	0x3d73a113	0.059479784
114	0xbd1c1172	-0.038102575
115	0xbebf6087	-0.37378332
116	0xbf1a276c	-0.60216403
117	0xbde1190b	-0.10991105
118	0x3e4c1244	0.19928843
119	0x3eed79b9	0.4638193
120	0xbfa91940	-1.3210831
121	0xbfe61811	-1.7976094
122	0xbf487328	-0.78300714
123	0xbe4d55a2	-0.20052198
124	0x3e13cfa3	0.14434676
125	0xbe2d6fe2	-0.16937211
126	0x3e79ece4	0.24406773
127	0x3e88a44f	0.26687858
128	0x3e7006fa	0.23440161
129	0x3e58374a	0.21114841
130	0xbcac9ab3	-0.02106986
131	0xbe162c62	-0.14665368
132	0x3dbbd410	0.09171307
133	0x3bfeff0b	0.0077818683
134	0xbe30f3d2	-0.1728051
135	0x3dcf5f0f	0.10125553
136	0x3d633a1b	0.055475336
137	0xbcebf591	-0.028803619
138	0xbdf704e7	-0.12061482
139	0xbe5aef4e	-0.2138035
140	0xbd60ab43	-0.054850828
141	0x3cd82a59	0.02638738
142	0xbd14029c	-0.0361353
143	0x3db136fa	0.08653064
144	0x3c25692f	0.0100958785
145	0xbdc722be	-0.097234234
146	0x3dbcab62	0.09212376
147	0x3daa578e	0.08317481
148	0x3e646430	0.22303843
149	0x3bd819ad	0.0065948577
150	0xbce7d39b	-0.028299144
151	0xbe9c491a	-0.30524522
152	0xbddb9362	-0.107214704
153	0x3e90a7c9	0.2825301
154	0x3e484c91	0.19560458
155	0xbdec4fa6	-0.11538629
156	0x3e7e9939	0.24863137
157	0x3ec80efe	0.39073938
158	0x3e2cbcfe	0.1686897
159	0xbd2ff4b7	-0.042957988
160	0x3e0fd712	0.14046887
161	0x3e47366a	0.19454351
162	0x3e411996	0.18857417
163	0xbebe9861	-0.3722563
164	0xbec99c69	-0.39377144
165	0xbd5b0c8e	-0.05347877
166	0xbe64ca4b	-0.22342794
167	0xbebd6e0f	-0.3699803
168	0xbe57fc06	-0.21092233
169	0xbe52a1c2	-0.20569518
170	0x3e723a7f	0.23655127
171	0x3e28f883	0.1650105
172	0x3d601772	0.05470986
173	0xbe1d2419	-0.15345801
174	0xbad002d3	-0.0015869982
175	0x3e23efcb	0.16009443
176	0xbe888ce2	-0.26669985
177	0x3dcfffec	0.10156235
178	0x3d07bd73	0.033139657
179	0x3cd0cb80	0.025487661
180	0x3e91426b	0.28370985
181	0xbe92dd0b	-0.28684267
182	0x3e8b4aa7	0.27205393
183	0xbe845d5e	-0.25852484
184	0xbe0af780	-0.13570976
185	0x3dff6056	0.124695465
186	0xbccddba8	-0.025129154
187	0x3e397bfa	0.181137
188	0xbe46f8eb	-0.19430892
189	0x3d54dcc0	0.051968336
190	0x3e263297	0.16230236
191	0x3e4dc5d0	0.2009499
192	0x3df9ce92	0.12197603
193	0xbda24748	-0.07923752
194	0xbd28493a	-0.04108546
195	0x3dae0411	0.08496869
196	0xbdb55d2a	-0.0885566
197	0xbe50057d	-0.20314594
198	0x3e74e41a	0.23915139
199	0x3dc8c29b	0.09802743
200	0x3e5f27f5	0.21792586
201	0x3bb9ac48	0.0056662895
202	0xbd170999	-0.036874387
203	0xbe7b8070	-0.24560714
204	0xbe4b08ce	-0.19827577
205	0x3e12a03d	0.14318939
206	0x3d02e53c	0.031956896
207	0x3e6bccf8	0.23027408
208	0xbeb86b0d	-0.36019173
209	0xbe6aca1a	-0.22928658
210	0x3d42e2c5	0.047579546
211	0x3e7fe86e	0.24991009
212	0x3e835a8c	0.2565502
213	0xbdbb0dd6	-0.09133498
214	0x3c3e8878	0.011629216
215	0xbe432b99	-0.190596
216	0xbd7e37f8	-0.062065095
217	0x3e63d28f	0.2224829
218	0x3c279709	0.010228881
219	0x3e38c38d	0.18043347
220	0x3b92caef	0.004479758
221	0x3d7b3934	0.06133385
222	0x3e3511e5	0.17682607
223	0xbd704021	-0.058654908
224	0xbe4fbfb0	-0.20287967
225	0x3d2af244	0.04173495
226	0x3da7d1e6	0.08194332
227	0xbdc9db9e	-0.09856342
228	0x3e9d3480	0.30704117
229	0x3e3bdf14	0.18346816
230	0xbe2ec0f0	-0.17065787
231	0xbe1e5d71	-0.15465333
232	0xbc6436db	-0.013929094
233	0x3d1bba7d	0.038019646
234	0x3e35414a	0.17700687
235	0x3e4a95a1	0.19783641
236	0xbdfdf318	-0.12399882
237	0xbcbc01cb	-0.022950074
238	0x3e264d67	0.16240464
239	0xbe1ad807	-0.1512147
240	0x3e83c8c8	0.2573912
241	0x3e5f902d	0.21832342
242	0xbe2b72ab	-0.16742961
243	0x3e55b53c	0.20869917
244	0x3e33b7db	0.17550604
245	0xbe89d468	-0.26919866
246	0xbe8e81cf	-0.2783341
247	0xbe806f16	-0.25084752
248	0x3c592e9a	0.01325574
249	0xbdee460a	-0.11634453
250	0x3d7f4185	0.062318344
251	0x3e8fb397	0.28066704
252	0xbd677f6a	-0.056517996
253	0xbce00d82	-0.027350191
254	0xbdaeb721	-0.08531023
255	0x3e077aa7	0.13230382

conv1.bias f4 [16]
0	0x3e2a860b	0.16652696
1	0x3e50e690	0.20400453
2	0xbd1f7420	-0.038929105
3	0xbd4c71a6	-0.04991307
4	0x3ed959fa	0.4245146
5	0xbc1ea07f	-0.00968182
6	0x3d9bbfee	0.07604967
7	0xbe731287	-0.23737536
8	0xbdf3d104	-0.11905101
9	0xbb91ada1	-0.004445747
10	0x3c912f68	0.0177228
11	0x3d8aa7eb	0.06770309
12	0xbbc5edf7	-0.0060403305
13	0x3a3cf971	0.00072088005
14	0x3d8a7914	0.06761375
15	0x3c08064a	0.008302281

conv2.weight f4 [32, 16, 5, 5]
0	0x3d030c3c	0.03199409
1	0x3b9397f0	0.0045041963
2	0x3d870255	0.06592242
3	0x3cd86543	0.026415473
4	0x3d890a21	0.06691385
5	0xbdc1b58e	-0.09458457
6	0xbdd6cab3	-0.104878806
7	0x3b2711ff	0.0025492904
8	0xbdc0e121	-0.0941794
9	0xbccf5009	-0.025306718
10	0xbd66a938	-0.056313723
11	0xbdbeed29	-0.093225785
12	0x3c85861d	0.016299302
13	0x3d099935	0.033593375
14	0xbd4425e6	-0.047887705
15	0xbc9881fe	-0.018616673
16	0xbbd928a2	-0.0066271583
17	0x3d25003f	0.040283438
18	0x3d3dca52	0.046335526
19	0x3b3d6e22	0.0028904756
20	0xbe115284	-0.14191633
21	0xbdb43c96	-0.08800618
22	0xbe3d0a95	-0.18461068
23	0x3de9b663	0.11411741
24	0xbd403a9f	-0.046930905
25	0xbd8e98c9	-0.06962735
26	0xbd1a4167	-0.03766003
27	0x3db6f657	0.08933704
28	0x3dba010a	0.090822294
29	0x3d0dcd7a	0.034619786
30	0xbd65c8b1	-0.056099597
31	0xbdac89b2	-0.08424701
32	0xbcb60405	-0.022218714
33	0x3d155af0	0.036463678
34	0x3d0b29e2	0.03397549
35	0xbc939184	-0.018013723
36	0xbdfa3eb8	-0.12218994
37	0x3ac84525	0.0015279396
38	0x3dc78756	0.0974261
39	0x3d5b7865	0.053581614
40	0x3dc5b9b3	0.0965456
41	0x3db2322f	0.08700978
42	0xbdc5f591	-0.09665979
43	0xbd807f3b	-0.06274267
44	0xbd69cf68	-0.057082564
45	0x3dc7935a	0.09744902
46	0xba2d10bc	-0.000660192
47	0x3a42a36b	0.0007424864
48	0x3b225081	0.0024767222
49	0xbda5465d	-0.08070061
50	0x3d079c38	0.033107966
51	0xbdafd4cc	-0.0858551
52	0xbd4e1d93	-0.050321173
53	0x3e39dbae	0.18150207
54	0x3e6f7215	0.23383363
55	0x3bbbcab7	0.0057309526
56	0xbd101389	-0.03517488
57	0xbea63581	-0.32462695
58	0xbe79929f	-0.24372338
59	0xbe0088f8	-0.1255225
60	0x3db61d14	0.08892265
61	0x3e70a6b1	0.23501088
62	0x3d4e5ee0	0.05038345
63	0xbdfcb717	-0.12339609
64	0xbe01f51f	-0.12691163
65	0xbcd5960d	-0.026072526
66	0x3e5e498b	0.21707742
67	0x3e03a652	0.12856415
68	0xbd920fc3	-0.071319126
69	0xbd8d73b0	-0.06906831
70	0xbe08f54f	-0.13374828
71	0xbd01701d	-0.03160106
72	0x3dacd13e	0.08438347
73	0xbdfc9061	-0.123322256
74	0xbd57a016	-0.052642904
75	0xbc0a86e4	-0.008455012
76	0x3e213e08	0.1574632
77	0x3e474977	0.19461618
78	0x3e378378	0.17921245
79	0x3e26127c	0.16217989
80	0xbddbf9da	-0.10741015
81	0xbd865562	-0.06559254
82	0xbda37576	-0.07981388
83	0xbd20b2e8	-0.03923312
84	0x3c3b75dc	0.011441674
85	0xbd849d69	-0.06475336
86	0xbe0b7d4a	-0.13622013
87	0xbe23e799	-0.16006316
88	0xbc3f2492	-0.011666434
89	0xbc091436	-0.008366635
90	0x3dd85168	0.10562402
91	0x3cfc47d5	0.030795971
92	0x3d0a5e62	0.033781417
93	0x3e48a957	0.19595848
94	0x3e02c134	0.12769014
95	0xbbb6f481	-0.0055833464
96	0xbddd94b4	-0.108193785
97	0xbdbc6739	-0.09199376
98	0x3d9c03ea	0.07617934
99	0x3d2f5a18	0.04281053
100	0x3c9f8fa1	0.019477667
101	0xbe77307e	-0.24139592
102	0x3c670b2b	0.014101784
103	0x3e59009b	0.21191637
104	0x3e2db945	0.16965206
105	0xbd78fa75	-0.06078573
106	0xbe544af7	-0.20731722
107	0xbe28a68e	-0.16469786
108	0x3e8da1fa	0.2766264
109	0x3ed97ac7	0.42476484
110	0xbea044bd	-0.31302443
111	0xbe953f0b	-0.2914966
112	0xbdaf1d6e	-0.08550535
113	0x3e3b839d	0.18311925
114	0x3edb18a5	0.4279224
115	0xbe093a13	-0.1340106
116	0xbdc0b715	-0.0940992
117	0xbd44254e	-0.04788714
118	0x3dd58f07	0.10427671
119	0x3e848664	0.25883782
120	0xbddca66b	-0.10773929
121	0x3b88fc40	0.004180461
122	0x3cef6dd8	0.029227182
123	0x3df6b4b4	0.12046185
124	0x3e9a3331	0.3011718
125	0x3cd4e4a7	0.025987936
126	0xbd2079fb	-0.03917883
127	0xbdc40659	-0.09571523
128	0xbd430426	-0.047611378
129	0xbc004ff4	-0.007831562
130	0xbd65dd33	-0.056119155
131	0xbc05adf8	-0.008159153
132	0xbd2ab496	-0.041676126
133	0xbd9ba784	-0.076003104
134	0xbd845028	-0.06460601
135	0x3d1c3f41	0.03814626
136	0xbd4df4f4	-0.050282434
137	0xbd099c62	-0.033596404
138	0xbbbbf4d3	-0.0057359724
139	0xbd6117ae	-0.054954223
140	0x3d3c35c9	0.04594973
141	0xbba0c1c5	-0.0049059116
142	0xbd260501	-0.040532116
143	0xbce8b29a	-0.028405476
144	0xbdb3f390	-0.0878669
145	0x3d8f4413	0.06995406
146	0xbd8241ca	-0.063602045
147	0x3cad5676	0.021159392
148	0xbd2dbc69	-0.04241601
149	0xbe0e482f	-0.13894723
150	0x3c514df1	0.01277493
151	0x3d67c14d	0.05658083
152	0x3dbe21d7	0.09283798
153	0xbbdbd7a5	-0.0067090564
154	0xbd1b698f	-0.037942465
155	0xbd9f43b1	-0.07776583
156	0xbd87db8e	-0.066336736
157	0xbd8edadf	-0.0697534
158	0xbb87c21e	-0.0041430136
159	0xbab36829	-0.0013687658
160	0xbd769ffd	-0.06021117
161	0x3d31d3ee	0.043415003
162	0x3dbf1371	0.0932988
163	0x3d56fd5e	0.052487724
164	0x3c908f62	0.017646495
165	0x3d61346b	0.05498163
166	0x3cd4ca3a	0.025975335
167	0x3d8ad44f	0.06778776
168	0xbc387b43	-0.011259857
169	0xbdf8baa2	-0.121449724
170	0x3b5b3b15	0.0033451964
171	0x3a3dcf35	0.0007240654
172	0xbc18173c	-0.009282883
173	0xbda056c8	-0.07829052
174	0xbe50249d	-0.20326467
175	0xbc1f9e28	-0.009742297
176	0xbeac6563	-0.33671102
177	0xbed59805	-0.41717544
178	0x3dcd7ce8	0.100335896
179	0x3df081eb	0.1174353
180	0x3cb0b90b	0.02157261
181	0xbc80f58d	-0.015742088
182	0xbde53882	-0.11192419
183	0xbe1daccc	-0.15397948
184	0xbd28f992	-0.041253634
185	0xbd6c16dc	-0.057638988
186	0x3ba8f98f	0.005156703
187	0xbdb9a323	-0.09064319
188	0xbdaac54a	-0.08338411
189	0xbdd69e82	-0.10479452
190	0xbc048be7	-0.008089996
191	0x3d04c04c	0.03240995
192	0x3cdec0e3	0.027191585
193	0xbe05ecc6	-0.13078603
194	0xbe5ffea5	-0.21874483
195	0xbdb62405	-0.08893589
196	0x3cf99b40	0.030469537
197	0xbd0ce66a	-0.034399427
198	0xbdfc4744	-0.1231828
199	0xbe92982a	-0.28631717
200	0xbe0eb184	-0.13934904
201	0xbe403304	-0.18769461
202	0xbdad46eb	-0.08460792
203	0x3d286362	0.041110404
204	0x3dfa6a2a	0.122272804
205	0xbc408f76	-0.011752954
206	0xbd852e49	-0.06502969
207	0xbde1b43d	-0.11020706
208	0xbe6e3a15	-0.23264344
209	0x3b86cf9f	0.004114106
210	0xbc846949	-0.016163485
211	0xbae1aa9e	-0.0017216986
212	0x3d9348aa	0.07191594
213	0xbe5921f1	-0.21204354
214	0xbd2163c9	-0.039401803
215	0x3e4337bc	0.1906423
216	0x3dde81a2	0.10864569
217	0x3ddbae71	0.107266314
218	0xbdddf040	-0.1083684
219	0xbd525086	-0.051346324
220	0xbc98c469	-0.018648343
221	0xbbc5deb0	-0.0060385093
222	0x3dc97fe5	0.09838847
223	0xbd10da27	-0.035364296
224	0xbe49e5c6	-0.19716558
225	0xbdc71242	-0.09720279
226	0x3c8b65f3	0.017016387
227	0x3d1cb786	0.03826096
228	0xbcf2e57b	-0.02965044
229	0x3d4b09ad	0.049569774
230	0xbcfd3b5e	-0.030912098
231	0xbd8ec753	-0.06971612
232	0x3d15c4eb	0.03656475
233	0x3be3facf	0.006957389
234	0x3c5bffed	0.013427717
235	0x3d55a049	0.052154813
236	0xbd18fcd7	-0.037350502
237	0xbd29ee03	-0.04148675
238	0xbc5d1fca	-0.013496349
239	0xbd26ef2b	-0.040755432
240	0x3e1f1d89	0.1553861
241	0x3d53ac62	0.05167807
242	0xbd27a86c	-0.040932104
243	0xbdb3c017	-0.087768726
244	0xbd960089	-0.07324321
245	0x3da36f01	0.07980157
246	0xbd8919c7	-0.0669437
247	0x3cc1c3f1	0.023653002
248	0xbd3e0fb1	-0.046401683
249	0xbe13ac05	-0.14421089
250	0xbe2b1aae	-0.16709396
251	0x3d5e2172	0.054231115
252	0x3e86ab41	0.2630253
253	0x3bf8be7b	0.0075910664
254	0x3e4246bf	0.189723
255	0xbe559c36	-0.20860371

conv2.bias f4 [32]
0	0x3d8a2179	0.06744666
1	0xbdbe5ee3	-0.09295442
2	0x3e4fa559	0.20277919
3	0x3e8b3567	0.2718918
4	0xbd228170	-0.039674222
5	0xbdfedb3e	-0.12444161
6	0x3e14ece1	0.14543487
7	0xbcf5753b	-0.029963126
8	0xbc7b90cc	-0.0153543465
9	0xbd0f9b56	-0.03506025
10	0x3df72340	0.1206727
11	0x3e16ee5f	0.14739369
12	0xbd454838	-0.048164576
13	0x3b9b5634	0.004740501
14	0xb9c20b1f	-0.0003701085
15	0x3ca2cbd6	0.019872587
16	0xbd552637	-0.052038398
17	0x3e774119	0.24145927
18	0x3dac06b1	0.08399714
19	0x3e29cd7f	0.16582297
20	0x3d48df37	0.049041
21	0x3e218ae5	0.1577564
22	0x3d917db3	0.07104053
23	0x3e46957f	0.19392966
24	0x3c395cf0	0.011313662
25	0x3cf17f48	0.029479638
26	0x3e166d74	0.1469019
27	0x3e1d6822	0.15371755
28	0x3c80df44	0.015731461
29	0x3c97cbc3	0.018529778
30	0x3d49270b	0.0491095
31	0xbd43114c	-0.047623917

dense1.weight f4 [10, 512]
0	0x3e4b7cea	0.1987187
1	0x3c4600c7	0.012085146
2	0x3d9a8d34	0.075464636
3	0x3d1f9b39	0.03896639
4	0xbd52115f	-0.051286098
5	0x3dc8dc88	0.09807688
6	0xbd96c008	-0.07360846
7	0x3b813805	0.0039434456
8	0x3d332f3d	0.04374622
9	0xbcbeee22	-0.02330691
10	0xba657347	-0.00087528344
11	0x3cd06928	0.025440767
12	0xbdc4a83f	-0.09602403
13	0xbd6fbe53	-0.058531117
14	0x3d259821	0.040428285
15	0x3d9007c5	0.07032732
16	0x3cb4034e	0.021974232
17	0x3d6aa628	0.057287365
18	0xbd9a90c5	-0.07547144
19	0x3d12f0b1	0.035874072
20	0xbd02c006	-0.03192141
21	0xbd00882b	-0.03137986
22	0x3d0d3ae0	0.034479976
23	0xbde0c1c2	-0.10974456
24	0xbc768e99	-0.015048646
25	0x3d4b013c	0.049561724
26	0x3b5df286	0.003386648
27	0xbd44752c	-0.047963306
28	0x3b829173	0.003984624
29	0x3d670bb1	0.056407634
30	0xbd03840d	-0.032108355
31	0xbcb417ec	-0.021984063
32	0xbd1582a4	-0.03650154
33	0xbd4ab326	-0.049487256
34	0xb9a25e7b	-0.0003096944
35	0x3abb4274	0.0014286772
36	0xbdfc5e5f	-0.12322687
37	0xbdbe6d2d	-0.092981674
38	0x3b8d2fa2	0.004308657
39	0xbe1d71bc	-0.15375417
40	0xbd4713b3	-0.04860277
41	0x3cd98675	0.026553372
42	0x3d6fca18	0.05854234
43	0xbd68fad3	-0.05687983
44	0xbd5e583f	-0.054283377
45	0x3e14a572	0.14516237
46	0x3daa0550	0.083017945
47	0x3e11a4b6	0.14222988
48	0x3d13cd80	0.036084652
49	0x3de60edf	0.11233305
50	0x3d1d0b17	0.038340654
51	0xbb666517	-0.003515547
52	0x3d96c133	0.073610686
53	0xbd8fac3c	-0.07015273
54	0x3cbab52d	0.02279147
55	0xbd955e4e	-0.07293378
56	0x3d6e6e6d	0.05821078
57	0xbd702e4e	-0.05863791
58	0xbcace077	-0.021103127
59	0xbd10a543	-0.035313856
60	0x3d73834a	0.05945138
61	0x3e140e36	0.14458546
62	0x3e258de8	0.16167414
63	0xbe3129ef	-0.17301153
64	0xbd39c323	-0.045352113
65	0xbd19c1ac	-0.037538216
66	0x3c916d44	0.017752297
67	0xbbaaddf0	-0.0052144453
68	0x3ccd6f65	0.025077531
69	0xbd01634e	-0.031588845
70	0xbc93d82c	-0.018047415
71	0x3c54eccd	0.012995911
72	0x3c537678	0.012906663
73	0x3cf972eb	0.030450305
74	0x3cf7be18	0.030242011
75	0xbc76d468	-0.01506529
76	0x3d271e2e	0.040800266
77	0xbd17f430	-0.03709811
78	0xbd3c4bd4	-0.045970753
79	0xbcb0e7f0	-0.021594971
80	0x3c382d21	0.011241228
81	0x3d371f88	0.044707805
82	0x3cb356e1	0.021892013
83	0x3d48c3a3	0.0490147
84	0xbb72ea3f	-0.003706589
85	0x3c290bae	0.010317726
86	0x3cee65a3	0.029101199
87	0x3dccc25f	0.09998011
88	0x3d6c6f31	0.057723228
89	0x3c49cc47	0.01231677
90	0xbb7cd5d8	-0.003857961
91	0x3d097c7f	0.033565994
92	0xbde08db8	-0.10964531
93	0xbe4ee5ea	-0.20204893
94	0xbd69c6f7	-0.057074513
95	0xbddffc65	-0.10936812
96	0x3cf379fc	0.029721253
97	0x3c540046	0.012939518
98	0xbc5a7f06	-0.013335949
99	0x3abb275b	0.0014278697
100	0x3d4c2f65	0.049849886
101	0x3d28475b	0.041083675
102	0xbc8b3e0d	-0.016997362
103	0xbdb6c041	-0.08923388
104	0x3cbf0503	0.02331782
105	0x3d187314	0.037219122
106	0x3cf2f73f	0.029658912
107	0x3c3532c8	0.0110594705
108	0xbde831bd	-0.11337612
109	0x3d53976d	0.051658083
110	0x3c7fa62d	0.015603584
111	0x3ce12580	0.027483702
112	0x3ad6b130	0.001637971
113	0xbcf5b30f	-0.029992608
114	0x3db2bf1c	0.087278575
115	0x3ddee92d	0.108843185
116	0xbc7769b0	-0.015100881
117	0xbcb33d1a	-0.021879721
118	0xbd6c91ad	-0.057756115
119	0xbde0963c	-0.10966155
120	0xbc2ff293	-0.010738987
121	0x3df27323	0.11838367
122	0x3d0da495	0.034580786
123	0xbd70e924	-0.05881609
124	0xbd2e8b9d	-0.042613614
125	0x3d651edb	0.05593763
126	0x39349a19	0.00017223544
127	0xbe908a5b	-0.28230557
128	0xbe12597c	-0.14291948
129	0xb934fac6	-0.00017259558
130	0xbd4ec502	-0.05048085
131	0xbe0527f0	-0.13003516
132	0xbdd00e7a	-0.10159011
133	0xbed73177	-0.42029926
134	0x3e0e81f1	0.13916756
135	0x3db2b97e	0.08726786
136	0x3b06a3c9	0.00205444
137	0xbd4c3bac	-0.049861595
138	0xbd96a739	-0.07356114
139	0xbd8359d3	-0.06413617
140	0x3d3bd59a	0.045858003
141	0xbc9e122e	-0.019295778
142	0xbda5cede	-0.080960974
143	0x3b48892f	0.0030599346
144	0xbdb7d75e	-0.08976625
145	0x3d067c75	0.032833535
146	0xbd9832b8	-0.07431549
147	0x3e17fd31	0.14842679
148	0x3b0ea342	0.002176479
149	0xbd19d715	-0.037558634
150	0xbcfa156b	-0.030527791
151	0x3d6bc6ba	0.057562567
152	0x3e0e05f4	0.13869458
153	0x3b53c931	0.0032315964
154	0x3dcf3aab	0.10118612
155	0xbb8b86ca	-0.0042580115
156	0x3c8b154d	0.01697793
157	0xbc251bb0	-0.010077402
158	0xbc9011d2	-0.017586622
159	0xbe07ba82	-0.13254741
160	0xbda27436	-0.07932322
161	0x3cea293a	0.028584111
162	0x3d2cb46a	0.042164244
163	0x3e560611	0.20900752
164	0x3c2f8419	0.010712647
165	0xbd521e72	-0.051298566
166	0x3d3172dd	0.043322433
167	0x3e23ce31	0.15996625
168	0xbd4e3013	-0.050338816
169	0x3beedde2	0.007289634
170	0xbd9670a8	-0.07345706
171	0x3d85b1fc	0.065280885
172	0xbcdc9ec5	-0.026931176
173	0x3d2caa6f	0.042154726
174	0x3d94c12f	0.07263409
175	0xbd824e52	-0.06362595
176	0x3e5a71c2	0.21332458
177	0xbdf869d9	-0.12129564
178	0xbbf4649d	-0.007458283
179	0x3e3da6b8	0.1852063
180	0xbdcdc3b0	-0.1004709
181	0x3cbdf7e1	0.023189487
182	0x3cc71ff0	0.024307221
183	0xbd47f5fd	-0.048818577
184	0xbe13526b	-0.14386909
185	0x3da3b594	0.07993618
186	0x3c5fa149	0.013649293
187	0xbd875f20	-0.066099405
188	0xbdad4498	-0.08460349
189	0x3d8360a5	0.06414918
190	0x3c812b7d	0.015767807
191	0xbd520a6a	-0.051279463
192	0xbdf0ab8c	-0.1175147
193	0xbdcbfdd5	-0.09960524
194	0x3d926127	0.071474366
195	0x3d1c84fa	0.038212754
196	0xbe83d9d5	-0.2575213
197	0xbe389921	-0.18027164
198	0x3d6b8e38	0.057508677
199	0xbe219b0c	-0.15781802
200	0x3d994171	0.07483185
201	0xbe3276ab	-0.1742808
202	0x3d37f064	0.04490699
203	0xbeb2b90f	-0.34906814
204	0xbc60f242	-0.013729634
205	0xbe39dc07	-0.1815034
206	0x3de2bd21	0.1107123
207	0x39f89281	0.000474114
208	0xbe079a4e	-0.13242456
209	0x3e7bd91c	0.2459454
210	0x3c6ee683	0.014581325
211	0xbc0541b5	-0.008133342
212	0x3d3d8938	0.04627344
213	0x3da658dd	0.08122418
214	0xbdde2bb3	-0.10848179
215	0x3d142617	0.036169138
216	0xbcf37e93	-0.029723441
217	0xbac6a6c2	-0.0015155899
218	0xbd9769ea	-0.073932484
219	0xbda7fa4b	-0.082020365
220	0xbe020105	-0.12695701
221	0xbd8c3300	-0.06845665
222	0x3d87571b	0.06608411
223	0x3d6b419c	0.057435617
224	0x3da5c8c8	0.080949366
225	0x3d86fe38	0.06591457
226	0x3d45639a	0.04819069
227	0x3e1dd34b	0.15412633
228	0xbce0c018	-0.027435347
229	0xbce9cd78	-0.028540358
230	0xbd77aef9	-0.0604696
231	0x3de6bd5d	0.11266587
232	0xbdc109f4	-0.094257265
233	0x3d77953d	0.06044506
234	0xbd3ddc7a	-0.04635284
235	0xbd0e2e4d	-0.034712125
236	0xbbf4f43e	-0.007475405
237	0xbccf2306	-0.025285255
238	0xbdbce37b	-0.09223076
239	0xbd0a1348	-0.033709794
240	0x3c1884f5	0.009309043
241	0xbe35914d	-0.17731209
242	0xbe62b0b9	-0.22137727
243	0xbd52e393	-0.051486563
244	0x3d1ad265	0.037798304
245	0xbca2b113	-0.019859826
246	0xbd39f7dc	-0.045402393
247	0x3d1d6cc3	0.0384338
248	0x3d3464d3	0.044041466
249	0x3d31fbca	0.043453015
250	0xbcc2cb88	-0.023778692
251	0x3df30d6d	0.11867795
252	0x3dd45c66	0.10369186
253	0xbe88ffc6	-0.2675764
254	0xbd5b38f1	-0.0535211
255	0x3c95a47c	0.018266909

dense1.bias f4 [10]
0	0xbcad0103	-0.021118646
1	0xbc5ede0a	-0.013602743
2	0x3d9513b4	0.07279149
3	0x3c1058a8	0.0088102
4	0xbe61016d	-0.219732
5	0xbde77c7a	-0.11303039
6	0x3d720489	0.059086356
7	0x3dde9d7e	0.10869883
8	0x3da79346	0.08182387
9	0xbd3fdbe0	-0.04684055
