saved_weights/Model_epoch_no_17_train_acc_93.74_val_acc_90.44.pth (torch_old, 74661 bytes, 6 tensors)

conv1.weight f4 [16, 1, 5, 5]
0.29193634 0.39751783 0.19948196 0.32625595 -0.075408116 -0.12550473 -0.027644033 -0.37022933
-0.14722048 -0.22204836 -0.12875232 -0.27602822 -0.4796886 -0.027379697 0.15227495 -0.012062349
-0.2831513 0.040603586 0.24687055 0.3930912 0.26285082 -0.30245203 -0.2805031 0.2998131
0.34867397 0.101636395 -0.2284001 0.08347592 0.32221636 -0.2298921 0.21433054 -0.17797211
-0.028930902 0.117195845 -0.10570573 0.24835297 -0.27808702 -0.08717854 0.113762215 0.07375798
0.20719285 -0.2816216 0.008334636 0.21387042 -0.05150257 -0.057580817 -0.385447 0.38805875
0.10503611 -0.20525923 0.26715386 0.06185133 0.22888355 -0.27142596 0.16736121 0.14799555
0.28778347 -0.17613639 -0.27391037 0.17928812 0.07012231 -0.49195912 -0.41136914 0.19762783
-0.031629514 -0.33025974 -2.2121274 -1.738323 -0.012476081 0.3038938 -0.049544405 -1.982497
-1.5161632 -0.09344807 -0.14270821 0.017935297 -0.12785546 -0.43722907 -0.030182205 -0.17462017
0.17117026 0.081522666 -0.06718093 -0.4602406 -0.3770087 0.073517956 0.29100752 0.094696306
-0.16736123 -0.24568203 0.26704818 0.3072598 0.45020145 0.31364754 -0.068420775 -0.1118313
-0.13640134 0.034234397 0.18937358 0.10558629 0.19986957 0.34014264 -0.10779094 0.1928343
0.08179607 0.22204044 0.1372431 0.20013838 0.14622703 -0.11387789 0.29632014 0.026795574
0.06768686 -0.12554006 -0.1251085 -0.21093252 -0.072363846 0.22157307 0.27180532 -0.09386496
-0.30109856 -0.15851793 -0.23399399 -0.2802733 -0.104771174 0.16355664 0.4391878 -0.026291447
-0.2079949 0.15180269 -0.14431487 0.3660861 -0.16952886 -0.23010954 -0.4145703 -0.34179154
0.38829795 -0.18433836 -0.0880872 -0.018147793 -0.21880734 0.2621428 0.13033554 -0.1692301
0.19080892 -0.017221062 0.3024882 -0.08451002 -0.06299329 0.007913575 -0.09679666 -0.17182934
0.40966713 -0.15568389 0.04560663 -0.14287744 -0.13761236 0.49263367 -0.33070922 0.02545258
-0.10102899 -0.13328409 0.43123832 -0.3597628 0.02307084 0.27831885 -0.102365986 0.21689278
-0.30657336 -0.043458328 0.06943341 -0.23605558 0.30528724 0.0678074 -0.01932455 -0.23097256
-0.2645632 -0.18454275 0.15552062 0.39914137 0.009845153 0.17306468 -0.0034130395 0.2266651
0.22947457 0.10182586 -0.20982397 -0.0421324 0.089693226 -0.09036305 -0.1338115 0.07000499
0.16192892 -0.09592274 0.08939315 0.13572533 -0.00082127855 -0.16251427 0.042391274 -0.09303554
0.03824464 -0.30193126 -0.18052714 0.5800859 0.09490575 -0.014366948 -0.45350835 -0.38097763
0.49013212 -0.21898162 0.18903618 0.284146 -0.30798557 0.27561012 -0.21062125 0.23766603
0.15838593 -0.13312818 -0.021749992 0.25506586 -0.22639184 -0.030392228 -0.46015978 -0.106935136
0.3934829 -0.69101405 -0.5244032 -0.34705758 -0.005169986 -0.018996404 -0.11676391 -0.024206411
-0.13710786 -0.184536 0.087002866 -0.010735311 0.429262 0.15317273 -0.00076098763 0.00713284
0.0418481 0.28056905 -0.016620358 0.119070984 0.14927593 0.45495126 0.10469727 -0.015891695
-0.026727153 0.23630981 -0.3325658 0.21243605 0.2130237 -0.029799048 0.015371006 -0.27237776
00000000: ae78 953e 7587 cb3e 0045 4c3e 050b a73e
00000010: 926f 9abd 5084 00be bd75 e2bc b38e bdbe
00000020: f7c0 16be a560 63be a6d7 03be 9253 8dbe
00000030: bf99 f5be 634b e0bc f7ed 1b3e 29a1 45bc
00000040: 35f9 90be f24f 263d a2cb 7c3e 4043 c93e
00000050: 6294 863e feda 9abe 1a9e 8fbe 1a81 993e
00000060: 6585 b23e be26 d03d b7e1 69be 6cf5 aa3d
00000070: 8bf9 a43e d668 6bbe 7779 5b3e 523e 36be
00000080: 8000 edbc 6004 f03d 3f7c d8bd 3e50 7e3e
00000090: 6c61 8ebe aa8a b2bd 2afc e83d 6c0e 973d
000000a0: 5d2a 543e b530 90be ff8d 083c d900 5b3e
000000b0: 5cf4 52bd ddd9 6bbd 4f59 c5be a3af c63e
000000c0: 2c1d d73d 7a2f 52be 64c8 883e d257 7d3d
000000d0: 7360 6a3e 58f8 8abe bd60 2b3e 258c 173e
000000e0: 5b58 933e 195d 34be fb3d 8cbe 4e97 373e
000000f0: 499c 8f3d 11e2 fbbe fa9e d2be f35e 4a3e
00000100: f38d 01bd ce17 a9be 7f93 0dc0 5e81 debf
00000110: 7a68 4cbc f897 9b3e 13ef 4abd 76c2 fdbf
00000120: a311 c2bf b461 bfbd 1a22 12be 0bed 923c
00000130: 8bec 02be 7ddc dfbe ac40 f7bc a1cf 32be
00000140: 4247 2f3e 5bf5 a63d 2896 89bd a8a4 ebbe
00000150: 4907 c1be 9590 963d f0fe 943e 23f0 c13d
00000160: be60 2bbe 1294 7bbe 8aba 883e 2851 9d3e
00000170: ce80 e63e 6996 a03e 3120 8cbd cf07 e5bd
00000180: cbac 0bbe 5e39 0c3d 26eb 413e a03d d83d
00000190: 9caa 4c3e 2d27 ae3e 7fc1 dcbd 5b76 453e
000001a0: b384 a73d 925e 633e 7589 0c3e 13f1 4c3e
000001b0: 8abc 153e d038 e9bd 46b7 973e 6482 db3c
000001c0: 699f 8a3d 938d 00be 711c 00be b2fe 57be
000001d0: 7f33 94bd 0de4 623e 112a 8b3e 463c c0bd
000001e0: 9729 9abe 8652 22be 1f9c 6fbe fb7f 8fbe
000001f0: 4592 d6bd 647b 273e 39dd e03e 2961 d7bc
00000200: 9dfc 54be 2a72 1b3e 47c7 13be a36f bb3e
00000210: f998 2dbe d6a1 6bbe 8f42 d4be 4dff aebe
00000220: fdce c63e 32c3 3cbe 1067 b4bd aeaa 94bc
00000230: 080f 60be 9537 863e ae76 053e a84a 2dbe
00000240: 6a63 433e 2f13 8dbc bcdf 9a3e 9713 adbd
00000250: a002 81bd f0a7 013c 543d c6bd 08f4 2fbe
00000260: e4bf d13e 996b 1fbe 05ce 3a3d 774e 12be
00000270: 41ea 0cbe 7b3a fc3e b852 a9be ee81 d03c
00000280: 49e8 cebd a07b 08be 45cb dc3e d432 b8be
00000290: 0fff bc3c cf7f 8e3e 42a5 d1bd 2419 5e3e
000002a0: 2ff7 9cbe 5c01 32bd 1b33 8e3d 8eb8 71be
000002b0: 9c4e 9c3e 9bde 8a3d 854e 9ebc 1284 6cbe
000002c0: d474 87be c6f8 3cbe cc40 1f3e 425c cc3e
000002d0: 914d 213c de37 313e 4dad 5fbb e51a 683e
000002e0: 62fb 6a3e 148a d03d 18dc 56be 0693 2cbd
000002f0: 15b1 b73d 4310 b9bd e205 09be c75e 8f3d
00000300: b2d0 253e 2473 c4bd c113 b73d 95fb 0a3e
00000310: 124b 57ba 246a 26be 79a2 2d3d 6b89 bebd
00000320: 69a6 1c3d bc96 9abe 1bdc 38be 8280 143f
00000330: f25d c23d 5963 6bbc 3f32 e8be 800f c3be
00000340: 99f2 fa3e b83c 60be b392 413e 967b 913e
00000350: 49b0 9dbe c51c 8d3e 19ad 57be b95e 733e
00000360: ec2f 223e c152 08be 0a2d b2bc fe97 823e
00000370: 43d3 67be 1ff9 f8bc 109a ebbe cf00 dbbd
00000380: 9776 c93e 4ce6 30bf 4a3f 06bf 88b1 b1be
00000390: fc68 a9bb 599e 9bbc eb21 efbd 864c c6bc
000003a0: 0166 0cbe 01f7 3cbe 8f2e b23d 28e3 2fbc
000003b0: 3bc8 db3e 50d9 1c3e 047d 47ba 99ba e93b
000003c0: ea68 2b3d bfa6 8f3e 6b27 88bc 7ddb f33d
000003d0: cadb 183e 5fef e83e 866b d63d 4d2f 82bc
000003e0: e7f2 dabc 33fb 713e 1146 aabe d688 593e
000003f0: e322 5a3e 221d f4bc acd6 7b3c 1975 8bbe

conv1.bias f4 [16]
-0.03463897 -0.034490217 0.45867333 -0.05870457 -0.010249528 -0.03770009 -0.021110805 -0.048748944
-0.0006130971 -0.009795683 -0.01257044 0.029972345 0.060683083 0.11604082 0.28602165 -0.0564617
00000000: 98e1 0dbd 9d45 0dbd 3bd7 ea3e 3474 70bd
00000010: a3ed 27bc 696b 1abd 91f0 acbc f9ac 47bd
00000020: 40b8 20ba 137e 20bc 3ff4 4dbc 9088 f53c
00000030: d38e 783d cfa6 ed3d 6e71 923e 6244 67bd

conv2.weight f4 [32, 16, 5, 5]
-0.10072484 0.096488334 -0.02721401 0.14504652 -0.037882704 -0.20477775 -0.20086677 -0.0824725
0.19585742 0.08693792 -0.059300806 -0.15627094 0.035898164 -0.06810983 0.2030596 0.00030553056
-0.10452464 0.12607677 0.35146177 0.30205154 0.013204886 -0.42774972 0.0575586 0.3766108
-0.23358488 -0.0076466124 0.0607164 0.0029829256 -0.025137931 0.10446013 -0.08797548 0.083084285
0.0878009 0.19560301 0.033322986 -0.026495343 0.07196858 0.020803232 0.009856415 -0.02822922
-0.03161888 -0.016098507 0.10510464 0.012598716 0.2378962 0.037545078 -0.26669872 0.060811803
-0.027646074 0.027596388 -0.101876706 -0.0028656777 0.054273233 -0.03608513 0.09716722 0.025745291
-0.15775025 -0.09019806 0.014484082 0.14606261 -0.16311207 -0.28217033 -0.18105543 -0.11318432
-0.118771166 -0.1697586 -0.053337097 -0.16291618 -0.025299702 0.0012196992 -0.13622308 0.08346345
0.08865099 0.24382082 0.1773441 0.13344744 0.08350363 0.12063759 0.05024756 0.040936045
0.03570458 0.04722814 0.05740748 -0.013092377 0.18278408 0.15876287 0.13582574 -0.16301028
-0.07469196 0.17331354 0.1404037 0.32544416 -0.09955019 0.0004338951 -0.14827698 0.28339976
0.123974375 -0.10781921 0.07142911 0.15248105 -0.059085794 0.010331747 -0.022226412 -0.16424021
-0.09035845 0.04718153 -0.004766662 0.13815412 0.017698616 -0.10582866 0.124662526 0.18799846
-0.039874353 0.045078557 -0.103272505 -0.042404782 0.047570158 -0.062661216 0.1109344 0.03607317
-0.06398115 0.077705644 0.13292572 0.052627575 0.0023552964 -0.23246905 0.06490524 -0.113763005
-0.03744718 0.00075664755 -0.15931368 0.06823809 0.056813154 -0.041149754 0.030348064 -0.059888065
0.1370918 -0.01825073 0.021020291 -0.07296068 -0.125528 0.22430503 0.13818355 0.09173432
-0.08537713 0.008018692 -0.0037662622 -0.21201193 0.09549091 -0.14388974 -0.12380411 -0.06852582
-0.1618946 -0.16026293 -0.13814935 0.14926943 0.048296686 0.06776457 0.1573473 0.04854007
0.1977324 0.022473153 0.097940534 -0.062365193 -0.21637921 0.35241717 -0.0034725666 0.1205749
0.14118163 -0.30226338 0.094498195 -0.070249155 -0.07146071 -0.056872074 -0.07259246 0.047351167
-0.13645962 -0.12403477 -0.18886873 -0.056245286 0.018614978 -0.078713946 0.022889802 -0.038530387
-0.010090258 0.030043613 -0.005223516 -0.014460539 -0.09378395 -0.013305342 0.13073716 0.023259379
0.14783344 0.01628063 0.107432365 -0.017666165 0.021459352 0.20048375 -0.028759344 -0.014437159
-0.23638211 -0.2026569 -0.07118424 0.1756581 0.13712382 -0.06508969 0.09963927 0.11095419
-0.03181412 0.09906496 0.060588706 0.15207507 0.07388307 0.13395345 0.04651102 0.014757556
-0.17863323 0.24040772 0.00678539 -0.2886818 -0.1852395 -0.38333818 -0.07239464 -0.2933273
-0.3224252 -0.17688742 -0.1494269 0.08613042 0.22220646 0.07927657 -0.29576522 0.12283493
0.081212975 0.16293027 0.033911828 -0.11515473 0.14053309 0.0917548 0.19944645 0.08903975
0.19085689 -0.0121559845 0.17509624 0.18706913 0.24126047 -0.03641907 0.113920696 0.10806236
0.0048832935 -0.32850263 0.08551172 -0.19655728 -0.45011964 -0.03038193 -0.08966377 0.1779426
00000000: d348 cebd ad9b c53d eaef debc 1387 143e
00000010: e52a 1bbd 42b1 51be 05b0 4dbe 58e7 a8bd
00000020: d98e 483e 820c b23d 67e5 72bd 7d05 20be
00000030: f409 133d 2b7d 8bbd dbee 4f3e 9e2f a039
00000040: 0411 d6bd 451a 013e ccf2 b33e 80a6 9a3e
00000050: 4e59 583c 0302 dbbe 91c2 6b3d 21d3 c03e
00000060: e030 6fbe 6f90 fabb c3b1 783d 307d 433b
00000070: 10ee cdbc 31ef d53d 7d2c b4bd 1828 aa3d
00000080: f5d0 b33d 284c 483e af7d 083d c30c d9bc
00000090: 4364 933d 8a6b aa3c cd7c 213c f740 e7bc
000000a0: cc82 01bd 04e1 83bc 1a41 d73d d86a 4e3c
000000b0: 109b 733e dec8 193d bc8c 88be cc15 793d
000000c0: 057a e2bc d211 e23c bca4 d0bd 18ce 3bbb
000000d0: 9c4d 5e3d 00ce 13bd 9cff c63d cae7 d23c
000000e0: 4889 21be c3b9 b8bd a54e 6d3c 7091 153e
000000f0: da06 27be a178 90be 9866 39be 2ecd e7bd
00000100: 4c3e f3bd 33d5 2dbe 0078 5abd 80d3 26be
00000110: 5241 cfbc 50de 9f3a 107e 0bbe e3ee aa3d
00000120: a68e b53d 2aac 793e b199 353e 72a6 083e
00000130: f303 ab3d d710 f73d 63d0 4d3d 8eac 273d
00000140: f73e 123d 4b72 413d 1b24 6b3d 6981 56bc
00000150: c02b 3b3e bc92 223e e715 0b3e 2bec 26be
00000160: 19f8 98bd 1b79 313e fdc5 0f3e 9ea0 a63e
00000170: f8e0 cbbd 6a7c e339 ecd5 17be c619 913e
00000180: 47e6 fd3d 51d0 dcbd 6d49 923d fe23 1c3e
00000190: f203 72bd 7d46 293c 2a14 b6bc 962e 28be
000001a0: da0d b9bd 6c41 413d a931 9cbb 4678 0d3e
000001b0: b0fc 903c b2bc d8bd 114f ff3d ab82 403e
000001c0: 4a53 23bd 4ba4 383d 8980 d3bd a3b0 2dbd
000001d0: edd8 423d 8654 80bd 9331 e33d 76c1 133d
000001e0: 8d08 83bd 2324 9f3d ae1d 083e 0390 573d
000001f0: 515b 1a3b 5e0c 6ebe 0aed 843d 94fc e8bd
00000200: 3762 19bd c259 463a 2023 23be 69c0 8b3d
00000210: e9b4 683d a58c 28bd 819c f83c 304d 75bd
00000220: cb61 0c3e 8e82 95bc bf32 ac3c 696c 95bd
00000230: 698a 00be 38b0 653e fd7f 0d3e 34df bb3d
00000240: 34da aebd d560 033c 65d3 76bb a819 59be
00000250: bd90 c33d d557 13be 028d fdbd 4457 8cbd
00000260: b3c7 25be f71b 24be 0677 0dbe 16da 183e
00000270: bfd2 453d 27c8 8a3d a71f 213e f4d1 463d
00000280: 5d7a 4a3e 9e19 b83c 0c95 c83d a572 7fbd
00000290: 8392 5dbe 0670 b43e 0094 63bb f9ef f63d
000002a0: eb91 103e 44c2 9abe 4588 c13d cade 8fbd
000002b0: fe59 92bd b1f2 68bd 5bab 94bd 4cf3 413d
000002c0: 12bc 0bbe f105 febd ce66 41be 7561 66bd
000002d0: 707e 983c c734 a1bd 6583 bb3c 0ad2 1dbd
000002e0: 9c51 25bc 061e f63c 072a abbb e6eb 6cbc
000002f0: cd11 c0bd a6fe 59bc f6df 053e 748a be3c
00000300: a661 173e f55e 853c 8005 dc3d a2b8 90bc
00000310: 86cb af3c 9d4b 4d3e b798 ebbc d589 6cbc
00000320: 270e 72be 4a85 4fbe 0bc9 91bd b8df 333e
00000330: 306a 0c3e be4d 85bd ac0f cc3d f33b e33d
00000340: 864f 02bd 92e2 ca3d dd2b 783d 91b9 1b3e
00000350: 0250 973d 182b 093e 5782 3e3d adc9 713c
00000360: a1eb 36be 712d 763e fa57 de3b 1ace 93be
00000370: 6caf 3dbe e744 c4be a443 94bd ff2e 96be
00000380: ea14 a5be fa21 35be 5e03 19be 2565 b03d
00000390: 178a 633e c15b a23d 8a6e 97be e190 fb3d
000003a0: fd52 a63d 31d7 263e 21e7 0a3d 3ed6 ebbd
000003b0: e8e7 0f3e f1e9 bb3d b13b 4c3e 795a b63d
000003c0: fd6f 433e e529 47bc 6e4c 333e 0d8f 3f3e
000003d0: fc0c 773e 2a2c 15bd 414f e93d cc4f dd3d
000003e0: 0904 a03b 7f31 a8be c520 af3d 5046 49be
000003f0: 1576 e6be 86e3 f8bc a3a1 b7bd 9636 363e

conv2.bias f4 [32]
0.024801569 0.07139921 0.06899956 0.24456908 0.030894618 -0.053995997 -0.08417719 0.05216309
0.11587287 0.16611844 0.18344611 0.20338742 -0.069473445 -0.17622419 0.058279365 -0.04960701
0.22658202 0.009478268 -0.014551536 -0.06052883 0.19217674 0.22748664 0.3418312 0.0097059375
0.17030603 0.11468542 0.011381504 -0.15365794 0.1433211 0.25959337 -0.0819966 -0.22821578
00000000: a92c cb3c c039 923d a44f 8d3d 5170 7a3e
00000010: b616 fd3c e82a 5dbd 1765 acbd f7a8 553d
00000020: c14e ed3d f41a 2a3e 4cd9 3b3e cb44 503e
00000030: 1848 8ebd 1d74 34be 58b6 6e3d b830 4bbd
00000040: 1e05 683e bd4a 1b3c 9169 6ebc 14ed 77bd
00000050: fbc9 443e 42f2 683e 8004 af3e a705 1f3c
00000060: b464 2e3e 31e0 ea3d 7d79 3a3c 8258 1dbe
00000070: c4c2 123e 6ce9 843e d5ed a7bd 66b1 69be

dense1.weight f4 [10, 512]
-0.09554257 0.17632583 0.040342662 -0.14690197 -0.020097882 -0.07406417 0.08819798 0.042301934
0.025130002 -0.08486499 0.029332483 0.07714322 0.049570862 0.049529362 0.2792856 0.04542832
0.023616554 -0.042063363 0.003943898 0.13064507 0.07336564 0.0056771 -0.016329575 -0.08158495
0.083928965 0.05877885 -0.04310266 -0.11932378 0.0017082897 -0.069042936 -0.029833253 0.008645019
-0.13012111 0.016655006 -0.16780859 0.13245168 -0.055769987 -0.048343815 0.014137285 0.07154257
0.19218315 -0.13409798 0.09365062 -0.010173266 0.13831311 -0.02629104 -0.0040083504 0.019294692
0.04311934 0.024779892 0.16935544 0.069177754 0.12012755 -0.031165438 -0.052770317 0.23206504
0.08847668 -0.14232539 -0.09942866 -0.044989433 -0.028115315 -0.25461352 0.118171275 -0.12446287
0.030194664 -0.07945555 -0.0029184897 -0.12776855 0.1256145 -0.004611588 -0.028916394 0.06055956
0.08363526 0.22011484 -0.08400662 0.07996077 -0.06707906 -0.05829959 0.0019295333 -0.35285518
0.035319824 0.08927117 -0.012173362 0.0415024 -0.033522185 0.12902197 0.06064807 0.10515845
0.012078848 0.17354703 -0.052033514 -0.042169806 0.011991255 0.0470145 0.14036539 0.048929296
0.20761402 0.09611401 -0.061098453 -0.032903094 0.11558197 0.05865811 -0.09927276 0.09301853
0.042724274 -0.072023965 -0.060321644 0.14370237 -0.10232941 -0.11524059 -0.2589543 -0.032460652
0.22175291 0.06796452 -0.033923566 -0.075007394 -0.14053917 0.15320285 -0.23065487 -0.03254564
-0.08366012 0.0027388576 -0.03140232 -0.32207263 0.09153956 0.025204277 0.08054182 -0.07885498
-0.001978451 -0.16994396 0.00033861856 -0.19082417 0.058259528 -0.17719851 -0.14563516 0.19935217
0.25115484 0.020626137 0.019748583 0.041354466 0.12542216 0.00028578858 0.12284308 -0.035572752
0.13553976 -0.010762695 0.021051168 0.12937276 0.027045343 -0.02089065 -0.061224796 -0.050159898
-0.10228319 0.047193404 0.03565442 0.040015105 -0.19773205 -0.091535404 0.067677625 -0.06883593
-0.025934972 -0.01540442 -0.051346067 -0.2217624 -0.08860238 -0.13912475 -0.1981335 0.039615218
-0.11799661 0.032875407 0.07542886 0.026507467 0.15007086 0.24031773 0.049812693 0.13234441
0.023785096 0.1282735 -0.37471426 0.02009428 0.14783469 -0.03792171 0.117326945 -0.048325993
0.12833896 -0.0025416499 -0.083337024 -0.109888904 0.014570142 0.14418848 0.11327319 0.0596204
0.04517229 0.17037523 -0.15244985 0.13365756 0.0046662963 -0.1440668 0.018785376 0.046915162
-0.094228566 -0.21098074 -0.15210104 -0.020018762 -0.105291806 -0.11790041 0.06424072 -0.01943924
-0.04269471 0.19911678 0.18851666 -0.30208018 -0.20282774 -0.12207794 0.17155163 -0.3188114
0.16743712 -0.11487332 0.102106266 -0.017232548 0.020241674 -0.14715128 -0.1792001 0.2043522
-0.11725377 0.07717699 0.039912887 -0.025923965 0.12118995 0.056160156 0.11500683 0.0058376384
0.12935397 0.043024123 0.0017586048 0.05675971 -0.12782371 -0.07872378 -0.014706153 -0.17592816
0.09564558 0.016172647 0.030337593 0.05747639 0.17885798 0.13054939 -0.04441932 0.05019366
0.085683264 0.046128463 -0.08949609 -0.024679601 0.052579757 -0.26982194 -0.14914517 -0.14938925
00000000: d3ab c3bd c28e 343e 593e 253d 786d 16be
00000010: 50a4 a4bc f5ae 97bd 24a1 b43d cb44 2d3d
00000020: 6fdd cd3c b2cd adbd ad4a f03c 44fd 9d3d
00000030: d10a 4b3d 4ddf 4a3d 86fe 8e3e 0c13 3a3d
00000040: 8177 c13c a24a 2cbd d03b 813b d2c7 053e
00000050: ba40 963d f706 ba3b 9ac5 85bc 0316 a7bd
00000060: f3e2 ab3d 17c2 703d 6a8c 30bd 0760 f4bd
00000070: b1e8 df3a 6266 8dbd de64 f4bc d6a3 0d3c
00000080: 783e 05be 1470 883c 04d6 2bbe 6aa1 073e
00000090: 126f 64bd 2a04 46bd 12a0 673c e984 923d
000000a0: a9cb 443e fb50 09be e5cb bf3d c5ad 26bc
000000b0: f4a1 0d3e 4f60 d7bc 7b58 83bb e70f 9e3c
000000c0: e89d 303d 33ff ca3c 836b 2d3e 11ad 8d3d
000000d0: 6f05 f63d a94e ffbc b025 58bd 75a2 6d3e
000000e0: 4333 b53d bfbd 11be 41a1 cbbd d746 38bd
000000f0: 1752 e6bc b45c 82be c803 f23d 64e6 febd
00000100: cd5a f73c 97b9 a2bd 2244 3fbb c2d5 02be
00000110: 16a1 003e ce1c 97bb 13e2 ecbc 4d0d 783d
00000120: f748 ab3d c965 613e aa0b acbd 79c2 a33d
00000130: bf60 89bd 8dcb 6ebd 65e8 fc3a 6fa9 b4be
00000140: 85ab 103d ced3 b63d c872 47bc 6cfe 293d
00000150: 8f4e 09bd 561e 043e 1c6a 783d 505d d73d
00000160: 5ce6 453c 50b6 313e 1821 55bd 3fba 2cbd
00000170: f876 443c 4792 403d f2bb 0f3e 166a 483d
00000180: c598 543e 6cd7 c43d 5f42 7abd 65c5 06bd
00000190: 3db6 ec3d 7d43 703d 844f cbbd 8080 be3d
000001a0: a6ff 2e3d 4d81 93bd d413 77bd b726 133e
000001b0: 1592 d1bd 4203 ecbd a895 84be 76f5 04bd
000001c0: 3213 633e fb30 8b3d 70f3 0abd 7a9d 99bd
000001d0: 80e9 0fbe 35e1 1c3e ca30 6cbe 944e 05bd
000001e0: ff55 abbd 687e 333b b89f 00bd b4e6 a4be
000001f0: 1879 bb3d 3379 ce3c 1cf3 a43d b87e a1bd
00000200: e6a8 01bb ca05 2ebe 9d88 b139 6967 43be
00000210: 8ba1 6e3d 8773 35be 6221 15be fa22 4c3e
00000220: 5e97 803e 25f8 a83c c8c7 a13c 4d63 293d
00000230: ab6e 003e e5d5 9539 2795 fb3d bcb4 11bd
00000240: efca 0a3e 0456 30bc 8073 ac3c 4b7a 043e
00000250: 328e dd3c de22 abbc dac6 7abd 7774 4dbd
00000260: d979 d1bd df4d 413d 5e0a 123d e1e6 233d
00000270: 457a 4abe ea76 bbbd 919a 8a3d daf9 8cbd
00000280: 9475 d4bc d262 7cbc 4150 52bd af15 63be
00000290: 2a75 b5bd b876 0ebe 82e3 4abe 9143 223d
000002a0: 35a8 f1bd 5da8 063d 727a 9a3d 3026 d93c
000002b0: 2dac 193e da15 763e 6508 4c3d 4b85 073e
000002c0: f6d8 c23c 215a 033e 8cda bfbe c29c a43c
000002d0: fa61 173e cc53 1bbd 1c49 f03d 7af1 45bd
000002e0: 4a6b 033e cf91 26bb 9aac aabd 6f0d e1bd
000002f0: 9bb7 6e3c 25a6 133e c6fb e73d 8534 743d
00000300: 9406 393d d876 2e3e d01b 1cbe 87dd 083e
00000310: bbe7 983b 3f86 13be cae3 993c 1d2a 403d
00000320: e8fa c0bd 560b 58be 60c0 1bbe 63fe a3bc
00000330: 3ba3 d7bd c575 f1bd a390 833d 0b3f 9fbc
00000340: a6e0 2ebd 45e5 4b3e 830a 413e 41aa 9abe
00000350: 13b2 4fbe 0004 fabd 3bab 2f3e 3f3b a3be
00000360: a374 2b3e b442 ebbd 171d d13d 462b 8dbc
00000370: ded1 a53c d3ae 16be 3b80 37be b441 513e
00000380: bf22 f0bd f80e 9e3d b27b 233d 7f5e d4bc
00000390: 7032 f83d 3108 663d b388 eb3d a949 bf3b
000003a0: 5e75 043e 103a 303d fc80 e63a df7c 683d
000003b0: 38e4 02be ef39 a1bd 14f2 70bc 8326 34be
000003c0: d4e1 c33d 807c 843c 8b86 f83c 5d6c 6b3d
000003d0: 8c26 373e bdae 053e 08f1 35bd de97 4d3d
000003e0: b57a af3d 33f1 3c3d ba49 b7bd e02c cabc
000003f0: df5d 573d 1a26 8abe 83b9 18be 7ff9 18be

dense1.bias f4 [10]
-0.020123435 -0.026610814 0.14734678 0.0223681 -0.3018422 -0.11397823 0.043678593 0.065805465
0.19041918 0.059595507
00000000: e7d9 a4bc ecfe d9bc 13e2 163e 4e3d b73c
00000010: 108b 9abe 6b6d e9bd 53e8 323d 04c5 863d
00000020: 3ffd 423e 6b1a 743d
