saved_weights/Model_epoch_no_20_train_acc_93.30_val_acc_89.66.pth (torch_old, 74659 bytes, 6 tensors)

conv1.weight f4 [16, 1, 5, 5]
-0.5080469 -0.12592961 -0.24715498 -0.106483795 -0.18891229 -0.19625 0.24837783 -0.35771737
-0.22311206 -0.0010630485 -0.1378757 0.08467604 -0.020554427 0.36729938 0.18075702 0.19793715
0.13922964 -0.022770291 -5.459454e-05 -0.25476062 0.44905323 0.045578573 -0.02026727 0.10855787
0.22039665 -0.122728124 0.1145695 0.25047624 0.2909177 -0.17166656 0.14378512 0.23007639
0.1858363 0.067025356 0.03047275 0.17831801 -0.03332169 -0.12901151 -0.030703038 0.1406706
-0.0067878272 -0.05488147 -0.14114283 -0.13154845 -0.003029753 -0.4782571 -0.23910509 -0.24914163
-0.030718362 -0.02697386 -0.073416844 -0.0017113552 -0.08666348 -0.529721 -0.71110195 0.030559259
0.2661934 0.3737274 -0.026577499 -0.6731414 -0.047999293 -0.07696985 0.15482876 0.20038512
-0.35902822 0.23762855 -0.067220464 0.004582361 0.22660296 -0.08514061 0.26354226 0.22992332
0.2455665 0.35233298 0.20682527 -0.51670843 -0.5518583 -0.3768152 -0.32705086 -0.3075929
-0.16923057 -0.08340322 0.17215736 0.3526175 0.26198533 0.078077234 0.34975463 0.2603875
0.31336784 0.18096699 -0.17139396 0.083330095 0.14831406 -0.036151838 0.12711334 0.15225863
0.13238966 -0.0498485 0.00990354 -0.0201811 0.19203256 0.15637769 0.049573954 -0.1257084
-0.34706345 0.11444755 0.24445595 0.24396768 -0.097356 -0.2924442 -0.07053105 0.32405087
0.028274765 -0.04166479 -0.11163035 -0.5097521 -0.63284475 0.017548574 0.2693748 0.5325433
-1.8768836 -2.795617 -0.9658928 -0.14574893 0.21690446 -0.17491116 0.23434071 0.27847058
0.2599042 0.2095317 0.00063845847 -0.17818984 0.04817106 0.049513202 -0.17006262 0.09960588
0.027123807 -0.061880354 -0.16933413 -0.23546349 -0.07383419 -0.0017416326 -0.04274914 0.05546796
-0.010876281 -0.10934355 0.099177 0.06815351 0.23713592 0.05075856 -0.14472455 -0.45044807
-0.14610478 0.32186463 0.2594612 -0.178386 0.31786746 0.5853271 0.27837828 -0.07918323
0.21790032 0.26753777 0.25204805 -0.43706292 -0.45648322 -0.034350917 -0.2596068 -0.484813
-0.30689764 -0.17616111 0.27392575 0.2191917 0.08566605 -0.097562484 0.011671416 0.17969805
-0.31660897 0.13470304 0.032002233 0.042515464 0.33263475 -0.34895113 0.3247717 -0.2963539
-0.14957814 0.14784643 -0.028053612 0.21675165 -0.21981134 0.038614083 0.1832911 0.21722528
0.117099695 -0.08415265 -0.038929097 0.09605332 -0.081746444 -0.26135048 0.2737959 0.13017227
0.25426182 -0.007873432 -0.060031928 -0.2568385 -0.17924264 0.19147764 0.065954976 0.25607207
-0.4168245 -0.23896013 0.037497804 0.25206622 0.30820152 -0.095283814 0.020109717 -0.24789113
-0.12198353 0.26604944 0.0008657938 0.19356047 -0.0178063 0.02798134 0.23367134 -0.04817699
-0.22873455 0.019911284 0.030930124 -0.17265607 0.38881236 0.087872386 -0.18375567 -0.22992909
-0.044188857 0.08633135 0.13058147 0.28494495 -0.14945784 -0.09642659 0.2065563 -0.2264065
0.3877801 0.2889677 -0.14881755 0.28754866 0.18875422 -0.35885766 -0.3008622 -0.29560727
-0.017958675 -0.12979913 0.07804438 0.3362745 -0.06399723 -0.10514516 -0.10440386 0.11946827
00000000: 5d0f 02bf b1f3 00be 3216 7dbe 2d14 dabd
00000010: 3972 41be c3f5 48be c256 7e3e bb26 b7be
00000020: 7d77 64be fd55 8bba 4a2f 0dbe a26a ad3d
00000030: c261 a8bc aa0e bc3e 5e18 393e 09b0 4a3e
00000040: 3792 0e3e c388 babc 71fc 64b8 fc6f 82be
00000050: 4eea e53e 99b0 3a3d 8c07 a6bc 9753 de3d
00000060: a9af 613e e258 fbbd 6aa3 ea3d 6c3e 803e
00000070: 2af3 943e 5cc9 2fbe 683c 133e 2599 6b3e
00000080: df4b 3e3e 9744 893d fda1 f93c ff98 363e
00000090: 537c 08bd 981b 04be f084 fbbc f40b 103e
000000a0: 6c6c debb 64cb 60bd bf87 10be a3b4 06be
000000b0: d28e 46bb 1dde f4be f7d7 74be fc1e 7fbe
000000c0: 13a5 fbbc 49f8 dcbc 925b 96bd 8d4f e0ba
000000d0: 9f7c b1bd cc9b 07bf c70a 36bf 6957 fa3c
000000e0: 804a 883e 3359 bf3e 0eb9 d9bc ff52 2cbf
000000f0: e89a 44bd 5ea2 9dbd 6e8b 1e3e c231 4d3e
00000100: 8cd2 b7be e654 733e e2aa 89bd a127 963b
00000110: 9b0a 683e 335e aebd 03ef 863e 0571 6b3e
00000120: c975 7b3e fd64 b43e 01ca 533e 0147 04bf
00000130: 9646 0dbf eced c0be 3673 a7be d17c 9dbe
00000140: c74a 2dbe 4fcf aabd 054a 303e 488a b43e
00000150: f122 863e f5e6 9f3d 0a13 b33e 8351 853e
00000160: c071 a03e 694f 393e e681 2fbe f8a8 aa3d
00000170: a4df 173e f313 14bd 002a 023e b0e9 1b3e
00000180: 2891 073e f12d 4cbd 7542 223c d652 a5bc
00000190: 2fa4 443e 7921 203e 0f0e 4b3d b4b9 00be
000001a0: 4db2 b1be 7a63 ea3d a952 7a3e aad2 793e
000001b0: 9562 c7bd 3fbb 95be 9572 90bd ffe9 a53e
000001c0: 7ba0 e73c b3a8 2abd 749e e4bd 1d7f 02bf
000001d0: 1d02 22bf 07c2 8f3c 7eeb 893e c254 083f
000001e0: b93d f0bf 64eb 32c0 c044 77bf 353f 15be
000001f0: 341c 5e3e e91b 33be 03f7 6f3e b293 8e3e
00000200: 2a12 853e 7a8f 563e 395e 273a 6677 36be
00000210: 044f 453d 5bce 4a3d e524 2ebe 2bfe cb3d
00000220: bf32 de3c 4176 7dbd ed65 2dbe 571d 71be
00000230: 6136 97bd 7e47 e4ba b919 2fbd 5f32 633d
00000240: 6e32 32bc 83ef dfbd 501d cb3d 1194 8b3d
00000250: c2d3 723e 35e8 4f3d ac32 14be 21a1 e6be
00000260: 7e9c 15be 71cb a43e 19d8 843e d2aa 36be
00000270: 86bf a23e ffd7 153f 9987 8e3e d12a a2bd
00000280: 4321 5f3e b6fa 883e 710c 813e b6c6 dfbe
00000290: 2bb8 e9be 8cb3 0cbd 2feb 84be 6939 f8be
000002a0: b021 9dbe 9463 34be ff3f 8c3e ca73 603e
000002b0: af71 af3d d7ce c7bd 7839 3f3c c402 383e
000002c0: 921a a2be 98ef 093e c614 033d b224 2e3d
000002d0: 1a4f aa3e b9a9 b2be 7a48 a63e b3bb 97be
000002e0: 032b 19be 0e65 173e b0d0 e5bc 25f4 5d3e
000002f0: 3916 61be cd29 1e3d aab0 3b3e 4e70 5e3e
00000300: f7d1 ef3d 3958 acbd 1e74 1fbd 9ab7 c43d
00000310: ae6a a7bd bbcf 85be fa2e 8c3e e14b 053e
00000320: 9b2e 823e 91ff 00bc 0ae4 75bd 5680 83be
00000330: 628b 37be b712 443e 6713 873d e11b 833e
00000340: 056a d5be f7b1 74be 4c97 193d d30e 813e
00000350: 97cc 9d3e 2924 c3bd 22bd a43c 2cd7 7dbe
00000360: 80d2 f9bd a237 883e 70f6 623a b734 463e
00000370: 85de 91bc 2039 e53c 8a47 6f3e 3c55 45bd
00000380: 6439 6abe fd1c a33c 2c61 fd3c c1cc 30be
00000390: 6a12 c73e 70f6 b33d 722a 3cbe 8872 6bbe
000003a0: 60ff 34bd 7ece b03d 26b7 053e 4ee4 913e
000003b0: 7a0b 19be 4e7b c5bd 7f83 533e 1bd7 67be
000003c0: 1d8b c63e 93f3 933e a163 18be 9439 933e
000003d0: c948 413e 31bc b7be 9c0a 9abe d659 97be
000003e0: 121e 93bc 10ea 04be bbd5 9f3d 2c2c ac3e
000003f0: fb10 83bd 5856 d7bd b1d1 d5bd c8ab f43d

conv1.bias f4 [16]
0.13266936 0.20689942 -0.06556015 -0.07722004 0.5027248 -0.0051933117 0.06121015 -0.29041776
-0.13630699 -0.010767134 -0.0072014285 0.017778372 -0.019090421 0.008499871 0.050939824 -0.003161216
00000000: 7ada 073e 71dd 533e 6644 86bd 8a25 9ebd
00000010: 93b2 003f a82c aabb 7fb7 7a3d a3b1 94be
00000020: 0f94 0bbe a268 30bc f6f9 ebbb f3a3 913c
00000030: 8463 9cbc 0b43 0b3c 47a6 503d 672c 4fbb

conv2.weight f4 [32, 16, 5, 5]
0.1264037 -0.017358718 0.04493271 0.069248535 0.031953827 -0.07758235 -0.17944561 0.08559397
-0.15221213 -0.040969085 -0.07115734 -0.23042952 0.06568916 0.04787184 -0.073263295 0.054094374
-0.030558098 0.04905345 0.120196156 0.027748162 -0.04914271 -0.060324244 -0.25410432 0.22157231
-0.03504641 -0.09773383 0.040928815 0.18156807 0.090360016 -0.043435417 -0.15343872 -0.20911552
-0.04004522 -0.010034181 0.054531883 -0.14180692 -0.22992033 0.029560681 0.18836139 0.14370082
0.087723 0.12605114 -0.12583722 -0.09195193 -0.080951415 0.16261496 -0.0010788523 0.0033786953
-0.051202327 -0.20057705 0.004574933 -0.17948423 -0.025817364 0.2631792 0.23722577 0.10465137
0.049705364 -0.43700495 -0.27252495 -0.17818253 0.10550391 0.34051785 0.051269062 -0.14006521
-0.15119089 -0.054533657 0.28645948 0.118267044 -0.04809608 -0.05073476 -0.1632716 -0.03355381
0.02829436 -0.20466003 -0.09412622 0.08902179 0.26424766 0.23772144 0.22538553 0.17445113
-0.10721677 -0.037070155 -0.02501968 -0.027011035 0.030163601 -0.10938805 -0.13568494 -0.2524487
-0.039012853 -0.011153758 0.1691419 0.05126909 -0.0047964337 0.20394218 0.21718405 0.009634451
-0.033641204 -0.121162936 0.069365695 0.06317897 -0.057736468 -0.2803429 0.06570596 0.17204912
0.18894082 -0.059917457 -0.23089255 -0.2560502 0.32428434 0.45461187 -0.35954154 -0.38170272
-0.0029608223 0.110905364 0.5194447 -0.072317235 -0.18868905 -0.13817373 -0.15995143 0.18354043
-0.14633176 0.102886684 -0.010390915 0.07240141 0.31780034 0.07787866 -0.012372065 -0.12989378
-0.094189845 0.04725778 -0.108794406 0.02778052 -0.050090104 -0.15543838 -0.0916015 -0.0061979042
-0.10510857 -0.10507192 0.0257215 -0.063697234 0.03705289 0.0218299 -0.0053377897 0.040487945
-0.07413342 0.10002682 -0.13217328 0.00060904765 -0.016209032 -0.19699965 0.013452537 0.076582864
0.17263873 -0.06617814 -0.03712967 -0.31973144 -0.08986373 -0.10668846 -0.12432303 -0.11061919
-0.17679733 0.02680438 0.15766172 0.19165437 0.11019794 0.13808423 0.08373119 0.12411972
0.093108565 -0.08142142 0.008369849 -0.021827782 0.061397947 -0.06797196 -0.2961584 -0.09004045
-0.47605968 -0.6134783 0.19293097 0.2779815 0.060140353 0.035485532 -0.07302314 -0.030289145
0.054858696 0.04381076 -0.19584008 -0.07365298 -0.043545417 -0.11074752 0.09696893 -0.10704041
-0.013201449 -0.21812758 -0.25695983 -0.017745424 -0.03374551 -0.16403653 -0.2481689 -0.40758047
-0.12533589 -0.22002223 0.05775585 0.057109974 0.06843748 0.0037810775 -0.018485352 -0.22477832
-0.16213012 0.010295615 -0.20090228 -0.018922979 0.090022944 -0.22882321 -0.054681502 0.32035425
0.025093356 0.11095266 -0.12457003 -0.13091782 -0.07184572 -0.03747971 0.060847238 -0.104197815
-0.21107976 -0.21956186 0.09541145 0.008030851 0.007691864 0.20459163 -0.07663066 -0.12148836
0.012721788 0.010886932 0.027243042 0.099206045 0.007571982 0.059460595 0.03806149 0.07538519
0.19414848 0.037873685 0.027468897 -0.050812498 -0.062371064 0.13289917 -0.09985318 0.005353897
0.012261341 -0.2218152 -0.3573318 0.11170712 0.551722 -0.24399626 0.14259945 -0.5511456
00000000: f96f 013e df33 8ebc 5c0b 383d 2dd2 8d3d
00000010: 04e2 023d 7fe3 9ebd 97c0 37be e44b af3d
00000020: 7fdd 1bbe 33cf 27bd f1ba 91bd b7f5 6bbe
00000030: 0a88 863d 4315 443d 110b 96bd 1092 5d3d
00000040: fa54 fabc 45ec 483d 6729 f63d 1d50 e33c
00000050: de49 49bd 8e16 77bd f619 82be dae3 623e
00000060: d38c 0fbd ad28 c8bd f9a4 273d fbec 393e
00000070: ac0e b93d 56e9 31bd 0a1f 1dbe 6122 56be
00000080: 7506 24bd 6866 24bc d35c 5f3d d535 11be
00000090: 3c70 6bbe 3e29 f23c cfe1 403e 4f26 133e
000000a0: 1ea8 b33d 8d13 013e 79db 00be 4b51 bcbd
000000b0: dbc9 a5bd 8984 263e 4768 8dba 1a6d 5d3b
000000c0: 88b9 51bd 1264 4dbe 52e9 953b b7ca 37be
000000d0: f07e d3bc 6dbf 863e 50eb 723e 7553 d63d
000000e0: da97 4b3d 1dbf dfbe 6488 8bbe 7b75 36be
000000f0: 6f12 d83d 5b58 ae3e 82ff 513d 416d 0fbe
00000100: c9d1 1abe af5e 5fbd d1aa 923e fe35 f23d
00000110: 6500 45bd 40cf 4fbd ac30 27be b86f 09bd
00000120: 93c9 e73c 6692 51be 3fc5 c0bd 0e51 b63d
00000130: 784b 873e 406d 733e 77cb 663e 51a3 323e
00000140: 7794 dbbd e0d6 17bd 12f6 ccbc 3f46 ddbc
00000150: a819 f73c d806 e0bd fef0 0abe f540 81be
00000160: f1cb 1fbd 40be 36bc 8933 2d3e 8aff 513d
00000170: 672b 9dbb 38d6 503e 7f65 5e3e d1d9 1d3c
00000180: 5ccb 09bd 4624 f8bd 9a0f 8e3d fa63 813d
00000190: 137d 6cbd 1b89 8fbe d990 863d a52d 303e
000001a0: b479 413e 026c 75bd 196f 6cbe 0319 83be
000001b0: 9908 a63e e3c2 e83e d415 b8be 8a6e c3be
000001c0: 5b0a 42bb 5a22 e33d 54fa 043f 0f1b 94bd
000001d0: b437 41be 6a7d 0dbe 4fca 23be 06f2 3b3e
000001e0: fed7 15be 41b6 d23d a83e 2abc 3147 943d
000001f0: bab6 a23e d97e 9f3d 34b4 4abc e002 05be
00000200: 9be6 c0bd 6091 413d 9acf debd f993 e33c
00000210: 482b 4dbd 3d2b 1fbe 9199 bbbd ca17 cbbb
00000220: 2943 d7bd f22f d7bd e5b5 d23c b273 82bd
00000230: c5c4 173d 9ed4 b23c a0e8 aebb b0d6 253d
00000240: 43d3 97bd ddda cc3d 6f58 07be 7fa8 1f3a
00000250: cec8 84bc 47ba 49be 0868 5c3c 7ad7 9c3d
00000260: 35c8 303e 6888 87bd 4815 18bd d7b3 a3be
00000270: 7a0a b8bd 7b7f dabd 139d febd 508c e2bd
00000280: 5c0a 35be dc94 db3c 1372 213e 0b41 443e
00000290: 75af e13d f465 0d3e 427b ab3d 7b32 fe3d
000002a0: b4af be3d 46c0 a6bd b121 093c 2dd0 b2bc
000002b0: 6a7c 7b3d e234 8bbd 13a2 97be 2167 b8bd
000002c0: 18be f3be ea0c 1dbf b28f 453e 9753 8e3e
000002d0: bb55 763d 4759 113d 288d 95bd f120 f8bc
000002e0: 83b3 603d e972 333d 4d8a 48be 60d7 96bd
000002f0: ae5c 32bd 99cf e2bd a597 c63d 0138 dbbd
00000300: e44a 58bc d65c 5fbe 3d90 83be da5e 91bc
00000310: bb38 0abd 31f9 27be fd1f 7ebe 63ae d0be
00000320: 0d58 00be 824d 61be 6691 6c3d 26ec 693d
00000330: f328 8c3d f4cb 773b 986e 97bc 4a2c 66be
00000340: 7005 26be f0ae 283c 54b9 4dbe 5d04 9bbc
00000350: f35d b83d a250 6abe b6f9 5fbd 7905 a43e
00000360: 9590 cd3c 263b e33d 921e ffbd 520f 06be
00000370: d923 93bd 5384 19bd f43a 793d aa65 d5bd
00000380: 4b25 58be d3d4 60be 1467 c33d d593 033c
00000390: 080c fc3b 7880 513e 89f0 9cbd e4ce f8bd
000003a0: 0c6f 503c 1a5f 323c cd2c df3c 8a2c cb3d
000003b0: 641e f83b f48c 733d 5de6 1b3d 8d63 9a3d
000003c0: dcce 463e 7021 1b3d 7406 e13c c420 50bd
000003d0: cd78 7fbd b816 083e d37f ccbd be6f af3b
000003e0: cbe3 483c 8623 63be 32f4 b6be b4c6 e43d
000003f0: a73d 0d3f 28da 79be 9705 123e e117 0dbf

conv2.bias f4 [32]
0.06463321 -0.12600136 0.26629847 0.4409588 -0.0642952 -0.10824778 0.23359339 -0.06280624
-0.09950464 0.017771866 0.17416257 0.19211504 -0.12701474 -0.02725077 0.07189518 -0.055329815
-0.10954888 0.32031655 0.06261244 0.18788488 0.13473007 0.1472312 0.09948443 0.2518698
-0.025780266 -0.031885803 0.28548497 0.19943863 0.0075821187 0.01381624 0.063628174 -0.11709968
00000000: 6b5e 843d 8006 01be 4658 883e 5ac5 e13e
00000010: 34ad 83bd 03b1 ddbd 1b33 6f3e 8fa0 80bd
00000020: 17c9 cbbd 4e96 913c ac57 323e ceb9 443e
00000030: 2710 02be 023d dfbc c83d 933d 84a1 62bd
00000040: 2a5b e0bd 8800 a43e f33a 803d e564 403e
00000050: aef6 093e c7c3 163e 7ebe cb3d 14f5 803e
00000060: 2331 d3bc b09a 02bd 162b 923e a439 4c3e
00000070: 6c73 f83b 835d 623c 7d4f 823d f5d1 efbd

dense1.weight f4 [10, 512]
0.23213038 -0.02706299 0.14909159 0.042362366 -0.06548709 0.20087892 -0.16512111 -0.0012224503
0.06045025 -0.15827213 0.08263672 -0.017949393 -0.07230787 -0.061331492 0.10804118 0.12372684
0.1093801 0.025479482 -0.13917316 -0.1107287 -0.038764358 -0.084360115 0.09752892 -0.24826455
-0.009325643 0.021716887 0.092424385 -0.04513405 -0.010085947 0.21652295 0.042991854 0.0035600485
-0.103647426 -0.038230617 0.015815612 0.020814735 -0.13302112 -0.10678295 -0.014559649 -0.20742346
-0.0074828654 0.009193196 0.09592067 -0.03284417 -0.10243964 0.15949821 0.08312734 0.20715696
0.054360982 0.29188836 0.017445013 -0.0672288 0.09883391 -0.37114337 0.01950233 -0.025710661
0.11741679 -0.04739186 -0.040474858 0.14244302 0.069527335 0.07868134 0.23645872 -0.18318407
-0.06187042 -0.053668395 0.04371463 0.013347927 0.02211088 -0.039951593 0.036934316 0.050502125
0.036932874 0.039087728 0.0829575 -0.013388005 0.06441484 -0.010906757 0.0005680678 -0.0032480722
0.0343319 0.04182815 0.05966713 0.09192814 0.0062386505 -0.02088871 -0.02537471 0.12629943
0.10377156 0.07597331 0.0052463734 0.015597745 -0.2011525 -0.29444218 -0.04256834 -0.14559238
0.023280898 -0.049781192 -0.010692308 0.05999645 0.11429025 0.032259636 -0.0032275682 -0.16053508
0.00026415676 0.08242199 -0.03797032 -0.0057469164 -0.19481832 0.1285462 0.010771565 0.06648378
0.039872948 -0.020017281 0.07983363 0.16026424 -0.042162865 0.04386769 -0.07647356 -0.11396019
0.027071312 0.082780614 -0.027218306 -0.0844473 -0.104863144 0.10197952 0.09537409 -0.45145404
-0.19143295 0.05534378 -0.105045505 -0.13304538 -0.090203024 -0.50265133 0.29833388 0.08922594
-0.056655254 -0.084772244 -0.135955 -0.07006083 0.10763692 -0.026573533 -0.07071598 0.104584016
-0.15001892 0.034091696 -0.1294126 0.2274186 0.03518075 -0.0430495 -0.112665944 0.07758586
0.1970051 0.014703177 0.13285829 -0.031931706 -0.016941473 -0.030953461 -0.022518631 -0.1721599
-0.123701185 -0.033919305 0.033470698 0.19810355 -0.01786565 -0.08178192 -0.006193331 0.16915186
-0.07869754 0.02700944 -0.09691009 0.08023443 -0.08947967 0.124337286 0.11242534 -0.061717264
0.34782425 -0.110266834 -0.017954504 0.2985569 -0.12619525 -0.06521252 0.0071851085 -0.12309646
-0.19446857 0.038055073 -0.02967401 -0.049790494 -0.15473202 0.067068934 0.03198178 -0.058652874
-0.15476403 -0.16462202 0.12792894 0.06323718 -0.33664984 -0.15408958 0.19533207 -0.26514688
0.10430242 -0.25501037 0.080565184 -0.32832322 -0.045712482 -0.33525848 0.15444088 0.014315603
-0.17133343 0.32357275 0.026232338 0.00021280708 0.06228025 0.04386466 -0.21567732 0.024081483
0.014802702 0.045858588 -0.15393828 -0.13597153 -0.1637452 -0.043466195 0.16625823 0.09418006
0.1362357 0.06063633 0.09010153 0.16262582 -0.049202934 -0.035856206 -0.082456924 0.13243036
-0.118326165 0.087329485 -0.063487 -0.10825355 -0.04118484 -0.03220378 -0.13717684 0.022494895
-0.030374322 -0.18137367 -0.30742338 -0.097360305 0.122827545 -0.02589745 0.0681733 0.07208635
0.027531987 0.10071091 -0.16764255 0.18193257 0.16794434 -0.2508482 -0.04811318 -0.006162942
00000000: 96b3 6d3e 34b3 ddbc 77ab 183e 2984 2d3d
00000010: 181e 86bd 34b3 4d3e 8215 29be a03a a0ba
00000020: ae9a 773d 1712 22be 713d a93d 9b0a 93bc
00000030: 2616 94bd bb36 7bbd b244 dd3d 7f64 fd3d
00000040: ad02 e03d 59ba d03c 6983 0ebe bbc5 e2bd
00000050: 60c7 1ebd ffc4 acbd 3ebd c73d 1039 7ebe
00000060: 95ca 18bc 9de7 b13c ff48 bd3d 7bde 38bd
00000070: 873f 25bc 31b8 5d3e 3a18 303d b44f 693b
00000080: 1a45 d4bd b597 1cbd be8f 813c aa83 aa3c
00000090: b036 08be 05b1 dabd 988b 6ebc d166 54be
000000a0: d332 f5bb 0f9f 163c 0e72 c43d 9c87 06bd
000000b0: e0cb d1bd 8053 233e ab3e aa3d f420 543e
000000c0: 9fa9 5e3d 6472 953e d8e8 8e3c 41af 89bd
000000d0: 6f69 ca3d 8106 bebe 5ac3 9f3c 2a9f d2bc
000000e0: 3778 f03d f81d 42bd f7c8 25bd 95dc 113e
000000f0: 5964 8e3d af23 a13d 3c22 723e 9b94 3bbe
00000100: d66b 7dbd 64d3 5bbd 1d0e 333d 43b1 5a3c
00000110: e021 b53c 48a4 23bd 7048 173d 51db 4e3d
00000120: ed46 173d 741a 203d 9fe5 a93d 5d59 5bbc
00000130: edeb 833d 41b2 32bc 62ea 143a 9cdd 54bb
00000140: 9b9f 0c3d ff53 2b3d 8565 743d d244 bc3d
00000150: 986d cc3b cd1e abbc a0de cfbc a354 013e
00000160: 2f86 d43d e597 9b3d c5e9 ab3b af8d 7f3c
00000170: ecfa 4dbe 20c1 96be 245c 2ebd 2b16 15be
00000180: 95b7 be3c 5de7 4bbd ca2e 2fbc d6be 753d
00000190: 0211 ea3d ae22 043d 9c85 53bb 4f63 24be
000001a0: 857e 8a39 dccc a83d c486 1bbd a150 bcbb
000001b0: 747e 47be 9da1 033e 387b 303c a628 883d
000001c0: d151 233d 48fb a3bc d07f a33d 4f1c 243e
000001d0: f8b2 2cbd 9bae 333d 2b9e 9cbd f663 e9bd
000001e0: a8c4 dd3c e288 a93d edf8 debc b5f2 acbd
000001f0: 7dc2 d6bd a3da d03d 7e53 c33d fc24 e7be
00000200: 0007 44be 29b0 623d 1922 d7bd 0c3d 08be
00000210: 5dbc b8bd c2ad 00bf 38bf 983e 17bc b63d
00000220: 570f 68bd 129d adbd ca37 0bbe 0d7c 8fbd
00000230: bf70 dc3d bdb0 d9bc 8ad3 90bd 2530 d63d
00000240: 8f9e 19be bca3 0b3d bd84 04be 6ce0 683e
00000250: b119 103d ac54 30bd 67bd e6bd 56e5 9e3d
00000260: b4bb 493e 98e5 703c 010c 083e d2ca 02bd
00000270: d8c8 8abc 1d92 fdbc fe78 b8bc af4a 30be
00000280: 0c57 fdbd f8ee 0abd 9218 093d a8db 4a3e
00000290: fc5a 92bc 477d a7bd 6df1 cabb 2536 2d3e
000002a0: 2d2c a1bd e742 dd3c cc78 c6bd f351 a43d
000002b0: 1e41 b7bd 8ca4 fe3d 423f e63d 3ecb 7cbd
000002c0: 0516 b23e 94d3 e1bd 5315 93bc 73dc 983e
000002d0: 5439 01be 248e 85bd 0f71 eb3b ff19 fcbd
000002e0: c522 47be a3df 1b3d e916 f3bc 1ef1 4bbd
000002f0: 1272 1ebe 705b 893d 54ff 023d ff3d 70bd
00000300: 767a 1ebe ad92 28be ceff 023e 7f82 813d
00000310: 5e5d acbe a9c9 1dbe 2105 483e 55c1 87be
00000320: 829c d53d b890 82be 5cff a43d fb19 a8be
00000330: 033d 3bbd 00a7 abbe c025 1e3e fe8b 6a3c
00000340: 0872 2fbe 54ab a53e 33e5 d63c f724 5f39
00000350: 9319 7f3d 6eab 333d 84da 5cbe 8846 c53c
00000360: 0887 723c 37d6 3b3d ffa1 1dbe 1f3c 0bbe
00000370: d2ac 27be 9c09 32bd 993f 2a3e 7ae1 c03d
00000380: 5f81 0b3e cd5d 783d 2787 b83d 6287 263e
00000390: 0489 49bd f5dd 12bd 2ddf a8bd d39b 073e
000003a0: fd54 f2bd cdd9 b23d 7905 82bd 0ab4 ddbd
000003b0: 6fb1 28bd 1ce8 03bd 1678 0cbe 3747 b83c
000003c0: 92d3 f8bc 05ba 39be 9966 9dbe d764 c7bd
000003d0: 028d fb3d e426 d4bc 719e 8b3d 02a2 933d
000003e0: c38a e13c 8641 ce3d 7daa 2bbe 884c 3a3e
000003f0: 9af9 2b3e 2d6f 80be 5312 45bd 81f2 c9bb

dense1.bias f4 [10]
-0.060450077 -0.017741742 0.08762541 0.045251623 -0.31770688 -0.17669147 0.122572556 0.122451365
0.15981868 -0.0481779
00000000: 809a 77bd 2157 91bc f374 b33d c459 393d
00000010: 7aaa a2be 9cee 34be 5207 fb3d c8c7 fa3d
00000020: 82a7 233e 3156 45bd
