saved_weights/Model_epoch_no_1_train_acc_84.71_val_acc_84.77.pth (torch_old, 74661 bytes, 6 tensors)

conv1.weight f4 [16, 1, 5, 5]
00000000: 6f9b 3f3e 55dd 1e3e eedb b23c 56bd 553e
00000010: 6e85 063b 6bae 48be d30b bfbc f6f2 6ebe
00000020: 72f8 8fbd 393c dfbc b3aa d1bd bc83 d6bd
00000030: d83d 70be 7130 bbbb 0639 a13d 4d8e 7dbd
00000040: d678 12be 27f4 593d b968 313e ce4c 593e
00000050: 7932 1f3e 2d89 f1bd 4c70 27be 77a6 fe3d
00000060: a4ff 6f3e f8d5 57bb 385a 36bc fb70 1e3e
00000070: 54a8 7f3e bf95 77bd 4028 ee3d cddd 8cbd
00000080: bd15 8dbd 368e 953c b66f c9bc 044b db3d
00000090: 7ac7 6bbd 2c4d fb3c da48 1e3e 5f47 c73d
000000a0: c988 353e 737f 163d 0491 533d 9830 733e
000000b0: 0446 c63d 3835 243d 98eb cebd 39d8 653e
000000c0: ead9 043e 69ca 463c f955 213e 00fa cdbc
000000d0: 0a52 b73d 5da2 1fbe 19d9 ef3d d78a 763c
000000e0: 3734 443e f5fd 1cbe 0d66 ebbd ad04 723d
000000f0: cc61 0e3d d4bb 56be e7f9 34bd db58 103e
00000100: c441 07be be64 80be 4c6f a9be f31e 76be
00000110: 90e4 a4bd 016a b93d b596 80bd 93f8 a9be
00000120: c8a2 7dbe ac89 d73c b0cc 07be 076e d0bc
00000130: 04e7 eabd 8fdb 69be 1e24 a23c fc9f 2bbe
00000140: f155 8d3d 8555 20bc d1bc a83c fe07 2abe
00000150: 1773 5abe 58ee 433d c3f9 753e 7794 8dbc
00000160: 6b1d a9bd e669 11be f2f1 433e f35f 813e
00000170: 6dcf 8d3e 096e 303e 449b e7bd a96f 31bd
00000180: 0a4e 5bbc 8680 6b3c 2fcc 023e a869 e43d
00000190: e50f 803e 309e 833e 4cba babd eaf8 1e3e
000001a0: 3ea1 aa3d 30b4 323e 38d2 173e c609 763e
000001b0: dcb8 1c3e d505 3cbd 47fa 663e 39d9 17bc
000001c0: c60b 6b3d fb5e abbd 7269 87bc 728f c3bd
000001d0: 93a8 b6bd 84d9 353e 51f6 623e 467d f0bd
000001e0: a4eb 47be f4be 0d3c f2b6 11be 7883 29be
000001f0: adfe dbbd bfdd 253e 0ab2 353e 4051 9e3d
00000200: 9f8e 49bc 9862 083e 1ff8 15be 3d11 2a3d
00000210: 74f6 8e3b 039c 40bd 6c47 44be 0b0d e4bd
00000220: 5c57 203e b7dd b0bd b9a0 54bd ee73 16bd
00000230: 288a 83bd 8b2a 203e d6b3 303e 5504 e2bd
00000240: 377b b23d b5a7 943d b9d3 653e bd4c d33c
00000250: 1b14 c33c 93d8 88bc 55db 06bd 8c64 573d
00000260: a8be 863e d893 cb3c 3213 fb3d 5b7f b5bd
00000270: b1f3 d83c b338 353e abf0 d6bd 55ee 2c3c
00000280: 9609 00be b1ae 6ebd 8146 7e3e f61c 6cbd
00000290: f203 073d 6b63 4f3e c6c1 223d d11d bf3d
000002a0: 2b32 05be 1480 3fbc 09a3 0c3e f817 5ebd
000002b0: 7930 603e 4761 573e cd42 043e 2657 3dbd
000002c0: f355 a7bd f4d5 eabd a39c 233e a7ab 733e
000002d0: 381a 3f3d 363d 373e 97d5 493c 06c2 8c3e
000002e0: a70b 7e3e 3a8a 143e a8de 24be 6442 f83c
000002f0: eee3 bd3d b735 5cbc aea9 babb b039 2f3e
00000300: 9946 2a3e 86eb 80bb 1914 6b3e f318 593e
00000310: 5bcf cc3d 63f6 0bbe 4b4c b33d b863 8c3c
00000320: a52c 1e3d cfec 1fbe 9b89 0cbe 24b7 563e
00000330: e6a3 8d3d 58e6 c83b fcf7 5bbe f11c 90be
00000340: 7cf2 de3d 0939 c5bd 91e8 823d e5ac 163e
00000350: 10d3 50be b824 603e d655 3cbb 683d 373e
00000360: bc0d 483d 9a63 4a3d 7612 b5bd 870e 5d3e
00000370: e642 1dbe ec91 b7bd 89aa 87be b4b6 dabc
00000380: 3d73 823e 7a30 8cbe 765b 5fbe 155f 4bbe
00000390: 45f7 aa3d 7eb9 76bb 1371 62bd cec9 05bc
000003a0: d136 b0bd 2acf 1cbe 8cd0 933d dff2 a8bd
000003b0: 099b 573e a6e5 59bc 5503 8abd 408c fd3c
000003c0: fff8 d33c 91ca 513e fda3 bcbc 9c6c a53d
000003d0: f242 063e d873 743e ffc2 2bbd 2737 20bd
000003e0: 8f81 a7bb fe63 5b3e 5b61 8dbe 68c8 083e
000003f0: 21d6 fe3d 3594 bdbc bf77 993d d3f9 2cbe
0.18711637 0.15514119 0.021833386 0.20873007 0.0020526308 -0.19597785 -0.023321068 -0.2333487
-0.07029809 -0.027250396 -0.102376364 -0.10474345 -0.23461092 -0.005712562 0.078722045 -0.061903287
-0.14303908 0.053211357 0.17325105 0.21220705 0.15546598 -0.11793742 -0.16351432 0.124340944
0.23437363 -0.0032933932 -0.011129908 0.15472786 0.24966556 -0.060445543 0.11628771 -0.06878243
-0.06888912 0.018256288 -0.0245894 0.107076675 -0.057563283 0.030676447 0.15457478 0.0973041
0.1772796 0.03674264 0.05165197 0.23749006 0.09681323 0.040089816 -0.1010353 0.22445764
0.12973753 0.012133219 0.15755452 -0.025143623 0.089511946 -0.1558928 0.1171133 0.01504775
0.19160543 -0.15331252 -0.11494074 0.05908649 0.034761235 -0.20970088 -0.044183638 0.14096396
-0.13208681 -0.2507686 -0.33092725 -0.24035244 -0.08051407 0.09053422 -0.06278745 -0.3319746
-0.24769127 0.026310764 -0.13261676 -0.02544309 -0.11469844 -0.22837661 0.019792613 -0.16760248
0.06901158 -0.009786014 0.020597847 -0.16604611 -0.21332966 0.047834724 0.24021058 -0.017282708
-0.08257564 -0.14200553 0.19135264 0.25268516 0.27697316 0.17229475 -0.113089114 -0.043319378
-0.013385305 0.014373904 0.12773202 0.11152965 0.25012127 0.25706625 -0.091175646 0.1552464
0.08331536 0.17451549 0.14826286 0.24027166 0.15304893 -0.045904 0.2255641 -0.0092680985
0.057384275 -0.083677255 -0.016529772 -0.095488444 -0.08918872 0.17758757 0.22164275 -0.11742644
-0.19523484 0.008651484 -0.14229944 -0.16554058 -0.10741935 0.1619787 0.17743698 0.07730341
-0.01230207 0.1331886 -0.14645432 0.041520346 0.0043628756 -0.047023784 -0.1916787 -0.111353
0.15658325 -0.08636039 -0.05191109 -0.036731653 -0.064228356 0.15641229 0.17256102 -0.110359825
0.087149076 0.0725855 0.22444047 0.025793428 0.023813298 -0.016704833 -0.032924015 0.052586123
0.26317334 0.02485077 0.122595206 -0.08862182 0.026483389 0.1769741 -0.104951225 0.01055487
-0.12503657 -0.058272067 0.24831583 -0.057644807 0.032962747 0.20252769 0.039735578 0.09331859
-0.13007419 -0.011688251 0.13734068 -0.054222077 0.21893491 0.21033202 0.12916107 -0.04622569
-0.081706904 -0.114665896 0.15977721 0.23795949 0.046655864 0.17894444 0.01231899 0.27491778
0.24809133 0.14505854 -0.16100562 0.030305095 0.0927199 -0.013440541 -0.005696497 0.1711185
0.16628493 -0.0039343266 0.22956885 0.21200924 0.100004874 -0.13668208 0.08754786 0.017137393
0.038616795 -0.15617679 -0.13724367 0.209683 0.06916027 0.0061309747 -0.21481317 -0.2814708
0.10886094 -0.09630019 0.06392015 0.14714392 -0.20393014 0.21889007 -0.0028737686 0.17894518
0.048841223 0.049411394 -0.08841412 0.21587573 -0.15357551 -0.08963379 -0.26497295 -0.026698448
0.25478545 -0.27380735 -0.21812233 -0.1986049 0.08347944 -0.0037647183 -0.055283617 -0.00816579
-0.086042054 -0.15313402 0.072175115 -0.08249449 0.21055235 -0.013299381 -0.06738917 0.030950665
0.025875567 0.20487429 -0.023027414 0.08077356 0.13111475 0.23872316 -0.04193401 -0.039115097
-0.00511188 0.21424863 -0.2761334 0.13357699 0.124431856 -0.02314196 0.07493543 -0.16892175

conv1.bias f4 [16]
00000000: 7020 9f3c c5c3 c73b 5f5d 573e bc1d d9bd
00000010: 0216 91bd 3c89 093d b295 c33d 2fa9 afbb
00000020: 7bf8 ed3d 5c5a 2bbc fdcf 293b cba5 103e
00000030: f3a1 25bc 2469 283e bccb 353e ea1b 10ba
0.019424647 0.0060963356 0.21031712 -0.106013745 -0.07084276 0.033578143 0.095500365 -0.0053607444
0.116196595 -0.010458555 0.0025911324 0.14125745 -0.0101094125 0.16446358 0.177535 -0.00054973236

conv2.weight f4 [32, 16, 5, 5]
00000000: 2af0 5bbb b75e bbbb 3701 a23b 323d c63d
00000010: 161f 4d3d a6b5 103d 7b0d 4ebd 7e51 273c
00000020: 2461 6c3d a35f 893d 5d31 3b3d f06b c43b
00000030: 0571 2f3d e1d8 593c ff72 f03c 6d5f 8f3d
00000040: 8c5b 91bd 86b5 53bd 7849 3a3d 813c 19bc
00000050: adcf 913d 71e7 59bd 57f2 b8bc dd2c babb
00000060: 8448 d5bd b20b 8b3d 4301 b53c 7d2a a0bd
00000070: cedd 50bd 8135 86bd 435a 423d 6c86 da3c
00000080: b623 ec3c 133c d9bb d303 87bd fbd6 703b
00000090: ff0b 1d3d 8237 debb c43a 63bd e71e d8bc
000000a0: 805e 5b3d 1212 35bc 11ea a73d 4e3a 7fbc
000000b0: f42c 203c 73ae e53b 5c9e 903c 01d7 5f3d
000000c0: df44 edbc 9127 93bc 27cc d9bd f8fe b63c
000000d0: cba5 473d e644 5d3d 6a93 f53d e386 3dbd
000000e0: d22d 67bc 5fd0 0cbb ee09 e93c a4ed 8f3d
000000f0: 3635 2bbb f9d8 2dbd fded 3e3d 8d52 313d
00000100: 6b09 f73d b78b a4bd 5ebd 083c 93aa a4bb
00000110: cd35 3f3d 4d5a 7f3d f765 0fbd cd48 2fbd
00000120: cf3b f43b 7c76 483d 1702 ec3d 8b2b 073e
00000130: 5db6 ca3d 2357 063e a5cf c83d f26c a73d
00000140: d139 033e 448a 233e 675e 0d3e dff9 073e
00000150: 010d c73d 1dda 9a3c c682 c13d d3c2 833d
00000160: 81a5 1b3e cbfb bd3d 97ca 0ebd 93d2 393d
00000170: 3983 96bc 5fd6 be3d 5898 2a3d 2510 b5bd
00000180: a6d8 a53c 3b8c b9bc d8f9 c63c 7fae 283d
00000190: 3992 89bc fba8 dc3c 096c 8ebd 3999 babd
000001a0: f054 90bd e60c 673d 296d 86bc 834d 1d3b
000001b0: f982 89bb 3768 9ebd 811d 8c3d c0e8 373d
000001c0: 9f61 9bbc 0b63 2d3c c855 b1bd 714d 3dbc
000001d0: 0a11 d63c 5eac 5cbc 3442 803c b8d1 36bd
000001e0: 74c2 02bd dcd7 3a3d 2816 543d 199a 0bba
000001f0: 8011 eabc c629 413d db9c 743d b288 2ebc
00000200: 2e05 7fbd 950b 5bbd e2f6 f53c 7fa2 893c
00000210: 0c3b 8f3d 599b 32bd 208a 34bd 40bf 75b9
00000220: d4f9 5b3c da7d 873d 7e51 433d 061a 403c
00000230: 6c9b 6abc 60fa b43d 5760 343d 6f5e a2bc
00000240: 1bd0 4fbd c413 1e3d 9cff a53d 2bb3 07bd
00000250: 71d4 2ebd 7b05 3e3c ce94 8c3d 4693 1b3d
00000260: c3d6 40bc abca c1bd 6d97 9abd 13f4 3b3d
00000270: 0d1e 9a3d 9ab9 3b3c 4df9 143b c9d1 9ebc
00000280: 9328 293c a0be 4fbc dd28 6cbc 3d59 b83b
00000290: d9d4 83bd f838 893d c4fd ca3c e428 d53c
000002a0: 0315 32bd 47e9 86bd e7f4 69bb 33ea d23c
000002b0: 9ae9 293d 58de dcbc f726 9ebd c125 a13c
000002c0: ee5f 4abd cb5a acbd 94a4 ddbd 3ae0 09bd
000002d0: 5a31 363d 099d 0dbd 5b51 b43c f0cd a3bd
000002e0: 5dab 90bc 8fe8 fd3c 5d84 633d ea02 4c3d
000002f0: 0ca3 86bd 1542 29bd 30e1 963d 0c84 2e3c
00000300: 1421 ec3c ffb1 963c 0d05 c7bc 5b86 5b3d
00000310: 06be 6dbc b811 703d 8c49 253c 0097 a1bb
00000320: fcfc 44bd 9a51 a7bc 4e63 ad3d 96a5 bf3d
00000330: 7a0d ae3d 49e8 12bc 7acb 49bc 2c01 d93c
00000340: 6b3c c03b cedc f23c 1403 863d a58e 3abd
00000350: 765e 903d a765 783d 6d91 113d 65d0 063b
00000360: bfa4 86bd 6571 643d 1956 abbb 50ce 65bd
00000370: bf47 afbc cdea 07be 8d58 83bd 7996 2d3c
00000380: 1011 78bd abde 31bd 2727 00bd 3687 353c
00000390: 2631 e23d d8f0 ff3d 10a9 d4bc f21d 823d
000003a0: 7bb5 793d a87e dd3d 786a 803d aaf5 3d3b
000003b0: b27e 363d 9af9 9b3d 62e4 fc3d bf32 803d
000003c0: 76a9 d53c b153 babc 45a4 823d 9d89 b03d
000003d0: 966a d23d 54ef 17bd dc3d bd3c 8d03 a53c
000003e0: 08ef ffbc 6aed bebd 1081 203d c52a d4bd
000003f0: 23d3 94bd a3fa a5bd 2a41 e03b 68bf 2d3d
-0.0033559897 -0.005718078 0.0049439925 0.09679641 0.050078474 0.035329483 -0.050305825 0.0102123
0.057709828 0.067076944 0.045701373 0.0059943125 0.042832393 0.013296337 0.02935171 0.07000623
-0.07097539 -0.051686786 0.04548022 -0.009352804 0.07119689 -0.053199235 -0.022576494 -0.0056816177
-0.10414222 0.0678934 0.022095328 -0.07820604 -0.05099278 -0.06553174 0.04744936 0.026675425
0.028825622 -0.006629476 -0.06592526 0.0036749232 0.03834152 -0.0067815194 -0.055475965 -0.026381923
0.05355692 -0.011051672 0.081989415 -0.015577866 0.009776343 0.0070093214 0.017653637 0.054648403
-0.028963504 -0.017963203 -0.10634642 0.022338375 0.048742097 0.054020785 0.119910076 -0.046271216
-0.0141100455 -0.0021486504 0.028447118 0.07027748 -0.0026124245 -0.04244325 0.046613682 0.043291617
0.12062343 -0.08034461 0.00834593 -0.005025217 0.046682168 0.062341977 -0.03500935 -0.042794038
0.007453419 0.04894112 0.11523836 0.13200204 0.09898064 0.13119178 0.0980523 0.081750765
0.12815024 0.15970713 0.13805543 0.13278912 0.09719277 0.018902833 0.09448771 0.06433644
0.15199853 0.09276541 -0.034861173 0.045366835 -0.018373119 0.09318232 0.041649193 -0.0884097
0.020244908 -0.022649875 0.024289057 0.041182037 -0.016793357 0.026936045 -0.069542 -0.09111256
-0.070474505 0.056408785 -0.016409473 0.00240025 -0.0041965214 -0.07734721 0.06841565 0.044899702
-0.018967448 0.010582696 -0.086589396 -0.011554108 0.026131172 -0.01346883 0.015656568 -0.044633597
-0.031923726 0.045616016 0.051778942 -0.00053253915 -0.028572798 0.04715898 0.0597199 -0.010652708
-0.0622608 -0.053477842 0.03002495 0.016801117 0.06993684 -0.043605182 -0.04407704 -0.00023436267
0.013426263 0.06615801 0.04768514 0.0117249545 -0.014319282 0.08836818 0.04403719 -0.01982042
-0.050735574 0.03859307 0.08105394 -0.033129852 -0.04268307 0.011597986 0.0686432 0.037982248
-0.011769953 -0.09462484 -0.075484134 0.045887064 0.07525263 0.011457825 0.0022731603 -0.019387143
0.010324615 -0.012679726 -0.014414039 0.0056258724 -0.06437082 0.06700319 0.024779208 0.026020475
-0.04347707 -0.06587463 -0.0035698952 0.02574644 0.041482545 -0.02696149 -0.07722276 0.019671323
-0.049407892 -0.08415755 -0.108224064 -0.033661105 0.04448066 -0.03457359 0.02201145 -0.07998264
-0.017659837 0.030994682 0.055546153 0.049807467 -0.065740675 -0.041322786 0.0736717 0.0106516
0.028824367 0.018395422 -0.0242944 0.05359493 -0.014510637 0.058610648 0.010088336 -0.0049313307
-0.048092827 -0.020424653 0.084662065 0.09357755 0.08498664 -0.008966514 -0.012316579 0.026489817
0.0058665774 0.029646304 0.06543556 -0.045546193 0.07049267 0.06064382 0.03553908 0.002057099
-0.065743916 0.055772204 -0.0052287695 -0.056104958 -0.021396516 -0.13273163 -0.06413374 0.0105949575
-0.060563147 -0.043425243 -0.03128734 0.0110796 0.110445306 0.12497109 -0.025959522 0.06353368
0.06096409 0.108151734 0.06270307 0.0028985539 0.04455442 0.07615967 0.12348248 0.06259679
0.026081782 -0.022744985 0.06378988 0.08619998 0.10274236 -0.037093475 0.023100786 0.020143295
-0.031241909 -0.09322627 0.039185584 -0.1035972 -0.07266834 -0.08104446 0.0068437057 0.042418867

conv2.bias f4 [32]
00000000: 057a 773d 184f aebc 8b48 ad3c 9c6b 343d
00000010: e6af eebc 3e1e ac3c c86f ab3c 284f c4bc
00000020: 3025 9a3d 34e4 3f3c cbe6 5c3d cb60 b43d
00000030: d6be 87bc 2192 573d 3901 4e3b 13a6 813c
00000040: fa65 3f3d 494a 2a3c eea2 eebc dd0a 7aba
00000050: 5cb1 023d b61d 7c3d afee 1a3d 36a3 943b
00000060: 43f9 513d 347a 623d 4644 c73c 29fd 28bd
00000070: 6024 05bc 26bd 333c 1001 a6bc 0179 cfbc
0.0604191 -0.02127795 0.021152755 0.044047937 -0.02913661 0.021010514 0.020927325 -0.023963526
0.07526624 0.011712123 0.05393104 0.08807524 -0.01657049 0.052629594 0.0031433834 0.01582626
0.04672811 0.0103936875 -0.029130425 -0.0009538362 0.031907424 0.061551772 0.037825283 0.004536058
0.051263105 0.055292323 0.024324547 -0.041257057 -0.008126348 0.0109703895 -0.020264179 -0.025326254

dense1.weight f4 [10, 512]
00000000: 2761 663d dd99 873d 0470 ac3c 0a88 5538
00000010: e88d 1a3d 69ff 313c 0665 443d 2a7c a63c
00000020: 6526 81bd 0764 8cbc f537 753c 8f28 323d
00000030: 3c26 2fbd bbaf 763b 9f1e a43b fc19 7d3d
00000040: 8d98 273d dbf2 763c 7cde 383d b211 1a3d
00000050: d058 193d 1fc6 da3b 1e88 f83c ce81 123d
00000060: 0ecf 373d 9ab1 293b 40e9 133c 6042 3fbd
00000070: 37b8 99bb ee9c adbc cc74 64bc ef22 b6ba
00000080: 0a5d 68bc 83dd 07bd f2a6 44bd a83a b93d
00000090: fbf3 a73c a735 653c 932f 5fbc f2d5 ae3d
000000a0: a0a4 4e3d 5163 83bc b147 5d3c d43a e63c
000000b0: 1288 ae3d 0e3b b8bd a042 76bd 4eae 633c
000000c0: 0f58 a93c 84ed bbbc d174 fb3c 6ddc c13d
000000d0: e8a9 b63d 8745 0abd 4e0e 0d3d eac9 eb3d
000000e0: 6e0d 933d 3f33 80bd ba3c 96bb 0ddc cebb
000000f0: 13ae 243d 0886 01be 3494 6abb 5604 e5bd
00000100: 849d 8dbc 653c 0cbd 1f22 033c 014b 3c3d
00000110: ba18 683d 1f27 61bd 8d8c 3abd 8ec4 c93c
00000120: bbf6 8a3d 33c6 11bd fab0 cebc a3f4 513b
00000130: d77d dfbc 6721 cdbd 9643 01bd 544f 24be
00000140: 3a11 88bc 98c4 a23c 8310 073d 58c9 b93d
00000150: 53bb a53c 54be 5e3c fb21 9f3d 4b81 bf3d
00000160: 84eb 353d 3deb 093d d9a4 473c 2567 b5bc
00000170: ff4f 863c c3b5 2abd 64ca afbc cd5d 54bd
00000180: a948 b43d 3d01 f13b dd29 003d 9a78 2a3d
00000190: 4525 a43d e85d 8cbc 8526 cfbc 112e b03d
000001a0: 98b5 1b3d 58ee b2bd 0ae1 f03b 37fa 763d
000001b0: 5c3c d2bc 4886 ecbd 458e dabd b156 59bd
000001c0: 5b25 413d b7b4 2bbc 7b36 76ba 60dc 1d3c
000001d0: 24df c138 7d28 233d c7a7 d8bc 9cbf f5bc
000001e0: 3131 94bc 7ee0 b5bc 2d6a 663c a4e2 88bd
000001f0: 54c4 463a da55 a83c eb3d 5c3c 9974 25bd
00000200: b918 413b a896 69bc e4f1 02bd 6027 4fbd
00000210: eba5 223d 68cf 74bd 7750 6fbc 8235 8e3c
00000220: fff0 3a3d e9c5 cabc 0394 df3c f678 523d
00000230: 9250 6a3d b4c1 2cbd ba2f 513d c40b 43bd
00000240: 2962 353d c3b6 92bc 5f3c a83c 588f 0c3e
00000250: 51fe aebd 2b65 06bd a3da ef3c edbd cf3d
00000260: c09f 56bd e28e f4bc bcdd 5dbd 58fa 403b
00000270: 3491 9fbc d8e9 d13c 1a32 2abd b93d 93bd
00000280: 7e3e 5abc 358c d1bc 39a2 7dbd 5006 f4bd
00000290: 174c c1bb 6329 9c3c 23dc 70bd fce0 d3bc
000002a0: 127e 6abb ba61 d53c 351e 0fbc 49fb 893d
000002b0: 332b a4bb fe9b 063d fad8 ac3c 34c8 c23d
000002c0: 25b3 a03d 17f3 743c 4860 c3bd c338 77bd
000002d0: 3dd4 723d ff8a d53c 1f67 063d 7114 2abd
000002e0: 85b0 5f3c 9d22 4e3c 727d 7a3c ca71 e33c
000002f0: 9800 243d f534 443d e51c 993d ca0a ec3c
00000300: 6394 eebb 01d9 b6bc f1f1 44bd 14a6 d73d
00000310: be1f 143b f8ff 5c3c 73c6 46bd 1005 473d
00000320: 7517 c9bc d34e 60bd 405b 8dbc 4338 97bc
00000330: f56f 24bc 733a f3bc 9355 bbbd 92ec f0bd
00000340: e4a5 50bd 04ff b53c 8794 7f3d 19f3 05bd
00000350: 30af 92bd 1bd5 80bc f51e c3bc 0774 d1bd
00000360: 4660 19bc 90c8 8cbd 99f1 fd39 9640 033d
00000370: 5909 7fbd 5488 f1bc 5e76 02bd b884 b83d
00000380: 9255 903d b1a1 973c aad3 c03c 03c0 133d
00000390: 7a51 ae3c 2ee5 8b3a 7c42 723d 76a4 12bc
000003a0: 5dca 283c ca09 45bb 9882 40bc 9c89 7f3c
000003b0: 2d73 5cbd b140 8b3a eb13 823c 6465 a2bc
000003c0: d9e8 b43d cb66 74bb 38ff a4bb 5483 1b3b
000003d0: 0ba9 c33d 8a99 523b 6d15 233c ad7c 09bd
000003e0: 6e0f 893d b5ce 8abc 33b1 e8bc 8e5d 61bc
000003f0: 0c20 fe3c 77d3 0fbe 161a 1dbd 9fd6 81bc
0.056244995 0.06621144 0.021049507 5.0909854e-05 0.03773299 0.010864117 0.047947906 0.020322878
-0.06306151 -0.01713754 0.0149669545 0.04349571 -0.042761073 0.0037641365 0.005008533 0.06179236
0.040916968 0.01507255 0.045134053 0.03761453 0.037438214 0.00667645 0.030338343 0.035768323
0.044875197 0.0025893212 0.009027779 -0.04669416 -0.0046911496 -0.021192994 -0.013943862 -0.0013895909
-0.0141823385 -0.033170234 -0.048010774 0.09044391 0.020502081 0.0139898425 -0.013622182 0.085369006
0.050449967 -0.016038569 0.013505862 0.028104223 0.08522047 -0.08995639 -0.060122132 0.013896538
0.020671872 -0.022940405 0.03069535 0.09465871 0.08919126 -0.033757713 0.03443747 0.115131214
0.07180296 -0.062597744 -0.004584876 -0.006312853 0.040205073 -0.12648785 -0.0035793902 -0.11182468
-0.017287023 -0.034237284 0.008003741 0.045969967 0.056664206 -0.05496895 -0.045544196 0.024629857
0.06785341 -0.035589408 -0.025230873 0.0032036684 -0.027281685 -0.100161366 -0.031558596 -0.16045886
-0.016609777 0.019869134 0.03297473 0.090716064 0.020230925 0.013595182 0.07770153 0.093508326
0.04441406 0.033671606 0.012185299 -0.02214391 0.016395567 -0.041677248 -0.021458812 -0.051847268
0.08802921 0.007354884 0.031289924 0.04161892 0.08014921 -0.017134622 -0.025286922 0.086025365
0.03801498 -0.08736867 0.0073510455 0.060297217 -0.025663547 -0.115490496 -0.10671667 -0.05306119
0.047154766 -0.0104800975 -0.00093922735 0.009635061 9.24452e-05 0.039833535 -0.02644719 -0.029998593
-0.018089863 -0.022201773 0.0140634 -0.06683853 0.0007582356 0.02054875 0.013442497 -0.0403944
0.0029464199 -0.014257111 -0.031968966 -0.05057466 0.039709013 -0.05976811 -0.014606587 0.017359499
0.045639988 -0.024752574 0.027292257 0.05138489 0.057205744 -0.042176917 0.051070906 -0.047618642
0.044283066 -0.017909413 0.0205366 0.13726556 -0.08544601 -0.032811325 0.029279059 0.10143647
-0.052398443 -0.029853288 -0.05416654 0.0029446092 -0.019478418 0.0256242 -0.041551687 -0.07189507
-0.013320563 -0.025579551 -0.061922286 -0.119152665 -0.005898963 0.019062703 -0.05880369 -0.025864117
-0.003578071 0.026047576 -0.008735229 0.06737382 -0.0050100326 0.03286361 0.021099556 0.09510842
0.07846669 0.014950535 -0.095398486 -0.060356867 0.059284437 0.026067255 0.032813188 -0.0415234
0.013652925 0.012581495 0.015288698 0.02776422 0.04003963 0.047902066 0.07476214 0.028813738
-0.0072808727 -0.022320272 -0.048082296 0.10529724 0.0022601928 0.013488762 -0.0485291 0.048588812
-0.024547318 -0.054762673 -0.017255425 -0.018459445 -0.010036458 -0.029690957 -0.09147181 -0.11763872
-0.050939456 0.022216327 0.062397506 -0.03270254 -0.071623206 -0.015726617 -0.023818472 -0.102272086
-0.009361332 -0.06874192 0.00048435925 0.032044016 -0.062264774 -0.029483952 -0.031851165 0.09009689
0.07047571 0.018509718 0.02353843 0.03607179 0.021279085 0.0010673159 0.059145436 -0.008950343
0.010302153 -0.003006565 -0.011749886 0.0155967735 -0.053820778 0.0010624138 0.015878638 -0.019823737
0.08833475 -0.0037292715 -0.0050353073 0.00237294 0.09553727 0.0032134973 0.009953839 -0.033566166
0.06692396 -0.016944269 -0.028404808 -0.013755215 0.03102114 -0.14045511 -0.038354956 -0.01584941

dense1.bias f4 [10]
00000000: a204 2dbc 06a7 0ebc fb7d 033d c8c5 943c
00000010: f53a 7bbd 37a0 81bd b35d 72bc d426 3f3d
00000020: 04ec 0e3d a7f4 803c
-0.010560187 -0.008706814 0.032102566 0.018160716 -0.061335523 -0.06329387 -0.014792847 0.04666789
0.03489305 0.01574166
