saved_weights/Model_epoch_no_1_train_acc_83.79_val_acc_84.24.pth (torch_old, 74657 bytes, 6 tensors)

conv1.weight f4 [16, 1, 5, 5]
0	0x3e1cc79f	0.15310524
1	0xbe6e50d6	-0.23273024
2	0xbea46408	-0.32107568
3	0xbe5e91f9	-0.21735372
4	0xbd1bc089	-0.038025413
5	0xbdb91411	-0.090370305
6	0xbe830ebc	-0.2559718
7	0x3de0105e	0.10940622
8	0x3cafb0e7	0.021446658
9	0x3d34bb37	0.044123854
10	0xbe022ce3	-0.12712435
11	0x3d271df3	0.040800046
12	0xbdf4fa49	-0.119618006
13	0xbe3953b2	-0.18098333
14	0x3dfb9cf0	0.12285793
15	0x3e8230a9	0.2542775
16	0x3e012d57	0.12614952
17	0xbd350584	-0.044194713
18	0xbc60e098	-0.013725422
19	0x3dcc4202	0.099735275
20	0x3d973c3d	0.073845364
21	0x3c60f77b	0.013730879
22	0x3dcfee19	0.101528354
23	0x3e36fbb0	0.17869449
24	0x3da3019a	0.0795929
25	0x3e3635b8	0.1779393
26	0x3e30d3ac	0.17268246
27	0xbc3bf1ea	-0.011471251
28	0xbdbd41ac	-0.092410415
29	0xbcbb7ab7	-0.022885663
30	0x3e6a5ce4	0.22886997
31	0x3cf2434f	0.02957311
32	0xbdce3ecf	-0.100705735
33	0x3d3ae341	0.045626882
34	0x3e611152	0.21979263
35	0xbda138d5	-0.07872168
36	0x3e78ea43	0.24308114
37	0x3e2d0654	0.16896945
38	0x3d330acf	0.04371148
39	0xbd606003	-0.054779064
40	0x3e0b8cc7	0.13627921
41	0x3e2da8ec	0.1695897
42	0x3e3aedbc	0.18254751
43	0x3e24a7ac	0.16079587
44	0x3dc3c544	0.0955911
45	0x3e890f3e	0.2676944
46	0x3d4d54b4	0.050129607
47	0xbd0e719d	-0.03477632
48	0x3e382319	0.17982139
49	0xbdc370fb	-0.09543034
50	0xbca5cc7f	-0.020239113
51	0x3def590b	0.116869055
52	0xbde5cce6	-0.11220722
53	0xbe83b492	-0.25723702
54	0xbe10959b	-0.1411957
55	0x3d18fa86	0.037348293
56	0x3c57f825	0.013181721
57	0xbe53316c	-0.20624322
58	0xbef9b578	-0.48771262
59	0xbeadb9dd	-0.33930865
60	0xbd449889	-0.04799703
61	0xbe2ae069	-0.16687168
62	0x3d4cc4c0	0.049992323
63	0xbe4bc37f	-0.19898795
64	0xbe30cb3e	-0.1726503
65	0x3e78265f	0.24233387
66	0xbd8d5c5d	-0.069023825
67	0xbe28782d	-0.16452093
68	0xbe3d3ed3	-0.18480997
69	0xbe557e85	-0.20849045
70	0x3e6f1a95	0.23349984
71	0x3e403bd5	0.18772824
72	0xbd762705	-0.060095806
73	0x3e05c4bc	0.1306333
74	0xbd3b8aaf	-0.045786556
75	0xbe8953be	-0.26821703
76	0xbe774c49	-0.24150194
77	0xbd413f45	-0.04717948
78	0x3dca56f6	0.09879868
79	0x3cce01e3	0.025147384
80	0x3dc4471c	0.095838755
81	0xbda57572	-0.080790415
82	0x3c561103	0.013065579
83	0xbdf1ddab	-0.11809858
84	0x3d7c3d36	0.061581813
85	0x3e10e6bb	0.14150517
86	0xbe17694d	-0.14786263
87	0x3e57c248	0.21070206
88	0x3d9861bf	0.074405186
89	0x3e394544	0.18092829
90	0x3d10f42c	0.03538911
91	0xbdde148c	-0.10843763
92	0xbd1a6393	-0.037692618
93	0x3b0d2617	0.0021537596
94	0xbb0414de	-0.002015404
95	0x3d9e081d	0.07716391
96	0xbe324c2e	-0.17411873
97	0x3e8efa48	0.27925324
98	0x3e527dab	0.20555751
99	0xbdb2f97c	-0.087389916
100	0x3c493fb3	0.0122832535
101	0xbe5255da	-0.20540562
102	0xbdc1d60a	-0.09464653
103	0x3cd1d9b2	0.0256165
104	0x3e6ff77e	0.23434255
105	0xbd848116	-0.06469934
106	0xbd763748	-0.060111314
107	0xbd7b4a8e	-0.061350398
108	0x3e37c309	0.17945494
109	0x3d5c4c35	0.053783614
110	0xbc32e16a	-0.010918001
111	0xbb518a7d	-0.0031973415
112	0x3e45ad83	0.1930447
113	0x3c318e83	0.0108372
114	0x3e59c8d8	0.21268022
115	0xbcfa0160	-0.030518234
116	0x3d90e267	0.07074433
117	0x3e6a58c5	0.22885425
118	0x3e580711	0.21096446
119	0x3c2fdac2	0.010733308
120	0xbd21cec3	-0.039503824
121	0x3dd0ce1a	0.10195561
122	0xbc192f00	-0.009349585
123	0x3e8d7b76	0.27633256
124	0x3e757a42	0.23972419
125	0x3db99624	0.0906184
126	0x3d53fb05	0.051753063
127	0xbd588362	-0.05285967
128	0x3e978da6	0.29600257
129	0x3db94eac	0.090482086
130	0x3dd8e35c	0.1059024
131	0xbe5e77d9	-0.21725406
132	0xbda0ff6a	-0.07861216
133	0x3e85c639	0.26127794
134	0x3d95f89c	0.07322809
135	0xbd4994c0	-0.049214125
136	0x3d042fe9	0.032272253
137	0x3e31d6a1	0.1736703
138	0x3e0255d8	0.1272806
139	0x3ce5007f	0.027954338
140	0xbe2294a9	-0.15877022
141	0x3cfe0760	0.031009376
142	0x3e116b58	0.14201105
143	0x3e4ebdf9	0.20189656
144	0x3e190670	0.14943862
145	0xbd9b8603	-0.0759392
146	0xbe49b980	-0.19699669
147	0xbcaa092b	-0.020756325
148	0x3e385466	0.18000945
149	0x3e43ab27	0.19108258
150	0x3e427bbf	0.18992518
151	0x3dc6ece1	0.0971315
152	0x3e145eb0	0.14489245
153	0x3d5adcec	0.053433344
154	0xbe17d9a0	-0.14829111
155	0x3da0291a	0.078203395
156	0x3e7bf63e	0.24605653
157	0x3e546818	0.20742834
158	0x3dd718fc	0.10502812
159	0x3da98e2c	0.0827907
160	0xbdae2787	-0.08503633
161	0x3b87c824	0.0041437317
162	0x3e3be701	0.1834984
163	0x3da64eb1	0.08120478
164	0x3c3d7278	0.011562936
165	0xbdd97bef	-0.106193416
166	0xbe46f972	-0.19431093
167	0xbe34d94d	-0.17661019
168	0xbc89c356	-0.016816776
169	0x3cd216fb	0.025645724
170	0xbe14272a	-0.14468065
171	0xbdb529ed	-0.08845887
172	0x3dfaa593	0.12238612
173	0xbc2ea412	-0.010659235
174	0x3cee4e92	0.0290902
175	0xbd99e51b	-0.075144015
176	0x3ded3993	0.11583247
177	0xbe1fef04	-0.15618521
178	0x3dd98660	0.10621333
179	0xbcb37719	-0.021907376
180	0xbe13deae	-0.14440414
181	0x3cb5c08a	0.022186536
182	0xbd942105	-0.072328605
183	0x3d6d8382	0.057986744
184	0xbc85260a	-0.01625349
185	0xbd98d5c4	-0.074626476
186	0x3e33840c	0.1753084
187	0xbd69b3d0	-0.05705625
188	0xbd9f5567	-0.07779961
189	0xbc1bd520	-0.009511262
190	0x3e436d8e	0.1908476
191	0x3d4b26db	0.049597602
192	0xbe46844e	-0.19386408
193	0x3e348b46	0.17631254
194	0xbda88af7	-0.082296304
195	0x3e5a6a43	0.21329598
196	0x3e5146af	0.2043712
197	0x3c255f7d	0.010093567
198	0x3e895525	0.26822773
199	0x3da64610	0.08118832
200	0xbb088732	-0.0020832536
201	0x3d7c9803	0.061668407
202	0x3dc50f60	0.09622073
203	0xbe46984c	-0.19394034
204	0xbc12fb74	-0.008971084
205	0x3e107c31	0.14109875
206	0x3e5b4c67	0.21415864
207	0x3e7bd8f7	0.24594484
208	0xbe0a15aa	-0.13484827
209	0xbdc19056	-0.09451358
210	0x3dd0ed1e	0.102014765
211	0x3e7e72d6	0.24848494
212	0x3df3e01b	0.11907979
213	0xbe22f0b8	-0.1591214
214	0x3df68b10	0.12038243
215	0x3da0c6bb	0.07850405
216	0xbddd9b1e	-0.10820602
217	0x3d96efa7	0.07369929
218	0xbe9e0fec	-0.30871522
219	0xbdbf3595	-0.09336392
220	0xbe189c25	-0.14903314
221	0x3e264577	0.16237436
222	0xbc321f98	-0.01087179
223	0xbe88941d	-0.266755
224	0xbe4c77b7	-0.19967543
225	0x3d94b201	0.07260514
226	0x3e0314f6	0.12800965
227	0x3e2a142b	0.16609256
228	0x3e89cafb	0.26912674
229	0x3d599625	0.053121705
230	0xbe087b5c	-0.13328308
231	0x3d88d1a6	0.06680612
232	0x3e6e1acf	0.23252414
233	0x3e4a5ed7	0.19762741
234	0xbdf3f52c	-0.11911997
235	0x3e384554	0.17995197
236	0x3e10a5d8	0.14125764
237	0x3db8c036	0.09021036
238	0xbd2c4f68	-0.042067915
239	0xbdc8b831	-0.09800757
240	0x3d6d6a85	0.057962913
241	0x3e7ff16e	0.24994442
242	0xbd607e8d	-0.05480819
243	0x3e7352b2	0.23762015
244	0xbe4030bc	-0.1876859
245	0xbd6ee4f2	-0.058323808
246	0xbe28a520	-0.1646924
247	0x3c87d750	0.016582161
248	0x3e13ced0	0.14434361
249	0xbd63f73f	-0.055655714
250	0x3e12699d	0.14298101
251	0xbdf87dc9	-0.121333666
252	0xbe82d17c	-0.2555045
253	0xbe2c73ff	-0.16841124
254	0xbdcba7ec	-0.09944138
255	0x3e9327da	0.28741342

conv1.bias f4 [16]
0	0x3e405828	0.18783629
1	0xba7e3e58	-0.0009698621
2	0x3e594c49	0.21220507
3	0xbd2cb01e	-0.042160146
4	0x3e01ff52	0.12695053
5	0x3e2ce2ae	0.16883346
6	0x3e53c228	0.20679533
7	0x3d970849	0.07374627
8	0x3dc468d5	0.095903076
9	0x3d5766e4	0.05258836
10	0xba74c73c	-0.00093375496
11	0xbd21666d	-0.03940432
12	0xbc6dacf6	-0.014506569
13	0x3cafcade	0.02145904
14	0x3db19890	0.08671677
15	0xbdba96ba	-0.0911078

conv2.weight f4 [32, 16, 5, 5]
0	0x3dffb2f4	0.124853045
1	0x3e1fa7e7	0.15591393
2	0x3dabba3b	0.0838513
3	0x3ddce2ed	0.1078547
4	0x3e3d323a	0.18476191
5	0x3d8d7775	0.0690755
6	0x3af44681	0.0018636734
7	0x3cfc6f47	0.03081478
8	0x3de7c370	0.113165736
9	0x3cc6f755	0.024287859
10	0x3c85722f	0.016289799
11	0x3d238f8b	0.039931815
12	0x3c99619e	0.018723305
13	0x3ca2f8f4	0.0198941
14	0x3d6b1565	0.05739345
15	0x3d79d2a4	0.0609919
16	0x3d904515	0.07044426
17	0xbc8be22f	-0.017075626
18	0x3ca1bc2e	0.019743051
19	0x3deddf31	0.11614836
20	0x3d80ef6e	0.062956676
21	0x3e0f80e1	0.14014007
22	0x3daefb03	0.085439704
23	0x3d518e35	0.05116101
24	0x3e0827da	0.13296452
25	0x3a4a5463	0.0007718263
26	0xbbb49a35	-0.005511547
27	0x3d66ecfa	0.056378342
28	0x3cfaa4a7	0.03059609
29	0xbb4f316c	-0.003161515
30	0x3c00b7fc	0.007856365
31	0xbb6b3394	-0.0035888897
32	0x3c74038c	0.014893424
33	0x3c1acf4a	0.009448836
34	0xbc821051	-0.01587692
35	0xbd48fa81	-0.049067024
36	0x3d2c5c8b	0.042080443
37	0x3d42691c	0.04746352
38	0x3c38fd7a	0.011290902
39	0xbc0580c3	-0.008148375
40	0xbdb0933d	-0.086218335
41	0xbdc03675	-0.09385387
42	0xbd503a5a	-0.0508369
43	0xbd92729d	-0.07150767
44	0xbd5c028b	-0.053713363
45	0xbd510ac7	-0.05103567
46	0xbd9c451d	-0.0763037
47	0xbdacdc3a	-0.084404424
48	0xbb0dad78	-0.0021618288
49	0xbd602538	-0.054722995
50	0xbd0bcb6f	-0.034129556
51	0xbda8395a	-0.08214064
52	0x3cd592f1	0.026071044
53	0xbd0def18	-0.034651846
54	0xbcdd3cdf	-0.027006565
55	0xbd40bd9e	-0.047055833
56	0xbe0495e4	-0.12947804
57	0xbdc58a6b	-0.09645542
58	0xbd9537dc	-0.07286045
59	0x3cbdba05	0.02315999
60	0xbc122aae	-0.008921308
61	0xbdb390d2	-0.08767857
62	0x3c5a9b09	0.013342627
63	0x3ce727f2	0.02821729
64	0x3d467fed	0.048461843
65	0x3e06eaeb	0.13175552
66	0x3c63baf6	0.013899555
67	0x3e0a0334	0.13477784
68	0x3d9219c4	0.07133821
69	0x3e11b83a	0.14230433
70	0x3e34238d	0.17591687
71	0x3ddeba58	0.10875386
72	0x3e0a2c06	0.13493356
73	0x3bc343a9	0.0059589935
74	0x3da124aa	0.07868321
75	0x3dac9a02	0.08427812
76	0x3a77380e	0.0009430655
77	0x3d52b34b	0.05144052
78	0x3d715401	0.058918003
79	0x3e0997e5	0.1343685
80	0x3d3b119e	0.045671098
81	0x3d8bde32	0.0682949
82	0x3d6bf85c	0.0576099
83	0xbd9bb588	-0.07602984
84	0xbcf2db74	-0.029645659
85	0xbcdde0db	-0.027084759
86	0xbcce1f2c	-0.025161348
87	0xbc88f086	-0.016716253
88	0xbdf15b4f	-0.11784994
89	0xbd9db4a5	-0.07700471
90	0xbcb62f98	-0.022239491
91	0x3d8dc0f6	0.0692157
92	0x3cd05cc0	0.025434852
93	0xbdb25ffb	-0.08709713
94	0x3d08913b	0.033341628
95	0xbd682027	-0.056671288
96	0x3d8b5ab6	0.06804411
97	0x3db0d94a	0.086351946
98	0x3cbe90fd	0.023262495
99	0x3d3780fc	0.044800743
100	0x3cade1b1	0.021225782
101	0x3d528add	0.05140196
102	0xbc58aa61	-0.013224215
103	0xbc46452b	-0.012101452
104	0xbcbc172e	-0.022960272
105	0x3d659b53	0.05605633
106	0xbbb9b038	-0.005666759
107	0xbc52efed	-0.012874586
108	0x3cd034aa	0.025415737
109	0xbc03cbc2	-0.008044185
110	0xbc270f8c	-0.010196578
111	0xbc8221c9	-0.01588525
112	0xbcf534a4	-0.029932328
113	0xbd741585	-0.059590835
114	0xbbbba3b4	-0.005726302
115	0xbda30841	-0.07960559
116	0xbcb458c7	-0.022014989
117	0xbd7f221b	-0.062288385
118	0xbd8d3804	-0.0689545
119	0xbd89356e	-0.06699644
120	0xbd8ffa5a	-0.07030173
121	0xbda1af67	-0.078947835
122	0xbbd4cbb0	-0.006494008
123	0x3be9f03a	0.007139233
124	0xbcb71f67	-0.022353841
125	0x3d17de25	0.037077088
126	0xbc26786d	-0.010160548
127	0x3d05c577	0.03265902
128	0x3c52aa81	0.012858034
129	0x3d04209e	0.03225767
130	0xbbd6d309	-0.006555919
131	0x3d9ae73d	0.075636365
132	0x3cad0a25	0.021123001
133	0x3d2b8f7a	0.041884877
134	0xbd59f11b	-0.05320845
135	0x3d2495c2	0.040181883
136	0x3d8af06e	0.067841396
137	0x3d6e35f4	0.058156922
138	0x3c623f6e	0.013809068
139	0xbcd5f08f	-0.026115684
140	0xbd89d1e6	-0.06729488
141	0x3caf2936	0.021381956
142	0xbcfbbc11	-0.030729325
143	0xbd1d3c57	-0.038387623
144	0xbdc1a024	-0.094543725
145	0xbc5a4ab4	-0.013323475
146	0xbd5cd579	-0.05391452
147	0xbce45803	-0.027873999
148	0xbcf05749	-0.029338496
149	0xbd35ee4b	-0.044416707
150	0xbd049ea2	-0.032377847
151	0x3d8dd5c7	0.069255404
152	0x3bd9de87	0.006648842
153	0xbd1d4233	-0.03839321
154	0x3cc11322	0.023568694
155	0x3dbef407	0.09323888
156	0x3daec8ff	0.08534431
157	0x3d462345	0.04837348
158	0x3c69abf0	0.0142621845
159	0xbb12965d	-0.0022367456
160	0x3c8d2a71	0.017232152
161	0x3d284dbc	0.04108976
162	0x3cd439d2	0.025906477
163	0x3cb9f2a1	0.022698702
164	0xbce0bbfc	-0.027433388
165	0xbc9b66b0	-0.018969864
166	0x3d62164c	0.055197045
167	0xbad18bd1	-0.0015987103
168	0x3c00c7d7	0.0078601455
169	0x3d064911	0.032784525
170	0xbc1893a4	-0.009312544
171	0x3b1dd377	0.0024082342
172	0xbd7a821f	-0.06115925
173	0xbc8bce51	-0.017066153
174	0xbc3a549d	-0.011372712
175	0x3d67d5aa	0.05660025
176	0x3b4f62d9	0.003164461
177	0x3d8b3318	0.06796855
178	0x3d9570a5	0.07296876
179	0x3d20bab9	0.039240573
180	0x3d37f0ea	0.044907488
181	0x3c74ed52	0.01494916
182	0x3d3503c2	0.044193037
183	0xbc4c264b	-0.012460302
184	0xbca8b786	-0.020595323
185	0xbd741b93	-0.05959661
186	0xbd2b5dbb	-0.041837435
187	0x3ca33c81	0.019926311
188	0x3cd2b7a7	0.025722338
189	0x3a0d2e9c	0.00053856685
190	0xbd08dae2	-0.033411868
191	0xbd5fdc7e	-0.054653637
192	0xbd767c0b	-0.06017689
193	0xbd0035d8	-0.03130135
194	0xbc9bdd8a	-0.019026536
195	0x3d34466a	0.044012465
196	0xbc39982c	-0.0113277845
197	0xbd037384	-0.032092586
198	0xbd0cf22b	-0.034410637
199	0xbbc468ec	-0.005993953
200	0x3c2b412c	0.01045255
201	0xbd5191fa	-0.051164605
202	0xbcf33b9b	-0.029691508
203	0x3d99abe6	0.0750349
204	0x3e0b3e74	0.13598043
205	0x3d058d01	0.032605175
206	0x3d841945	0.06450132
207	0x3d695ba0	0.056972146
208	0x3dc3d361	0.09561802
209	0x3df53996	0.11973874
210	0x3cf01f53	0.029311812
211	0x3dbe6433	0.09296455
212	0x3d49937d	0.04921292
213	0x3decab65	0.115561284
214	0x3e0cb192	0.13739613
215	0x3d442b43	0.04789282
216	0x3cc20c6b	0.023687562
217	0x3c884964	0.016636558
218	0x3dbfd552	0.093668595
219	0x3d82e52e	0.06391369
220	0x3dc301a4	0.09521797
221	0x3db49e12	0.08819212
222	0x3da60d00	0.08107948
223	0x3d59e2ff	0.053194996
224	0x3e018204	0.12647253
225	0xbc7c66f0	-0.015405402
226	0xba8981fd	-0.001049101
227	0x3d3069ab	0.043069523
228	0x3d20bbc9	0.039241586
229	0x3d38d710	0.045126975
230	0xb9859bb3	-0.00025483742
231	0x3d0fba4c	0.035089776
232	0x3d6d9163	0.05799998
233	0x3d78f3c9	0.060779367
234	0x3c3938c0	0.011305034
235	0x3d7da416	0.061924063
236	0x3d45d5d8	0.04829964
237	0x3d8ba143	0.068178676
238	0x3dacc116	0.08435266
239	0x3c2cc763	0.010545584
240	0x3d126d06	0.035748504
241	0x3cadef4f	0.021232275
242	0x3d258baa	0.040416397
243	0x3cdb413f	0.02676451
244	0x3b51c252	0.0032006693
245	0xbd1c1859	-0.038109157
246	0xbdb93dce	-0.090449914
247	0xbcf101cd	-0.029419804
248	0x3bda4ccf	0.0066619883
249	0xbda4cf6b	-0.08047374
250	0x3c70cc88	0.014697202
251	0x3d9f115c	0.07766983
252	0x3dc65929	0.09684975
253	0x3d9faa27	0.07796126
254	0x3d9e53f5	0.07730857
255	0xbd7659b1	-0.06014413

conv2.bias f4 [32]
0	0x3d8398aa	0.06425603
1	0x3da61351	0.08109153
2	0xbc94d4ad	-0.018167818
3	0xbc894fd8	-0.016761705
4	0xbd7f63e4	-0.062351122
5	0x3d54971f	0.051901933
6	0xbd16fb50	-0.036860764
7	0x3b8f4962	0.0043727616
8	0x3d7fc12c	0.062440082
9	0xbd3d00ed	-0.04614346
10	0xbcf4d892	-0.029888425
11	0x3cf57e16	0.029967349
12	0x3ceb9a0b	0.028759977
13	0xbcc7598f	-0.024334697
14	0xbd0d71f1	-0.03453249
15	0x3c113f7b	0.008865233
16	0x3bae9d12	0.005328783
17	0x3ce65a8c	0.028119348
18	0xbd2da346	-0.042392038
19	0x3d02faf9	0.031977627
20	0x3c087cb4	0.008330513
21	0xba58a05a	-0.00082636403
22	0x3d070703	0.03296567
23	0x3c1d5ad3	0.009604174
24	0xbd02bb47	-0.031916883
25	0xbd5b5799	-0.053550337
26	0xbd22507e	-0.039627545
27	0x3d69c0fd	0.057068814
28	0x39e83771	0.00044291795
29	0x3cc29aad	0.023755396
30	0x3c717796	0.014737984
31	0x3d18233f	0.03714299

dense1.weight f4 [10, 512]
0	0x3d0a049c	0.033695802
1	0x3c0e7ab0	0.008696243
2	0x3bdc4819	0.006722462
3	0x3d1afdb6	0.037839614
4	0x3da10aa4	0.07863358
5	0x3d9cd576	0.07657902
6	0x3da2b11c	0.07943937
7	0x3d338344	0.043826357
8	0xbcbad9d6	-0.02280895
9	0xbcf34c76	-0.029699545
10	0x3c65a6a9	0.014016786
11	0xbcce88b1	-0.025211664
12	0x3b96f761	0.0046071266
13	0xbd625a35	-0.05526181
14	0xbd348a50	-0.044077218
15	0xbd28dbe9	-0.041225348
16	0x3ddf29d5	0.10896651
17	0x3c4aa047	0.012367315
18	0xbcb6fc9b	-0.022337249
19	0x3d18ec6e	0.037334852
20	0x3dce7653	0.10081162
21	0xba2dc6f4	-0.00066290726
22	0x3d065e70	0.032804906
23	0xbc87a705	-0.016559133
24	0xbd5e2560	-0.054234862
25	0x3beae870	0.007168822
26	0x3c29299a	0.01032486
27	0x3d5f70d7	0.05455097
28	0xbe0f05b2	-0.13967016
29	0xbd492d35	-0.04911538
30	0x3d2d248d	0.042271186
31	0x3ca8b5b0	0.020594448
32	0x3ce0bba7	0.02743323
33	0x3c95af9d	0.018272216
34	0xbc63e575	-0.013909687
35	0x3ce0880c	0.027408622
36	0x3c08ab31	0.008341596
37	0xbd2477da	-0.04015336
38	0xbd0a06e7	-0.03369799
39	0x3d063715	0.032767374
40	0x3a863bb0	0.0010241177
41	0x3d1c0a3a	0.03809569
42	0xbd207654	-0.039175346
43	0x3b02bc52	0.0019948673
44	0xbaf81c0c	-0.0018929257
45	0x3c7e5a6a	0.015524486
46	0x3c09d408	0.008412369
47	0xbc686b3f	-0.014185726
48	0xbd2ac54f	-0.041692074
49	0x3ca0861f	0.019595204
50	0xbd279ee4	-0.040923014
51	0xbdea4ef1	-0.11440838
52	0x3d0b090b	0.03394417
53	0x3d4e00a8	0.050293595
54	0x3c95696f	0.018238751
55	0xbe0bec23	-0.13664298
56	0x3c835114	0.016029872
57	0x3d54fe32	0.052000232
58	0xbd14a66c	-0.036291525
59	0x3d05863a	0.03259871
60	0xbd258cda	-0.04041753
61	0x3cd03e00	0.025420189
62	0xbc20ce92	-0.009814875
63	0x3d138029	0.036010895
64	0x3c39f7b5	0.011350562
65	0x3c7f2d6e	0.015574796
66	0x3c7c84af	0.015412494
67	0x3d2fdfeb	0.042938154
68	0xbd573c52	-0.05254776
69	0x3a3492b8	0.0006888318
70	0xbc1f3145	-0.009716337
71	0x3d2d0428	0.04224029
72	0x3bb35061	0.0054722284
73	0xbd9bc075	-0.07605068
74	0xbdd53340	-0.10410166
75	0xbcd40a18	-0.02588372
76	0x3d0859e4	0.03328885
77	0xbd5dd014	-0.054153517
78	0xbe0e98ea	-0.1392552
79	0xbd6d67ea	-0.05796043
80	0xbd8d8201	-0.06909562
81	0x3c74c88c	0.014940392
82	0xbbe2b7ad	-0.0069188685
83	0xbc90ce15	-0.017676393
84	0xbd0f4dc3	-0.03498627
85	0xbd8881dd	-0.066653945
86	0x3d2addf9	0.041715596
87	0x3c62d410	0.013844505
88	0x3d9d7e25	0.07690076
89	0xbd2d4448	-0.042301446
90	0xbcd186ba	-0.025576938
91	0xbda789cc	-0.081805795
92	0x3d3d8c90	0.04627663
93	0xbd88ea21	-0.066852815
94	0xbd006710	-0.031348288
95	0xbe17ae3f	-0.14812563
96	0x3ce93506	0.028467666
97	0xbd25337a	-0.040332295
98	0x3bcd8368	0.0062717684
99	0xbce87a32	-0.02837858
100	0x3d015b67	0.03158131
101	0xbd0f3548	-0.034962922
102	0x3b1b93a0	0.0023739114
103	0xbc3d0e34	-0.011539031
104	0xbbf0fe30	-0.0073545203
105	0xbd0bf12b	-0.034165543
106	0xbc58d3c6	-0.0132340845
107	0xbcaa41b2	-0.02078328
108	0x3cb94a82	0.022618536
109	0x3cbf3d66	0.023344707
110	0x3bc48758	0.0059975795
111	0x3cc013ae	0.023446884
112	0x3d4cdabe	0.050013296
113	0x3c6ba3d9	0.014382326
114	0xbc0cc215	-0.008591195
115	0x3d0385bf	0.032109972
116	0x3cdb803d	0.026794547
117	0x3cef9664	0.029246517
118	0x3d09b5a5	0.033620495
119	0xbccb0393	-0.024781978
120	0xbcfced87	-0.03087498
121	0xbd12ef32	-0.035872646
122	0x3d2e780f	0.042594966
123	0xbd286890	-0.041115344
124	0xbdbffeda	-0.09374781
125	0xbb31b7b3	-0.002711755
126	0xbd0390e0	-0.032120585
127	0xbd96db9f	-0.07366108
128	0x3cbeaf1a	0.023276854
129	0x3c75ede0	0.015010327
130	0x3cf548f7	0.029942019
131	0x3c832a80	0.016011477
132	0x3d5178fd	0.051140774
133	0xb9f7cac5	-0.00047262586
134	0x3ceb3404	0.028711326
135	0xbd0d1556	-0.034444176
136	0xbd1d6431	-0.038425628
137	0xbc9a0611	-0.01880172
138	0xbb228ee9	-0.002480442
139	0x3cbfc36a	0.02340861
140	0xbd5153af	-0.051105198
141	0xbd125e15	-0.035734255
142	0x3ae6e50e	0.0017615871
143	0x3d3a8f0a	0.04554657
144	0x3c0ce214	0.008598823
145	0xbd9bad2e	-0.07601391
146	0x3d746639	0.0596678
147	0xbcf15b96	-0.029462617
148	0xbdc6cef7	-0.09707444
149	0xbc4d34a6	-0.012524759
150	0x3ccbfed2	0.024901781
151	0x3ceaf3c7	0.028680695
152	0xbca92138	-0.020645723
153	0xbd89e5c6	-0.06733279
154	0x3b87569b	0.004130197
155	0x3d715739	0.058921073
156	0x3dab2ed5	0.08358542
157	0xbd7683b7	-0.060184207
158	0xbddfdb80	-0.10930538
159	0xbd954f59	-0.07290525
160	0xbddfccb8	-0.10927719
161	0xbc556f35	-0.013027002
162	0x3c92e03c	0.017929189
163	0xbb0ce7dd	-0.0021500506
164	0xbd043f3d	-0.03228687
165	0xbd150849	-0.036384854
166	0xbc834702	-0.01602507
167	0xba9b2c51	-0.0011838769
168	0x3b07b0d4	0.0020704763
169	0xbdc10d7d	-0.09426401
170	0xbc3ea639	-0.01163631
171	0xbc58c708	-0.0132310465
172	0x3ddc9137	0.10769885
173	0xbd87a005	-0.06622318
174	0xbc8fbda4	-0.017546482
175	0xbd75873c	-0.059943423
176	0x3d94c68b	0.072644316
177	0xbd22120f	-0.039568003
178	0x3ce9d26c	0.02854272
179	0x3db5a397	0.08869093
180	0x3c67e295	0.014153142
181	0x3d1d4037	0.03839132
182	0x3d64d7a3	0.05586971
183	0x3dbda0bd	0.09259174
184	0xbd290918	-0.041268438
185	0xbd00b894	-0.031426027
186	0x3d0e0491	0.034672324
187	0xbab912be	-0.0014119965
188	0xbd8b1767	-0.06791573
189	0xbdb24e06	-0.08706288
190	0xbda3fad7	-0.08006828
191	0xbd026a49	-0.031839643
192	0xba7e9ef6	-0.0009713018
193	0x3c96a106	0.018387329
194	0x3d4f6820	0.05063641
195	0xbdb508db	-0.0883958
196	0xbd691cbd	-0.056912173
197	0xbd0126c0	-0.031531096
198	0x3c86d6df	0.01645988
199	0x3c0672d1	0.008206085
200	0x3c899cb4	0.016798355
201	0x3a73a6b3	0.00092945545
202	0x3cdfead9	0.027333664
203	0xbb5e6917	-0.003393715
204	0xbd4a0c5e	-0.0493282
205	0xbdb2634d	-0.08710346
206	0xbd2b4df0	-0.041822374
207	0x3c4c69ed	0.012476427
208	0x3caf292d	0.021381939
209	0x3cf514ba	0.02991711
210	0x3ca99f50	0.020705849
211	0xbdc29977	-0.09501927
212	0x3d901a21	0.07036234
213	0x3d77dbb2	0.060512252
214	0x3d35fcf0	0.044430673
215	0x3d26b5ad	0.040700603
216	0x3cf6199f	0.030041514
217	0xbd00a983	-0.03141166
218	0xbd7a9ee6	-0.061186694
219	0x3b910b86	0.0044264225
220	0xbde46501	-0.111520775
221	0xbd099f77	-0.033599343
222	0xbdf49ee2	-0.11944367
223	0x3d305ffc	0.043060288
224	0xbbde0abd	-0.0067761824
225	0xbd45fb1f	-0.04833519
226	0x3c477b10	0.0121753365
227	0xbd50cbc0	-0.05097556
228	0xbbda07f4	-0.00665378
229	0xbd37ac44	-0.04484202
230	0x3cd7ec68	0.026357844
231	0xbbcb243b	-0.0061993874
232	0xbd2c6e29	-0.042097244
233	0xbd19d8b4	-0.03756018
234	0xbc06e37c	-0.008232947
235	0xbc5a50c7	-0.013324923
236	0xbc95bf21	-0.018279614
237	0x3c4b7fb2	0.012420582
238	0xbd40ef8d	-0.047103453
239	0xbd21e43a	-0.039524294
240	0xb8d4631a	-0.00010127407
241	0xbc9d7776	-0.019222002
242	0x3ce00b8f	0.027349262
243	0xbddf7fcd	-0.10913048
244	0xbd59c8d9	-0.05317006
245	0x3bd00dd6	0.0063493056
246	0xbceb2050	-0.028701931
247	0xbc7246d0	-0.014787391
248	0x3c0f9346	0.00876314
249	0xbd452291	-0.04812867
250	0x3c0229a5	0.007944499
251	0x3d39eeb1	0.04539365
252	0xbc9de5ee	-0.019274678
253	0xbcb80ef7	-0.022468073
254	0xbcf0758e	-0.02935293
255	0x3d460762	0.048346885

dense1.bias f4 [10]
0	0x3d412b4a	0.047160424
1	0xbc44cf7e	-0.012012361
2	0xbc6cbc5f	-0.014449208
3	0x3d2d89d0	0.042367756
4	0xbd84b732	-0.06480254
5	0xbd094eb2	-0.033522315
6	0x3d9b63c2	0.07587387
7	0x3cb52881	0.02211404
8	0x3b86be90	0.0041120723
9	0x3cda966a	0.026683051
