saved_weights/Model_epoch_no_1_train_acc_84.06_val_acc_84.39.pth (torch_old, 74661 bytes, 6 tensors)

conv1.weight f4 [16, 1, 5, 5]
-0.16489777 0.09850534 0.0959653 0.13689935 0.010155021 0.02782052 0.10232751 0.13890916
-0.06551386 0.10448115 -0.04265963 0.037033666 -0.10133006 -0.16143791 0.12923834 -0.2989461
0.039739408 -0.013892747 -0.13462768 0.14459766 -0.26863328 -0.059821416 0.16222195 -0.07675593
0.01275008 -0.17964527 -0.2347882 0.1498365 0.0041312594 0.24929976 -0.2678153 -0.099470615
0.2373614 0.30626452 0.026779294 -0.013776809 0.18201673 0.27975002 0.2534307 0.045745462
-0.12537445 -0.025999287 -0.08728789 0.109018475 -0.041921623 -0.19268295 -0.17003857 0.17979674
-0.024761355 -0.016505193 0.27972192 0.24536982 0.010387872 -0.04836437 -0.12157343 0.23538217
-0.033043984 0.15397169 0.16153087 -0.0015437903 0.021948425 0.12953 -0.07906325 0.21787778
0.11614768 0.19471791 0.067543484 0.018163271 -0.16964146 -0.02447784 -0.14912428 0.1082101
-0.19155401 0.04309057 -0.2004039 0.02951925 -0.054003775 0.109998055 0.20185208 0.21357915
0.20792195 0.11084172 -0.048602488 0.16843794 0.07423946 -0.030846685 -0.057761893 0.16140257
-0.029775968 0.1020551 -0.22516632 -0.2830413 -0.15513468 -0.0964486 -0.06304961 -0.2028223
-0.19151159 -0.1532153 -0.25407112 -0.21469796 0.23193802 -0.11318103 0.13366795 0.0097717205
-0.015308896 0.198471 -0.0010861544 0.23184678 0.06634641 0.02719741 0.1964502 -0.08306732
0.160101 0.079039276 0.22256704 -0.021127157 0.090905316 -0.014119019 -0.17160961 -0.24185446
-0.2820063 -0.2916739 -0.25249803 -0.08470634 -0.19449666 -0.019332908 -0.025689129 0.12315474
0.037439615 -0.13901322 0.055171475 0.12927549 0.06119222 0.05441392 0.045395356 -0.013949532
0.13089514 -0.2070976 0.06816207 -0.1968078 0.15892725 0.11027108 -0.24810603 -0.2735224
-0.1217277 0.124189585 0.11775293 -0.10963804 -0.30077055 -0.2967045 0.13000205 -0.15378922
0.132252 0.26848343 0.017144619 0.153166 0.0041703875 0.18000114 0.14949304 0.21971397
-0.18259487 -0.14249901 -0.14148767 0.09302611 0.21878713 0.07324023 0.10899221 0.12389617
-0.06562795 0.03337122 0.18820739 -0.18545406 0.19373503 0.19948794 0.018188689 0.05695899
0.18062602 0.22570662 0.15628159 -0.22586039 0.14744557 -0.006109293 0.16885757 0.16060622
-0.21719916 0.21998076 0.24804679 0.07325232 -0.07341411 -0.19290742 0.20972581 0.20771472
-0.081285685 0.06454845 -0.25000978 -0.0030625479 -0.057377625 0.08080192 0.1511624 0.077089384
-0.16297247 0.18830371 0.08223356 0.063956104 -0.119147904 -0.120624416 0.031735316 0.06299189
-0.0026264484 0.2022567 -0.23778345 -0.19270141 -0.03354018 0.2682528 -0.05022394 -0.24625728
-0.07291272 0.124715336 0.2717574 -0.09663614 -0.2132921 -0.1733926 -0.019066595 0.1483383
0.1729894 -0.15134332 -0.07583544 -0.0688045 0.16837709 0.148357 -0.22960272 -0.004150306
-0.18674082 -0.050444547 0.08226426 -0.20351785 -0.2343394 0.089342065 0.05354363 -0.0050817565
0.12869996 -0.23063202 0.24011804 -0.06464539 0.22783306 0.13905673 -0.21381228 0.059058614
0.15370981 0.20978358 -0.013793298 0.066605195 0.05330545 -0.038724583 -0.122244574 0.087802656
00000000: f6da 28be 2bbd c93d 7589 c43d 582f 0c3e
00000010: 3f61 263c dce7 e33c 1691 d13d 343e 0e3e
00000020: 212c 86bd 37fa d53d ddbb 2ebd 9db0 173d
00000030: 2286 cfbd fb4f 25be 0e57 043e 770f 99be
00000040: cac5 223d 689e 63bc d7db 09be 6911 143e
00000050: 4d8a 89be 4d07 75bd 831d 263e 3732 9dbd
00000060: b6e5 503c eef4 37be 516c 70be bd6e 193e
00000070: 845f 873b 7048 7f3e 161f 89be 40b7 cbbd
00000080: de0e 733e b4ce 9c3e 4060 db3c 20b8 61bc
00000090: 9862 3a3e 653b 8f3e abc1 813e 985f 3b3d
000000a0: 2962 00be 75fc d4bc fec3 b2bd 1445 df3d
000000b0: 02b6 2bbd ae4e 45be 971e 2ebe a31c 383e
000000c0: 53d8 cabc e635 87bc b637 8f3e 3a42 7b3e
000000d0: e531 2a3c b819 46bd 7efb f8bd 0608 713e
000000e0: 2159 07bd c1aa 1d3e 5968 253e 0259 caba
000000f0: 2fcd b33c 83a3 043e eaeb a1bd 5a1b 5f3e
00000100: d6de ed3d 2264 473e 3d54 8a3d 24cb 943c
00000110: 7eb6 2dbe c085 c8bc 09b4 18be 429d dd3d
00000120: bc26 44be bd7f 303d ae36 4dbe 5bd2 f13c
00000130: 1033 5dbd a946 e13d 50b2 4e3e 7eb4 5a3e
00000140: 7ee9 543e fc00 e33d 6713 47bd ff7a 2c3e
00000150: dc0a 983d 30b2 fcbc bc97 6cbd b746 253e
00000160: bbec f3bc 4402 d13d 0092 66be caea 90be
00000170: a0db 1ebe d886 c5bd 2720 81bd a6b0 4fbe
00000180: 9d1b 44be 79e4 1cbe 9c15 82be c8d9 5bbe
00000190: 2981 6d3e 75cb e7bd 40e0 083e 9119 203c
000001a0: 2ad2 7abc fb3b 4b3e 4b5d 8eba 3e69 6d3e
000001b0: a0e0 873d 1acd de3c 3e2a 493e 331f aabd
000001c0: 84f1 233e 58df a13d 9de8 633e dc12 adbc
000001d0: 912c ba3d 7553 67bc 6eba 2fbe b2a8 77be
000001e0: 2163 90be 4856 95be 6c47 81be 857a adbd
000001f0: 222a 47be 0c60 9ebc 0272 d2bc 8d38 fc3d
00000200: 485a 193d 7b59 0ebe 7cfb 613d cb60 043e
00000210: b1a4 7a3d 21e1 5e3d 7bf0 393d 948c 64bc
00000220: 6009 063e 6511 54be 8e98 8b3d fc87 49be
00000230: d3bd 223e ced5 e13d 820f 7ebe 210b 8cbe
00000240: 5f4c f9bd 1c57 fe3d 7328 f13d e989 e0bd
00000250: 99fe 99be a7e9 97be 421f 053e ec7a 1dbe
00000260: 116d 073e a976 893e df72 8c3c 8cd7 1c3e
00000270: bfa7 883b 3852 383e b414 193e b3fc 603e
00000280: 26fa 3abe 43eb 11be 25e2 10be 7984 be3d
00000290: bc09 603e f9fe 953d 4f37 df3d 46bd fd3d
000002a0: f267 86bd 43b0 083d 70b9 403e abe7 3dbe
000002b0: 7a62 463e 9146 4c3e 7200 953c d44d 693d
000002c0: 07f6 383e a31f 673e 4808 203e f247 67be
000002d0: f9fb 163e 7730 c8bb 00e9 2c3e f575 243e
000002e0: 7569 5ebe a342 613e faff 7d3e 5005 963d
000002f0: 235a 96bd 8689 45be 5dc2 563e 2bb3 543e
00000300: 1c79 a6bd fa31 843d 4801 80be 07b5 48bb
00000310: cd04 6bbd 7a7b a53d 51ca 1a3e 0ae1 9d3d
00000320: 41e2 26be b0d2 403e 126a a83d 6bfb 823d
00000330: d103 f4bd ef09 f7bd e4fc 013d e401 813d
00000340: 7e20 2cbb 611c 4f3e 817d 73be 8553 45be
00000350: 6e61 09bd 6e58 893e 9eb7 4dbd de2a 7cbe
00000360: 4453 95bd c16a ff3d c923 8b3e 2be9 c5bd
00000370: 3f69 5abe d48d 31be 8c31 9cbc ffe5 173e
00000380: 2224 313e bef9 1abe 9c4f 9bbd 60e9 8cbd
00000390: 0b6b 2c3e e6ea 173e fa1c 6bbe 4aff 87bb
000003a0: fc38 3fbe f19e 4ebd 2a7a a83d fc66 50be
000003b0: abf6 6fbe f9f8 b63d 9150 5b3d dd84 a6bb
000003c0: ecc9 033e cd2a 6cbe 81e1 753e cd64 84bd
000003d0: 124d 693e e364 0e3e 9bf1 5abe 72e7 713d
000003e0: 1b66 1d3e 82d1 563e 49fd 61bc 4e68 883d
000003f0: d156 5a3d ab9d 1ebd 5d5b fabd e1d1 b33d

conv1.bias f4 [16]
0.12752391 0.009106726 -0.14706561 0.18511267 0.09705395 0.121767625 0.0081782285 -0.0014743713
0.08529589 0.0022021327 0.108502254 -0.00038152418 0.028460175 0.12737447 -0.17063156 0.008328726
00000000: a195 023e 6134 153c 5e98 16be 2d8e 3d3e
00000010: 39c4 c63d 4e61 f93d fafd 053c b13f c1ba
00000020: 9daf ae3d a851 103b 6e36 de3d 4f07 c8b9
00000030: 5025 e93c 746e 023e 0aba 2ebe 3575 083c

conv2.weight f4 [32, 16, 5, 5]
-0.016954646 0.07396664 -0.0414369 0.03321836 0.026348773 0.011261573 0.09139134 -0.06890341
-0.007067453 0.018486593 0.07766555 0.05436391 0.005685268 0.07054606 0.050407577 0.07251967
0.059728984 0.038794946 -0.0028624139 0.08710914 0.07082549 0.0022699703 0.089357756 0.06113448
0.10952859 0.1121546 0.07686595 -0.012466836 -0.05724447 0.070378296 0.021652808 0.042951774
-0.022219293 0.04632283 0.05447538 0.08056364 0.043011777 0.005264823 -0.027028767 0.030991407
0.08284526 0.024537263 -0.013197258 -0.005487847 0.026479652 0.04112177 -0.038951915 0.041594673
0.02478677 -0.0049457797 -0.15043001 -0.10248381 -0.023482472 -0.0038392665 0.050879743 0.015996123
0.011789227 0.04722342 -0.024259035 -0.028921627 -0.003004109 0.054734524 0.0269147 -0.00967446
0.005457306 0.042207465 0.044867326 0.012343399 0.038858764 -0.057325304 -0.04859203 -0.012848793
-0.043480244 -0.030116195 -0.010926057 -0.021806456 -0.09660407 0.01956845 -0.0033420785 0.067212574
0.021423489 -0.11330171 0.0062160348 0.04643778 0.15538768 -0.009154316 -0.050324697 -0.02823564
0.100325294 0.12426319 0.05756625 0.019851694 0.017557854 0.040156152 0.06526982 0.11219536
0.025454395 0.085834764 0.054627385 0.00039791228 -0.08605902 -0.08826105 -0.011160346 0.0085185515
0.084859595 0.0647641 0.055852473 0.034979414 0.027140856 0.11957392 0.018756824 0.0077829137
0.0577998 0.046721436 0.15161322 0.10183459 0.06920197 0.039340258 0.015964357 0.026191086
0.13263851 0.06242809 0.060598884 0.027557457 -0.021173248 -0.1105374 -0.10166409 -0.0393744
-0.056425825 -0.09473864 -0.07355779 -0.009699123 -0.06278996 -0.0270083 -0.021579942 -0.15091592
-0.015766582 0.037472155 0.06417228 0.01423447 -0.072400615 0.030272054 0.09894876 0.056446917
0.024606071 0.09916465 0.10787986 0.03868515 0.022047961 0.006259484 0.020456975 -0.02174687
0.051165655 0.061160132 0.052994214 -0.0016266668 0.029750647 -0.024628963 -0.007326856 0.03677471
0.065533735 0.072861955 0.008708695 -0.028256124 -0.0010313041 -0.0041043404 0.031185107 -0.029554704
0.0032260485 0.0005596023 -0.009667485 -0.022862103 -0.0050512133 -0.03842402 -0.053659797 -0.031096928
-0.014768837 0.005601498 0.042545684 0.049055655 -0.011867186 -0.013111888 0.0002840081 -0.03692467
0.058162916 -0.05531624 0.030869322 0.049964067 -0.0052041817 -0.020335907 -0.052788273 0.005079768
0.038707934 0.052576482 0.033424303 -0.07173295 -0.054293856 -0.05061265 -0.049968466 -0.059377242
0.04275695 0.002728867 -0.024241598 -0.071936406 -0.046024773 -0.009547477 -0.013697418 -0.019186879
-0.14594325 -0.053023033 0.07174245 0.019457072 0.0049005114 -0.17344473 -0.0993396 0.02035899
-0.052264962 -0.0008718026 -0.07140754 -0.103490874 0.07967328 -0.017014008 0.0047456613 0.029937228
0.036122452 0.092176326 0.06188362 -0.021268265 -0.09036445 0.019266719 0.04329099 -0.016754031
-0.021755023 -0.069525875 0.025226412 0.08224122 -0.02866465 0.031442247 -0.071757704 -0.049491942
0.0080598695 -0.022901757 0.013957089 -0.119624875 -0.08570302 0.0789963 -0.073982425 -0.012181514
-0.049967755 -0.032948524 0.064287506 -0.08273968 -0.04186691 -0.0037472455 0.059312277 0.043667026
00000000: 78e4 8abc d27b 973d bdb9 29bd fa0f 083d
00000010: 62d9 d73c 7682 383c 622b bb3d 3b1d 8dbd
00000020: 1896 e7bb 3271 973c 1e0f 9f3d b1ac 5e3d
00000030: 7c4b ba3b 747a 903d 2d78 4e3d 3185 943d
00000040: 61a6 743d 73e7 1e3d 5697 3bbb 4766 b23d
00000050: f40c 913d c8c3 143b 3301 b73d 2668 7a3d
00000060: 8750 e03d 50b1 e53d e56b 9d3d b341 4cbc
00000070: 2d79 6abd 7f22 903d 3b61 b13c 33ee 2f3d
00000080: 3c05 b6bc 02bd 3d3d 9321 5f3d 8dfe a43d
00000090: 1e2d 303d 8984 ac3b 6f6b ddbc b1e1 fd3c
000000a0: c7aa a93d 5f02 c93c 5039 58bc 66d3 b3bb
000000b0: dbeb d83c 4d6f 283d 0b8c 1fbd 2d5f 2a3d
000000c0: a00d cb3c 3510 a2bb 530a 1abe 08e3 d1bd
000000d0: 505e c0bc 349c 7bbb 4767 503d 4d0a 833c
000000e0: 9a27 413c 586d 413d e2ba c6bc 0ced ecbc
000000f0: 96e0 44bb 4f31 603d 387c dc3c a081 1ebc
00000100: 33d3 b23b bce1 2c3d cdc6 373d f83b 4a3c
00000110: 5e2a 1f3d f0cd 6abd 7008 47bd be83 52bc
00000120: 5718 32bd 3db6 f6bc 3403 33bc 74a3 b2bc
00000130: 5bd8 c5bd 044e a03c c606 5bbb bfa6 893d
00000140: 5080 af3c ba0a e8bd e1af cb3b 8b35 3e3d
00000150: f31d 1f3e fcfb 15bc 4521 4ebd 6e4e e7bc
00000160: 5977 cd3d b37d fe3d 97ca 6b3d 05a0 a23c
00000170: 7dd5 8f3c c77a 243d 2fac 853d aec6 e53d
00000180: bc85 d03c 23ca af3d f7c0 5f3d e29e d039
00000190: b63f b0bd 36c2 b4bd e2d9 36bc 6591 0b3c
000001a0: deca ad3d 0aa3 843d 90c5 643d 9346 0f3d
000001b0: 8056 de3c 2ce3 f43d e9a7 993c d007 ff3b
000001c0: 7cbf 6c3d fa5e 3f3d 7f40 1b3e a78e d03d
000001d0: c3b9 8d3d 4023 213d afc7 823c b08e d63c
000001e0: 64d2 073e 99b4 7f3d 8936 783d 2dc0 e13c
000001f0: 8573 adbc 6f61 e2bd 4335 d0bd 0d47 21bd
00000200: c41e 67bd 5506 c2bd 77a5 96bd 12e9 1ebc
00000210: 0698 80bd 8340 ddbc 6bc8 b0bc b489 1abe
00000220: eb28 81bc 677c 193d c26c 833d b237 693c
00000230: c646 94bd 19fd f73c a6a5 ca3d e234 673d
00000240: ac92 c93c d616 cb3d 1ef0 dc3d 5274 1e3d
00000250: ed9d b43c 5c1c cd3b 6395 a73c 7e26 b2bc
00000260: 1493 513d 0c83 7a3d 7610 593d e135 d5ba
00000270: a1b7 f33c aec2 c9bc 1f16 f0bb 14a1 163d
00000280: 8d36 863d a638 953d eaae 0e3c 6379 e7bc
00000290: d32c 87ba b47d 86bb e977 ff3c b51c f2bc
000002a0: 1d6c 533b 46b2 123a 5f64 1ebc 4e49 bbbc
000002b0: a684 a5bb 8162 1dbd 60ca 5bbd fcbe febc
000002c0: fef8 71bc c58c b73b 6244 2e3d 95ee 483d
000002d0: 966e 42bc 3fd3 56bc ece6 9439 533e 17bd
000002e0: 3d3c 6e3d 4893 62bd a9e1 fc3c 1fa7 4c3d
000002f0: d787 aabb 7d97 a6bc 8438 58bd 2f74 a63b
00000300: 368c 1e3d 705a 573d ece7 083d bae8 92bd
00000310: 3c63 5ebd 364f 4fbd bcab 4cbd 8d35 73bd
00000320: e921 2f3d cbd6 323b 5196 c6bc 6553 93bd
00000330: 7984 3cbd 056d 1cbc 236b 60bc cd2d 9dbc
00000340: 2672 15be ae2e 59bd b5ed 923d 7064 9f3c
00000350: 7894 a03b 7f9b 31be 8f72 cbbd e6c7 a63c
00000360: c913 56bd af89 64ba 1e3e 92bd 06f3 d3bd
00000370: bf2b a33d f660 8bbc 7e81 9b3b eb3e f53c
00000380: 23f5 133d f1c6 bc3d ae79 7d3d c93a aebc
00000390: ff10 b9bd 3dd5 9d3c e551 313d c03f 89bc
000003a0: 9737 b2bc 9563 8ebd 9fa7 ce3c 166e a83d
000003b0: 21d2 eabc 96c9 003d b4f5 92bd 10b8 4abd
000003c0: 8b0d 043c 779c bbbc 46ac 643c e3fd f4bd
000003d0: 1185 afbd d0c8 a13d 1984 97bd f994 47bc
000003e0: fdaa 4cbd 08f5 06bd 2ba9 833d 6c73 a9bd
000003f0: a37c 2bbd 5994 75bb 6ef1 723d 32dc 323d

conv2.bias f4 [32]
0.06874141 0.00027466228 0.0010018771 0.0153470505 0.082147926 0.10013573 -0.027047561 0.08342442
0.023734396 0.052685846 0.015042808 0.0040210094 0.009490007 -0.0072733182 0.00092767976 0.017828753
-0.046085455 0.0012824254 0.052812003 0.043090057 0.00862227 0.025669575 0.010517065 0.00068260886
0.033506114 -0.0133350035 0.03802403 -0.026451563 -0.034936585 0.03869053 0.04443303 -0.027968898
00000000: 4cc8 8c3d 8c00 9039 6b51 833a 3272 7b3c
00000010: 2c3d a83d f613 cd3d d992 ddbc 6cda aa3d
00000020: a36e c23c 1dcd 573d 1c76 763c acc2 833b
00000030: f97b 1b3c 0455 eebb 892f 733a 9b0d 923c
00000040: 1ac4 3cbd 0e17 a83a 6651 583d 337f 303d
00000050: 6c44 0d3c 0049 d23c c54f 2c3c 1bf1 323a
00000060: b53d 093d 0f7b 5abc 16bf 1b3d f3b0 d8bc
00000070: aa19 0fbd f679 1e3d 69ff 353d 081f e5bc

dense1.weight f4 [10, 512]
0.018746562 0.0485567 0.01479038 0.056096893 -0.007309195 0.0063114543 0.007084691 0.09089294
-0.023802305 0.04832763 -0.033700775 0.0013002007 -0.024802199 -0.019971343 -0.07354077 -0.026477369
-0.015480702 0.029794458 0.06977361 -0.07861975 -0.08166351 0.08154618 0.034804087 -0.06126315
-0.027541308 -0.058588367 -0.05791884 0.031175412 -0.107192226 -0.018274965 -0.06310359 -0.013196015
-4.5655437e-05 -0.076481774 0.036648866 0.16241553 -0.0042280643 -0.02390681 0.021244822 0.099073604
0.027832955 -0.040844116 -0.02755673 -0.08616328 0.042242933 -0.036099825 -0.05401895 -0.08636187
-0.05941978 -0.09515359 -0.04223917 0.08057334 0.014143586 -0.048677415 -0.07729047 -0.012616057
0.018296523 0.017473232 -0.08368892 -0.08289399 -0.012064055 0.060963485 -0.034321126 -0.10702852
0.12549528 0.017233025 0.05872105 -0.066822164 0.046556167 0.057092477 0.04375596 -0.0069582243
0.023912257 0.011978818 0.04534446 0.029323261 -0.02581568 0.037534684 0.019401971 0.040393345
-0.04221848 -0.03911068 -0.06931786 0.023156717 0.004981264 0.0035081636 0.013029927 0.036528677
0.030911403 -0.005238392 0.03248118 -0.020564834 0.0005837206 0.034755323 0.058718897 0.028029012
0.05792114 0.061577003 0.01354578 -0.07585811 -0.05335562 0.02649268 -0.066291824 -0.086445175
-0.050533496 -0.045609247 -0.0036072254 -0.034212533 0.015923396 -0.007848807 -0.05382364 0.015127682
0.042730562 0.027628914 0.021833997 0.07591556 0.039367422 -0.0010242732 -0.045752127 -0.07894684
-0.021726986 0.048352472 -0.012864342 -0.040000398 -0.027291749 0.029552259 0.04332191 -0.027285986
0.066681094 0.030676119 0.06501928 0.02014513 -0.030991064 0.02746206 -0.008355488 0.0063189687
0.0076310844 -0.038245652 -0.038021203 -0.065994605 0.012434715 -0.05364206 0.005593949 -0.05338964
0.061863128 0.03242053 -0.0055837533 0.06624476 0.055600222 -0.02542826 0.04441726 0.022992454
-0.0068384646 -0.03323296 -0.007921205 -0.06672722 0.0058285487 -0.013587584 0.01945751 -0.023359489
0.036557283 -0.014964317 0.0017056018 0.07380833 0.061049893 -0.01497629 0.021485506 0.044649728
0.03619168 -0.0067875884 0.0383467 -0.0757636 0.058683835 -0.016806046 -0.016849015 -0.09597427
0.04001947 0.00011722427 -0.010595912 0.15893058 0.0050664353 -0.027964743 0.020934686 0.003131076
0.01995225 0.0214177 0.041698355 -0.026698457 -0.04986817 -0.07190398 -0.0056054546 -0.09951516
0.013727199 -0.05487515 0.02621778 0.15224466 0.027526157 -0.018045336 0.02051205 0.12006846
0.08240871 -0.06493061 -0.0072241677 -0.047788866 -0.017327765 -0.10188816 -0.06524686 -0.07425363
-0.0070017497 -0.006211985 -0.037747648 0.013617069 0.06525087 0.04705416 -0.00034142437 0.04974236
0.020614492 0.03403306 -0.0471077 0.057292435 -0.020867405 0.006030275 -0.096985646 0.0033461913
-0.002905686 0.029725032 -0.025548207 0.0019210116 0.02640919 -0.008744492 -0.044501774 0.026556812
0.018940313 -0.013928393 -0.03537746 0.026455421 0.04523332 -0.025562122 0.020448878 -0.04004902
0.058449518 0.024496082 0.05375248 0.06268529 0.027298212 0.030233847 0.02698309 0.051545523
-0.011947518 -0.019252347 0.016085623 -0.004925227 -0.013328316 0.021862254 0.007330663 -0.043158427
00000000: 6492 993c 64e3 463d 5a53 723c dbc5 653d
00000010: f981 efbb 51d0 ce3b b226 e83b 1426 ba3d
00000020: 0dfd c2bc 31f3 453d d309 0abd 7f6b aa3a
00000030: fb2d cbbc f19a a3bc 8b9c 96bd 11e7 d8bc
00000040: c5a2 7dbc 8213 f43c 77e5 8e3d 6403 a1bd
00000050: 333f a7bd af01 a73d bb8e 0e3d 12ef 7abd
00000060: 4f9e e1bc 5bfa 6fbd 4e3c 6dbd 9463 ff3c
00000070: 9987 dbbd 61b5 95bc 743c 81bd 1934 58bc
00000080: 277e 3fb8 7aa2 9cbd 1f1d 163d 4250 263e
00000090: 938b 8abb 37d8 c3bc 9f09 ae3c 1ae7 ca3d
000000a0: f001 e43c 294c 27bd a7be e1bc 6076 b0bd
000000b0: ed06 2d3d 69dd 13bd f942 5dbd 7ede b0bd
000000c0: 2862 73bd e3df c2bd fb02 2dbd a303 a53d
000000d0: 80ba 673c f861 47bd 774a 9ebd 94b3 4ebc
000000e0: 97e2 953c 0624 8f3c 1965 abbd 53c4 a9bd
000000f0: 50a8 45bc d9b4 793d 4f94 0cbd c531 dbbd
00000100: d681 003e 462c 8d3c 7c85 703d 0fda 88bd
00000110: aeb1 3e3d cdd9 693d 7339 333d d101 e4bb
00000120: a3e3 c33c ce42 443c 1dbb 393d 5637 f03c
00000130: 687b d3bc f8bd 193d e2f0 9e3c 7e73 253d
00000140: 49ed 2cbd 8532 20bd 86f6 8dbd 28b3 bd3c
00000150: df39 a33b 38e9 653b 7a7b 553c 189f 153d
00000160: e939 fd3c d1a6 abbb fc0a 053d 9577 a8bc
00000170: d404 193a 995b 0e3d 3a83 703d 199d e53c
00000180: b83e 6d3d 2b38 7c3d 1fef 5d3c 7f5b 9bbd
00000190: 6c8b 5abd 2d07 d93c 02c4 87bd 2b0a b1bd
000001a0: 36fc 4ebd c3d0 3abd 3367 6cbb 7122 0cbd
000001b0: c871 823c 4898 00bc 2d76 5cbd 19da 773c
000001c0: 3e06 2f3d 0856 e23c 36dd b23c 9e79 9b3d
000001d0: bc3f 213d e840 86ba 9566 3bbd e1ae a1bd
000001e0: cbfc b1bc 3e0d 463d f6c4 52bc 75d7 23bd
000001f0: f292 dfbc 9417 f23c 5172 313d dc86 dfbc
00000200: 1990 883d 7c4c fb3c d428 853d 6607 a53c
00000210: f9e0 fdbc 1df8 e03c 75e5 08bc 5a0f cf3b
00000220: 2d0e fa3b 79a7 1cbd 1fbc 1bbd 2e28 87bd
00000230: faba 4b3c c7b7 5bbd 724d b73b 18af 5abd
00000240: 3164 7d3d 64cb 043d ebf7 b6bb 55ab 873d
00000250: 0fbd 633d ed4e d0bc dfee 353d ac5a bc3c
00000260: 3315 e0bb 491f 08bd f1c7 01bc 48a8 88bd
00000270: 69fd be3b 759e 5ebc 5b65 9f3c 665c bfbc
00000280: 17bd 153d e52c 75bc 808e df3a d228 973d
00000290: 740f 7a3d 1d5f 75bc 5f02 b03c a2e2 363d
000002a0: ba3d 143d 6b6a debb 6e11 1d3d f229 9bbd
000002b0: 765e 703d d5ac 89bc f206 8abc 288e c4bd
000002c0: 75eb 233d 4dd6 f538 7a9a 2dbc b3be 223e
000002d0: 5704 a63b 5116 e5bc 387f ab3c bd32 4d3b
000002e0: e772 a33c 2c74 af3c e5cb 2a3d b9b6 dabc
000002f0: 9142 4cbd 6542 93bd f6ad b7bb 9bce cbbd
00000300: 0ce8 603c c4c4 60bd abc6 d63c 06e6 1b3e
00000310: 897e e13c d0d3 93bc e308 a83c 74e6 f53d
00000320: e6c5 a83d 57fa 84bd b6b8 ecbb 42be 43bd
00000330: f5f2 8dbc bdaa d0bd 25a0 85bd 4a12 98bd
00000340: ef6e e5bb e88d cbbb 479d 1abd 211a 5f3c
00000350: 40a2 853d ddbb 403d 3401 b3b9 a5be 4b3d
00000360: b9df a83c 4066 0b3d 01f4 40bd 79ab 6a3d
00000370: 1ff2 aabc 9d99 c53b 69a0 c6bd c64b 5b3b
00000380: 526d 3ebb e981 f33c 794a d1bc 74ca fb3a
00000390: 1658 d83c 0f45 0fbc 7e47 36bd ac8d d93c
000003a0: b728 9b3c ea33 64bc f5e7 10bd 0ab9 d83c
000003b0: 9346 393d a867 d1bc 6884 a73c 710a 24bd
000003c0: c368 6f3d 02ac c83c 8f2b 5c3d 2561 803d
000003d0: 80a0 df3c f9ac f73c a40b dd3c 6621 533d
000003e0: 86bf 43bc 19b7 9dbc ffc5 833c cc63 a1bb
000003f0: 025f 5abc 7818 b33c 0f36 f03b e4c6 30bd

dense1.bias f4 [10]
0.03324518 -0.013664965 0.011167972 0.029390227 -0.04054397 -0.035552546 -0.0019848752 0.020306047
-0.0072278487 -0.037366886
00000000: 192c 083d 04e3 5fbc dff9 363c c6c3 f03c
00000010: 6f11 26bd 8c9f 11bd ae14 02bb de58 a63c
00000020: 97d7 ecbb 050e 19bd
