saved_weights/Model_epoch_no_4_train_acc_89.30_val_acc_88.61.pth (torch_old, 74661 bytes, 6 tensors)

conv1.weight f4 [16, 1, 5, 5]
0.24707077 0.19787759 0.058416747 0.26945564 -0.026985522 -0.17647916 -0.037609257 -0.25528327
-0.052066877 -0.06325936 -0.09026208 -0.16519547 -0.3194519 0.0055805705 0.10646075 -0.032365974
-0.19227722 0.00094393385 0.20470355 0.27080572 0.19945402 -0.17236184 -0.21639532 0.16807969
0.28320828 0.027797334 -0.06733378 0.12447114 0.2619622 -0.1635082 0.12222342 -0.12106494
-0.06966426 0.025033722 -0.08612511 0.105045855 -0.14147781 -0.044034872 0.111874 0.05006369
0.12828502 -0.06920118 0.0027502966 0.21515481 0.017178062 -0.019093962 -0.20061189 0.23402745
0.105865285 -0.09798628 0.20525499 0.04921361 0.18147004 -0.20173933 0.12301657 0.045968827
0.2053846 -0.13274667 -0.17997542 0.08456097 0.012255452 -0.3279402 -0.13971019 0.1525167
-0.062515266 -0.37777957 -0.93602973 -0.73069966 -0.106722474 0.15278116 -0.17437199 -0.83465654
-0.621521 -0.008888246 -0.11852118 -0.023672558 -0.14493886 -0.28726766 -0.027396368 -0.21488224
0.099106 0.0030428916 -0.017199447 -0.27154067 -0.3104282 0.061742365 0.25751883 0.009248414
-0.10758426 -0.17448106 0.19611782 0.26094997 0.30896145 0.1994064 -0.088058 -0.055102423
-0.03923293 0.025242083 0.13532574 0.10851983 0.2407557 0.2872152 -0.086710215 0.14708322
0.0654284 0.1896528 0.1500646 0.2325531 0.14201392 -0.056526486 0.23183443 0.010200749
0.037283484 -0.11295682 -0.05042258 -0.15146668 -0.11057132 0.16420373 0.21388258 -0.10592681
-0.2569011 -0.042173725 -0.19415765 -0.215129 -0.09358043 0.15843138 0.27942505 0.007966742
-0.11663947 0.10420354 -0.14549817 0.16311577 -0.068000846 -0.15144227 -0.29542825 -0.1940345
0.24533616 -0.14185514 -0.092718005 -0.055114485 -0.13768582 0.2051933 0.15266271 -0.17079455
0.115567565 0.005458047 0.25944728 -0.032745432 -0.0328448 -0.008332163 -0.08528383 -0.0033853278
0.2974742 -0.023501191 0.061564542 -0.14122573 -0.024017762 0.21516246 -0.15658584 -0.03967395
-0.15459786 -0.08642621 0.28100097 -0.14348169 -0.06938826 0.17182826 -0.003656197 0.10701745
-0.1991083 -0.08982984 0.082342535 -0.10374264 0.23131767 0.14218473 0.038325183 -0.11557182
-0.14209193 -0.18608396 0.1713825 0.27440903 0.0107799955 0.15382634 -0.028350905 0.24278982
0.25209183 0.117255315 -0.16657147 -0.017604863 0.06343751 -0.02301811 -0.040587585 0.13157089
0.12109504 -0.04241917 0.19809398 0.18612882 0.05540957 -0.18587558 0.05766608 -0.0053216293
0.011994525 -0.19745943 -0.17196256 0.32487464 0.08355797 0.015532916 -0.29132074 -0.3502115
0.25694528 -0.09572609 0.11310043 0.18607175 -0.25398108 0.23031633 -0.078890555 0.21380094
0.06321807 -0.0374945 -0.07186051 0.2400706 -0.15922898 -0.068815626 -0.35915232 -0.037889782
0.31968296 -0.44735512 -0.33429635 -0.2772698 0.039800875 -0.0039072395 -0.11696892 -0.046817917
-0.11687587 -0.17138468 0.09101501 -0.048764642 0.28031966 0.031493593 -0.06456137 0.023321243
0.052369744 0.23938076 -0.012622889 0.10055883 0.15027067 0.29968858 -0.015613668 -0.04279044
-0.0102332635 0.2357369 -0.31963602 0.17097145 0.18387185 -0.025635289 0.05798512 -0.22141212
00000000: 1f00 7d3e 6ca0 4a3e 6646 6f3d 17f6 893e
00000010: be10 ddbc f4b6 34be 2a0c 1abd 7db4 82be
00000020: 1444 55bd 208e 81bd 53db b8bd 0029 29be
00000030: 338f a3be 38dd b63b 1808 da3d 2f92 04bd
00000040: 52e4 44be 5472 773a cf9d 513e 0ca7 8a3e
00000050: ad3d 4c3e 9f7f 30be bc96 5dbe 151d 2c3e
00000060: ad00 913e 3cb7 e33c 4be6 89bd baea fe3d
00000070: e91f 863e b26e 27be 4650 fa3d e5f0 f7bd
00000080: 23ac 8ebd 8513 cd3c 5d62 b0bd 4822 d73d
00000090: 8fdf 10be e95d 34bd 321e e53d 950f 4d3d
000000a0: 265d 033e 59b9 8dbd 523e 343b 8b51 5c3e
000000b0: 02b9 8c3c f16a 9cbc 346d 4dbe e4a4 6f3e
000000c0: e6cf d83d 08ad c8bd 5d2e 523e 3694 493d
000000d0: 48d3 393e c194 4ebe 1df0 fb3d cf49 3c3d
000000e0: 5750 523e beee 07be 7a4b 38be 4d2e ad3d
000000f0: 17cb 483c c7e7 a7be 3010 0fbe 562d 1c3e
00000100: 0108 80bd 536c c1be a59f 6fbf 220f 3bbf
00000110: 5091 dabd aa72 1c3e 928e 32be 0dac 55bf
00000120: 001c 1fbf 01a0 11bc 3bbb f2bd f4ec c1bc
00000130: da6a 14be bf14 93be 596e e0bc 170a 5cbe
00000140: 16f8 ca3d 406b 473b dbe5 8cbc 6107 8bbe
00000150: 72f0 9ebe 90e5 7c3d 82d9 833e a986 173c
00000160: 2355 dcbd 2aab 32be 1cd3 483e 3c9b 853e
00000170: 3230 9e3e 3131 4c3e c157 b4bd 14b3 61bd
00000180: b5b2 20bd 7cc8 ce3c d592 0a3e a53f de3d
00000190: aa88 763e df0d 933e 2095 b1bd fc9c 163e
000001a0: 53ff 853d 5834 423e 89aa 193e 6622 6e3e
000001b0: 196c 113e 5188 67bd 0166 6d3e 0b21 273c
000001c0: 91b6 183d e855 e7bd e887 4ebd 151a 1bbe
000001d0: 3773 e2bd 0625 283e 0904 5b3e 28f0 d8bd
000001e0: 8a88 83be 5bbe 2cbd 43d1 46be c74a 5cbe
000001f0: 19a7 bfbd d63b 223e cd10 8f3e f086 023c
00000200: ade0 eebd aa68 d53d 79fd 14be d207 273e
00000210: 0744 8bbd af13 1bbe 5f42 97be fbb0 46be
00000220: 6739 7b3e 7942 11be f0e2 bdbd babf 61bd
00000230: 83fd 0cbe 311e 523e 9d53 1c3e c4e4 2ebe
00000240: b0ae ec3d 6bd9 b23b 46d6 843e 1320 06bd
00000250: 4588 06bd a083 08bc 4aa9 aebd 60dc 5dbb
00000260: 8a4e 983e 9285 c0bc 1a2b 7c3d 7a9d 10be
00000270: e6c0 c4bc 8c53 5c3e 0a58 20be 2781 22bd
00000280: e74e 1ebe 3a00 b1bd 5cdf 8f3e ddec 12be
00000290: 6f1b 8ebd bff3 2f3e cf9c 6fbb f72b db3d
000002a0: 0ce3 4bbe b5f8 b7bd 34a3 a83d 0577 d4bd
000002b0: 8ade 6c3e e098 113e defa 1c3d ebb0 ecbd
000002c0: 8c80 11be cb8c 3ebe e57e 2f3e 577f 8c3e
000002d0: 949e 303c a784 1d3e 2840 e8bc e59d 783e
000002e0: 2e12 813e 8e23 f03d b691 2abe 1338 90bc
000002f0: 86eb 813d 7a90 bcbc 2b3f 26bd 85ba 063e
00000300: ad00 f83d b9bf 2dbd 26d9 4a3e 8e98 3e3e
00000310: 25f5 623d 2b56 3ebe 4433 6c3d 1061 aebb
00000320: af84 443c ce32 4abe f416 30be f855 a63e
00000330: 7120 ab3d c67d 7e3c fe27 95be ec4e b3be
00000340: 558e 833e 0a0c c4bd 33a1 e73d 9889 3e3e
00000350: cf09 82be 0bd8 6b3e 5f91 a1bd a2ee 5a3e
00000360: 7a78 813d d593 19bd 9a2b 93bd 11d5 753e
00000370: ec0c 23be 35ef 8cbd d0e2 b7be 5132 1bbd
00000380: 7cad a33e bb0b e5be e428 abbe 4ff6 8dbe
00000390: 3e06 233d 4d08 80bb 678d efbd 25c4 3fbd
000003a0: 9e5c efbd 777f 2fbe 1466 ba3d 6fbd 47bd
000003b0: 0f86 8f3e 6dff 003d c038 84bd 310c bf3c
000003c0: a881 563d 3b20 753e 3cd0 4ebc caf1 cd3d
000003d0: 8ee0 193e c870 993e 78d0 7fbc 0745 2fbd
000003e0: 6ba9 27bc 0465 713e 55a7 a3be 2413 2f3e
000003f0: e748 3c3e 1901 d2bc ce81 6d3d dcb9 62be

conv1.bias f4 [16]
0.011437175 -0.0062614502 0.33649966 -0.051598158 -0.028109564 -0.008927655 0.034354385 -0.020251349
0.07182608 0.007675303 -0.0031212706 0.064825125 0.052542746 0.17206293 0.22675858 -0.002558943
00000000: fd62 3b3c da2c cdbb af49 ac3e 9758 53bd
00000010: 0746 e6bc 4d45 12bc 2fb7 0c3d 28e6 a5bc
00000020: 8d19 933d 1c81 fb3b 3b8e 4cbb 09c3 843d
00000030: 1037 573d 4431 303e 6733 683e f0b3 27bb

conv2.weight f4 [32, 16, 5, 5]
0.006919411 -0.011971298 -0.067221224 0.055528406 -0.005294988 -0.014209298 -0.098379366 0.021538302
0.08117348 0.03550432 0.061668247 -0.020814355 0.080718905 0.040201858 0.029302606 0.037713017
-0.13215324 -0.030813865 0.111190096 0.016641498 0.04467922 -0.20761456 -0.09039903 0.037946608
-0.17212392 0.07924448 0.016882863 -0.0848481 -0.0669222 -0.08018519 0.049919456 0.025529824
0.025872028 -0.00428737 -0.07592181 0.02533253 0.04226262 -0.00012185011 -0.064593874 -0.02649626
0.06593412 -0.009230972 0.09079855 -0.0076007145 0.026864838 0.020175995 0.013767817 0.058492646
-0.042700395 -0.01860748 -0.21135409 -0.019155584 0.064495794 0.09383582 0.18582541 -0.11442304
-0.039701227 -0.015612506 0.06017041 0.17792778 -0.1844375 -0.14438468 0.018038874 0.03951168
0.1756754 -0.20846854 -0.0065899366 -0.000303526 0.042688437 0.076630205 -0.110678636 -0.023309316
0.051222276 0.103011526 0.19144146 0.08264482 0.09049743 0.13839415 0.15161535 0.16036439
0.1416407 0.12958804 0.080445856 0.041511852 0.117914654 0.061406717 0.09639093 -0.0055220844
0.09912952 0.06467119 0.048989598 0.128258 -0.04457781 0.062441546 -0.004466894 0.008895969
0.038288347 -0.027103798 0.009337827 0.06902471 -0.033431374 0.021073634 -0.050027095 -0.11254423
-0.107024275 0.08924042 -0.0057213195 0.012235352 -0.0006835274 -0.08044998 0.081587575 0.049928106
-0.032537743 0.00801881 -0.11123601 0.009221301 0.047569383 -0.01970721 0.024910253 -0.033612978
-0.025756959 0.07240069 0.05939806 0.004748676 -0.00889032 0.035385646 0.055472583 -0.034872096
-0.10342957 -0.06757171 0.016042592 0.03333384 0.06811626 -0.06585877 -0.049168024 0.010753684
0.048033178 0.075808756 0.067954235 -0.010184251 -0.02187673 0.107542686 0.050619997 0.004014611
-0.05574563 0.013100867 0.05415255 -0.068723164 -0.040929567 -0.020199975 0.08547239 0.041206513
-0.036827102 -0.128082 -0.09491365 0.082774304 0.086732976 0.008444197 0.0063077016 -0.019567855
0.05411457 0.005085284 -0.011542523 0.009263942 -0.07862647 0.10896662 0.039336476 0.029469829
-0.020717695 -0.07392581 0.009069115 0.022081925 0.024034316 -0.037156142 -0.092827864 0.035896305
-0.06675469 -0.10227583 -0.12772626 -0.049078558 0.05243849 -0.03828069 0.018286025 -0.07592097
-0.020311153 0.031376023 0.061415985 0.048813965 -0.07164756 -0.037626825 0.089106776 0.01641363
0.048850797 0.021383747 -0.010586816 0.06317301 -0.015832754 0.06778592 0.003369811 -0.005823007
-0.08773215 -0.04294662 0.0090192575 0.07292593 0.08416993 -0.0048913956 -0.006320897 -0.00054706616
-0.03276575 -0.017638694 0.0635785 -0.0040743183 0.0418333 0.060890708 0.0035543984 -0.006451821
-0.10213158 0.08021286 0.0017421314 -0.121193126 -0.102665335 -0.28625983 -0.14254875 -0.039318424
-0.1667461 -0.081695475 -0.111209035 -0.020989902 0.16889893 0.17428996 -0.08859017 0.060796566
0.044114158 0.07556259 0.026173094 -0.04603481 0.049545895 0.058116533 0.14520925 0.051225446
0.048597597 0.004280583 0.09821956 0.12903558 0.16395977 0.007828971 -0.008485401 0.06530984
-0.04967198 -0.15391913 0.11824479 -0.15345964 -0.110990636 -0.13791853 -0.08300741 0.112749
00000000: 3abc e23b 4323 44bc 48ab 89bd c171 633d
00000010: 9481 adbb 1ece 68bc 1f7b c9bd 1871 b03c
00000020: 483e a63d fa6c 113d d897 7c3d de82 aabc
00000030: f44f a53d b4aa 243d 050c f03c f778 1a3d
00000040: 2e53 07be 5c6d fcbc a2b7 e33d c053 883c
00000050: 8f01 373d e998 54be 2023 b9bd e76d 1b3d
00000060: 4141 30be ee4a a23d ee4d 8a3c d7c4 adbd
00000070: 820e 89bd 2238 a4bd 5878 4c3d ec23 d13c
00000080: 93f1 d33c 117d 8cbb e57c 9bbd 2a86 cf3c
00000090: 921b 2d3d c889 ffb8 cb49 84bd af0e d9bc
000000a0: 7808 873d 813d 17bc 97f4 b93d 6a0f f9bb
000000b0: a613 dc3c 2148 a53c 6992 613c fc95 6f3d
000000c0: 9ce6 2ebd b76e 98bc 356d 58be 2cec 9cbc
000000d0: 5f16 843d ff2c c03d 0449 3e3e a056 eabd
000000e0: c19d 22bd 99cb 7fbc 3f75 763d b332 363e
000000f0: 2fdd 3cbe 94d9 13be 43c6 933c 00d7 213d
00000100: 41e4 333e c778 55be 65f0 d7bb 9222 9fb9
00000110: 12da 2e3d 4cf0 9c3d 7bab e2bd 2ef3 bebc
00000120: 73ce 513d b5f7 d23d 3b09 443e b041 a93d
00000130: b756 b93d 32b7 0d3e 0e41 1b3e 9036 243e
00000140: 420a 113e bab2 043e ccc0 a43d 5508 2a3d
00000150: 3d7d f13d 9c85 7b3d 9c68 c53d 9af2 b4bb
00000160: 6b04 cb3d 5472 843d 51a9 483d 1156 033e
00000170: 3997 36bd b5c2 7f3d 065f 92bb 66c0 113c
00000180: 3ed4 1c3d c908 debc affd 183c d45c 8d3d
00000190: 56ef 08bd 9da2 ac3c 36e9 4cbd 977d e6bd
000001a0: 8b2f dbbd aec3 b63d e879 bbbb c976 483c
000001b0: bf2e 33ba f6c2 a4bd 6317 a73d 6a81 4c3d
000001c0: 4c46 05bd 5461 033c b5cf e3bd f114 173c
000001d0: 1dd8 423d 0471 a1bc 9610 cc3c c3ad 09bd
000001e0: 4200 d3bc d046 943d 614b 733d c89a 9b3b
000001f0: b4a8 11bc 8af0 103d 3837 633d 0bd6 0ebd
00000200: e2d2 d3bd 0963 8abd c16b 833c 1189 083d
00000210: 8a80 8b3d f6e0 86bd 6964 49bd 3830 303c
00000220: 70be 443d 9f41 9b3d 972b 8b3d d8db 26bc
00000230: d436 b3bc 573f dc3d ea56 4f3d ff8c 833b
00000240: 8855 64bd 05a5 563c 10cf 5d3d bbbe 8cbd
00000250: c3a5 27bd 6b7a a5bc 260c af3d 29c8 283d
00000260: 04d8 16bd ee27 03be 1662 c2bd 9385 a93d
00000270: 0fa1 b13d 8759 0a3c d6b0 ce3b c44c a0bc
00000280: 3da7 5d3d 74a2 a63b da1c 3dbc cac7 173c
00000290: ea06 a1bd e429 df3d 491f 213d b66a f13c
000002a0: 28b8 a9bc 6a66 97bd a096 143c 27e5 b43c
000002b0: 9de3 c43c 0a31 18bd 891c bebd 0108 133d
000002c0: afb6 88bd fe75 d1bd acca 02be 9906 49bd
000002d0: bec9 563d 36cc 1cbd 93cc 953c 747c 9bbd
000002e0: 9363 a6bc 2584 003d 548f 7b3d 27f1 473d
000002f0: f5bb 92bd 961e 1abd 9d7d b63d e175 863c
00000300: c617 483d f82c af3c 5374 2dbc da60 813d
00000310: b1b3 81bc 58d3 8a3d 0cd8 5c3b ecce bebb
00000320: eaac b3bd cce8 2fbd 82c5 133c 315a 953d
00000330: 4961 ac3d 0048 a0bb 871f cfbb fd68 0fba
00000340: 6135 06bd 067f 90bc 7235 823d dc81 85bb
00000350: 6559 2b3d 8968 793d e9f0 683b cc69 d3bb
00000360: 5d2a d1bd a446 a43d 3b58 e43a 1a34 f8bd
00000370: 3442 d2bd a690 92be 4df8 11be 5b0c 21bd
00000380: 7dbf 2abe f54f a7bd 90c1 e3bd 04f3 abbc
00000390: d7f3 2c3e 1179 323e c36e b5bd d205 793d
000003a0: 0cb1 343d 8fc0 9a3d f568 d63c ff8e 3cbd
000003b0: a3f0 4a3d 9a0b 6e3d bcb1 143e c6d1 513d
000003c0: 460e 473d 2244 8c3b 5627 c93d e721 043e
000003d0: 12e5 273e 1645 003c 5a06 0bbc 2ac1 853d
000003e0: d974 4bbd fa9c 1dbe 532a f23d 8624 1dbe
000003f0: 0f4f e3bd 843a 0dbe caff a9bd f3e8 e63d

conv2.bias f4 [32]
0.05283675 0.00081039267 0.076042645 0.08128996 -0.018318992 0.037005275 0.0069107823 0.0115906205
0.098582946 0.0578116 0.078316495 0.15547168 -0.045276143 0.007879397 0.055119004 -0.0061085313
0.13935821 0.0103936875 -0.04939101 -0.060419567 0.0840372 0.11694193 0.09545802 0.0109991245
0.06780503 0.045437675 0.031116787 -0.091511846 0.011650137 0.06522431 -0.021167634 -0.06202448
00000000: 596b 583d 8870 543a 3fbc 9b3d 5a7b a63d
00000010: b611 96bc d892 173d d873 e23b 96e6 3d3c
00000020: dbe5 c93d dbcb 6c3d 6664 a03d f833 1f3e
00000030: 7a73 39bd 9618 013c 77c4 613d 132a c8bb
00000040: ebb3 0e3e 494a 2a3c 3a4e 4abd 827a 77bd
00000050: b21b ac3d 407f ef3d 7f7f c33d ac35 343c
00000060: 5ddd 8a3d db1c 3a3d a2e8 fe3c 906a bbbd
00000070: 37e0 3e3c 5394 853d bf67 adbc 620d 7ebd

dense1.weight f4 [10, 512]
-0.010038015 0.092408605 0.0070088315 -0.015826432 0.004205667 -0.004735894 0.047901113 0.018487502
-0.044019952 -0.035738807 0.014326138 0.047858752 -0.048155066 0.032935552 0.020285003 0.066821106
0.036586035 0.0052969325 0.050614763 0.0664898 0.037716836 0.005054865 0.024419526 0.03637317
0.047585305 -0.0117932325 -0.0051176725 -0.062692694 0.0017668979 -0.03349941 -0.021229004 -0.019618249
-0.023832949 -0.042817753 -0.072942846 0.07150558 -0.018639715 0.026447844 0.00026771615 0.06856605
0.05182272 -0.025649266 0.06026504 0.021203328 0.10835056 -0.09352626 -0.022185633 0.025541287
0.024166966 -0.0114394 0.08310258 0.10073461 0.10235972 -0.029942727 0.05226816 0.15032806
0.076273 -0.09334618 -0.022270432 0.0026001157 0.011214539 -0.1759065 -0.0051331427 -0.1219457
0.007900531 -0.04489437 0.010314377 0.045655437 0.096816115 -0.06907879 -0.037389625 0.06269163
0.08326718 -0.057079926 -0.015813163 0.042947114 -0.035965193 -0.16911869 -0.009493482 -0.22698194
-0.011275727 0.054469958 0.037280697 0.09512806 0.0013172129 0.009369189 0.082362294 0.078873254
0.04239199 0.07153428 0.027449101 -0.013341184 0.065089695 0.04872412 0.054693695 0.013521362
0.17406227 -0.0061195083 0.0019768062 0.042390563 0.10988644 -0.006243272 -0.07246824 0.10458244
0.051335428 -0.10133365 -0.038168997 0.110107996 -0.06066387 -0.1438803 -0.13414007 -0.033709504
0.045433883 0.004576925 -0.0024313987 0.020943267 -0.015373688 0.044703756 -0.040950593 -0.033034056
-0.02399248 -0.023960106 0.0048210807 -0.08138243 0.00286751 0.021817252 0.01616853 -0.06391363
0.040338963 -0.06926657 -0.05336718 -0.06566001 0.060621813 -0.1089627 -0.035977177 0.053483743
0.10090445 -0.025906589 0.040057328 0.08038369 0.060890213 -0.04389695 0.08186018 -0.044646673
0.082381636 -0.01471617 0.023102926 0.12499744 -0.06740855 -0.066547886 0.012476567 0.05947998
-0.015984898 -0.020198954 -0.049344704 0.022011796 -0.049315393 0.011846776 -0.019423079 -0.052804273
-0.060704038 -0.032177825 -0.086388305 -0.15419348 -0.04829467 -0.0031386463 -0.078878395 -0.031315375
-0.03947368 0.02684652 -0.0010629072 0.05811877 -0.018931117 0.14113647 0.048240542 0.11640982
0.06827524 0.030656021 -0.22175732 -0.044242296 0.076054096 0.013315966 0.029499454 -0.036788583
0.055268347 0.01577497 0.006315491 0.025484864 0.07733375 0.041977596 0.09862989 0.024637537
0.0023971354 -0.012504759 -0.06410797 0.10068123 0.017823435 -0.020843642 -0.037407424 0.06341165
-0.03400157 -0.066663116 -0.033868633 -0.00645032 -0.036894172 -0.03491523 -0.016755449 -0.043806765
-0.048298053 0.042301726 0.0848021 -0.13897608 -0.08724472 -0.08495162 -0.012897237 -0.23558943
0.06204357 -0.088227764 -0.05634606 -0.034178175 -0.018549442 -0.0512605 -0.085364364 0.1777485
0.07662048 0.023048414 0.035965383 0.049095705 0.04132599 -0.0018384093 0.061570566 -0.012509765
0.025703805 -0.0086294105 -0.018157667 0.0028604276 -0.1008489 -0.026635345 -0.009292173 -0.051872548
0.10106644 -0.016151212 -0.02136217 0.02412854 0.121130966 0.052912287 -0.032068923 -0.01830962
0.08292639 0.023493893 -0.073098294 -0.013189463 0.042266663 -0.2327701 -0.09227382 -0.03792543
00000000: 7d76 24bc b940 bd3d 57aa e53b 6fa6 81bc
00000010: b1cf 893b 8f2f 9bbb f533 443d 1a73 973c
00000020: 444e 34bd db62 12bd 2eb8 6a3c 8a07 443d
00000030: 3f3e 45bd 6ee7 063d bc2c a63c 81d9 883d
00000040: 3ddb 153d e491 ad3b 6d51 4f3d ce2b 883d
00000050: f87c 1a3d 48a3 a53b 750b c83c 08fc 143d
00000060: cfe8 423d 6738 41bc 26b2 a7bb 0765 80bd
00000070: 4197 e73a ad36 09bd 73e8 adbc 73b6 a0bc
00000080: 513d c3bc ab61 2fbd 0f63 95bd 8471 923d
00000090: 51b2 98bc 26a9 d83c 415c 8c39 5b6c 8c3d
000000a0: 0f44 543d 691e d2bc 79d8 763d 9ab2 ad3c
000000b0: e6e6 dd3d b28a bfbd a5be b5bc f63b d13c
000000c0: cdf9 c53c 526c 3bbc af31 aa3d f24d ce3d
000000d0: f9a1 d13d 734a f5bc 2317 563d 99ef 193e
000000e0: 0535 9c3d 482c bfbd 7b70 b6bc b466 2a3b
000000f0: 30bd 373c d520 34be ec33 a8bb abbe f9bd
00000100: 3b71 013c 29e3 37bd a2fd 283c 3201 3b3d
00000110: 8747 c63d 2e79 8dbd dd25 19bd 7864 803d
00000120: fc87 aa3d a4cc 69bd 9b8a 81bc 50e9 2f3d
00000130: 3d50 13bd 732d 2dbe 8d8a 1bbc f46d 68be
00000140: d4bd 38bc e41b 5f3d a5b3 183d 80d2 c23d
00000150: 55a6 ac3a 3a81 193c 90ad a83d 4d88 a13d
00000160: 39a3 2d3d 9180 923d f0dc e03c fb94 5abc
00000170: bf4d 853d f192 473d 7f06 603d b488 5d3c
00000180: 613d 323e 2886 c8bb 4e8d 013b baa1 2d3d
00000190: 240c e13d 5d94 ccbb 3b6a 94bd 512f d63d
000001a0: 1945 523d 0488 cfbd 1857 1cbd 4d80 e13d
000001b0: ae7a 78bd 5b55 13be 045c 09be fa12 0abd
000001c0: e118 3a3d 08fa 953b 1a58 1fbb 3791 ab3c
000001d0: ece1 7bbc 491b 373d cfbb 27bd b84e 07bd
000001e0: e18b c4bc fc47 c4bc 28fa 9d3b d5ab a6bd
000001f0: d6ec 3b3b 18ba b23c dd73 843c 26e5 82bd
00000200: 783a 253d a2db 8dbd 8b97 5abd c178 86bd
00000210: 944e 783d d627 dfbd ce5c 13bd c511 5b3d
00000220: fea6 ce3d 0e3a d4bc 2713 243d 34a0 a43d
00000230: 0468 793d 4acd 33bd 4fa6 a73d 6edf 36bd
00000240: b4b7 a83d 171c 71bc 5942 bd3c a8fe ff3d
00000250: 7e0d 8abd 424a 88bd 846a 4c3c 48a1 733d
00000260: c3f2 82bc 4778 a5bc ac1d 4abd 1552 b43c
00000270: f0fe 49bd fb18 423c 261d 9fbc 4b49 58bd
00000280: cca4 78bd e5cc 03bd 5aec b0bd e5e4 1dbe
00000290: a2d0 45bd bfb1 4dbb ff8a a1bd 8d44 00bd
000002a0: 27af 21bd 3ced db3c 3f51 8bba f30d 6e3d
000002b0: 6e15 9bbc 1486 103e e097 453d 4668 ee3d
000002c0: e4d3 8b3d 5622 fb3c 5a14 63be 6937 35bd
000002d0: 40c2 9b3d 362b 5a3c d7a8 f13c a0af 16bd
000002e0: 1061 623d 833a 813c 2ef2 ce3b a2c5 d03c
000002f0: 2861 9e3d b3f0 2b3d 78fe c93d a9d4 c93c
00000300: 4219 1d3b c3e0 4cbc 0a4b 83bd f631 ce3d
00000310: 7402 923c 49c0 aabc 8738 19bd f8dd 813d
00000320: 3b45 0bbd ac86 88bd d6b9 0abd 355d d3bb
00000330: 581e 17bd 4603 0fbd b942 89bc b96e 33bd
00000340: 2ed4 45bd 9344 2d3d b9ac ad3d bf4f 0ebe
00000350: 5cad b2bd 1dfb adbd ef4e 53bc 5b3e 71be
00000360: 6621 7e3d c2b0 b4bd 20cb 66bd 6afe 0bbd
00000370: 00f5 97bc 88f6 51bd 83d3 aebd b403 363e
00000380: 33eb 9c3d 07d0 bc3c 7050 133d 9418 493d
00000390: 7145 293d c8f6 f0ba 6b31 7c3d c2f5 4cbc
000003a0: c990 d23c 5f62 0dbc 63bf 94bc 0376 3b3b
000003b0: de89 cebd 5e32 dabc 333e 18bc 4f78 54bd
000003c0: ecfb ce3d 8c4f 84bc b8ff aebc 37a9 c53c
000003d0: 8313 f83d 8eba 583d b45a 03bd 0efe 95bc
000003e0: 50d5 a93d 4476 c03c 8fb4 95bd 9e18 58bc
000003f0: cf1f 2d3d 495b 6ebe 0efa bcbd b257 1bbd

dense1.bias f4 [10]
0.0032239687 -0.02346826 0.09201051 0.013473813 -0.14535864 -0.096759856 -0.010908705 0.07180113
0.06842224 0.021825528
00000000: 3849 533b 8240 c0bc 0270 bc3d 45c1 5c3c
00000010: e5d8 14be 082a c6bd 6dba 32bc 790c 933d
00000020: f620 8c3d 73cb b23c
