saved_weights/Model_epoch_no_15_train_acc_93.58_val_acc_90.68.pth (torch_old, 74661 bytes, 6 tensors)

conv1.weight f4 [16, 1, 5, 5]
00000000: db0a 913e d5a6 ba3e 67c2 353e a358 9f3e
00000010: 542d b2bd ab0d 05be 11b9 07bd ab8e b6be
00000020: 34c9 15be 3c10 60be bc23 08be 3fb9 8fbe
00000030: 4eda edbe d6d9 b9bc e8cc 123e 565d cdbc
00000040: 63c1 92be 3d4b de3c 41a8 753e 41b4 c43e
00000050: 91ac 7c3e 502e 9bbe 800d 8cbe 0145 8d3e
00000060: 4a14 ae3e fdc4 be3d c5f7 58be 7bac c03d
00000070: 9d16 a43e 22e4 68be 3997 4e3e 6fe9 2ebe
00000080: 214c c1bc 4d8e ed3d 357b c9bd df58 733e
00000090: c091 86be ee9c 95bd 8c08 df3d 7720 8c3d
000000a0: 3705 453e 9f9b 86be 47b5 f53b 5502 513e
000000b0: e553 30bd eeb9 58bd 94ef bcbe 74b8 b93e
000000c0: 049a cb3d e742 41be 8cb3 823e b33a 863d
000000d0: 90d9 5f3e 0b1c 86be e175 1d3e e38a 023e
000000e0: 9853 853e 13f3 38be 5cbc 84be 3e2b 2c3e
000000f0: bc43 833d 28cc f6be 46bc c3be 7e07 443e
00000100: 0923 fabc 0a77 adbe a6a6 05c0 db4e d3bf
00000110: 70b4 c8bc 6b6e 913e 03aa 9abd 16b7 f2bf
00000120: fb16 bbbf 93d6 c2bd bdb2 13be ca5c 4d3c
00000130: 2807 07be 5d50 dabe c514 04bd b505 37be
00000140: 2145 2c3e 6e81 9c3d d663 9dbd 83e7 e6be
00000150: 89d0 bebe 12d0 9a3d aab6 983e 91d9 af3d
00000160: 1015 29be 3863 81be 481c 833e 4d6d 9d3e
00000170: b573 df3e e95e 9a3e 4f13 8abd 3a6b d9bd
00000180: 1819 01be d233 fe3c 80db 323e 24b2 d33d
00000190: 717b 443e 1f65 a83e edc2 d7bd 7dcb 463e
000001a0: dec7 923d 5ac3 5f3e 8d61 083e 9e37 483e
000001b0: e36e 143e b287 dabd b517 953e fcc9 e23c
000001c0: 9575 5b3d bdde fbbd e0cf f2bd 7cd7 4cbe
000001d0: 561d a4bd a703 513e f716 863e 250f c7bd
000001e0: 0ad7 97be 6ca8 1cbe 16de 79be 790a 8fbe
000001f0: f1c2 e1bd bb57 233e 1598 d93e 9606 d9bc
00000200: d3c8 47be 53ae 193e 8d0e 13be 2344 b83e
00000210: 63a4 21be e6eb 63be 0de1 cdbe 7667 a7be
00000220: 10ae c33e 4c44 38be cd89 b2bd 5ab8 8ebc
00000230: 96bd 59be 8bbf 833e c60e 073e 8f8a 29be
00000240: 840a 463e a4cf 9ebc e4e1 963e a6a6 a6bd
00000250: f38a 58bd 0b91 543c 79ea c0bd 5f45 25be
00000260: 3c5b ce3e 5ed8 15be 1987 543d df4c 0dbe
00000270: 96f1 03be 1122 f13e 9de8 9fbe d83f e83c
00000280: 79ff c5bd 73d2 04be 3261 d53e 3f6d b2be
00000290: ddfc 813c 15a8 8a3e 31ff bbbd 06b9 593e
000002a0: 60e2 99be 354e 3ebd 9ed5 963d 224c 6abe
000002b0: bca8 983e d748 803d 6bc4 9cbc e804 62be
000002c0: fb2e 85be 3ef0 40be 0fb7 1f3e 6f5b c13e
000002d0: 9d95 81bb 7799 1c3e 1a34 73bc 77fd 593e
000002e0: 6141 623e 8624 ae3d 4d98 5abe 46d0 12bd
000002f0: 9927 aa3d f17a a1bd 9c7f 0bbe 2cd4 7d3d
00000300: c32e 193e bb7e ccbd 7781 b43d 73dd f93d
00000310: 002c 43bc 8200 31be ea04 d93c 25a3 d1bd
00000320: 1d53 393d 2c0b 93be cab2 39be d8ec 0e3f
00000330: b655 c03d 3a74 a339 d4e1 debe 28a2 c4be
00000340: 57c1 f03e 2d66 55be 6f28 393e 4ffc 8b3e
00000350: 0172 9bbe 4c7d 8b3e fb91 4dbe 4b9f 7a3e
00000360: 62a2 1a3e 26d8 00be 185d e8bc 2a93 7d3e
00000370: 1870 60be b072 e6bc 2342 e8be 752e cabd
00000380: 2e8d c43e 8874 29bf 8677 00bf 5880 adbe
00000390: 9c94 053c 5978 5bbc edbb e8bd 486c eebc
000003a0: 36c3 09be 1b37 39be 72a4 c13d 92a0 93bb
000003b0: 0f16 d53e 4675 103e fda0 ccbb da9a 313c
000003c0: 4936 533d f75a 8d3e 715f 77bc da02 ee3d
000003d0: ec8c 163e e312 e33e f18b b93d 9575 83bc
000003e0: c014 d0bc 9ad9 733e 2b89 a9be c71c 543e
000003f0: d866 583e 9183 fcbc 131b c53c 8e82 88be
0.28328595 0.36455408 0.1774994 0.31122312 -0.08700052 -0.12993495 -0.033135477 -0.35655722
-0.14627534 -0.21881193 -0.13294882 -0.2807102 -0.46455616 -0.02268688 0.14335978 -0.02506892
-0.28663167 0.027135486 0.23989965 0.38418773 0.24675204 -0.3030877 -0.2735405 0.27591708
0.33999854 0.09314916 -0.21188267 0.09407898 0.32048503 -0.22743276 0.20174874 -0.17081235
-0.023595871 0.11599407 -0.09837953 0.2376437 -0.26283073 -0.073053226 0.10890302 0.0684213
0.1924027 -0.26290604 0.0074984166 0.20411046 -0.043048758 -0.05291169 -0.36901534 0.3627354
0.099414855 -0.18873177 0.25527608 0.06554165 0.21860337 -0.2619327 0.15376998 0.12748294
0.2604034 -0.18061475 -0.25924957 0.1681337 0.06409404 -0.48202634 -0.3822958 0.19143483
-0.030534284 -0.33879882 -2.0882964 -1.650844 -0.024500102 0.28404555 -0.075519584 -1.8962123
-1.4616388 -0.09513583 -0.14423652 0.01253433 -0.13186324 -0.42639437 -0.03224637 -0.17873271
0.16823246 0.07641874 -0.07685058 -0.45098504 -0.37268475 0.075592175 0.29826862 0.085864194
-0.16511941 -0.2527101 0.25607514 0.30747452 0.43642965 0.30150536 -0.06741964 -0.10616155
-0.12607229 0.03103057 0.17466545 0.10336712 0.19187714 0.3288965 -0.10535226 0.19413562
0.07167028 0.21851864 0.13318463 0.19552466 0.14495425 -0.10670413 0.2911965 0.027684204
0.05357893 -0.12298343 -0.11856055 -0.20004076 -0.08013408 0.2041155 0.26189396 -0.097196855
-0.2965625 -0.15298623 -0.24401125 -0.27937678 -0.1102351 0.15951435 0.42498842 -0.026492398
-0.19510202 0.15007906 -0.1436102 0.35989484 -0.15785365 -0.22257957 -0.40210763 -0.32696122
0.38218737 -0.17994803 -0.0871769 -0.01742189 -0.21263728 0.25732073 0.1318923 -0.16556762
0.19339949 -0.01938612 0.29469216 -0.081372544 -0.052866887 0.012974034 -0.09419722 -0.16139744
0.4030398 -0.14633319 0.05188665 -0.13798855 -0.12885126 0.47096303 -0.31232157 0.028350756
-0.09667868 -0.12970905 0.41675717 -0.34848973 0.015867645 0.2708136 -0.09179533 0.21261987
-0.30055523 -0.046461303 0.07364963 -0.22880605 0.29816234 0.06263893 -0.019136628 -0.22072184
-0.26012406 -0.18841645 0.15597175 0.3776507 -0.003954603 0.15292917 -0.014843965 0.21288095
0.22095253 0.0850306 -0.2134716 -0.035843156 0.08308334 -0.07884777 -0.13622898 0.06196992
0.14959244 -0.099851094 0.08813756 0.12200441 -0.011912346 -0.1728535 0.026491601 -0.102361955
0.04524528 -0.2871946 -0.18134609 0.55830145 0.09391348 0.00031176378 -0.43531668 -0.38404965
0.47022507 -0.20839758 0.1808183 0.27340934 -0.30360416 0.2724403 -0.20075218 0.24474828
0.15101007 -0.12582454 -0.028364703 0.2476317 -0.2191776 -0.02813086 -0.45362958 -0.09872142
0.38388962 -0.6619344 -0.5018238 -0.3388698 0.008153107 -0.013395392 -0.11363969 -0.029104367
-0.13453373 -0.18087427 0.094551936 -0.0045052255 0.41618392 0.14107236 -0.0062447772 0.010840142
0.051565442 0.27608463 -0.015098439 0.11621638 0.14702195 0.44350347 0.09059895 -0.016047278
-0.02540052 0.23813477 -0.33112463 0.20714103 0.21132982 -0.030824455 0.024060762 -0.26662105

conv1.bias f4 [16]
00000000: 8d82 0dbd 1af6 bdbc 8e2f e03e a173 1bbd
00000010: d816 82bc bc74 0abd abe5 b4bc 2008 5abd
00000020: 610b 7abb bf7b 4dbb c954 97bb eaa4 413d
00000030: 867b 6f3d d4d3 fa3d b4e0 903e 5a6a 39bd
-0.03454833 -0.02318864 0.4378628 -0.03795207 -0.015880033 -0.033802733 -0.02208217 -0.053230405
-0.0038153755 -0.0031354276 -0.0046182615 0.047276415 0.05846741 0.12247434 0.28296435 -0.04526744

conv2.weight f4 [32, 16, 5, 5]
00000000: 0218 9cbd 5cbc 9e3d 4642 10bc 75c2 0f3e
00000010: e0af 1cbd f31f 44be 07bb 34be 5225 35bd
00000020: 0d1f 383e d82c 913d 68fe 80bd b111 0cbe
00000030: fd25 3e3d 4f8e 37bd 20aa 313e 695f 58bc
00000040: 2414 e5bd 76b0 a93d 554c ac3e 19df 873e
00000050: 1818 88bb 59ef cbbe 25cf 313c d76d b43e
00000060: 3c1d 80be cc32 893c d2de 293d 2c42 e9bb
00000070: c9fe fcbc a331 8c3d ca14 92bd a035 7d3d
00000080: 088d ba3d a0d7 203e 2750 1fbc c90e 7cbc
00000090: c945 8d3d 9566 ed3c 5c91 8fbc 91dd 4ebd
000000a0: 7ef1 aebc beda a6bc 469c da3d 5946 7f3c
000000b0: 9d16 3c3e ef57 e13c 3b45 49be b5dd 5a3d
000000c0: a434 a4bb e1f3 fa39 78b7 f3bd 0ffe dbbc
000000d0: 40eb 2a3d 957f 9cbc 005d e93d 6287 c23b
000000e0: d539 28be 1d1f b1bd 4754 9a3c fcd5 2a3e
000000f0: 3aae 26be 4af6 84be e44a 1bbe 808a d6bd
00000100: 7d81 7ebd 4f65 46be 5a57 90bd 2528 22be
00000110: cf4e 48bd 805c ad39 8d4a 19be 4ab3 833d
00000120: 5a10 8f3d aa08 613e bf72 413e d5e9 f53d
00000130: 613e b63d 7bd4 f23d 40dc 713d e65f 4e3d
00000140: acf1 823d 7bd7 823d 76bb 9d3d b431 463a
00000150: ee0e 343e 2134 1f3e 7288 eb3d d0f9 2abe
00000160: b3de 7dbd 34fb fc3d 7107 023e d1eb 9a3e
00000170: 168f c4bd 7d8f f83b c9f8 37be 6d9d 873e
00000180: 6247 023e 0b37 c6bd 3641 8d3d 4de2 103e
00000190: 2ff4 84bd 09c9 993c 0ad7 8dbc 3d7d 1abe
000001a0: 5132 acbd dc5a 343d 32b7 eebb 4d6b 003e
000001b0: 059a 8e3c 6238 d7bd 4f6d e03d 8feb 183e
000001c0: 8dd2 5ebd 53b4 343d 2ea7 eabd 0d69 ccbc
000001d0: 0640 453d 6734 6dbd b5da bb3d c77e 3d3c
000001e0: 1f6e 70bd 721a aa3d c2bf f83d e835 533d
000001f0: a38f 133a 147d 4dbe 4b52 8a3d 6317 dfbd
00000200: edeb 5fbd 17ce 34bc 3037 0fbe 8c90 783d
00000210: f80a 5b3d a08b 3fbd f0ef a43c 9c4d 80bd
00000220: 1cbd 013e ea06 4dbc 7f36 303d 17c5 aabd
00000230: d9ee f5bd 37eb 573e 9b2a f13d a888 c23d
00000240: 365f b6bd e0af 0dbc ce6b b1bb c4d9 46be
00000250: e9a2 8f3d 6f16 0abe 5b6d c4bd 1879 70bd
00000260: 0f15 17be 22d2 23be 514b f7bd d8f4 093e
00000270: 1d3a 823d 6b9c 323d 175d 083e d4e1 663d
00000280: 8fc1 443e a99a 3d3d 07e7 733d 8e2a 29bd
00000290: 4941 59be e07c af3e 0f70 883b e0bf cf3d
000002a0: d2bf f73d b4a5 9fbe 198e b63d 1014 94bd
000002b0: b1b5 2abd 3488 7ebd 7640 d0bd 4332 513d
000002c0: 0a07 05be 2d3c 07be 25da 22be 1143 4cbd
000002d0: dee2 f23c 4f9a 98bd 452f 843c 5425 f6bc
000002e0: e3b5 41bc 48cc eb3c f293 b53c d365 963c
000002f0: 5425 a8bd 6c69 b6bc df62 f23d e8b7 9b3b
00000300: c51c 003e c5cf 643c 1e1a 9a3d 80ed 1abb
00000310: 15f4 9b3b a1ce 2c3e f3c5 95bc 28a3 00bc
00000320: 4c82 58be 03a7 52be 01a7 61bd 43ca 323e
00000330: 282e 003e c16a 77bd 83d9 873d b5ba c63d
00000340: 07ee 993b adb7 b83d a134 593d 888b 173e
00000350: 6ac9 773d be23 d63d 36c9 0c3d d566 363b
00000360: fa9c 27be e387 6d3e d59d db3c 44a7 8fbe
00000370: 8d3b 3cbe f20c c4be 102b d2bd 7227 64be
00000380: f7a3 a6be b6e9 33be 6d11 0fbe 0315 933d
00000390: 62c2 683e c612 e23d e59b 85be 3c1d dc3d
000003a0: d7d5 b23d 1776 2f3e 5f8e 293d 193d debd
000003b0: f1c6 053e 5f97 a63d 1ac8 463e 241d 8a3d
000003c0: 7fa3 293e 5148 ed3a 72bc 273e 7a6d 2b3e
000003d0: e1bd 453e 1d3f 4abb c714 d73d 5388 d93d
000003e0: f25d 303a 0d49 95be fad3 aa3d 6f93 4bbe
000003f0: f4a0 dcbe 442d 24bd e7a1 73bd c5dd 2c3e
-0.076217666 0.077507704 -0.008804863 0.14039023 -0.038253665 -0.19152813 -0.1764947 -0.044225045
0.17980595 0.070886314 -0.06298524 -0.13678624 0.046422947 -0.04481345 0.17350054 -0.013206341
-0.11185482 0.082856104 0.33651987 0.26537398 -0.004153263 -0.39831045 0.01085261 0.3524005
-0.25022304 0.016747855 0.041472264 -0.007118484 -0.03088321 0.06845405 -0.071328714 0.06181872
0.09108931 0.15707254 -0.0097237 -0.015384384 0.06898076 0.028979579 -0.017525367 -0.05050427
-0.021355387 -0.020367976 0.10674338 0.015580737 0.18368001 0.02750775 -0.19655316 0.053434093
-0.005011158 0.0004786542 -0.11900228 -0.026854543 0.041728258 -0.019103805 0.113946915 0.005936549
-0.16428311 -0.086485125 0.018839015 0.16683191 -0.162774 -0.25969154 -0.15165287 -0.104756355
-0.06213521 -0.19374584 -0.07047911 -0.15835626 -0.048903283 0.0003306605 -0.14969845 0.06430681
0.06985541 0.21975961 0.18891428 0.120074905 0.088986166 0.11856934 0.059047937 0.050384425
0.063937515 0.06388756 0.07701771 0.0007560507 0.1758382 0.1554723 0.11500634 -0.16696858
-0.06197996 0.12352601 0.12698151 0.3025804 -0.09597604 0.0075854645 -0.17965998 0.26487294
0.12722543 -0.09678467 0.068972036 0.14148827 -0.06491887 0.018772619 -0.017314453 -0.15086837
-0.084080346 0.044031963 -0.007285022 0.12540932 0.017407427 -0.10508801 0.10958349 0.14933608
-0.054400016 0.044117283 -0.11457668 -0.024952436 0.04815676 -0.057911303 0.091725744 0.011565871
-0.05869877 0.08305825 0.1214595 0.05156508 0.00056290085 -0.20067245 0.067539774 -0.108931325
-0.054668356 -0.011035464 -0.13985896 0.060684726 0.053477257 -0.046764016 0.020133942 -0.06264803
0.12669796 -0.0125138555 0.04302072 -0.08338373 -0.12008447 0.21085821 0.117757045 0.09498721
-0.08904879 -0.008647889 -0.0054144626 -0.19419008 0.070134945 -0.1348512 -0.095911704 -0.058709234
-0.14754127 -0.15998128 -0.12074912 0.13472307 0.063587405 0.043606203 0.13316761 0.05636771
0.19214462 0.046290074 0.059546497 -0.04130035 -0.2121631 0.3427496 0.004163749 0.10144019
0.12097134 -0.3118111 0.08913822 -0.07230389 -0.04167718 -0.062141612 -0.10168545 0.051073324
-0.12990966 -0.13206549 -0.15903528 -0.049868647 0.029649194 -0.07451307 0.016135821 -0.030047096
-0.01182315 0.028783932 0.022165272 0.0183591 -0.08210245 -0.022267066 0.118352644 0.004752148
0.12510975 0.013965552 0.07524513 -0.0023640096 0.0047593215 0.16875698 -0.018282866 -0.0078513995
-0.21143454 -0.20571522 -0.055090908 0.17459969 0.12517607 -0.060404543 0.06633284 0.0970358
0.0046975645 0.090194084 0.053028706 0.1479932 0.060494818 0.10456036 0.034371577 0.0027832289
-0.16368476 0.23196368 0.026808659 -0.280573 -0.18382092 -0.38291126 -0.1026212 -0.22280672
-0.3254697 -0.17569622 -0.13971491 0.07181742 0.22730401 0.11038737 -0.260955 0.107477635
0.08732193 0.17134891 0.04139554 -0.10851497 0.13064171 0.081343405 0.1941227 0.067438394
0.16566275 0.0018103217 0.1638048 0.1674098 0.19310714 -0.0030860372 0.1050201 0.10621705
0.0006727866 -0.29157296 0.083412126 -0.1988046 -0.43091547 -0.04008223 -0.059480574 0.16881473

conv2.bias f4 [32]
00000000: da56 ec3c 15e6 633d 0688 9d3d 1f0e 6c3e
00000010: b3c9 cc3c 905b 16bd 8457 a2bd ccd4 4b3d
00000020: 5f7b f83d 639e 193e eff3 2c3e 969d 503e
00000030: a59f 87bd 4c3a 1abe d32e a53d 627d 13bd
00000040: 4a88 643e bd4a 1b3c 3f85 a7bc 33ea 8ebd
00000050: 6411 3c3e e219 5f3e fa10 a13e 6736 373c
00000060: 55a2 213e 9f69 cc3d ef0a b53c 7228 11be
00000070: 0cf8 0e3e fd77 793e 2c1f 95bd a2ad 5abe
0.028850008 0.055639345 0.0769196 0.23052262 0.024998521 -0.036708415 -0.079268485 0.049763486
0.12132906 0.15001826 0.16889928 0.20372614 -0.06622247 -0.15061301 0.08065572 -0.036008246
0.22317615 0.009478268 -0.020449279 -0.06978264 0.18366009 0.21787217 0.31458265 0.011182404
0.15784581 0.09981083 0.02209994 -0.14175585 0.1396181 0.24362178 -0.07281336 -0.21355298

dense1.weight f4 [10, 512]
00000000: fce4 cebd 185b 2c3e 84eb 203d 8b4b 01be
00000010: 8bfe a8bc 7093 7abd 8d9c b33d 0d4a 133d
00000020: 750f f63c 8e6d 9fbd 0aab 013d 219b 943d
00000030: f900 463d 5128 2e3d 16d5 753e 93ec 1f3d
00000040: 422a 093d 820d d8bc 34ad 3b3b c629 093e
00000050: 1779 933d 97ba 873c 8865 4cb9 60e8 69bd
00000060: 9e5d 973d 3e86 693d 1fdf 21bd a88b c8bd
00000070: e4ef cc3b 4a2f 69bd c591 11bd f5ba 9f3c
00000080: e7d5 f9bd 0d19 f43b 4c15 1dbe a633 023e
00000090: 0d3c 3bbd 9d1f d2bc d5c7 443b 04b4 9b3d
000000a0: b555 2e3e 3dc6 efbd 3734 b13d fc40 4fbc
000000b0: acdb 153e 9acd 18bd d1e5 e43a c547 4d3c
000000c0: bd3c 3e3d e660 d53c 0863 183e dfc4 8c3d
000000d0: fd1c 023e 61bf 0fbd 7e80 03bd 67a3 633e
000000e0: a948 ba3d 17d7 13be 5f49 b3bd d936 42bd
000000f0: bdf9 81bc ac37 79be 3dd6 df3d f2ad f9bd
00000100: 1965 f83c 7907 93bd a661 cd3b 4738 fabd
00000110: d65f 023e af21 92bc 24aa febc 2304 7a3d
00000120: 9191 aa3d fb4b 343e 47d8 89bd 01f5 893d
00000130: 002f 87bd 3495 9ebd 533d ff3b f980 afbe
00000140: 77a7 bf39 2e1f aa3d 5655 3cbc 4214 423d
00000150: e2d3 51bd 09d8 fa3d 1662 543d 8ea1 b53d
00000160: b04e 203c 6e53 243e edfb 3abd 72ba 17bd
00000170: 1ee6 f13c edc7 453d c24a 033e 7acb 383d
00000180: 3f03 503e 7fbf 923d 311f 6ebd 386d dabc
00000190: fc6c e43d 526c 563d 65f7 cdbd 89f1 ac3d
000001a0: 2656 373d 34ad a0bd 3622 8dbd 5caf 123e
000001b0: 3857 d7bd d3a9 e6bd 5cec 71be 65eb e6bc
000001c0: 0926 423e ebe4 6b3d 9f0e d1bc a766 96bd
000001d0: 363c ebbd 12c9 103e 67c8 2cbe 246f 13bd
000001e0: f15a afbd 935b cabb b9c1 8dbc 14e6 8bbe
000001f0: 4ff3 9f3d a11e b73c c121 973d cf38 a5bd
00000200: cf98 8c3c 915d 34be 9d80 38bc 6f05 38be
00000210: e0c1 603d 2bf6 45be 33bb 0dbe 5de6 323e
00000220: be4c 743e 8238 acba e250 d03c 4037 233d
00000230: 6310 e63d 1676 bebc ec51 fd3d 8bc2 25bd
00000240: 0990 083e 3c55 66bc 105c dc3c eddd 043e
00000250: d551 bc3c af4a d3bc 3ab6 3abd 6e81 fcbc
00000260: d3ed c1bd 18ea 163d 3017 083d ac6b 083d
00000270: 5797 4ebe 0c67 89bd 50d0 853d 846f 99bd
00000280: e1eb 67bc 2a4b 21bc 39fa 3bbd c1b4 64be
00000290: ad74 b1bd ccff e7bd 7f96 2dbe 9d44 273d
000002a0: a847 d4bd 4727 033d 62f2 9e3d 955a 103d
000002b0: 4d3f 033e 40c6 6c3e 79bc 583d a733 083e
000002c0: 6400 1c3d 529f fc3d ac67 b7be 0695 f33b
000002d0: e49a 153e 66a2 0abd 8271 e83d de24 33bd
000002e0: 5a55 f43d ca80 ab3b c000 99bd 7558 cabd
000002f0: 807e 013d 9303 0a3e 89e2 f93d b359 703d
00000300: f5a6 073d 928f 1a3e ea1f ffbd 42a5 083e
00000310: c258 42bb 944c efbd c937 743c 05cc 2f3d
00000320: 96fa afbd 4f79 51be 3504 0abe c3c9 b9bc
00000330: c9ca afbd 49d8 dabd f6f0 953d 0143 1dbd
00000340: 5039 3abd 76b8 4b3e 4d5d 3a3e 89e4 92be
00000350: 4b14 40be f3b8 d1bd ff86 113e dc28 a6be
00000360: 0e18 213e 14bc a2bd 0904 8f3d d477 f6bc
00000370: fb86 553c 1391 03be b592 39be 33b8 4f3e
00000380: aa06 c4bd 5b88 773d 13eb 183d dd43 f8bc
00000390: 6ae4 d83d 0afa 5f3d e81f e53d f94e 93bb
000003a0: 67d1 fb3d abb5 333d 2445 12b9 f06a 2e3d
000003b0: 0fa8 08be 3d0d 91bd aa62 fabb 276d 28be
000003c0: a4e8 ce3d 4576 bc3c 3470 ef3c 4518 703d
000003d0: b350 353e 7af0 ff3d 6c29 60bd a505 523d
000003e0: f9e9 aa3d b97e 363d 986e abbd 7ad5 acbb
000003f0: 4463 4d3d 5c2b 84be 69d0 0bbe d4ba f6bd
-0.10102269 0.16831625 0.039287105 -0.12626474 -0.020629188 -0.061175764 0.08770094 0.035959292
0.030036667 -0.07784568 0.031657256 0.07256151 0.04834077 0.042518917 0.24007067 0.039043974
0.033487566 -0.026373629 0.0028637173 0.13394842 0.072008304 0.016568465 -0.0001949278 -0.057106376
0.07390903 0.05701279 -0.039519425 -0.09792262 0.006254183 -0.056929864 -0.035539407 0.019498328
-0.12199002 0.0074492753 -0.15340155 0.12715015 -0.045711566 -0.02564984 0.0030026336 0.07602695
0.17024882 -0.11707733 0.08652537 -0.012649771 0.1463458 -0.037305452 0.001746351 0.012529318
0.046444643 0.026047181 0.14881527 0.06873488 0.1270637 -0.035094623 -0.03210496 0.22230302
0.0909589 -0.14437519 -0.08754229 -0.047415588 -0.015866155 -0.24337643 0.109295346 -0.121913806
0.030321645 -0.0717916 0.006267744 -0.12217765 0.12731871 -0.017838327 -0.031086989 0.0610391
0.08328546 0.17607109 -0.06730705 0.06736184 -0.066007614 -0.07743302 0.007789293 -0.34278086
0.0003655513 0.08306728 -0.011494955 0.0473826 -0.051227458 0.12248237 0.051851355 0.08868705
0.009784386 0.16047451 -0.04565041 -0.037043042 0.029528674 0.048286367 0.12821487 0.045115925
0.20313738 0.07165431 -0.058135215 -0.026663408 0.111535996 0.052349396 -0.100569524 0.08444507
0.044759892 -0.07845536 -0.06891291 0.14324707 -0.105146825 -0.1126286 -0.2362532 -0.028188417
0.18959822 0.05759136 -0.025519667 -0.07343798 -0.11486094 0.14139202 -0.16873322 -0.035994664
-0.085622676 -0.0061754673 -0.017304288 -0.27323973 0.07810079 0.022353472 0.07379485 -0.08067476
0.017162709 -0.17613818 -0.011261133 -0.17970823 0.054872394 -0.19332187 -0.13840942 0.17470689
0.238574 -0.0013139399 0.025429193 0.039847612 0.11233594 -0.023249667 0.12369141 -0.040468734
0.13336195 -0.014058407 0.026899368 0.12975283 0.02298824 -0.025792448 -0.04558394 -0.030823436
-0.094691895 0.036844343 0.03322524 0.03330581 -0.20174919 -0.06709108 0.06533873 -0.07491973
-0.014155359 -0.009844581 -0.045892928 -0.22334577 -0.08664832 -0.11328086 -0.16951941 0.04083692
-0.1036523 0.03201988 0.077610746 0.035242636 0.12817116 0.23122501 0.052914117 0.13300954
0.03808631 0.123350754 -0.35821283 0.0074335365 0.14609867 -0.03384628 0.11349775 -0.04373633
0.11930342 0.0052338587 -0.07470846 -0.09880153 0.03161478 0.13477926 0.12201411 0.058679294
0.033118207 0.1509383 -0.12457259 0.13344291 -0.0029654955 -0.11684528 0.014905878 0.042919178
-0.08592717 -0.20456432 -0.13478167 -0.022679215 -0.085836 -0.10685784 0.0732135 -0.038393978
-0.045464814 0.19894585 0.18199654 -0.28689983 -0.18757741 -0.102403544 0.14211653 -0.32453048
0.15731832 -0.07946029 0.069831915 -0.030086435 0.01303267 -0.1284831 -0.1812237 0.2028511
-0.095715836 0.060432773 0.03733356 -0.030305797 0.105904415 0.054681815 0.11187726 -0.0044954983
0.122958 0.043874424 -0.00013949402 0.042582452 -0.1334536 -0.07082603 -0.007641156 -0.16447888
0.101029664 0.023005614 0.029228307 0.058616895 0.17706566 0.12497039 -0.054727003 0.051274914
0.08345408 0.044554446 -0.083707035 -0.005274472 0.050143495 -0.2581433 -0.13653721 -0.120473534

dense1.bias f4 [10]
00000000: db7d 8abc c411 c9bc b0f1 0f3e cc9d c53c
00000010: a381 92be a136 e7bd c30f 173d c279 873d
00000020: 231f 353e 114e 683d
-0.016905716 -0.024544604 0.1405704 0.024123095 -0.2861453 -0.112897165 0.036880266 0.0661502
0.17687659 0.056715075
