saved_weights/model_state_dict.pt (torch_old, 74661 bytes, 6 tensors)

conv1.weight f4 [16, 1, 5, 5]
00000000: 5989 933e a291 ce3e 5dbe 483e 0e79 a13e
00000010: 1935 c5bd 892d 04be 8751 cebc 77a6 c2be
00000020: 6fb3 24be 9c95 74be 5875 01be aed0 8dbe
00000030: 6aa1 fabe 8130 09bd dbb7 1f3e 8bb4 9ebb
00000040: 4bce 90be dbbc 493d 4003 813e ee0c cd3e
00000050: 4e4c 893e be5f 9fbe 89ee 92be 0960 9d3e
00000060: b819 b43e 501b e03d 52c6 68be 3b58 b23d
00000070: 4a1b a83e 867c 65be d278 683e f6c8 35be
00000080: 93a0 eabc d443 fc3d 0f42 c9bd f219 833e
00000090: d493 90be 84df bcbd e889 f03d 9776 a93d
000000a0: 6f61 5b3e af4b 94be 2a94 2d3c 5ed0 623e
000000b0: dfd8 43bd 67fd 7cbd 492f c8be c40b cd3e
000000c0: 74b4 e43d 6889 51be 6c26 8e3e 330a 913d
000000d0: be47 703e 5f04 8ebe 68da 2b3e 5eac 233e
000000e0: b0a0 9c3e 23fc 30be c431 94be a9c8 363e
000000f0: bcc2 903d 1bd0 fcbe 3489 ddbe a265 373e
00000100: 521b 2cbd d726 abbe 059e 10c0 d8fc e4bf
00000110: a216 0bbd 36bc 9a3e b159 4ebd 57ae 01c0
00000120: 9916 c7bf a60e ebbd d6e3 1abe 6699 b83c
00000130: dc5e 04be b04c e6be 4fa3 e3bc 8463 2ebe
00000140: 63d8 333e 8b9a a63d f731 93bd e163 f0be
00000150: 51f4 c1be 89f3 983d d87d 963e 886e c63d
00000160: 57ac 32be 2695 7cbe e15f 8d3e ec6d 9f3e
00000170: 9db0 e83e ba30 a33e 8b7c 75bd d767 e0bd
00000180: 61da 0cbe 0f67 153d a582 453e 4971 eb3d
00000190: 761e 4a3e 95e4 ad3e 6f1a ebbd 6d03 423e
000001a0: 3d92 a13d 72fd 5e3e b94e 0b3e 939f 4a3e
000001b0: 2a4d 133e 0375 e7bd 9ea2 953e 553e a23c
000001c0: 328d 893d 2ae2 08be 923e 07be 6672 64be
000001d0: b00c 95bd 0041 653e 9877 883e ea4b c5bd
000001e0: de8e 9dbe 4a78 2abe e38c 69be 5699 93be
000001f0: 318a d5bd 7d20 2a3e bf11 e43e acf2 cebc
00000200: 299a 59be b144 1a3e e655 13be 2cb7 be3e
00000210: 15f9 2ebe 1946 6ebe 5af7 d8be 2863 b2be
00000220: b524 c93e 20b5 39be ea0e adbd e46c a3bc
00000230: 2db4 65be 3f8b 863e 9a00 083e 0573 2dbe
00000240: 2287 443e 9883 8fbc fa4c 9c3e 6398 aabd
00000250: 0762 80bd 683b 293c 96e3 c3bd fc5a 33be
00000260: ac05 d53e df64 1fbe f91d 403d 74f2 12be
00000270: 5be3 0ebe 1f9a 013f eeb2 abbe 02fc d73c
00000280: eb9f cebd c021 07be b91f e13e f307 babe
00000290: d4a6 f23c 90ab 8f3e 2d02 dabd 7569 613e
000002a0: 7abf 9dbe dd12 14bd 3cf7 893d bedb 77be
000002b0: 131b 9c3e 29fd 893d cc73 8fbc b62c 75be
000002c0: 6b79 8bbe 5c43 3fbe 4b95 1a3e e5b9 d03e
000002d0: a067 113c bb9a 353e 1fbf 00bc 17ed 673e
000002e0: bb9d 6a3e 2afe d03d cbb1 5dbe ea0b 59bd
000002f0: 3090 b83d 7a66 cbbd 65c8 0cbe 5937 893d
00000300: 3d4c 223e d4a7 cabd ed56 ad3d b7d9 0a3e
00000310: 5409 82bb f38c 27be 694d 213d 9b38 cdbd
00000320: 19d2 313d de86 9dbe 958f 3bbe fb3a 173f
00000330: d356 c13d 2024 4fbc c499 ebbe 09db c7be
00000340: 010f fe3e 0696 67be ce9e 463e 8c5f 923e
00000350: 123d a0be b375 8c3e 536d 5fbe d012 763e
00000360: 9344 263e e819 0dbe de87 b4bc e25d 833e
00000370: 21ec 63be 4933 e7bc e2ee eabe 455d e4bd
00000380: 3600 cd3e 9961 34bf b4ff 09bf d5e5 b5be
00000390: 84df 0dbc 6c7b d6bc ae3e edbd 9c7c c3bc
000003a0: ad27 10be 3d9b 3abe 19ad ae3d fa04 3cbc
000003b0: 5546 dd3e 9ce2 1e3e 4a22 3b3a 439b b63b
000003c0: 6b67 263d 9118 903e efa6 afbc 2aa6 f03d
000003d0: fd49 173e e10a ed3e 6efd dc3d f44a b0bc
000003e0: b349 f7bc 8c91 6b3e 3844 acbe d31e 573e
000003f0: a8b3 553e bb6b 09bd 1755 c13b bb38 8ebe
0.28815725 0.40345484 0.19603868 0.3153767 -0.09629268 -0.12907995 -0.02518536 -0.38017628
-0.16084073 -0.23885196 -0.1264242 -0.27698272 -0.48951274 -0.033493523 0.15597479 -0.0048432997
-0.2828239 0.049252372 0.25197792 0.40048927 0.26816028 -0.31127733 -0.28697613 0.30737332
0.35175872 0.109427094 -0.22731903 0.08708235 0.3283332 -0.22410783 0.2270234 -0.17752442
-0.02864102 0.12317625 -0.09827053 0.25605732 -0.28237784 -0.0922232 0.117450535 0.08274572
0.21423887 -0.28963992 0.010594407 0.22149798 -0.047814246 -0.0617651 -0.39098576 0.4004804
0.11167231 -0.20462573 0.2776369 0.070820235 0.23464867 -0.2773771 0.16782534 0.15983722
0.30591345 -0.17283683 -0.28944218 0.17849983 0.07068393 -0.49377522 -0.4326874 0.17909864
-0.042018242 -0.3342807 -2.2596447 -1.7889662 -0.03395713 0.3022172 -0.050378505 -2.0262659
-1.5553771 -0.11477403 -0.15125975 0.022534084 -0.12926811 -0.44980383 -0.027787833 -0.1703015
0.17563014 0.081349455 -0.071872644 -0.46951202 -0.3788171 0.07468326 0.29392886 0.09689051
-0.17448555 -0.2466627 0.27612212 0.3113855 0.45447245 0.31873113 -0.059933227 -0.10957306
-0.1375518 0.036475237 0.19288118 0.11496217 0.19738182 0.33963457 -0.11479651 0.1894662
0.07889221 0.21776369 0.13604249 0.19787435 0.14384905 -0.11301615 0.2922563 0.019805113
0.06716384 -0.13367525 -0.13207462 -0.22309265 -0.072778106 0.22388077 0.26653743 -0.0963362
-0.30773062 -0.16647449 -0.2280765 -0.28827924 -0.104267485 0.16613956 0.4454479 -0.0252622
-0.21250214 0.15065266 -0.14388236 0.37249124 -0.17087205 -0.23268928 -0.42376214 -0.34841275
0.39285818 -0.181355 -0.0845011 -0.019949384 -0.22432013 0.2627811 0.1328148 -0.16938408
0.19192174 -0.017518803 0.30527478 -0.08329847 -0.06268697 0.010329105 -0.09564893 -0.17515177
0.4160589 -0.15565823 0.046903584 -0.14350301 -0.13953917 0.50625795 -0.3353495 0.026365284
-0.10089096 -0.13196468 0.43969515 -0.3633419 0.029620565 0.2806058 -0.10644946 0.22012885
-0.30810148 -0.036150802 0.06736609 -0.24204919 0.30489406 0.067377396 -0.017511271 -0.23942837
-0.27241072 -0.1867804 0.15096013 0.40766826 0.008874804 0.17734806 -0.007858067 0.22649036
0.22911732 0.10204728 -0.21649854 -0.052989878 0.090118766 -0.09931655 -0.1374832 0.0670001
0.15849395 -0.09895292 0.084638454 0.13559614 -0.003968397 -0.16362362 0.039380465 -0.10020562
0.043413255 -0.30766958 -0.18316491 0.5907437 0.094403885 -0.01264289 -0.4601575 -0.39034298
0.49620822 -0.22615823 0.19396517 0.2858852 -0.31296593 0.27433547 -0.21819048 0.24030614
0.16237096 -0.13779414 -0.022037443 0.25657564 -0.22258045 -0.028222697 -0.45885378 -0.11150602
0.40039223 -0.7046142 -0.53905797 -0.3552691 -0.008659247 -0.026181899 -0.11584221 -0.02386313
-0.14077635 -0.18223281 0.085291095 -0.011475796 0.43217722 0.15516132 0.00071385934 0.005572708
0.04062597 0.28143743 -0.021441905 0.11750443 0.14774318 0.46297362 0.107905254 -0.021520115
-0.03018651 0.2300474 -0.33645797 0.21007852 0.20869315 -0.033550005 0.005900036 -0.27777657

conv1.bias f4 [16]
00000000: 35aa f9bc 7ed8 0bbd b8af ec3e 915b 84bd
00000010: da37 6cbc a64f 21bd a168 a1bc 8165 81bd
00000020: 4b68 493b 1db8 33bc 50c3 37bc c573 043d
00000030: 1385 753d a3d2 f03d abeb 953e 0f20 69bd
-0.030476669 -0.03414201 0.46227813 -0.064627774 -0.014417613 -0.0393826 -0.019703211 -0.063181885
0.003073233 -0.010969189 -0.011216 0.03233697 0.059941363 0.11758926 0.29281363 -0.05691534

conv2.weight f4 [32, 16, 5, 5]
00000000: 7c21 e1bd bcb2 e23d 013f 3abd ca12 1d3e
00000010: 1bf3 6fbd 29b5 5fbe 2603 62be 89cf b7bd
00000020: 8560 4c3e cdbc af3d a99a 8fbd b4d7 1fbe
00000030: f969 173d 9f9e 92bd bcf6 553e a8a0 adb9
00000040: 9be3 dabd 36a1 eb3d b500 b53e e98b 9b3e
00000050: a1b8 e53c b16f dfbe b99d 2f3d 584f bc3e
00000060: 6592 7fbe 3f45 45bc 72a9 8c3d b4b1 403c
00000070: 6792 8cbc e14d cb3d 34f9 cabd bdb4 993d
00000080: 43d8 b03d 1ab2 533e 0c6e d93c b586 ddbc
00000090: c17e 5d3d 58d2 fb3c 2f6d fabb 090a ecbc
000000a0: 93d4 ebbc 4780 1abd e775 d73d 861b 47ba
000000b0: 6575 813e bda3 523d 2e00 9ebe dc25 8e3d
000000c0: b4e8 0cbd ed4b 1f3d 6e20 a9bd fba3 d53b
000000d0: 328c 7f3d b627 13bd e57b a33d a08d 283d
000000e0: 0d7e 20be 520e a1bd 611b 2b3c 5ca8 063e
000000f0: fe4d 1bbe f443 8cbe a184 4ebe 55d7 f5bd
00000100: 2de8 16be ba95 1dbe 29a1 4bbd e035 3bbe
00000110: 286e 09bd e76c 87bc e952 e9bd 5512 d53d
00000120: 2780 bc3d ccf1 883e 131c 333e 054e 083e
00000130: 60d7 b83d 0fba 0d3e fed4 753d e071 303d
00000140: b2a5 983c 469c 173d bd57 803d b60c 14bc
00000150: 5db2 343e 9a68 123e c575 073e de7a 28be
00000160: 0cd5 babd b9b8 413e ec67 193e 34ff ab3e
00000170: 17db b9bd ab4b c03a 72fa 17be caec 923e
00000180: 31e2 fd3d 7e26 e6bd 38f3 913d 4748 193e
00000190: 4d53 88bd 3212 d63b fc05 c7bc 604f 2ebe
000001a0: 1fdb b0bd cba1 0f3d fde3 39bc 46f4 103e
000001b0: 26f3 813c 7403 e1bd 8dc7 f03d 7ab8 443e
000001c0: bae2 55bd d6da 0f3d e81f cebd 01d8 4bbd
000001d0: 957b 093d a512 88bd 8f1d eb3d 28d7 253d
000001e0: e1e7 8abd aa2e 963d c125 0a3e b4c0 5d3d
000001f0: 1579 2539 87ba 7cbe 3984 9f3d 0dc9 eabd
00000200: 9fba 0abd 89c9 993b 841a 3bbe d52e 8e3d
00000210: 2e32 563d 8438 34bd fb43 073d 53e6 81bd
00000220: 62be 143e be58 16bd ad01 593c df53 9cbd
00000230: ae6b 01be e67c 683e 1e7f 073e ab57 cc3d
00000240: dc97 bcbd c53c 873c 8016 eebb a14d 6dbe
00000250: dc66 de3d 05ea 29be 1a4e 05be 27a5 a1bd
00000260: ae30 17be ea51 2abe 3ceb 17be ff88 1b3e
00000270: 2793 383d fa15 b03d 598c 213e 9d7f 7d3d
00000280: 030d 4c3e f60b a33c daec e93d f8fe a6bd
00000290: ea26 5ebe 7864 b93e 28c9 72bb 0e19 073e
000002a0: 2aaf 173e 78cb 9dbe 5711 e13d 9621 9dbd
000002b0: c191 8abd 603d 82bd a4f4 66bd 0ece 413d
000002c0: 19e3 13be 3112 03be 1610 49be 273a 7fbd
000002d0: 4393 7a3c ab63 a8bd fc7b 543c 6442 f1bc
000002e0: 0cf0 84bc 6b9a 033d b053 cdbc 6211 fbbc
000002f0: dcf9 ccbd e362 9ebc 5acb 003e d92a ae3c
00000300: e760 263e 10f5 a73c 4822 d53d 5448 fcbc
00000310: e87e 013d 1475 613e becd 16bd cad1 8cbc
00000320: ef18 78be 20a0 51be 877c 95bd 3f95 4a3e
00000330: 18a4 053e a6be 7bbd b195 063e 4784 043e
00000340: eeb9 98bc 7dca d93d 85d6 8f3d 69b0 283e
00000350: 7b53 563d 2b03 153e 3dac 513d b953 6b3c
00000360: 4be1 30be 1bd2 753e 8dfd 923c 30d9 9cbe
00000370: 6c85 3abe d4c3 c6be 7926 97bd f666 9fbe
00000380: b4ad a9be 2eee 29be ed73 15be e92d d43d
00000390: acd4 7c3e 33b2 bf3d d1a5 9bbe 11ac 073e
000003a0: 2de6 a63d 46d3 303e 3750 1a3d 3af4 ecbd
000003b0: 6aba 263e d7bd d63d 6129 5a3e 25c7 e23d
000003c0: 8a46 503e 9179 293b fd65 473e 23ad 523e
000003d0: 0a81 793e f453 2bbd 7a53 0f3e 84c8 e13d
000003e0: a974 513a 75b5 b9be 9304 c63d 2bfe 43be
000003f0: 34b1 e3be ef24 b7bc 1bd1 a2bd a804 403e
-0.10992715 0.11069247 -0.04547024 0.15339199 -0.058581453 -0.21846451 -0.22071514 -0.08975131
0.19958694 0.08580933 -0.07011921 -0.15609628 0.036966298 -0.07159161 0.20894903 -0.0003311683
-0.106879435 0.11505358 0.35352102 0.3038018 0.02804214 -0.436399 0.042875025 0.36779284
-0.24958189 -0.012040435 0.06868257 0.011761118 -0.017159654 0.099269636 -0.09910813 0.07505176
0.08634999 0.20673409 0.026541732 -0.027041772 0.05407596 0.030739948 -0.00764241 -0.028813379
-0.028787887 -0.03771999 0.10520535 -0.0007595349 0.25284877 0.051425684 -0.30859512 0.06940815
-0.03440161 0.038890768 -0.082581386 0.006519792 0.06238956 -0.035926543 0.079826154 0.04115069
-0.15673085 -0.078640595 0.010443539 0.13150162 -0.1516647 -0.27395594 -0.20167781 -0.12003962
-0.14737006 -0.15389147 -0.04971424 -0.1828227 -0.03355232 -0.01653142 -0.11392767 0.10403887
0.092041306 0.26746976 0.17491178 0.13311012 0.090254545 0.13840507 0.06001758 0.04307735
0.018633697 0.03701427 0.06266735 -0.009036234 0.17646165 0.14297715 0.1322852 -0.1645312
-0.09122667 0.18918122 0.1498105 0.33593142 -0.09074991 0.0014670988 -0.14841631 0.2869628
0.12396658 -0.112378106 0.071264684 0.14968978 -0.06656513 0.006532931 -0.024294846 -0.17022467
-0.08635544 0.035066407 -0.011345861 0.14155683 0.015863013 -0.10986987 0.11756811 0.19210997
-0.052218176 0.035120808 -0.100646794 -0.049766544 0.033565123 -0.06644181 0.11480247 0.040488392
-0.06782509 0.07333119 0.13490964 0.054138854 0.00015780733 -0.2468053 0.07788891 -0.11464129
-0.033869382 0.0046932143 -0.18271834 0.06942526 0.05229395 -0.04399921 0.033023816 -0.06342759
0.1452575 -0.036705725 0.013245028 -0.07633185 -0.12638733 0.22703895 0.13232085 0.09977659
-0.092086524 0.01650847 -0.007265866 -0.23174144 0.108594626 -0.16593178 -0.13018075 -0.078928284
-0.14764664 -0.1663281 -0.14835829 0.15188979 0.04506221 0.08597942 0.15776195 0.06188928
0.19926839 0.019903164 0.11422129 -0.081541 -0.21694532 0.36209464 -0.0037046168 0.13193151
0.14812914 -0.30819297 0.109896354 -0.07672422 -0.067660816 -0.063593626 -0.05638565 0.04731565
-0.144421 -0.12799908 -0.19635043 -0.062311318 0.015293899 -0.08222135 0.012969013 -0.029450603
-0.016227745 0.032129686 -0.02506432 -0.030647937 -0.100085944 -0.019334262 0.12577572 0.021260666
0.16247903 0.020502597 0.10406929 -0.030796207 0.031615168 0.22017318 -0.036817305 -0.017189879
-0.24228261 -0.20471239 -0.07299142 0.19783495 0.13050878 -0.061461113 0.1314304 0.12941085
-0.018643346 0.10634325 0.07023338 0.16473545 0.052325707 0.1455199 0.05118965 0.014363223
-0.17273442 0.2400593 0.017943168 -0.3063445 -0.18214959 -0.3882128 -0.07380385 -0.3113324
-0.33140337 -0.16594765 -0.14595003 0.10360319 0.24690503 0.09360161 -0.30399945 0.13249232
0.08149371 0.17268094 0.037674155 -0.1157002 0.16282049 0.10485428 0.21304847 0.1107314
0.20339409 0.0025859813 0.19472499 0.20573859 0.24365631 -0.04182811 0.13996688 0.110245734
0.0007990101 -0.36271253 0.09668841 -0.19139926 -0.44471133 -0.022356478 -0.0795004 0.18751776

conv2.bias f4 [32]
00000000: ca88 d33c 4489 993d 8699 993d 7b94 7e3e
00000010: 8de7 0c3d cad7 72bd 95f5 babd d5d0 433d
00000020: e9f1 e73d b0b4 2b3e 2fdb 413e b037 533e
00000030: 2953 85bd 64a5 3bbe e5d3 853d e0a9 49bd
00000040: fa20 703e bd4a 1b3c df57 6cbc 4dd9 64bd
00000050: e06b 4b3e 7110 6e3e 5089 b33e 0f4b a93b
00000060: 5aa2 2f3e 7185 fa3d aac2 9a3c 047e 24be
00000070: b644 0d3e c085 883e 120e bbbd e50b 76be
0.025822062 0.074968845 0.074999854 0.24861328 0.03440051 -0.059287824 -0.09128872 0.04780658
0.113254376 0.16768146 0.18931268 0.20626712 -0.06510002 -0.1832481 0.06534556 -0.04923427
0.2345008 0.009478268 -0.014425247 -0.055871297 0.1986537 0.2324846 0.350657 0.0051664184
0.17151776 0.12232483 0.018891651 -0.16063696 0.13795742 0.26664543 -0.09133543 -0.24027975

dense1.weight f4 [10, 512]
00000000: 12c9 dcbd 17d7 3f3e fe42 2d3d 9e9f 22be
00000010: 1cf5 bcbc 4125 9dbd c0bf b23d 30f6 353d
00000020: 3616 8e3c b8bc b8bd a88c 0e3d 1d56 9e3d
00000030: b534 4b3d fa25 663d 1125 983e 971b 543d
00000040: 8e80 193d b8df 2dbd eb22 263b 7d43 093e
00000050: 7066 9c3d 92bc 2a3c f5b3 89bc d21f a7bd
00000060: a14d ad3d 9c6b 8f3d 596e 23bd 7890 debd
00000070: d4a0 f4b8 3057 90bd 9aed 23bd ccc5 dd3c
00000080: 6e21 11be c1a1 b03c 8ff9 24be 565e 0f3e
00000090: 98f1 5ebd 3b72 4ebd b7d8 bd3c ec7f a03d
000000a0: f2bb 473e 7cad 0dbe ae7e c93d 5941 61bb
000000b0: 5ebb 063e 1eaf ccbc f7e8 8bbc f481 c23c
000000c0: e993 1b3d 7c95 d83c 033e 373e 7c9e a63d
000000d0: 05c6 f93d 9223 4abd 0c73 7cbd 3445 713e
000000e0: 24fb b83d 6fa1 16be 3e32 e4bd 0447 3fbd
000000f0: e639 04bd 841f 7dbe 8479 ff3d de8c f3bd
00000100: 3883 003d 43d4 97bd f3a7 9fbb 47a1 f2bd
00000110: 3dac 063e 3d14 3fbc bb5c f4bc 1ee9 8e3d
00000120: b9f7 a23d 5f6e 6a3e 9196 debd 41a5 963d
00000130: 92b5 88bd 4321 2cbd 746a 9ebc 76bf b4be
00000140: 23a6 f43c 54d5 cc3d 68df 3abc 9661 1f3d
00000150: 5ca9 1cbd b84e 033e 24e3 6d3d 6179 db3d
00000160: 0e7c f53c 5e51 313e 3e0a 50bd 3211 3ebd
00000170: 0f5f 8ebc ca28 e83c 999c 073e 3909 3a3d
00000180: 5acd 603e ecfa cd3d 2bab 64bd 57f4 03bd
00000190: 8ca5 f53d 4e49 4e3d 908c dabd 8b1a d83d
000001a0: 62eb 2c3d ef6b 94bd 3592 59bd d941 1b3e
000001b0: 7c86 d3bd cb59 f3bd 19a5 8abe 38f1 06bd
000001c0: 84e5 723e 1677 863d 4cae 17bd a106 a9bd
000001d0: bae7 17be 2cba 1c3e 2900 77be 9a9c 18bd
000001e0: acbf b6bd 6a99 063c 2b32 2bbd 6ff9 b0be
000001f0: aeb6 ce3d 122c ed3c a424 c33d c254 8bbd
00000200: 68d1 543c f4c6 23be 7204 65b9 f076 51be
00000210: 3524 423d 56ec 36be 2ee5 19be 5bd2 4f3e
00000220: 1c71 7d3e ddf5 a43c ea4c 823c 74b6 fb3c
00000230: be80 f73d 9770 b63b 41ec eb3d 11bb 2dbd
00000240: 1cda 083e a466 81bc 6c0e b03c de5d 0d3e
00000250: 6b11 d83c c472 47bc 3e50 8cbd 91a2 53bd
00000260: a935 f1bd 46c7 6c3d e029 333d 9488 233d
00000270: c937 46be 3119 d3bd 0f67 933d 0510 9dbd
00000280: 0cdb 07bd 2a0f 42bc 859b 31bd ec58 6cbe
00000290: 853b c4bd 8ea8 0abe fec2 4dbe c6f4 393d
000002a0: 0559 14be 9e19 0d3d 770f be3d d77c bd3c
000002b0: 15d3 2c3e 5c28 753e bb5b 193d fff2 0a3e
000002c0: 9630 ac3c 5263 153e c574 c3be f7ca 9b3c
000002d0: 1349 1b3e 0ab6 fbbc b7c9 063e 7bad 59bd
000002e0: 6de1 f73d d663 1e3b 2e0a acbd 78e9 e6bd
000002f0: a1c0 8dba 141e 203e 340a e13d 1eaf 8d3d
00000300: e6e0 203d b699 393e 139b 18be d0d9 163e
00000310: f64e 093c c628 10be 85ea 2f3c 1d0a 353d
00000320: ad1b c5bd 6468 5cbe 07f8 25be a51d dfbc
00000330: 8659 e4bd 1df0 02be 99b7 8f3d 7fde c4bc
00000340: 54b8 5fbd a6d4 533e b8b8 4a3e 9d1a 9fbe
00000350: b2fb 5fbe c3cf f0bd 528e 3f3e 9868 a6be
00000360: 9b25 2d3e 128e 05be 3ecb f43d 467a 98bc
00000370: 18f9 e93c 686c 22be 17b7 34be f6c3 4d3e
00000380: 654a f6bd a306 a93d db88 143d 6bef b8bc
00000390: f3bc fc3d 040a 6c3d f2ad 053e 7865 863b
000003a0: da0a 053e 2e41 3a3d 1bb2 1c3c a6e9 823d
000003b0: 01e3 00be 5077 a9bd b673 61bc 4e79 3abe
000003c0: 4583 d93d f6ac c23c a4e4 143d d3ec 5a3d
000003d0: 6dea 383e 7a1f 083e 3412 efbc db74 6f3d
000003e0: bfa9 983d e739 403d 1f26 bcbd 5f4c e1bc
000003f0: 9f4c 4b3d b9f0 8cbe ffdd 1abe 2e46 1dbe
-0.107805386 0.18734394 0.042300217 -0.15881202 -0.023066096 -0.07673121 0.0872798 0.044424236
0.017344575 -0.0902037 0.03480211 0.077312686 0.049610812 0.05618856 0.2971578 0.051784124
0.037476115 -0.042449683 0.0025350403 0.13404651 0.07636726 0.010420935 -0.016809443 -0.08160366
0.08462072 0.07002947 -0.039900158 -0.10867399 -0.00011664783 -0.0704788 -0.040021516 0.027071856
-0.14172909 0.021561505 -0.16110824 0.1400083 -0.05442962 -0.050401907 0.023174627 0.07836899
0.19505289 -0.1383571 0.09838615 -0.0034371226 0.13157412 -0.024985846 -0.01707886 0.023743607
0.037982855 0.026438467 0.1789475 0.08135697 0.12195972 -0.04935033 -0.061633155 0.23561555
0.09032276 -0.1471002 -0.111423954 -0.046698585 -0.03228178 -0.24719054 0.12474349 -0.11892103
0.03137514 -0.074135326 -0.004872316 -0.118471675 0.13151641 -0.01166254 -0.029829374 0.06978057
0.079574056 0.22893666 -0.10868562 0.073557384 -0.06675257 -0.04202391 -0.01933787 -0.35302323
0.029864376 0.100016266 -0.011405803 0.038911425 -0.03824745 0.12822998 0.058077946 0.107165106
0.02996638 0.17316195 -0.050791018 -0.046403117 -0.017379312 0.028339762 0.13243331 0.04541895
0.21953335 0.10057625 -0.0558273 -0.032215443 0.11994466 0.050362878 -0.106713414 0.10551938
0.042216666 -0.07247149 -0.05311795 0.15161838 -0.10328385 -0.11882361 -0.27079085 -0.032944888
0.23720366 0.065656826 -0.037031457 -0.082532175 -0.1483449 0.15305394 -0.24121155 -0.037258722
-0.08923277 0.008215288 -0.04179589 -0.34565303 0.10093437 0.028951678 0.09528473 -0.06803276
0.012989379 -0.15993863 -0.00021840798 -0.20455527 0.04739781 -0.17863593 -0.15028831 0.20295088
0.24750179 0.020136768 0.015905816 0.030726649 0.120851025 0.005567621 0.11519671 -0.04241473
0.13364452 -0.015796013 0.021491252 0.13805339 0.026375493 -0.012173358 -0.068512425 -0.051668707
-0.11777813 0.05780723 0.043741107 0.039925173 -0.19357218 -0.10307539 0.07197391 -0.07669071
-0.033167884 -0.011844436 -0.043361206 -0.23080796 -0.09581665 -0.13540861 -0.20093915 0.04539945
-0.14487083 0.03444826 0.092802934 0.023130817 0.16877396 0.23941177 0.037440997 0.13569258
0.021019261 0.14588669 -0.38175026 0.01901768 0.15164594 -0.030726451 0.13162886 -0.05314396
0.121035434 0.0024168394 -0.08400379 -0.112749994 -0.0010814854 0.15636474 0.10988274 0.069181666
0.03927698 0.18125042 -0.14902906 0.14731526 0.008380642 -0.14078054 0.010737066 0.044199098
-0.09624419 -0.21524197 -0.16207896 -0.027235815 -0.11149888 -0.12786908 0.0701744 -0.024031876
-0.05461915 0.20686588 0.19797027 -0.31074992 -0.21873358 -0.117583774 0.18706635 -0.32501674
0.16908877 -0.13042477 0.11952828 -0.018612992 0.02856116 -0.15861666 -0.17647968 0.20094284
-0.120259084 0.08253219 0.036263328 -0.0225751 0.12340727 0.05762674 0.13054636 0.0041014515
0.12992421 0.045472316 0.009563948 0.06392221 -0.12586595 -0.0827471 -0.013760498 -0.18210337
0.10620741 0.023764115 0.03635086 0.05344851 0.18058176 0.13293257 -0.029183485 0.05846105
0.074542515 0.04693022 -0.091869585 -0.027502237 0.04963362 -0.27527407 -0.15123747 -0.15358803

dense1.bias f4 [10]
00000000: fec6 b0bc a084 f4bc 07da 193e a316 ae3c
00000010: 1f51 9ebe 3829 e2bd d965 3f3d 7f37 843d
00000020: b9ab 4b3e 0891 7a3d
-0.021579262 -0.029848397 0.15024577 0.021251028 -0.30921265 -0.11043018 0.04672799 0.064558975
0.19889726 0.06117347
