saved_weights/Model_epoch_no_2_train_acc_86.12_val_acc_85.79.pth (torch_old, 74663 bytes, 6 tensors)

conv1.weight f4 [16, 1, 5, 5]
-0.10568523 0.12927786 0.17773652 0.1626881 0.15236686 0.10540842 0.12347731 -0.09593036
-0.0043087215 0.15662262 0.12081308 -0.048815265 0.017243834 0.17762773 -0.12208278 0.12173716
0.1551974 0.16187839 0.13858716 -0.0394392 -0.15797937 0.21960019 0.26120815 0.034202892
-0.08379384 0.10516268 0.2776577 -0.095257476 0.16256239 0.26117718 0.01176538 0.2327664
0.1900613 0.19371276 0.0067940936 0.017731449 0.1404598 0.014568406 0.05588781 0.17298645
-0.2879325 -0.08680967 -0.25415966 -0.19730853 -0.23389529 -0.2747526 -0.23721835 -0.11660197
0.038093477 -0.12699841 0.24665338 0.31256723 -0.098402224 -0.08897182 0.12556328 0.08813396
0.1325447 -0.09968553 0.1257751 0.18193579 -0.24120459 -0.1509377 0.015472606 0.20360151
-0.01880227 -0.18311049 -0.22665152 0.114992425 0.03531088 -0.07944532 0.16471687 0.027427362
0.1049841 -0.22246471 0.05881145 0.2161716 0.16549169 0.21022052 0.06247602 0.13285366
0.071636416 0.23537764 0.23420902 -0.1351096 -0.10982185 0.050735943 -0.009862553 -0.14248611
0.12842865 -0.0076937946 -0.12411457 0.11353875 -0.11712126 -0.10437292 -0.05086539 -0.16523986
-0.022363199 0.18635532 0.02548967 0.15589201 -0.24251261 -0.0024358495 0.011786861 -0.2010736
-0.056972314 -0.055187557 0.21055242 0.20035928 0.17137916 0.05802724 -0.10033117 0.15517142
0.23870648 0.052189548 0.03440643 0.13165635 0.042427845 0.09360999 -0.020714344 -0.19103532
-0.2850573 -0.18028796 0.13123696 -0.26631683 -0.21056801 -0.29157948 -0.09689739 0.11802871
0.23416664 0.20909438 -0.27245927 0.03531939 0.26516274 -0.057983987 0.057476323 -0.14356934
-0.024363466 -0.1183722 -0.035226583 0.19462156 -0.1189937 -0.18264328 0.2514179 -0.09850646
0.06853011 -0.27384627 0.13636419 0.032161478 0.08971156 0.0137402555 0.038344283 0.17179605
0.040914837 -0.1118961 -0.06096112 0.14224005 -0.13254286 0.02861847 0.21706389 0.13120617
0.005651532 0.08935453 0.110081784 -0.123235025 0.09611544 0.09484709 0.20726821 0.24795212
0.063693665 0.026286379 0.13382441 -0.09355614 -0.14815897 0.15969795 0.23972577 -0.0660826
-0.08986585 0.04367868 0.1814171 0.054117326 0.21543817 0.097519815 -0.18843451 -0.08789787
-0.0005592772 0.06447743 0.13150737 -0.21672447 -0.07046886 -0.021398202 -0.09582562 0.15553182
-0.23057316 -0.0226086 0.076177485 0.2558318 -0.0057059014 -0.29785082 -0.1882169 0.20260637
-0.2727741 -0.18117847 0.20264275 -0.0438899 0.1107099 -0.18158543 -0.0010140701 0.03306627
0.19653952 0.09846861 -0.19235764 -0.26199633 0.26789707 0.25525913 0.030040111 -0.22469977
0.097524144 0.043683484 -0.026857534 -0.16656382 -0.18046187 -0.07183262 0.112040944 0.13399023
0.17526981 -0.11956684 0.033992935 0.2982214 0.30443263 0.21539398 0.13301024 0.008574499
-0.099667616 -0.013427183 -0.103505686 -0.11038124 -0.21775034 0.1613238 0.22515692 -0.04619062
0.008353759 -0.0010742996 0.16705552 0.11781517 -0.054130513 -0.106513195 -0.00802023 0.2275447
0.15970406 -0.14516856 0.18067683 0.18966784 0.19505669 -0.14632381 -0.23353918 0.23872413
00000000: 7f71 d8bd 6a61 043e 9000 363e b697 263e
00000010: 0f06 1c3e 5fe0 d73d ace1 fc3d 2377 c4bd
00000020: 2d30 8dbb ae61 203e d96c f73d 84f2 47bd
00000030: f142 8d3c 0be4 353e 8906 fabd 5551 f93d
00000040: 11ec 1e3e 73c3 253e cbe9 0d3e 008b 21bd
00000050: 58c5 21be dfde 603e 13bd 853e 5518 0c3d
00000060: 1b9c abbd 885f d73d 2629 8e3e 5a16 c3bd
00000070: c176 263e 04b9 853e 95c3 403c 515a 6e3e
00000080: 6e9f 423e a35c 463e fda0 de3b 8b41 913c
00000090: b2d4 0f3e 53b0 6e3c 9eea 643d 5c23 313e
000000a0: e36b 93be 45c9 b1bd 3721 82be 3f0b 4abe
000000b0: 3f82 6fbe 5fac 8cbe 5ee9 72be 03cd eebd
000000c0: e807 1c3d df0b 02be b492 7c3e d008 a03e
000000d0: 1b87 c9bd dc36 b6bd a993 003e 947f b43d
000000e0: ccb9 073e ed27 ccbd 30cb 003e 604d 3a3e
000000f0: 56fe 76be 6a8f 1abe d080 7d3c ea7c 503e
00000100: 3807 9abc 5181 3bbe 5617 68be 2681 eb3d
00000110: 24a2 103d 3ab4 a2bd 8aab 283e 59af e03c
00000120: e701 d73d cacd 63be 46e4 703d 175c 5d3e
00000130: a776 293e 0c44 573e dbe6 7f3d ca0a 083e
00000140: 1db6 923d d606 713e 7dd4 6f3e 2c5a 0abe
00000150: 47ea e0bd 7ed0 4f3d 8c96 21bc e1e7 11be
00000160: cd82 033e 3a1c fcbb c82f febd 0187 e83d
00000170: 45dd efbd 78c1 d5bd 3a58 50bd a334 29be
00000180: 0733 b7bc eed3 3e3e b6cf d03c 28a2 1f3e
00000190: 3a55 78be c6a2 1fbb ae1d 413c 3de6 4dbe
000001a0: cd5b 69bd 590c 62bd 0e9b 573e fc2a 4d3e
000001b0: 057e 2f3e f9ad 6d3d 6e7a cdbd 42e5 1e3e
000001c0: 796f 743e b5c4 553d c2ed 0c3d ecd0 063e
000001d0: d2c8 2d3d 98b6 bf3d 21b1 a9bc c39e 43be
000001e0: 08f3 91be 689d 38be fb62 063e ae5a 88be
000001f0: 249f 57be e849 95be 2472 c6bd 09b9 f13d
00000200: 61c9 6f3e d61c 563e c87f 8bbe 11ab 103d
00000210: 69c3 873e 9e80 6dbd 4b6c 6b3d d703 13be
00000220: e495 c7bc 206d f2bd c049 10bd e04a 473e
00000230: f8b2 f3bd d706 3bbe d9b9 803e c1bd c9bd
00000240: 8459 8c3d 9435 8cbe 0ea3 0b3e c1bb 033d
00000250: b2ba b73d cf1e 613c e50e 1d3d 4eeb 2f3e
00000260: 5196 273d c829 e5bd 5eb2 79bd 60a7 113e
00000270: 51b9 07be 4871 ea3c ff45 5e3e e95a 063e
00000280: 7d30 b93b 82ff b63d 8f72 e13d a562 fcbd
00000290: 2cd8 c43d 313f c23d 1e3e 543e 29e7 7d3e
000002a0: d371 823d 8856 d73c 4409 093e 5d9a bfbd
000002b0: fcb6 17be dc87 233e ac7a 753e 5056 87bd
000002c0: 960b b8bd 6ae8 323d 67c5 393e 21aa 5d3d
000002d0: d39b 5c3e 78b8 c73d faf4 40be cc03 b4bd
000002e0: 759c 12ba be0c 843d dea9 063e 05ed 5dbe
000002f0: fa51 90bd 484b afbc 3940 c4bd bc43 1f3e
00000300: 5f1b 6cbe ac35 b9bc f102 9c3d 63fc 823e
00000310: 92f8 babb e77f 98be eebb 40be 0b78 4f3e
00000320: 0ca9 8bbe d986 39be 9581 4f3e e5c5 33bd
00000330: dfbb e23d 88f1 39be 8cea 84ba 7f70 073d
00000340: a841 493e e9a9 c93d 67f9 44be 6224 86be
00000350: ce29 893e 53b1 823e ae16 f63c b217 66be
00000360: bdba c73d 74ed 323d 5504 dcbc b58f 2abe
00000370: ffca 38be fb1c 93bd b975 e53d bc34 093e
00000380: ee79 333e 76df f4bd 2d3c 0b3d 7ab0 983e
00000390: 98de 9b3e 3d90 5c3e d633 083e 0e7c 0c3c
000003a0: 891e ccbd b0fd 5bbc cafa d3bd 8f0f e2bd
000003b0: f2f9 5ebe 1132 253e 898f 663e 6032 3dbd
000003c0: 34de 083c 83cf 8cba 9a10 2b3e 1449 f13d
000003d0: f5b7 5dbd 9723 dabd 4867 03bc 7a01 693e
000003e0: 7689 233e 11a7 14be 5903 393e 4938 423e
000003f0: f1bc 473e e9d5 15be e524 6fbe 1974 743e

conv1.bias f4 [16]
-0.00075545145 0.031789917 -0.13656348 0.0034040634 0.20287623 0.005402822 -0.12677373 0.088080294
0.054046277 0.008417785 -0.096581124 0.042277858 0.019528514 0.115535825 0.1798564 -0.05655072
00000000: 7d09 46ba 2536 023d 4cd7 0bbe b516 5f3b
00000010: c9be 4f3e 280a b13b f9d0 01be 7163 b43d
00000020: a15f 5d3d c0ea 093c 53cc c5bd 8c2b 2d3d
00000030: 43fa 9f3c 0c9e ec3d 472c 383e baa1 67bd

conv2.weight f4 [32, 16, 5, 5]
-0.074876055 -0.074308276 -0.1269612 -0.07647391 -0.09725947 -0.03919703 -0.04521674 -0.050344445
-0.045631703 0.029809954 0.065304816 0.02875855 0.06722536 0.021761497 -0.033583447 0.04866518
0.08731221 0.02749937 0.02644686 0.0059141386 0.08121452 -0.008322389 0.049796555 0.021866923
0.036719956 -0.1761993 -0.16354395 0.030869508 0.003465377 0.07201362 -0.13015951 -0.18890171
-0.032802545 -0.03255063 -0.036000885 -0.037710544 -0.052091442 -0.02643809 0.09008352 0.12237108
0.152544 0.13925703 0.072829835 0.066676885 0.1670836 0.15038355 0.251173 0.16326265
0.19359888 0.12953997 -0.13663645 -0.16552708 -0.10502897 0.08234448 -0.023248546 -0.025726147
-0.051222265 0.03336118 -0.0052723517 0.08384526 0.075799994 0.0012777509 0.09676942 0.14366528
0.07724364 0.09594201 0.1283395 0.12356954 0.105148 0.12859055 0.10496723 0.13079676
0.14798136 0.11780018 0.069579616 -0.1234682 -0.08737965 -0.12819578 -0.14352353 -0.07475227
-0.080006205 -0.10495969 -0.06739055 -0.020764165 -0.06259944 0.056726154 -0.020419244 0.0030363437
0.006247523 -0.005663126 0.03809798 0.091041476 0.038922336 0.06903967 0.049446102 0.07850062
0.05051557 0.039378367 0.020838266 -0.013022925 -0.09348399 -0.13224237 -0.06312312 -0.053050496
0.015828623 -0.0761321 -0.03933993 -1.8890138e-05 -0.01272669 0.0249266 -0.034960806 0.05039614
0.03001645 0.018727526 0.06362384 0.027923303 0.053941414 0.079343155 0.096426375 -0.0096845385
0.027266433 0.11072789 0.14118299 0.10466559 -0.02216701 -0.14849548 -0.15511507 -0.10941615
0.011233452 0.065227814 -0.1707158 -0.20857956 -0.070094205 0.13052419 -0.06237426 -0.065878645
-0.11895482 -0.032574203 -0.042676255 -0.04206534 0.008583413 0.0030520882 0.026558494 -0.031302232
-0.08736066 -0.057244927 -0.0028436545 0.020626687 -0.1431535 -0.06352374 -0.028480299 -0.091261715
-0.124502495 -0.047454406 -0.062273715 -0.046283253 0.012950504 0.01731093 0.03860787 0.02420099
0.019338816 0.07890543 0.0510432 0.009505215 0.06497936 0.0043203207 0.106017575 0.090261504
0.024313282 0.01804248 0.055951916 0.015249513 0.045582645 0.02186216 0.036159907 -0.04815327
0.0065972726 0.048789617 -0.085120946 0.09445568 -0.08293288 0.031741127 -0.006465353 0.04141616
0.0020069068 -0.12424034 0.053153593 -0.02310267 0.0026207257 0.07163073 -0.056332096 -0.03340485
-0.03454122 -0.020393202 0.107375644 0.02973908 0.043457296 -0.0057613766 0.051551796 0.05913159
-0.06396323 -0.08589835 0.016971547 0.15945037 0.052235078 -0.09551112 -0.06395211 0.025166737
0.124688074 -0.044462122 -0.03801196 -0.007018935 0.07577821 -0.034812834 -0.033582654 -0.03707405
-0.035488877 -0.010472746 -0.0790979 -0.08960298 0.003410169 0.030638605 -0.014872378 -0.11781139
-0.08053225 -0.17039354 -0.116437346 -0.08912731 -0.11704464 -0.040263567 -0.0028162727 -0.07223499
-0.055749167 -0.029490354 0.04151777 -0.019739298 -0.003624003 0.047682326 0.049965784 0.051443435
0.036861725 0.061244994 0.022152329 -0.026842147 -0.032629184 0.034392837 0.065679565 0.07218547
0.025125396 0.009988216 -0.08091665 -0.12395256 -0.16696772 -0.16252097 -0.12407917 -0.0012885089
00000000: 9e58 99bd f02e 98bd 1e02 02be 5a9e 9cbd
00000010: f92f c7bd 118d 20bd 3035 39bd fa35 4ebd
00000020: 4fe8 3abd 0134 f43c 88be 853d 0d97 eb3c
00000030: 73ad 893d 2b45 b23c cc8e 09bd 2455 473d
00000040: bed0 b23d 5c46 e13c 16a7 d83c 64cb c13b
00000050: cc53 a63d a15a 08bc 79f7 4b3d 4322 b33c
00000060: aa67 163d 976d 34be 1178 27be 0de2 fc3c
00000070: 611b 633b e07b 933d 8948 05be 736f 41be
00000080: f65b 06bd cf53 05bd aa75 13bd 5f76 1abd
00000090: d65d 55bd b194 d8bc b57d b83d b09d fa3d
000000a0: 7f34 1c3e 6599 0e3e cf27 953d e48d 883d
000000b0: f717 2b3e 25fe 193e bf99 803e 532e 273e
000000c0: c93e 463e 20a6 043e 6dea 0bbe ee7f 29be
000000d0: 6e19 d7bd 39a4 a83d bc73 bebc a4bf d2bc
000000e0: 70ce 51bd bca5 083d b1c3 acbb 10b7 ab3d
000000f0: 073d 9b3d 357a a73a 0c2f c63d fe1c 133e
00000100: ea31 9e3d 3f7d c43d 6e6b 033e 0712 fd3d
00000110: d657 d73d 3ead 033e 0ff9 d63d 96ef 053e
00000120: 6d88 173e 3941 f13d c27f 8e3d e5dc fcbd
00000130: 1af4 b2bd c145 03be d5f7 12be b817 99bd
00000140: 4bda a3bd 1bf5 d6bd 0f04 8abd 9c19 aabc
00000150: 2334 80bd af59 683d 4246 a7bc 65fd 463b
00000160: 05b8 cc3b be91 b9bb a10c 1c3d f473 ba3d
00000170: 076d 1f3d ac64 8d3d ff87 4a3d efc4 a03d
00000180: 6ae9 4e3d 364b 213d 03b5 aa3c 1b5e 55bc
00000190: 8974 bfbd 8b6a 07be b246 81bd 7a4b 59bd
000001a0: 07ab 813c 25eb 9bbd e822 21bd 4376 9eb7
000001b0: 9b83 50bc de32 cc3c 1033 0fbd 2f6c 4e3d
000001c0: 0fe5 f53c 786a 993c 374d 823d 69bf e43c
000001d0: acf1 5c3d aa7e a23d 317b c53d e6ab 1ebc
000001e0: db5d df3c 4ec5 e23d 4692 103e ea5a d63d
000001f0: 9797 b5bc 330f 18be 7cd6 1ebe 9315 e0bd
00000200: 830c 383c 2996 853d 1fd0 2ebe e195 55be
00000210: 8d8d 8fbd 22a8 053e 277c 7fbd 62eb 86bd
00000220: 969e f3bd 876c 05bd 4ccd 2ebd b54c 2cbd
00000230: 72a1 0c3c 8b05 483b 3391 d93c c536 00bd
00000240: 25ea b2bd a879 6abd 9b5c 3abb 4cf9 a83c
00000250: d596 12be bc18 82bd 844f e9bc 6ce7 babd
00000260: 2afb febd 8d5f 42bd b912 7fbd 8293 3dbd
00000270: 5a2e 543c a7cf 8d3c 4923 1e3d 2841 c63c
00000280: 706c 9e3c 2c99 a13d ad12 513d c3bb 1b3c
00000290: e613 853d 7a91 8d3b be1f d93d 06db b83d
000002a0: a62c c73c d3cd 933c d62d 653d 18d9 793c
000002b0: deb4 3a3d 4618 b33c 691c 143d 5d3c 45bd
000002c0: ef2d d83b 9fd7 473d e453 aebd fb71 c13d
000002d0: b7d8 a9bd fc02 023d 50db d3bb fea3 293d
000002e0: 4f86 033b b871 febd 95b7 593d d041 bdbc
000002f0: 7bc0 2b3b 22b3 923d 7cbc 66bd 86d3 08bd
00000300: 187b 0dbd a50f a7bc c3e7 db3d 5f9f f33c
00000310: 4700 323d eec9 bcbb fa27 533d f733 723d
00000320: 27ff 82bd 79eb afbd ea07 8b3c f546 233e
00000330: 73f4 553d 569b c3bd 53f9 82bd 792a ce3c
00000340: 765c ff3d ea1d 36bd 6eb2 1bbd 18ff e5bb
00000350: 9b31 9b3d e797 0ebd f78d 09bd f6da 17bd
00000360: c95c 11bd e195 2bbc 14fe a1bd c481 b7bd
00000370: 247d 5f3b d0fd fa3c 46ab 73bc 1947 f1bd
00000380: 18ee a4bd a57b 2ebe b476 eebd 6188 b6bd
00000390: 1ab5 efbd 69eb 24bd 3791 38bb f0ef 93bd
000003a0: 3d59 64bd c195 f1bc 8a0e 2a3d 4fb4 a1bc
000003b0: ae80 6dbb 8b4e 433d eca8 4c3d 5ab6 523d
000003c0: 52fc 163d 08dc 7a3d cd78 b53c 10e4 dbbc
000003d0: 2ea6 05bd 81df 0c3d 0283 863d fad5 933d
000003e0: c6d3 cd3c 9da5 233c a1b7 a5bd d7da fdbd
000003f0: 96f9 2abe e66b 26be 381d febd 2fe3 a8ba

conv2.bias f4 [32]
0.013397823 -0.047163673 0.019512024 0.06845 -0.03790733 -0.055417527 0.0026830402 0.04415058
0.041586217 0.019303342 -0.05473888 0.082529105 0.035079688 0.046290528 0.044239342 -0.06264173
0.057166066 0.05877415 -0.0075646304 0.09744356 0.012470001 -0.039429344 0.10150665 0.004489236
-0.025366087 -0.018015634 0.01914869 0.04137059 0.122724906 -0.05400218 0.11608513 0.052985344
00000000: 8b82 5b3c b22e 41bd aed7 9f3c 832f 8c3d
00000010: b744 1bbd 7dfd 62bd f2d5 2f3b 3dd7 343d
00000020: 4f56 2a3d 0b22 9e3c e035 60bd 0505 a93d
00000030: b8af 0f3d 239b 3d3d 5034 353d 4f4a 80bd
00000040: f726 6a3d 2abd 703d b8e0 f7bb 7d90 c73d
00000050: fa4e 4c3c aa80 21bd b8e2 cf3d 711a 933b
00000060: 8acc cfbc 8695 93bc b7dd 9c3c 3574 293d
00000070: 3257 fb3d 6431 5dbd 0abe ed3d 2907 593d

dense1.weight f4 [10, 512]
0.050655656 0.049801003 0.086569615 -0.109198675 -0.07643025 0.04311648 0.05293725 -0.09050871
-0.053934492 -0.05594532 -0.045245294 0.010181977 -0.12021469 -0.04487127 -0.08701776 0.07184422
0.027042042 -0.023235878 0.024142496 -0.042630866 -0.007928179 -0.016814081 -0.00085905386 -0.0027082632
-0.028276531 0.014687177 -0.0085648745 0.035279416 -0.0066134897 -0.031560663 0.029336669 0.0028829635
0.059214216 0.05888793 -0.018334972 0.03381143 -0.020036213 0.010396557 0.020545652 0.064576186
-0.03416848 -0.026420804 0.0011099889 0.019503282 -0.09058331 0.029971668 -0.034683906 -0.0037871948
0.07127861 -0.056446433 -0.121352926 0.02295469 0.07900395 0.018297419 0.050905142 -0.03929021
0.09149032 -0.03368701 0.048985522 -0.028827414 -0.11170033 0.04659849 -0.051278487 -0.023793481
-0.025459325 -0.007988055 -0.04542185 0.06859179 0.0008484964 0.040562186 -0.0030496926 0.004449704
-0.0051460583 -0.021031067 -0.04254333 0.008098455 0.06817923 0.036394365 -0.10483797 -0.04228361
0.083730154 -0.06585891 0.024083313 0.09217411 0.008821998 -0.0546369 0.011165775 0.031225001
0.018762069 -0.037042476 -0.034216978 -0.025904877 -0.043954726 -0.0079539595 -0.047751207 -0.14619593
-0.024871169 -0.09439727 -0.005862291 -0.073661804 -0.034141682 -0.04416463 -0.04930363 0.030842435
0.04666908 0.013119911 -0.00059938396 0.076160654 -0.090515636 -0.005118229 -0.10080574 0.04315742
0.06884307 -0.04046189 0.016979348 -0.012571065 -0.026675893 0.032138057 -0.035610024 0.028492963
-0.030790597 0.019630758 0.029686669 -0.011676037 -0.040766418 0.04533481 -0.0051231603 0.009460064
-0.08396068 0.038613923 -0.04414152 0.03975072 -0.061946187 -0.0075834063 0.007553048 -0.0012004421
0.0015412945 0.09352669 0.07603304 -0.019424906 -0.048195142 -0.0072135623 -0.0021243982 0.03683293
0.026659597 0.053219255 -0.01673753 -0.13917087 -0.04940558 0.011262193 -0.06694505 -0.017721936
0.016504183 -0.05251906 0.0049940962 0.039256558 -0.18024746 -0.03648289 -0.012384672 0.048102226
0.0058712773 -0.004191261 0.036217693 0.016594984 -0.0043906122 -0.03688933 -0.01637995 0.03409821
0.00023625046 -0.008379985 0.0136247575 0.011608269 0.00029427584 0.009693418 -0.032027133 -0.008294005
0.08751667 0.061448228 -0.01180384 0.022319924 0.003625579 0.025572386 0.0064743645 -0.040628046
-0.04596442 0.054937594 0.0006817655 -0.02045619 -0.053080123 0.02952946 -0.016945336 0.044110175
0.161033 0.06272129 0.04842249 0.005068661 0.06342774 -0.0012642245 0.0025750664 0.047081348
0.0068379208 0.0141761955 -0.03333518 -3.4061195e-05 -0.085390255 -0.028242646 -0.08005301 0.014288905
-0.0074407463 0.016047424 0.028374624 0.11604816 0.08652471 0.027489323 0.06259667 0.08684765
0.023619473 0.03466558 -0.010717171 0.035966106 -0.079396926 -0.02892065 -0.049684033 -0.13946225
0.069867305 -0.053606328 0.023310883 0.04463617 0.041764945 0.025885778 0.090855874 -0.0123475315
-0.051949378 0.026672635 0.09107137 0.057548378 0.021847099 -0.05711679 0.03168744 0.013550542
0.01371838 -0.01758305 0.033861235 0.1002846 0.029220158 -0.015218497 -0.025061559 -0.040223103
0.0044614337 0.011818031 0.046885565 -0.007845018 -0.08544181 0.00034623608 -0.028084647 -0.0391282
00000000: 4e7c 4f3d 23fc 4b3d 694b b13d 8ea3 dfbd
00000010: 7787 9cbd e89a 303d bbd4 583d a15c b9bd
00000020: 6aea 5cbd eb26 65bd 2153 39bd 4fd2 263c
00000030: 1f33 f6bd f0ca 37bd 5e36 b2bd 1023 933d
00000040: 4687 dd3c 2b59 bebc 7cc6 c53c b49d 2ebd
00000050: 31e5 01bc afbd 89bc 2132 61ba 1e7d 31bb
00000060: 2fa4 e7bc 7ca2 703c b053 0cbc 2681 103d
00000070: f9b5 d8bb c145 01bd 7453 f03c 1af0 3c3b
00000080: 9b8a 723d 7834 713d 3933 96bc db7d 0a3d
00000090: fc22 a4bc 5256 2a3c 5b4f a83c 8540 843d
000000a0: 40f4 0bbd 7170 d8bc 0c7d 913a 59c5 9f3c
000000b0: be83 b9bd 2587 f53c b610 0ebd 9632 78bb
000000c0: 85fa 913d 6034 67bd e287 f8bd 790b bc3c
000000d0: d3cc a13d 78e4 953c e981 503d c5ee 20bd
000000e0: 475f bb3d 64fb 09bd 0ba5 483d 7827 ecbc
000000f0: 25c3 e4bd 0fde 3e3d 6409 52bd 8cea c2bc
00000100: 1390 d0bc 55e0 02bc 430c 3abd da79 8c3d
00000110: a16d 5e3a 8924 263d 5add 47bb d3ce 913b
00000120: 44a0 a8bb 5849 acbc ea41 2ebd 62af 043c
00000130: 8da1 8b3d 4212 153d 4ab5 d6bd 9431 2dbd
00000140: b77a ab3d 09e1 86bd 5e4a c53c c8c5 bc3d
00000150: 248a 103c f1ca 5fbd a8f0 363c 93cb ff3c
00000160: e9b2 993c dab9 17bd 1a27 0cbd 7736 d4bc
00000170: df09 34bd 5351 02bc c596 43bd 63b4 15be
00000180: 9fbe cbbc 5b53 c1bd 7618 c0bb 00dc 96bd
00000190: 26d8 0bbd f9e5 34bd 9af2 49bd 46a9 fc3c
000001a0: 1428 3f3d e5f4 563c fa1f 1dba 1efa 9b3d
000001b0: 4360 b9bd d1b6 a7bb 3d73 cebd d6c5 303d
000001c0: 98fd 8c3d 5ebb 25bd 4618 8b3c def6 4dbc
000001d0: 6787 dabc 32a3 033d d1db 11bd 136a e93c
000001e0: 903c fcbc afd0 a03c 7531 f33c d94c 3fbc
000001f0: b0fa 26bd feb0 393d 2fe0 a7bb 62fe 1a3c
00000200: 94f3 abbd a229 1e3d bdcd 34bd a7d1 223d
00000210: 49bb 7dbd 397e f8bb 8f7f f73b 2758 9dba
00000220: 4305 ca3a ec8a bf3d 36b7 9b3d fb20 9fbc
00000230: 4568 45bd bf5f ecbb 7d39 0bbb 20de 163d
00000240: 3a65 da3c 6ffc 593d 251d 89bc cf82 0ebe
00000250: 815d 4abd 1085 383c 7d1a 89bd 982d 91bc
00000260: c833 873c 3a1e 57bd 84a5 a33b 7ccb 203d
00000270: ca92 38be 156f 15bd 14e9 4abc d706 453d
00000280: d863 c03b d856 89bb 0159 143d 34f2 873c
00000290: 20df 8fbb 4419 17bd 3f2f 86bc 91aa 0b3d
000002a0: 00ba 7739 344c 09bc 603a 5f3c 9c30 3e3c
000002b0: 0949 9a39 24d1 1e3c e22e 03bd 94e3 07bc
000002c0: f13b b33d 23b1 7b3d e564 41bc 46d8 b63c
000002d0: 1f9b 6d3b 2e7d d13c e826 d43b 9869 26bd
000002e0: 3045 3cbd 3e06 613d 82b8 323a bd93 a7bc
000002f0: 8b6a 59bd c4e7 f13c f2d0 8abc dfac 343d
00000300: d6e5 243e 0574 803d a956 463d 0317 a63b
00000310: 67e6 813d 56b4 a5ba 72c2 283b 5fd8 403d
00000320: a310 e03b 4643 683c 788a 08bd eedc 0eb8
00000330: 16e1 aebd 1f5d e7bc d5f2 a3bd 031c 6a3c
00000340: 81d1 f3bb e375 833c e671 e83c a8aa ed3d
00000350: de33 b13d 4a31 e13c af32 803d 2edd b13d
00000360: a07d c13c 7ffd 0d3d 1397 2fbc 3251 133d
00000370: db9a a2bd 00eb ecbc 7c81 4bbd 31cf 0ebe
00000380: 9716 8f3d 4f92 5bbd 77f6 be3c 6bd4 363d
00000390: b811 2b3d 690e d43c a512 ba3d 4d4d 4abc
000003a0: dfc8 54bd 9280 da3c a083 ba3d d9b7 6b3d
000003b0: b0f8 b23c 4cf3 69bd b0ca 013d 1803 5e3c
000003c0: 0ec3 603c 540a 90bc 14b2 0a3d 0362 cd3d
000003d0: 1d5f ef3c 0157 79bc e64d cdbc fbc0 24bd
000003e0: 3831 923b 6aa0 413c 140b 403d 6488 00bc
000003f0: 1efc aebd 0587 b539 c611 e6bc e444 20bd

dense1.bias f4 [10]
0.028246222 0.015610494 -0.0022578351 0.04806134 -0.053663716 -0.0707698 0.04386373 0.08907784
0.003873941 -0.016377075
00000000: 9f64 e73c 28c3 7f3c 30f8 13bb f8db 443d
00000010: 7cce 5bbd c2ef 90bd 74aa 333d 716e b63d
00000020: f2e1 7d3b 3729 86bc
