saved_weights/Model_epoch_no_50_train_acc_97.54_val_acc_90.14.pth (torch_old, 74659 bytes, 6 tensors)

conv1.weight f4 [16, 1, 5, 5]
000000 36 0a 49 bf e9 bf 34 bd 16 27 68 be a2 1f f1 bd
       -0.78531206 -0.044128332 -0.2267116 -0.117736116
000010 10 17 61 be 32 7d b5 be ca 8b bd 3e 39 d4 ea be
       -0.21981454 -0.3544708 0.37020713 -0.45865038
000020 78 3d a7 be 8a ee 07 3d 52 f6 6d be 7e 19 1e 3e
       -0.32664084 0.033186473 -0.23238495 0.15439412
000030 95 79 7c 3c b9 17 07 3f 47 69 94 3e 42 cd ac 3e
       0.015409847 0.5277057 0.2898657 0.3375035
000040 b8 2c ea 3d 19 fe 8c bd 76 ee 36 bc b5 cc b7 be
       0.11434311 -0.06884403 -0.011165252 -0.35898367
000050 b9 4b 2a 3f 9b b4 46 3c 3d e8 ef bd 17 ac ef 3d
       0.66521794 0.012128021 -0.11714218 0.117027454
000060 a5 1e 86 3e 72 f6 3a be 2b 41 34 3e 5c 71 b1 3e
       0.26195255 -0.18258074 0.17602985 0.346568
000070 bd 12 d6 3e 5b 12 85 be 37 08 3a 3e 08 31 ca 3e
       0.4181117 -0.25990567 0.18167196 0.39490533
000080 be c5 46 3e 0e 0f c8 3d d2 d7 c5 3c f5 62 81 3e
       0.1941137 0.097684965 0.024150763 0.2527081
000090 c6 4b 47 3d e8 16 76 be e0 75 01 be ad 42 06 3e
       0.048656248 -0.24032176 -0.12642622 0.13111372
0000a0 2d 42 a4 3d 0e b2 6a bd f8 b6 09 be b1 88 e5 bd
       0.080204345 -0.057298712 -0.13448703 -0.112077124
0000b0 8b 7c d4 bc 10 22 49 bf 21 c2 93 be 46 50 8c be
       -0.025938293 -0.785676 -0.28859046 -0.27404994
0000c0 0a eb b7 3a 58 52 d9 3c 5e 81 95 bd 60 80 33 3d
       0.0014031839 0.026528522 -0.073000655 0.0438236
0000d0 6a 1f c4 bd e9 70 21 bf e0 bb 65 bf df f7 05 3d
       -0.09576304 -0.6306291 -0.897398 0.03270709
0000e0 39 66 9a 3e b0 2e 01 3f 74 97 f0 3b b1 e8 47 bf
       0.30156115 0.50461864 0.0073422734 -0.78089434
0000f0 f7 01 f7 bd 59 36 f8 bd e9 bc 2e 3e 4d ee 56 3e
       -0.12060922 -0.12119741 0.17064251 0.20989342
000100 55 f5 c8 be b4 d0 95 3e e8 b6 53 bd 38 f1 7b bc
       -0.39249673 0.2926079 -0.051688105 -0.015377335
000110 87 68 82 3e f2 e0 43 bd 03 28 af 3e 54 49 92 3e
       0.25470373 -0.047821946 0.34210214 0.2857157
000120 d7 33 90 3e 0a bc dc 3e e7 a4 70 3e fb c1 1f bf
       0.2816455 0.43112212 0.23500405 -0.62405366
000130 a3 e0 34 bf 24 ca ef be e4 f0 e2 be bf c2 e3 be
       -0.7065527 -0.4683391 -0.4432441 -0.44484517
000140 fc 5b 1c be 16 29 d0 3c a3 a5 6f 3e 04 05 fa 3e
       -0.15269464 0.025410216 0.23403029 0.48831952
000150 2f 42 a2 3e 2a 26 0a 3e 66 f7 01 3f c2 d9 75 3e
       0.3169112 0.13491121 0.50768125 0.2400885
000160 53 53 c1 3e 49 cf 68 3e 67 d4 9d be 55 66 51 3d
       0.37758884 0.22735323 -0.30826113 0.051122982
000170 a2 ec 15 3e 6c 78 41 bd b9 07 41 3e c0 a6 43 3e
       0.1464105 -0.047233984 0.18850602 0.19106579
000180 ba e7 47 3e 25 75 80 bd b3 da 97 3c 42 28 95 bd
       0.1952199 -0.062723435 0.018536901 -0.07283069
000190 45 d1 94 3e 26 28 2c 3d ff 3f f2 3d 08 bf 1b bd
       0.2906591 0.042030476 0.118286125 -0.03802398
0001a0 27 0a 09 bf 09 ee 84 3e 91 9e 82 3e 98 ce 64 3e
       -0.53531116 0.25962856 0.25511602 0.22344434
0001b0 a7 62 fe bd 86 bc ea be 6c 14 00 be 42 32 f6 3e
       -0.1242116 -0.45846957 -0.1250779 0.4808522
0001c0 2e 09 94 bc 99 18 da bd 6f 6f 13 be 8e 59 48 bf
       -0.018070783 -0.10649223 -0.14397977 -0.7826165
0001d0 c4 3b 11 bf 75 dc c6 3d 07 d7 c3 3e e6 a6 23 3f
       -0.5673182 0.097100176 0.3824999 0.6392654
0001e0 79 3b 20 c0 61 0b 7e c0 75 2a a7 bf 00 c3 1f 3c
       -2.50363 -3.9694445 -1.3059832 0.0097510815
0001f0 65 44 8f 3e e8 9c 85 be 75 85 72 3e 15 52 b3 3e
       0.27981868 -0.26096272 0.23683722 0.3502356
000200 6b 0b 8e 3e 2e bb 8f 3e 9e cc 8e 3c bb 75 6e be
       0.27743086 0.28072494 0.017431553 -0.23287098
000210 45 07 ca 3d e7 72 0d 3e 55 5b 4d be b6 91 1e 3e
       0.09864668 0.13813363 -0.20054372 0.15485272
000220 97 fa cd bb e6 a9 f9 bd 4f d6 ad be cb e3 ad be
       -0.006285976 -0.12190609 -0.33952567 -0.33962855
000230 cf 4b ca bd 81 a7 1b bd 05 73 6d bd f6 6b 55 3d
       -0.098777406 -0.03800154 -0.05797102 0.052104913
000240 8c 5e 21 bd c3 ed d8 bd 40 b3 3b 3e 1f 67 aa 3d
       -0.039396808 -0.105922244 0.18330097 0.0832045
000250 17 3d a9 3e 32 e2 11 3e 1f 11 07 be 95 0a 24 bf
       0.3305442 0.14246443 -0.13190125 -0.64078647
000260 dd 07 2c be 6a 82 9f 3e 40 a9 89 3e 63 08 74 be
       -0.16799875 0.31154186 0.2688694 -0.23831324
000270 66 b1 de 3e 7d 8b 69 3f 82 2d b5 3e b6 29 d1 bd
       0.4349472 0.9122847 0.35386282 -0.10213034
000280 1d cf 9e 3e b5 1f c1 3e 4f 27 a3 3e 79 e7 16 bf
       0.3101739 0.37719503 0.31865928 -0.5894695
000290 dc fd 0a bf 8c 4c ac bd 89 7b 86 be 96 59 24 bf
       -0.5429361 -0.08413038 -0.26266125 -0.641992
0002a0 de 84 b7 be d5 ab df bd 48 c9 bb 3e 54 f1 9a 3e
       -0.35843557 -0.10921446 0.36677003 0.30262244
0002b0 51 3e d5 3d f3 3b 11 be d3 1f 97 3d 7b 0a 82 3e
       0.104122765 -0.14183025 0.07379117 0.2539862
0002c0 17 22 da be dd e7 4b 3e 13 8b ba bc 00 8b f0 3d
       -0.42604133 0.19912668 -0.022771394 0.11745262
0002d0 3c ff d8 3e 77 72 f4 be 86 ab fd 3e f4 4e e6 be
       0.42382228 -0.4774358 0.49544924 -0.4498211
0002e0 43 5d 2d be c3 c7 52 3e bb 4c 59 bd b6 fb 8f 3e
       -0.16930108 0.20584016 -0.05305169 0.28121728
0002f0 ce b3 98 be ec 80 70 3a 45 2d 5c 3e 3a 49 6c 3e
       -0.2982468 0.00091744843 0.21501644 0.23074809
000300 33 f8 b3 3d 36 e9 d1 bd b2 f5 49 bd 2a 22 13 3e
       0.087875746 -0.102495596 -0.04930658 0.14368501
000310 d3 de 48 bd 71 02 c4 be 51 db be 3e ef 24 83 3e
       -0.049040627 -0.38283113 0.372767 0.25614116
000320 5a 0e b8 3e 65 68 60 bd c1 22 f4 bd 36 94 9a be
       0.3594845 -0.05478706 -0.11920691 -0.301912
000330 2f 97 56 be 2d 7c 9a 3e 33 a8 5e 3e 22 29 92 3e
       -0.2095611 0.30172864 0.2174385 0.28547007
000340 20 ed 0c bf 2e 84 97 be bc 07 17 3d 76 72 a5 3e
       -0.55049324 -0.29593033 0.03687261 0.3231389
000350 cb 9e cc 3e ae b6 f6 bd 3a b4 b4 3c a6 85 aa be
       0.399649 -0.12046562 0.022058595 -0.3330509
000360 cc 31 85 be aa cf cd 3e f3 70 9a 3c 3b 24 6d 3e
       -0.26014555 0.40197498 0.018852687 0.23158352
000370 bc fa a2 bc 06 10 be bc 29 b0 bb 3e 6a 06 0d bd
       -0.01989495 -0.023201 0.36657837 -0.034429945
000380 9d cb 95 be 78 f2 a6 3d fa dc 23 bd 25 74 97 be
       -0.29256907 0.08151716 -0.04000566 -0.295808
000390 58 72 22 3f 20 3b 05 3d 9c b0 84 be 98 b1 b1 be
       0.63455725 0.03252709 -0.25915992 -0.34705806
0003a0 35 69 cf 3c 0f 34 43 3e 70 ac 10 3e 76 26 d9 3e
       0.025318721 0.19062828 0.1412828 0.42412156
0003b0 66 80 2d be cd fc 59 be 88 1a a1 3e 07 8f b2 be
       -0.16943511 -0.21287842 0.31465554 -0.34874746
0003c0 7b cf 05 3f 6a cd cd 3e 7d b6 85 be 9a e7 b0 3e
       0.52269715 0.4019578 -0.2611579 0.34551698
0003d0 24 62 c1 3e 12 79 09 bf 1b 8b c7 be ef 6a 9a be
       0.37770188 -0.53700364 -0.38973317 -0.3015971
0003e0 db 1b 23 bd 40 b9 24 be ef 34 10 3e d8 d4 ea 3e
       -0.039821487 -0.16086292 0.14082693 0.45865512
0003f0 b8 59 e0 bd d9 69 2c be 0f 9c 17 be eb 57 da 3d
       -0.109546125 -0.16837253 -0.14805625 0.106613

conv1.bias f4 [16]
000000 c0 b0 fd 3d 98 8f 3c 3e 50 86 c4 bd f7 c5 01 be
       0.12387228 0.18414152 -0.095959306 -0.12673174
000010 86 d8 28 3f e5 6e 0b bc 7a 06 db 38 1d 22 ce be
       0.6595539 -0.008510326 0.0001044394 -0.402604
000020 c3 7c 5d be cb e1 78 bd 86 9a 32 bc a2 f5 91 bc
       -0.21629624 -0.060762208 -0.010901099 -0.017817322
000030 53 05 30 bd 02 c3 a1 bc 57 4b 84 3d b3 99 9f ba
       -0.042973828 -0.019746307 0.064596824 -0.0012176543

conv2.weight f4 [32, 16, 5, 5]
000000 3f 5f aa 3e f5 d1 bd bd 00 58 28 be a1 af a3 3d
       0.33275792 -0.09268562 -0.1643982 0.07992483
000010 8f ad 5f bd 61 b7 31 bd e4 3d 3d be 98 7a 38 3e
       -0.054608878 -0.043387774 -0.1848064 0.18015516
000020 41 16 0a be de 1b 07 be c2 ae c5 3d 75 f6 a1 be
       -0.13485052 -0.13194224 0.09652473 -0.31633344
000030 f1 81 94 3e 0d 77 57 3d cc e3 14 bd e0 a1 c9 3c
       0.29005387 0.05260377 -0.036350057 0.02461332
000040 7a c7 90 bd 9b 80 c1 bd 7c 4d 2b 3e 22 d8 9d 3d
       -0.07069297 -0.09448358 0.16728777 0.0770724
000050 5a 8e c0 bc 97 5c ea bd 25 68 46 be 16 ff fd 3e
       -0.023505379 -0.11443441 -0.19375665 0.49608678
000060 df f3 98 3d 35 95 02 bc 54 94 bd 3c 73 d5 e7 3e
       0.0746839 -0.007970144 0.023142017 0.45280036
000070 05 23 32 3e 1c 07 22 be a9 e6 a7 be b3 08 e2 bd
       0.17396171 -0.15823025 -0.32793167 -0.110368155
000080 cb 41 71 3e 60 72 44 bc 10 1c 17 3e 1b 74 10 be
       0.23560254 -0.01199016 0.14756799 -0.1410679
000090 79 52 cf be 56 88 fd bd ab 8a b1 3e d2 01 99 3e
       -0.4049261 -0.1237952 0.34676108 0.298842
0000a0 f8 4e f3 3d d4 05 52 3e 5c a1 c0 bd 54 bf 9c bd
       0.118802965 0.20510036 -0.09405777 -0.076536804
0000b0 06 5e 25 bd 46 8e 95 3e 6f 93 16 bc 6a c1 84 3d
       -0.04037287 0.2921011 -0.009190424 0.06482203
0000c0 1f cf b9 bd ca 73 f7 be 2c 3e 19 be e3 7b 67 be
       -0.09072708 -0.48330528 -0.14965123 -0.22605853
0000d0 0a ee 27 be 0f 9f bf 3e 90 f0 84 3e 0f fa 01 3e
       -0.16399398 0.3742604 0.25964785 0.12693046
0000e0 eb ae 1d 3e 24 70 13 bf 75 f8 e1 be 98 dc 96 be
       0.15398757 -0.5759299 -0.4413487 -0.29465175
0000f0 74 3d 7c 3e b8 03 ee 3e 35 93 17 3e ed 17 4f be
       0.24632818 0.46487212 0.14802249 -0.2022397
000100 14 29 0f be 6f e9 34 be ac 57 c2 3e 48 3a 40 3e
       -0.13980514 -0.17667173 0.37957513 0.18772233
000110 9e 4e 92 be 85 03 02 3d b1 60 8f be c5 50 49 3c
       -0.28575605 0.031741638 -0.28003457 0.012287323
000120 e6 a4 4f bb ef a1 95 be 9e cf 8d be ca 87 31 3e
       -0.003168398 -0.29225108 -0.27697462 0.17336956
000130 ef 33 ca 3e 86 b1 78 3e 63 a1 88 3e 0e bc 89 3e
       0.39492747 0.2428647 0.26685628 0.26901287
000140 2f 54 21 be f5 26 12 be 03 cf 3e 3e c6 4d 03 3e
       -0.1575477 -0.14272673 0.18633656 0.12822637
000150 5f bc f7 3c ea 8a fa bd f4 5a 05 be f0 99 2f be
       0.03024119 -0.12233527 -0.13022977 -0.17148566
000160 de b1 fb bd 2c e7 84 3d f6 3f 7f 3e 2a 33 9a 3d
       -0.12289785 0.06489405 0.24926743 0.0752929
000170 25 ca 54 bd 21 c8 1d 3e 04 0f c1 3e bc 57 47 bd
       -0.051950593 0.15408374 0.3770677 -0.048667654
000180 12 04 13 3e 6f 93 00 be f4 65 ff bd 73 c0 e5 3d
       0.14357021 -0.12556241 -0.12470618 0.112183474
000190 81 6f 1f be 97 01 bf be 58 9b 42 3e 8a 3a 24 3e
       -0.15569879 -0.373059 0.19004571 0.16037956
0001a0 61 5f 70 3e f2 e8 0a bd 63 75 c3 be c5 a6 b4 be
       0.23473884 -0.03391356 -0.38175496 -0.35283485
0001b0 5f c7 fd 3e f2 2e d3 3e 8b a8 5f be 6a 3f 90 be
       0.4956617 0.41246754 -0.21841638 -0.2817338
0001c0 56 c8 8a 3e 0c 7c 4a bd e2 6b 1b 3f b8 d5 82 bd
       0.2710597 -0.049434707 0.6071149 -0.0638842
0001d0 21 5f 56 be d0 71 a3 bd c6 a4 07 bf 3a cc 65 3d
       -0.20934726 -0.079806924 -0.529858 0.05610297
0001e0 ec 3d ee bd 86 2c ba 3e 72 55 25 be ed 09 db bd
       -0.116329044 0.36362094 -0.16145876 -0.106952526
0001f0 9b bc 6c 3e 33 08 6b 3e 06 a4 07 3e 3d f7 3f be
       0.23118822 0.22952347 0.13246164 -0.18746658
000200 24 e2 44 3d 28 77 b8 3d a2 39 3b be a2 2f 53 3e
       0.048067227 0.09007102 -0.18283704 0.20623639
000210 35 9e ac bd 45 5a 96 be e7 51 77 bd 10 be 3b bd
       -0.08428613 -0.29365745 -0.060380843 -0.045835555
000220 19 8c 65 bd d0 84 4f be c7 45 2f 3d b7 3a af bd
       -0.05604181 -0.20265508 0.042791154 -0.08556121
000230 b0 8f 03 bd 06 70 a9 bd 24 ea fe 3d 66 24 1b 3e
       -0.032119453 -0.0827332 0.124470025 0.15150604
000240 1b 65 ab bd 24 7c 67 3e c1 47 6c be f8 2d 4c 3d
       -0.08368894 0.2260595 -0.23074247 0.049848527
000250 f1 bd 57 3d f6 f9 b9 be 4e a7 3f 3c 70 d1 60 bc
       0.052671377 -0.36323518 0.011697603 -0.013721809
000260 76 32 19 3e 2a 65 0e be 34 bd 9e 3c eb 49 04 bf
       0.14960656 -0.13905779 0.019377328 -0.5167529
000270 6b 8a 08 bd bf 8a d8 bd 9f 4d cb be 9f ba 5d bd
       -0.03333513 -0.10573339 -0.39707658 -0.054133054
000280 b5 f2 17 be 22 e1 bc bd bd 59 ee 3d 40 43 cc 3e
       -0.14838679 -0.09222628 0.1163821 0.39895058
000290 fe 5c 97 3e 77 2f a5 3e d1 28 c2 3c f0 9f 4a 3e
       0.29563135 0.32262775 0.023701103 0.19787574
0002a0 3a de 04 3e 2a e3 99 3c 0f d9 9b bc 70 16 75 3a
       0.12975398 0.018785078 -0.0190244 0.0009349352
0002b0 14 8b 34 3e 44 a8 a4 bd 1a f0 cd be ea 6e e1 be
       0.17631179 -0.080399066 -0.40222245 -0.44029933
0002c0 3c f3 22 bf 3c 62 6d bf aa 9d 55 3e 2a 3f 01 3f
       -0.63652396 -0.9272802 0.20860925 0.50487006
0002d0 4c 02 aa 3c 4d 8a 4e be 19 35 0a be 70 6b 85 3e
       0.020753048 -0.20169945 -0.13496818 0.2605853
0002e0 8c ed e8 3d ec 0d 04 3e da 27 02 bf e8 5f 07 3d
       0.113734335 0.12895936 -0.5084206 0.033050448
0002f0 03 8e 7d 3e b5 7a 91 bd 8b a5 25 3e f1 d3 49 be
       0.24761204 -0.07103483 0.16176431 -0.19709755
000300 10 65 87 3d 0f 9e 59 be 9e 74 ce be 4c 22 ba bd
       0.06611073 -0.21251701 -0.40323347 -0.09088573
000310 35 a5 cc 3d 1b 5c 4e be 78 23 d6 be 6b 54 0a bf
       0.09992448 -0.20152323 -0.41823936 -0.5403506
000320 f5 3d 14 3e 20 2d 2b bc 9a 05 c5 bd 17 a7 ab bd
       0.1447676 -0.01044777 -0.09620209 -0.08381479
000330 68 7a 9f bd d7 fe 20 be ef 2a 0d 3c ee c4 4a be
       -0.07787019 -0.15722214 0.008616193 -0.19801685
000340 d5 a6 fd bc 14 5a b9 3c 49 5b f6 be c4 33 c5 bd
       -0.03096334 0.02262596 -0.4811652 -0.09629014
000350 ce 34 ca 3d 27 b3 93 be 07 66 52 3e 57 a4 f3 3e
       0.09873353 -0.2884762 0.20546733 0.4758632
000360 b7 8c c7 bd f7 57 08 3e 1d 95 d8 3b bc 6e 32 be
       -0.09743636 0.13314806 0.0066095726 -0.17425054
000370 0d 48 28 be f3 ce 3e be 13 6c d0 3d 1c 53 a2 be
       -0.16433735 -0.18633632 0.101768635 -0.31704032
000380 b7 ba 88 be 2f f4 c5 be f9 a1 7c 3e 4f 41 98 bd
       -0.26704952 -0.3866286 0.24671163 -0.074343316
000390 1f 54 e4 3b a7 17 4f 3e 3a 4a 44 bc 72 74 50 be
       0.006968036 0.20223866 -0.011980588 -0.2035692
0003a0 6a a1 10 3e 32 45 8a bd af ec 78 3e ba b0 23 3e
       0.14124075 -0.06751479 0.24309038 0.15985385
0003b0 6c c0 94 bd f4 eb 74 be 95 3f 51 3d f2 1d 7b 3e
       -0.07263264 -0.23918134 0.051086027 0.24523142
0003c0 f8 fc 4f 3e c6 c9 26 be a0 67 7d 3e 66 d8 a2 3d
       0.20311344 -0.16287908 0.24746561 0.07951431
0003d0 4b 55 98 3d 8d a1 8f 3d 37 80 9b bd 69 fd 38 bd
       0.07438143 0.07013235 -0.075928144 -0.045163546
0003e0 d2 b1 18 3e a0 8b be be d8 92 fa be 22 da 3c 3e
       0.14911583 -0.372159 -0.48940158 0.18442586
0003f0 f3 34 2d 3f 6e ee d5 be 2a 43 a8 bd ec aa 73 bf
       0.6765892 -0.4178347 -0.082159355 -0.9518268

conv2.bias f4 [32]
000000 97 bd bb bc bc 20 4e be 4b 61 87 3e 6a 21 46 3f
       -0.022917552 -0.20129675 0.26441416 0.77394736
000010 34 ad 83 bd 59 7d a9 39 7a 00 a5 3e d5 4d 95 3d
       -0.0642952 0.00032327583 0.32226926 0.07290236
000020 0d 71 a0 be 96 17 6f 3d 9e 0e 5a 3e c5 0a 42 3e
       -0.3133625 0.058372103 0.21294639 0.18949421
000030 ca 6e a8 be 03 21 66 bd af 41 cb 3d 16 62 7e be
       -0.32897025 -0.056183826 0.099246375 -0.24842104
000040 60 e7 5e be 3e 80 fd 3e 4f f1 0d be 25 f4 6a 3e
       -0.2176795 0.49511904 -0.13861583 0.22944696
000050 7e 48 a5 3e a9 59 e8 3d 43 0a 7b 3e 2e ea cb 3e
       0.3228187 0.11345226 0.24515633 0.39827102
000060 b0 26 90 bd 9f f3 f1 bd 46 e7 f8 3e 39 c8 64 3e
       -0.07038629 -0.11814045 0.48613948 0.22342004
000070 6c 73 f8 3b 27 e9 fc 3b 99 cc 54 3d 8d ff 61 be
       0.0075821187 0.0077182236 0.051952932 -0.22070141

dense1.weight f4 [10, 512]
000000 04 b0 98 3e 8e 3a 1c be 99 23 47 3e 5f 97 0e 3e
       0.2982179 -0.15256712 0.19447173 0.13924931
000010 90 3b d4 bd d5 c1 86 3e 05 c2 ac be 86 d3 fc 3c
       -0.10362923 0.26319757 -0.33741775 0.030862581
000020 15 00 14 bd 71 a2 c6 be 2b d3 06 3e 41 fb 95 bd
       -0.03613289 -0.38795808 0.13166492 -0.073233135
000030 20 af e7 bd a6 54 e2 3b 77 31 ba 3d d0 93 53 3e
       -0.11312699 0.0069070635 0.09091466 0.20661855
000040 2c 3e 79 3e 6f aa 50 bd c6 08 6b be 7e 0c 8e be
       0.24340123 -0.05094379 -0.22952566 -0.27743906
000050 ab 4e 72 bd 8e e2 82 bd db 14 fb 3d 21 17 47 be
       -0.059157055 -0.06390868 0.12259837 -0.19442417
000060 1c 49 30 bd 7a 40 bc bd f4 df ad 3d f7 85 3f bd
       -0.043038473 -0.091919854 0.08489981 -0.04675862
000070 c6 aa f1 bc 05 87 b6 3e c6 08 14 3e 7b 4a ac 3d
       -0.029500376 0.35649887 0.14456472 0.084126435
000080 ac 54 ac be 6a 24 b0 3c 8a 4f 29 bc 69 36 20 bd
       -0.3365835 0.021501739 -0.010333905 -0.03911439
000090 4c 38 25 be da de bd bd 2b 95 ff bc 6e 78 7b be
       -0.16134757 -0.09271021 -0.031199059 -0.24557659
0000a0 e6 7c 12 3d ce f3 7c bd 1f 9b 4c 3e a9 c0 e7 3c
       0.035763644 -0.061755948 0.19981049 0.02829011
0000b0 34 ff 65 3c 78 54 66 3e 96 4d 05 3e 85 6b 98 3e
       0.014037896 0.2249316 0.13017878 0.2976953
0000c0 1a 7e fa 3d de 39 ea 3e 98 1c 19 bd 92 1c 54 bd
       0.12231083 0.45747274 -0.037380785 -0.05178506
0000d0 dd e1 11 3d d8 fa 1d bf 2d 25 20 3e cf 8a 17 3e
       0.03561579 -0.6171088 0.15639181 0.14799045
0000e0 a0 ba 0d 3e 74 c8 7a 3e 3c ee 2a be d3 59 a8 3e
       0.13840723 0.2449053 -0.16692442 0.3288103
0000f0 4b af df 3d ca 33 64 bd 0e a8 e2 3e 67 ad 8a be
       0.10922106 -0.055713452 0.4426884 -0.2708542
000100 d6 6b 7d bd 64 d3 5b bd 1d 0e 33 3d 43 b1 5a 3c
       -0.06187042 -0.053668395 0.04371463 0.013347927
000110 e0 21 b5 3c 48 a4 23 bd 70 48 17 3d 51 db 4e 3d
       0.02211088 -0.039951593 0.036934316 0.050502125
000120 ed 46 17 3d 74 1a 20 3d 9f e5 a9 3d 5d 59 5b bc
       0.036932874 0.039087728 0.0829575 -0.013388005
000130 ed eb 83 3d 41 b2 32 bc 62 ea 14 3a 9c dd 54 bb
       0.06441484 -0.010906757 0.0005680678 -0.0032480722
000140 83 31 b3 3d f5 31 26 bc cf 51 4b 3e b7 b5 26 3e
       0.08749678 -0.010143747 0.19855426 0.16280256
000150 5c 9c a2 3d 46 af 20 be d5 2c 43 be 2f f0 24 3d
       0.079399794 -0.15691862 -0.19060071 0.04026812
000160 c8 62 25 3e b4 f0 81 3e 29 06 c6 bd f2 87 69 bd
       0.16150963 0.25378954 -0.09669144 -0.057014413
000170 05 c3 85 be c5 50 0b bf a5 d3 17 be 6a 75 dc bd
       -0.2612535 -0.5442012 -0.1482683 -0.107645825
000180 9d 00 51 3d cc cf 5e be 12 2b 30 bb ea 6e c6 3d
       0.051025975 -0.21758956 -0.002688114 0.09689124
000190 55 c8 25 3e 60 c0 88 bd 0e 3e a4 3d 49 6f 72 be
       0.16189702 -0.066773176 0.080196485 -0.23675264
0001a0 69 d3 34 bc cb 68 26 3e 5a 9f 2a bd 92 40 e3 bd
       -0.011036732 0.16250913 -0.041655876 -0.110963
0001b0 04 84 87 be 1b b4 73 3e 6d de 81 3d c2 38 15 3e
       -0.26467907 0.23799174 0.063412525 0.14572433
0001c0 ad 89 10 3e a2 e3 39 bc b6 22 17 3d bc 16 64 3e
       0.14115019 -0.011345776 0.036898337 0.22274297
0001d0 20 5f 13 be c8 69 76 3e 5f 89 04 be a5 75 87 be
       -0.14391756 0.2406379 -0.12943028 -0.26456943
0001e0 59 7b e5 3d b8 7d ff 3d 6c 1a b5 3c 03 9d f5 bd
       0.11205167 0.12475151 0.022107325 -0.11992838
0001f0 ab 36 b5 be ae 2a 2f 3d 70 fa ac 3e f2 e8 08 bf
       -0.3539327 0.042765312 0.3378482 -0.53480446
000200 1f c4 85 be f9 1c 59 3e ae fe 5a be b0 10 bc bd
       -0.2612619 0.21202458 -0.21386215 -0.091828704
000210 47 73 fa bb 2d 47 37 bf 4d fd 11 3f d1 54 dd 3d
       -0.0076431367 -0.7159298 0.5702713 0.10807193
000220 e2 f0 05 be 86 03 15 be 6d 7d d1 be 65 8f 6e bd
       -0.13080171 -0.14552125 -0.40916005 -0.05824222
000230 39 1b 4b 3e 86 8d 23 be 5b 37 63 3c 61 62 36 3e
       0.19834603 -0.15971956 0.013868178 0.17810966
000240 b4 71 3e be 26 94 5c 3b 21 d4 46 be b1 96 a4 3e
       -0.18598062 0.003365764 -0.19416858 0.32146218
000250 66 e5 c0 3c 40 ff ab bc 8b d9 33 be 2c 33 9e 3d
       0.023546886 -0.020995736 -0.17563455 0.07724604
000260 18 07 6a 3e 30 2d d3 3d ec 5c 27 3e 6d e3 ce bc
       0.22854269 0.10311353 0.1634404 -0.02525493
000270 7f 4d 36 bd 53 94 cc bb 1a 46 9b bd 27 e5 84 be
       -0.0445075 -0.0062432676 -0.0758173 -0.2595608
000280 10 bc 3b be 89 18 3b be 20 11 15 3d a2 80 6b 3e
       -0.18333459 -0.18271078 0.036393285 0.22998288
000290 08 b3 17 bd 47 40 9b 3d 84 30 06 be 7f ee 48 3e
       -0.037035972 0.07580619 -0.13104445 0.19622229
0002a0 da 27 12 bd 98 6c 7c 3e 8c 1e 24 be d4 01 75 3d
       -0.035682537 0.246508 -0.16027278 0.059816197
0002b0 ed 6a 57 3d 39 b3 97 3e 3b c7 4a 3e 31 f4 0d be
       0.052592207 0.29628924 0.19802563 -0.13862683
0002c0 99 c4 08 3f ff 4b ae bc f5 77 08 bd bf 37 cf 3e
       0.53424984 -0.021276472 -0.033317525 0.40472218
0002d0 4d 63 d5 bd 92 5c 7b bd 79 8b 2c 3d 33 00 94 be
       -0.10419331 -0.06136758 0.0421252 -0.28906402
0002e0 af cf ef be 52 1d ba 3b 1e ce c4 bc db 6b 26 bd
       -0.46838138 0.005679765 -0.024024066 -0.040630203
0002f0 66 4a 56 be dc bb 1b 3d 5d e9 eb 3c 11 bd 4d 3d
       -0.20926818 0.038020954 0.0287978 0.050229136
000300 d4 67 80 be 56 19 a6 be 7f 77 8a 3d 34 62 49 3e
       -0.25079215 -0.32441205 0.06761073 0.19666368
000310 8e 67 06 bf 1a a4 ef bd 1d e1 0a 3f 46 2c 06 bf
       -0.5250176 -0.11701222 0.54249746 -0.52411306
000320 fa a0 60 3e e6 6e 8c be 5b 16 86 3d 28 0a b5 be
       0.21936408 -0.2742836 0.06547233 -0.3535931
000330 4d ed 39 bc ca bd 1a bf 58 3f 2f 3e 0c 72 49 bd
       -0.011348081 -0.60445845 0.17114007 -0.04918103
000340 51 11 8c be 80 dc 04 3f ab d6 e8 3a df 9f 19 3d
       -0.2735696 0.51898956 0.0017764171 0.03750598
000350 f3 2a 24 3e 34 30 c9 bc c1 f9 c1 be 04 38 fc bc
       0.16032009 -0.024559118 -0.3788586 -0.03078843
000360 3f 36 37 3e b9 d5 3e 3e a7 b0 b6 be d3 d1 99 be
       0.17891787 0.18636216 -0.3568165 -0.30042896
000370 34 21 9b be 6c 53 0e 3e 14 41 cf 3e 4e 23 58 3e
       -0.3029877 0.1389901 0.40479338 0.21107218
000380 a4 ed 72 3e 89 32 a3 3b 41 d1 0d 3e 68 89 4c 3e
       0.23723465 0.0049803895 0.13849355 0.19974291
000390 4a ed 1d be e1 88 c1 bd bd c8 16 be c0 8d 86 3e
       -0.1542255 -0.09449936 -0.14725013 0.26280022
0003a0 c9 57 e5 bd e7 7b fb 3d 05 bd aa bd 91 67 a4 be
       -0.11198384 0.12279492 -0.08336834 -0.32110265
0003b0 5e 03 83 be f2 19 73 bc 28 8c 44 be 4f 88 42 3d
       -0.25588506 -0.014837729 -0.1919409 0.047493275
0003c0 13 8e 57 bd 0c 7b 39 be 52 86 03 bf 00 7b 07 bd
       -0.052625727 -0.18113345 -0.5137683 -0.033076286
0003d0 d3 f2 c0 3e f3 fb ed bd f1 31 1e 3e 5e 2c d0 3c
       0.3768526 -0.11620321 0.15448739 0.02541178
0003e0 bf bb 36 bc 7e 88 94 3d c0 aa a7 be bb c7 8e 3e
       -0.011153161 0.07252596 -0.3274746 0.27886757
0003f0 64 b3 48 3e 08 c9 c1 bd 4a ec fb bd 41 05 e1 bd
       0.19599682 -0.09462172 -0.12300928 -0.1098733

dense1.bias f4 [10]
000000 af fe 1b be 47 87 05 bd af 8a 1a 3e 9a 82 c4 3d
       -0.15233873 -0.032599714 0.15091966 0.09595223
000010 36 0f f8 be 7c 02 b8 be f2 fc 7a 3e 41 18 27 3e
       -0.48449105 -0.35939395 0.24510553 0.16317846
000020 b8 9b 6e 3e f3 cd 27 bd
       0.2330159 -0.040967893
