saved_weights/Model_epoch_no_40_train_acc_96.81_val_acc_90.10.pth (torch_old, 74659 bytes, 6 tensors)

conv1.weight f4 [16, 1, 5, 5]
-0.69150853 -0.052951634 -0.21919675 -0.103589885 -0.2068443 -0.29852915 0.3444694 -0.42987502
-0.29572052 0.020238306 -0.1969905 0.13852075 -0.008360489 0.49753863 0.26397026 0.3004664
0.13187978 -0.049556363 0.0047263065 -0.32434455 0.60612774 0.03360835 -0.09752103 0.11281456
0.24976055 -0.16466776 0.159424 0.30796582 0.3792391 -0.22885782 0.16218214 0.34452704
0.1779454 0.08497945 0.022537833 0.21927346 0.016605312 -0.20697601 -0.12234796 0.13145238
0.056897525 -0.0657012 -0.14371096 -0.1295563 -0.026296133 -0.6902569 -0.25840303 -0.26285222
-0.0042243865 0.006414597 -0.07407906 0.026037857 -0.09361829 -0.620328 -0.8502253 0.03855387
0.28477567 0.46570504 -0.011249821 -0.74634 -0.09014107 -0.11905029 0.16063248 0.20556557
-0.38115767 0.26467082 -0.06570771 -0.010423663 0.24063629 -0.065069534 0.31877542 0.26234803
0.27774796 0.4073264 0.22471792 -0.5994322 -0.6605342 -0.4329194 -0.40934622 -0.41533065
-0.1554317 -0.0015484182 0.2245856 0.4517952 0.31419888 0.11892328 0.47388032 0.23605095
0.3613282 0.2094527 -0.28393215 0.06575805 0.13358736 -0.048186038 0.16286752 0.18687597
0.19372459 -0.068335645 0.018802484 -0.049555827 0.2526435 0.068572074 0.10198617 -0.03483362
-0.48117822 0.21424487 0.26260376 0.21510634 -0.11085098 -0.4049869 -0.11003973 0.4502528
-0.013558954 -0.10479848 -0.15555452 -0.70918983 -0.58856106 0.07854213 0.353403 0.5960303
-2.402387 -3.688612 -1.2144256 -0.040698428 0.25008225 -0.2310768 0.23431657 0.32075086
0.26156852 0.26089656 0.020543007 -0.22372174 0.07208969 0.10330286 -0.18703069 0.13782085
-0.0026981044 -0.09421194 -0.28273427 -0.30450496 -0.1063077 -0.0425465 -0.046476193 0.049145434
-0.019895364 -0.10995489 0.15712819 0.07511277 0.29137537 0.1252929 -0.1372048 -0.6135809
-0.16066697 0.30422965 0.26027265 -0.21253285 0.41283157 0.81986606 0.33058214 -0.09060089
0.29898432 0.35386774 0.30031657 -0.5498641 -0.5140054 -0.0765324 -0.26386493 -0.59456754
-0.34155613 -0.12359964 0.3342663 0.2702737 0.08296838 -0.12716699 0.051764224 0.2403027
-0.37244123 0.18952194 -0.010717263 0.10403836 0.41065636 -0.4300772 0.43990904 -0.4016426
-0.15641713 0.1993147 -0.04778909 0.25879374 -0.27756885 0.011501598 0.21162046 0.22585854
0.09232595 -0.09888101 -0.03636283 0.13176475 -0.04883679 -0.34985378 0.3332166 0.22048676
0.32626617 -0.044104908 -0.10218366 -0.30390602 -0.1994881 0.27208865 0.17197351 0.285343
-0.50177234 -0.26470107 0.03524758 0.2974544 0.38802144 -0.095247485 0.018988352 -0.31189406
-0.22465871 0.3630362 0.017105639 0.22180793 -0.031779256 -0.017013257 0.33192182 -0.053195994
-0.2777295 0.040855046 -0.036067177 -0.28374755 0.5803242 0.04375067 -0.24452655 -0.31319058
-0.0033247634 0.15898843 0.13569531 0.377666 -0.1644861 -0.17300028 0.2805852 -0.2995666
0.4957262 0.39206448 -0.22428492 0.3383645 0.3163845 -0.49839386 -0.3584047 -0.31318885
-0.009231944 -0.14785606 0.12617151 0.4380306 -0.09898536 -0.15602688 -0.12775628 0.119944945
00000000: b406 31bf d0e3 58bd 1d75 60be ef26 d4bd
00000010: fece 53be d0d8 98be 4b5e b03e 9418 dcbe
00000020: ae68 97be ceca a53c e1b7 49be 62d8 0d3e
00000030: 6ffa 08bc 62bd fe3e 1c27 873e bbd6 993e
00000040: 7e0b 073e 9dfb 4abd 22df 9a3b 7d10 a6be
00000050: 302b 1b3f e9a8 093d 1bb9 c7bd 520b e73d
00000060: 3bc1 7f3e aa9e 28be 0c40 233e b2ad 9d3e
00000070: a12b c23e b459 6abe 1313 263e d965 b03e
00000080: 5237 363e b509 ae3d 43a1 b83c 3989 603e
00000090: dd07 883c 85f1 53be 9191 fabd 749b 063e
000000a0: 610d 693d 5a8e 86bd f728 13be 68aa 04be
000000b0: fd6a d7bc adb4 30bf 674d 84be 9194 86be
000000c0: b96c 8abb 8a31 d23b c3b6 97bd 584d d53c
000000d0: f2ba bfbd d1cd 1ebf 5ea8 59bf aaea 1d3d
000000e0: 1ece 913e e470 ee3e 2b51 38bc 2310 3fbf
000000f0: e29b b8bd a3d0 f3bd d77c 243e c87f 523e
00000100: 1927 c3be ef82 873e c491 86bd 03c8 2abc
00000110: 5c69 763e 2d43 85bd 8836 a33e 7b52 863e
00000120: fb34 8e3e 168d d03e 741c 663e 6374 19bf
00000130: c518 29bf 9da7 ddbe d495 d1be 38a6 d4be
00000140: 7d29 1fbe 4bf4 caba c4f9 653e b351 e73e
00000150: adde a03e 0c8e f33d 71a0 f23e 57b7 713e
00000160: 0300 b93e c57a 563e 8e5f 91be 28ac 863d
00000170: 20cb 083e b95e 45bd bec6 263e 6a5c 3f3e
00000180: bd5f 463e 8ff3 8bbd ab07 9a3c 0dfb 4abd
00000190: 7d5a 813e 846f 8c3d 20de d03d b3ad 0ebd
000001a0: fe5c f6be 0263 5b3e 0074 863e d644 5c3e
000001b0: d705 e3bd 715a cfbe 835c e1bd 8987 e63e
000001c0: 6026 5ebc 96a0 d6bd af49 1fbe 778d 35bf
000001d0: f0ab 16bf b2da a03d 3df1 b43e 7195 183f
000001e0: b5c0 19c0 3812 6cc0 4c72 9bbf 65b3 26bd
000001f0: c80a 803e 669f 6cbe aff0 6f3e 7539 a43e
00000200: 4fec 853e 3c94 853e cf49 a83c 5017 65be
00000210: c2a3 933d 7390 d33d f984 3fbe e920 0d3e
00000220: aed2 30bb 31f2 c0bd 8cc2 90be 13e8 9bbe
00000230: dab7 d9bd 3d45 2ebd d25d 3ebd b94c 493d
00000240: 9afb a2bc 0830 e1bd 36e6 203e b9d4 993d
00000250: 272f 953e c84c 003e 6a7f 0cbe a313 1dbf
00000260: e285 24be fdc3 9b3e 7542 853e 36a2 59be
00000270: a95e d33e bee2 513f 1042 a93e f68c b9bd
00000280: 7914 993e 272e b53e 18c3 993e e5c3 0cbf
00000290: dc95 03bf 05bd 9cbd 4e19 87be 9435 18bf
000002a0: 72e0 aebe cf21 fdbd f424 ab3e 5061 8a3e
000002b0: 53eb a93d 1038 02be b906 543d e911 763e
000002c0: 9eb0 bebe 0a12 423e 7697 2fbc 1012 d53d
000002d0: 8d41 d23e 1433 dcbe c23b e13e 19a4 cdbe
000002e0: d02b 20be 2719 4c3e 7ebe 43bd 9d80 843e
000002f0: 811d 8ebe 3371 3c3c 09b3 583e 7647 673e
00000300: 6315 bd3d 2182 cabd 31f1 14bd 57ed 063e
00000310: 1609 48bd 0920 b3be 5e9b aa3e 48c7 613e
00000320: 5c0c a73e 59a7 34bd ab45 d1bd 9299 9bbe
00000330: 9c46 4cbe 344f 8b3e d319 303e 7a18 923e
00000340: 2774 00bf e686 87be c45f 103d f14b 983e
00000350: bfaa c63e 1d11 c3bd 768d 9b3c 94b0 9fbe
00000360: ef0c 66be e1df b93e 2021 8c3c 9e21 633e
00000370: f72a 02bd 635f 8bbc a8f1 a93e 0be4 59bd
00000380: 9032 8ebe 9f57 273d 2dbb 13bd 5c47 91be
00000390: 2090 143f e733 333d 2b65 7abe 845a a0be
000003a0: 46e4 59bb ddcd 223e b6f3 0a3e 705d c13e
000003b0: 0b6f 28be fc26 31be dda8 8f3e cb60 99be
000003c0: d3cf fd3e adbc c83e f2aa 65be 1d3e ad3e
000003d0: 26fd a13e 7b2d ffbe d280 b7be 4a5a a0be
000003e0: 9441 17bc 9467 17be 1b33 013e 8c45 e03e
000003f0: d6b8 cabd 83c5 1fbe 8bd2 02be b2a5 f53d

conv1.bias f4 [16]
0.12060301 0.18051152 -0.08844262 -0.12394242 0.6188229 -0.0016458544 0.020586884 -0.3668106
-0.1912494 -0.022653205 -0.014661384 -0.012060006 -0.038719002 -0.0046427716 0.05597513 -0.00107243
00000000: b6fe f63d 03d8 383e 6821 b5bd 86d5 fdbd
00000010: 2d6b 1e3f b6b9 d7ba d3a5 a83c 99ce bbbe
00000020: e2d6 43be 3793 b9bc 4d36 70bc 5597 45bc
00000030: d197 1ebd 6422 98bb 2e46 653d c890 8cba

conv2.weight f4 [32, 16, 5, 5]
0.26361606 -0.06417911 -0.0917192 0.10103592 -0.026652105 -0.07729281 -0.20967175 0.14830686
-0.16933022 -0.06977579 0.052312367 -0.30881664 0.23397446 0.046651587 -0.06167113 0.047892958
-0.042819947 -0.0017476252 0.12602118 0.06894032 -0.017400056 -0.088325426 -0.2235326 0.43836248
0.065662704 -0.05801915 0.025946155 0.36386752 0.14220577 -0.09888791 -0.25941655 -0.18448006
0.17428195 0.042806983 0.13214603 -0.1648411 -0.3197772 -0.030153977 0.28659478 0.24669461
0.11923452 0.1862716 -0.11039295 -0.093611926 -0.0549742 0.27886006 0.012344359 0.08644486
-0.08888799 -0.39804718 -0.09565981 -0.21002047 -0.11678578 0.3531954 0.2535264 0.090359434
0.12719795 -0.5388335 -0.37741053 -0.28988895 0.20616953 0.46485922 0.13071314 -0.17827207
-0.17064354 -0.12553997 0.35635364 0.15801263 -0.215129 0.03553706 -0.2345395 0.028595991
-0.01505431 -0.2645709 -0.248754 0.15534419 0.36248267 0.2653689 0.27903777 0.26400343
-0.1459078 -0.12440736 0.14063518 0.06367485 0.07038919 -0.1627438 -0.16754064 -0.21368086
-0.10534551 0.03637652 0.24719566 0.10064456 -0.060370155 0.17677608 0.32945397 -0.024790656
0.08410676 -0.14037968 -0.040209033 0.1035772 -0.16324656 -0.33304873 0.16250105 0.19439088
0.23840652 -0.033358276 -0.34044564 -0.3215385 0.44358656 0.4169177 -0.22720098 -0.33359358
0.19544947 -0.004005218 0.6040172 -0.0294552 -0.2345596 -0.073660746 -0.4540678 0.075618155
-0.099088594 0.28523034 -0.10987877 -0.07839602 0.26067594 0.16203804 0.08998349 -0.18810973
-0.0185811 0.07351805 -0.15552007 0.17083228 -0.05058883 -0.27616763 -0.092243195 -0.047182858
-0.07916351 -0.15895377 0.04150375 -0.06818294 0.019009596 -0.01578293 0.08199514 0.11510635
-0.08190657 0.20318425 -0.177763 0.052916143 0.04297347 -0.27761966 -0.024412768 0.05131811
0.17789282 -0.13554715 0.020726945 -0.48224592 -0.047744513 -0.06007717 -0.2785939 -0.0053906017
-0.14346331 -0.059258755 0.15607819 0.341374 0.2086167 0.30856168 0.050377768 0.19908635
0.13883388 -0.0037088061 -0.038849007 0.06190145 0.15273309 -0.07364289 -0.3840167 -0.3594872
-0.6195001 -0.85665107 0.19676182 0.41620094 0.023410836 -0.103940815 -0.14776365 0.14957236
0.11033578 0.06888015 -0.41078216 -0.0133251995 0.095938265 -0.10079935 0.13565233 -0.19339244
0.024876976 -0.24454887 -0.38706383 -0.08229597 0.036772065 -0.23665324 -0.39153615 -0.5049929
0.063722685 -0.041729067 -0.0182165 -0.021292334 -0.03226177 -0.13593814 0.013701052 -0.25663415
-0.049567826 0.0015580866 -0.40885565 -0.069819756 0.097542495 -0.28288576 0.091725044 0.4890993
-0.048942443 0.13035187 -0.05835304 -0.17118452 -0.14519703 -0.1321233 0.07851156 -0.23598038
-0.23372106 -0.36928985 0.15459597 -0.057621304 0.021785956 0.26509106 0.014723798 -0.17347842
0.12632571 -0.017720427 0.1856488 0.104138196 -0.016841434 -0.15755208 0.016745264 0.2137256
0.20700686 -0.06762066 0.1839011 0.053578757 0.05339923 0.09497091 -0.11228964 -0.024516387
0.10776912 -0.3158556 -0.45630503 0.19050339 0.68256605 -0.38403586 -0.025175244 -0.85784733
00000000: aff8 863e 5670 83bd 47d7 bbbd eceb ce3d
00000010: 8455 dabc b14b 9ebd 31b4 56be c1dd 173e
00000020: e764 2dbe 9ce6 8ebd 7e45 563d 371d 9ebe
00000030: 0097 6f3e bc15 3f3d de9a 7cbd 682b 443d
00000040: f863 2fbd 9210 e5ba b20b 013e 9530 8d3d
00000050: 908a 8ebc f6e3 b4bd bbe5 64be 0c71 e03e
00000060: 2b7a 863d 7da5 6dbd 088d d43c d84c ba3e
00000070: 649e 113e bf85 cabd 3fd2 84be 57e8 3cbe
00000080: f876 323e 6056 2f3d 4a51 073e 1bcc 28be
00000090: d6b9 a3be 7905 f7bc 8dbc 923e 839d 7c3e
000000a0: 3a31 f43d fbbd 3e3e b315 e2bd 9cb7 bfbd
000000b0: a02c 61bd bfc6 8e3e ff3f 4a3c 010a b13d
000000c0: e80a b6bd d7cc cbbe 4ae9 c3bd 9b0f 57be
000000d0: 622d efbd 07d6 b43e 36ce 813e 5e0e b93d
000000e0: 2e40 023e fef0 09bf f43b c1be 536c 94be
000000f0: 1b1e 533e 0702 ee3e aad9 053e f48c 36be
00000100: 2ebd 2ebe 8d8d 00be fc73 b63e 10ce 213e
00000110: c74a 5cbe 4f8f 113d 1f2b 70be 2442 ea3c
00000120: 5aa6 76bc d675 87be 5eb9 7ebe 8c12 1f3e
00000130: 5497 b93e 6fde 873e 0ade 8e3e 752b 873e
00000140: db68 15be 49c9 febd ab02 103e f667 823d
00000150: 3528 903d 50a6 26be c68f 2bbe 28cf 5abe
00000160: 63bf d7bd 8cff 143d dc20 7d3e bc1e ce3d
00000170: b246 77bd ca04 353e 31ae a83e c615 cbbc
00000180: 2a40 ac3d b1bf 0fbe 3ab2 24bd 4820 d43d
00000190: 1b2a 27be 5d85 aabe ad66 263e 670e 473e
000001a0: d720 743e b0a2 08bd e44e aebe b2a0 a4be
000001b0: c71d e33e 3d76 d53e 60a7 68be c7cc aabe
000001c0: e823 483e 343e 83bb dfa0 1a3f 084c f1bc
000001d0: 6430 70be 72db 96bd 937b e8be b1dd 9a3d
000001e0: f6ee cabd b609 923e 1f08 e1bd 188e a0bd
000001f0: 5177 853e 4ded 253e 4449 b83d d69f 40be
00000200: 6437 98bc a290 963d a740 1fbe a8ee 2e3e
00000210: 3c36 4fbd d865 8dbe 00ea bcbd d042 41bd
00000220: 7a20 a2bd c7c4 22be d6ff 293d 7fa3 8bbd
00000230: 03ba 9b3c 344b 81bc 11ed a73d e1bc eb3d
00000240: a2be a7bd 880f 503e 8107 36be 99be 583d
00000250: f304 303d 2a24 8ebe 49fd c7bc f032 523d
00000260: 8929 363e dfcc 0abe 8ecb a93c f0e8 f6be
00000270: c08f 43bd 7b13 76bd dca3 8ebe a5a3 b0bb
00000280: 0ce8 12be 4fb9 72bd f6d2 1f3e 93c8 ae3e
00000290: 9e9f 553e ccfb 9d3e eb58 4e3d 4bdd 4b3e
000002a0: 782a 0e3e 710f 73bb 2320 1fbd 608c 7d3d
000002b0: 1066 1c3e 15d2 96bd d69d c4be b50e b8be
000002c0: 8f97 1ebf 7c4d 5bbf ee7b 493e 4a18 d53e
000002d0: 15c8 bf3c ecde d4bd 5b4f 17be 7f29 193e
000002e0: baf7 e13d 0911 8d3d 0a52 d2be f051 5abc
000002f0: 487b c43d e46f cebd 72e8 0a3e ab08 46be
00000300: cdca cb3c 056b 7abe 3b2d c6be ca8a a8bd
00000310: 4e9e 163d 3a55 72be 6d77 c8be 3747 01bf
00000320: 0a81 823d 19ec 2abd c53a 95bc 436d aebc
00000330: eb24 04bd 5e33 0bbe 617a 603c 8d65 83be
00000340: a207 4bbd b638 cc3a 8755 d1be a9fd 8ebd
00000350: 5cc4 c73d 67d6 90be 57da bb3d 396b fa3e
00000360: df77 48bd f67a 053e 9903 6fbd ff4a 2fbe
00000370: 88ae 14be 554b 07be abca a03d d7a4 71be
00000380: 9354 6fbe 8f13 bdbe 684e 1e3e 5104 6cbd
00000390: 7678 b23c 04ba 873e 163c 713c 54a4 31be
000003a0: 875b 013e 6e2a 91bc b81a 3e3e 6846 d53d
000003b0: 0cf7 89bc 5555 21be 5d2d 893c e2da 5a3e
000003c0: 9bf9 533e b37c 8abd 9250 3c3e 6675 5b3d
000003d0: 27b9 5a3d 1c80 c23d 1cf8 e5bd 97d6 c8bc
000003e0: 0eb6 dc3d d3b7 a1be d0a0 e9be 5213 433e
000003f0: a6bc 2e3f 59a0 c4be 503c cebc e29b 5bbf

conv2.bias f4 [32]
0.024422187 -0.18056005 0.26861984 0.68599224 -0.0642952 -0.05721518 0.31750405 0.01996
-0.2332049 0.05131417 0.21214715 0.1920949 -0.24859287 -0.057561155 0.08076328 -0.17654836
-0.20098372 0.44491935 -0.081057005 0.20566866 0.26859915 0.122887306 0.19634362 0.3472336
-0.057626486 -0.101689614 0.43534514 0.24345875 0.0075821187 0.0131374495 0.043389555 -0.19252732
00000000: 0a11 c83c bce4 38be 8a88 893e 309d 2f3f
00000010: 34ad 83bd 775a 6abd e48f a23e 2783 a33c
00000020: 44cd 6ebe cf2e 523d 1a3d 593e 87b4 443e
00000030: 218f 7ebe 3fc5 6bbd 3867 a53d 18c9 34be
00000040: adce 4dbe 78cc e33e 3701 a6bd ce9a 523e
00000050: d485 893e 57ac fb3d 4d0e 493e 9ac8 b13e
00000060: c009 6cbd a542 d0bd 8fe5 de3e 404d 793e
00000070: 6c73 f83b 753e 573c 3fb9 313d e225 45be

dense1.weight f4 [10, 512]
0.2693538 -0.11410537 0.1777579 0.10819544 -0.1130229 0.24268578 -0.29425716 0.017513916
-0.009101308 -0.34925157 0.15600562 -0.06296406 -0.08423331 -0.059287608 0.08156106 0.1908211
0.21091536 -0.031155394 -0.22809114 -0.26547527 -0.055767793 -0.0522143 0.11754422 -0.24548487
-0.00955054 -0.06728403 0.11862614 -0.05832722 -0.0140439635 0.32876676 0.1111003 0.0365945
-0.2536382 -0.0054437546 0.012507378 -0.014525191 -0.11875804 -0.08278804 -0.027606213 -0.23930494
0.021783356 -0.04185274 0.16926624 0.023966808 -0.019682746 0.19282955 0.12121238 0.27413952
0.1073358 0.4515622 -0.05697479 -0.067629956 0.060670637 -0.613211 0.101172894 0.10916931
0.13782722 0.18754844 -0.10182385 0.3111877 0.11085344 -0.04880568 0.38745287 -0.2541388
-0.06187042 -0.053668395 0.04371463 0.013347927 0.02211088 -0.039951593 0.036934316 0.050502125
0.036932874 0.039087728 0.0829575 -0.013388005 0.06441484 -0.010906757 0.0005680678 -0.0032480722
0.07921671 0.026600188 0.13810082 0.10000657 0.050970573 -0.13109313 -0.13341087 0.082503065
0.14836706 0.21838444 -0.061992653 -0.019767351 -0.23753005 -0.4458747 -0.100630246 -0.105850525
0.05035377 -0.20026052 0.011903381 0.10546771 0.1788018 -0.030216258 0.06379282 -0.1944911
-0.020630565 0.16344745 -0.018878788 -0.07465673 -0.2681599 0.23125638 0.04239747 0.10860805
0.11006735 -0.0037186516 0.05291794 0.1982489 -0.12938179 0.1487552 -0.113683455 -0.1881432
0.08519293 0.14084326 0.0005465337 -0.10097966 -0.27601764 0.08273731 0.25917757 -0.5251138
-0.25249314 0.16073759 -0.21969159 -0.13248123 -0.033731338 -0.6423447 0.5413294 0.07228576
-0.122384235 -0.14159699 -0.29443738 -0.050262436 0.1974039 -0.09951369 -0.07897057 0.17742896
-0.1871888 0.017998843 -0.17426322 0.30327183 0.05047594 -0.020216446 -0.15192334 0.0674709
0.21270049 0.079163425 0.13945295 -0.030856479 -0.046065904 0.00016810533 -0.08056986 -0.26557568
-0.1683078 -0.17980547 0.025663706 0.20443848 -0.041201077 0.0030800868 -0.096325964 0.18005985
-0.037408657 0.16401699 -0.1388453 0.06524913 -0.0029640654 0.25237933 0.16928822 -0.11952429
0.49240056 -0.046806805 -0.031650297 0.36570352 -0.121049315 -0.09886505 0.023723328 -0.24318767
-0.37441635 0.00748322 -0.04168938 -0.04360365 -0.20988531 0.04208324 0.029689252 0.009393046
-0.21447487 -0.279327 0.096515164 0.1405263 -0.4706687 -0.12641355 0.44944468 -0.47321594
0.17051412 -0.2670086 0.056864712 -0.33989877 -0.023981322 -0.556125 0.1468211 -0.033282775
-0.23478256 0.4622421 0.0011162369 0.028993452 0.1266898 -0.022033578 -0.36174148 -0.035252996
0.13567032 0.16261356 -0.29583398 -0.24780515 -0.2623252 0.08219246 0.29663792 0.17629585
0.22271334 0.02311723 0.12724623 0.18662937 -0.11546051 -0.055219032 -0.11503692 0.23806958
-0.12653445 0.1375711 -0.08095138 -0.26175204 -0.17477885 -0.01904788 -0.1858757 0.05006507
-0.027173167 -0.17716758 -0.43684837 -0.06598665 0.2944038 -0.08574675 0.14302413 0.037011098
-0.0017499108 0.07550957 -0.28949785 0.2592587 0.1850393 -0.15677552 -0.107809894 -0.0805331
00000000: bee8 893e 14b0 e9bd 2b06 363e 9295 dd3d
00000010: 8d78 e7bd 9f82 783e e0a8 96be 5879 8f3c
00000020: a71d 15bc 1ad1 b2be f0bf 1f3e 4df3 80bd
00000030: 8382 acbd 90d7 72bd 7c09 a73d 9b66 433e
00000040: 32fa 573e 9939 ffbc b990 69be 60ec 87be
00000050: c56c 64bd a9de 55bd 06bb f03d 6360 7bbe
00000060: de79 1cbc 36cc 89bd 43f2 f23d 86e8 6ebd
00000070: a718 66bc 1e54 a83e 8e88 e33d 1de4 153d
00000080: dedc 81be 8661 b2bb bfeb 4c3c 11fb 6dbc
00000090: 6a37 f3bd c78c a9bd 6d26 e2bc 5b0c 75be
000000a0: 0273 b23c c76d 2bbd 2154 2d3e 0a56 c43c
000000b0: b63d a1bc 1c75 453e 323e f83d 045c 8c3e
000000c0: dfd2 db3d 2933 e73e 665e 69bd 9381 8abd
000000d0: c681 783d 65fb 1cbf bc33 cf3d 2994 df3d
000000e0: 9422 0d3e b30c 403e 0689 d0bd ff53 9f3e
000000f0: 2107 e33d 77e8 47bd 3960 c63e 7b1e 82be
00000100: d66b 7dbd 64d3 5bbd 1d0e 333d 43b1 5a3c
00000110: e021 b53c 48a4 23bd 7048 173d 51db 4e3d
00000120: ed46 173d 741a 203d 9fe5 a93d 5d59 5bbc
00000130: edeb 833d 41b2 32bc 62ea 143a 9cdd 54bb
00000140: 5f3c a23d a3e8 d93c 4d6a 0d3e 3fd0 cc3d
00000150: 85c6 503d 473d 06be dc9c 08be 5ef7 a83d
00000160: 89ed 173e 2ca0 5f3e 02ec 7dbd 24ef a1bc
00000170: 143b 73be b049 e4be 3b17 cebd 29c8 d8bd
00000180: c13f 4e3d 1811 4dbe 6606 433c 74ff d73d
00000190: d217 373e 1688 f7bc cfa5 823d ad28 47be
000001a0: 6e01 a9bc c55e 273e b0a7 9abc a1e5 98bd
000001b0: 414c 89be 79ce 6c3e f8a8 2d3d e66d de3d
000001c0: fe6a e13d 9fb4 73bb 7bc0 583d c201 4b3e
000001d0: a97c 04be 4853 183e dfd2 e8bd 9ca8 40be
000001e0: a279 ae3d 3739 103e 4145 0f3a 6dce cebd
000001f0: 2f52 8dbe 2e72 a93d ecb2 843e dc6d 06bf
00000200: c846 81be 6598 243e d5f6 60be 29a9 07be
00000210: df29 0abd b470 24bf 9094 0a3f 8e0a 943d
00000220: 96a4 fabd cdfe 10be 7fc0 96be fcdf 4dbd
00000230: 3f24 4a3e d5cd cbbd 52bb a1bd f0af 353e
00000240: 6cae 3fbe 4f72 933c 0f72 32be 7246 9b3e
00000250: dcbf 4e3d f69c a5bc cb91 1bbe 2f2e 8a3d
00000260: 28ce 593e 6f20 a23d c1cc 0e3e bac6 fcbc
00000270: 9aaf 3cbd 6e45 3039 d001 a5bd 89f9 87be
00000280: e158 2cbe ed1e 38be b13c d23c 5258 513e
00000290: 76c2 28bd 48db 493b 8c46 c5bd 9c61 383e
000002a0: d239 19bd 12f4 273e 762d 0ebe 56a1 853d
000002b0: c440 42bb dd37 813e e459 2d3e 27c9 f4bd
000002c0: ed1b fc3e 7eb8 3fbd bea3 01bd 7e3d bb3e
000002d0: b4e8 f7bd c279 cabd 6d57 c23c 3006 79be
000002e0: 80b3 bfbe cd35 f53b 7cc2 2abd be99 32bd
000002f0: 2dec 56be 7a5f 2c3d e036 f33c 4ae5 193c
00000300: 4d9f 5bbe f303 8fbe bea9 c53d 20e6 0f3e
00000310: 7dfb f0be 8e72 01be 9d1d e63e 5c49 f2be
00000320: 419b 2e3e 5ab5 88be f9ea 683d 3607 aebe
00000330: 7a74 c4bc 355e 0ebf 4558 163e 8553 08bd
00000340: d76a 70be ffaa ec3e b24e 923a ad83 ed3c
00000350: f9ba 013e c37f b4bc 2e36 b9be 7265 10bd
00000360: 29ed 0a3e 2b84 263e 8d77 97be a2c0 7dbe
00000370: 7d4f 86be 8554 a83d ede0 973e e686 343e
00000380: f70e 643e 5860 bd3c d64c 023e c51b 3f3e
00000390: 8f76 ecbd 5a2d 62bd 7a98 ebbd 83c8 733e
000003a0: 3f92 01be 70df 0c3e d6c9 a5bd 5d04 86be
000003b0: 3af9 32be 4d0a 9cbc 3356 3ebe 0811 4d3d
000003c0: 439a debc 6b6b 35be 97aa dfbe 0224 87bd
000003d0: 18bc 963e fe9b afbd eb74 123e f398 173d
000003e0: 435d e5ba c3a4 9a3d 1039 94be 8ebd 843e
000003f0: f17a 3d3e c389 20be 6fcb dcbd 8aee a4bd

dense1.bias f4 [10]
-0.13180584 -0.028013041 0.12949944 0.083889745 -0.4379083 -0.30232787 0.21632202 0.14815244
0.21359473 -0.043934215
00000000: 1cf8 06be 9b7b e5bc 809b 043e 63ce ab3d
00000010: 8435 e0be b8ca 9abe 8583 5d3e 46b5 173e
00000020: 94b8 5a3e 5df4 33bd
