saved_weights/Model_epoch_no_11_train_acc_92.11_val_acc_90.03.pth (torch_old, 74661 bytes, 6 tensors)

conv1.weight f4 [16, 1, 5, 5]
00000000: 9005 8f3e d9a9 a33e c4cb 163e 20b2 973e
00000010: cccf a4bd ce24 0dbe 5f17 d1bc 6ff6 a0be
00000020: da7a efbd 98f5 3cbe 7c76 c9bd f44a 80be
00000030: 7d8d d8be b5cd 92bb 0d38 0c3e 5ec1 94bc
00000040: eef0 82be a00e c03a 54b8 723e 92bd ba3e
00000050: f544 763e cc20 7fbe 81e3 78be 5ed8 7c3e
00000060: c9b5 a93e 5533 a43d 27e3 38be 70ab c23d
00000070: 318a 993e 6e93 5bbe 7e70 343e e6e7 22be
00000080: 13a9 d6bc 0273 a83d e2ab b8bd e2a5 4e3e
00000090: 3620 63be f02a 5dbd c06a bd3d bc72 5b3d
000000a0: 4040 2f3e 62a9 52be 52ec ab3b 3b77 423e
000000b0: a195 f9bc 12f4 07bd fe5f a3be 3cf2 a23e
000000c0: 73e9 b53d 21cb 35be 00c0 7c3e 6d3f 9a3d
000000d0: 2dc1 5c3e 8015 78be e1d8 093e 47e3 e63d
000000e0: c963 653e 4519 2bbe c2b3 6ebe 812d 0c3e
000000f0: 00cf 803d ddc0 ecbe 16d2 9dbe d658 313e
00000100: bf0c 17bd ad09 abbe f71b e3bf 33c0 b4bf
00000110: 9a46 6ebd bde7 723e 1d29 c1bd 2212 ccbf
00000120: bf7f 9abf 888b 8ebd f26f 12be d8b0 cb3b
00000130: 3fbc 0cbe b05e c2be 28ea 10bd daed 46be
00000140: f2ea 243e 94ae 8f3d f80f 55bd e24e cdbe
00000150: 483a b8be dbf8 aa3d 58c9 973e 785d 983d
00000160: 9d0a 13be cdf8 75be 8024 693e f0d1 933e
00000170: bb3e cb3e d9c6 893e 07ac 98bd ccca c5bd
00000180: aa36 d8bd 1590 fc3c dce2 1b3e 0904 d13d
00000190: e508 4e3e 58a2 a23e 8f75 c4bd 1a7b 393e
000001a0: 49eb 743d 89e2 613e 3e79 073e 7f77 593e
000001b0: 643c 183e 5b73 c3bd d72e 8d3e 9935 fd3c
000001c0: 8612 553d 7268 f0bd 62b8 c6bd 131c 3dbe
000001d0: bf04 c4bd 2f29 423e bf68 6e3e 4831 d9bd
000001e0: 4248 8bbe 76d0 f6bd c9ef 6abe f50a 8bbe
000001f0: d4b3 e0bd 2dc6 163e f0bb ca3e 8d7c edbc
00000200: 81c1 35be 44f1 0f3e 296b 11be e5cf a93e
00000210: 7026 0dbe 68cd 4dbe f7b8 c2be 2e35 93be
00000220: ff0a b73e 0453 33be 0ce0 b8bd 40bb e2bc
00000230: 26f9 43be cec8 783e 10f7 0e3e 53ae 29be
00000240: a80e 383e 3dee a4bc 2896 8a3e 23d6 96bd
00000250: 8b5a 31bd e86a f33b 5ef4 cebd 75c7 0cbe
00000260: 1b89 c03e cb5b f8bd aa31 7f3d 0bd6 13be
00000270: d907 d7bd 8d10 d03e 8433 8bbe 4b52 be3c
00000280: d366 d2bd f410 ffbd 2ad4 c03e e2f3 9bbe
00000290: b9f8 73bc 75b7 803e 735f 8fbd 07c1 413e
000002a0: 0b17 8ebe e9f7 67bd 0a79 a23d e950 4cbe
000002b0: 546f 943e ae8c 9b3d 4808 64bc 9a05 31be
000002c0: db49 67be e7a5 48be b1d0 2f3e 7896 ae3e
000002d0: 5e87 ebbb d924 153e 6df0 afbc e405 5a3e
000002e0: f87f 623e aa0f a73d 026c 44be 549d c9bc
000002f0: 988f 993d fe1c 46bd cd8b ecbd f42e 9b3d
00000300: 2e64 083e f6db b0bd f1a7 e53d 5ac1 083e
00000310: ad6c 323a 80f3 37be 1823 e73c 732a aebd
00000320: c45d 023d 6df8 82be b513 36be 68a9 003f
00000330: bdf4 c43d 63b6 cf3b 7911 c8be 0768 bfbe
00000340: 325b db3e f9fa 35be bddf 1e3e dae2 873e
00000350: 345c 94be 5490 853e acf0 32be 01e6 773e
00000360: 0877 123e b45c c6bd e7dc 2ebd d87a 773e
00000370: a2fa 57be fa88 d7bc ae3a dbbe 9c58 abbd
00000380: 9503 bc3e 0b04 1dbf 25c8 e8be f2d2 a7be
00000390: c336 cf3c b3ea c93b 1f13 fabd 7de4 0ebd
000003a0: 68d6 03be f4b2 2fbe d036 de3d 72e9 2cbc
000003b0: 7d5e c73e 4e15 de3d 8171 ecbc b16f 9c3c
000003c0: 0870 663d fa52 883e 64cd 2abc c9ab dd3d
000003d0: 304f 203e ba22 cc3e 8182 453d fb3f d7bc
000003e0: 3f46 c6bc d62f 813e b310 a8be dc7e 4c3e
000003f0: 1325 563e 93bb f2bc e679 033d abdf 80be
0.2793393 0.3196552 0.14726168 0.29628086 -0.080474466 -0.13783571 -0.02552384 -0.31438014
-0.11693354 -0.18453062 -0.09837052 -0.25057185 -0.42295447 -0.0044800886 0.13693257 -0.01815861
-0.2557444 0.0014652796 0.23703128 0.36472756 0.24049743 -0.24914855 -0.24305536 0.24691913
0.33146504 0.08017603 -0.18055402 0.09505355 0.29988244 -0.21442959 0.17621037 -0.15908775
-0.026203668 0.08225061 -0.09017159 0.20180467 -0.22180256 -0.053996027 0.092488766 0.053576216
0.17114353 -0.20572427 0.0052466774 0.18990795 -0.030466856 -0.033191748 -0.31909174 0.31825435
0.088824175 -0.17753269 0.24682617 0.07531629 0.21558066 -0.24226952 0.13461639 0.112738185
0.22401346 -0.16708858 -0.2331076 0.13689233 0.06289482 -0.46240893 -0.30824345 0.17319044
-0.03687739 -0.3340582 -1.7742909 -1.4121155 -0.0581728 0.23721214 -0.0943167 -1.5943034
-1.2070235 -0.06960207 -0.14300516 0.00621615 -0.13743685 -0.37962866 -0.03537956 -0.1942667
0.1610525 0.0701572 -0.052017182 -0.40099245 -0.35981965 0.08348247 0.296458 0.07439703
-0.14359517 -0.24020691 0.2276783 0.28871107 0.39696297 0.2690952 -0.074546866 -0.09657821
-0.10557301 0.030830422 0.15223259 0.10205848 0.2012058 0.31764483 -0.09592735 0.18113366
0.059794698 0.22059073 0.13229844 0.2123699 0.14866787 -0.09543487 0.27574798 0.030909346
0.05201962 -0.11738671 -0.09703137 -0.1846774 -0.09571218 0.18961023 0.23282145 -0.10605103
-0.27203566 -0.120514795 -0.22943033 -0.27156797 -0.109717995 0.14724036 0.3959651 -0.028990055
-0.17749597 0.1405688 -0.14201035 0.33166423 -0.13784194 -0.20097888 -0.38031742 -0.2875151
0.35750577 -0.17512137 -0.090271086 -0.027677178 -0.19138011 0.24295351 0.13961434 -0.16570406
0.17974341 -0.020133132 0.27067685 -0.07365062 -0.04329924 0.0074285157 -0.10105203 -0.13747962
0.37604603 -0.12126883 0.062303223 -0.1443712 -0.10499544 0.40637627 -0.2718774 0.0232326
-0.102735184 -0.124544054 0.37661868 -0.30459505 -0.014890843 0.25139967 -0.07000627 0.1892129
-0.27751955 -0.05663291 0.079332426 -0.1995274 0.28991187 0.07595192 -0.01391799 -0.17287293
-0.22586767 -0.19594537 0.17169453 0.34099174 -0.007187768 0.14564838 -0.021476949 0.2129131
0.22119129 0.081572846 -0.19181827 -0.024611153 0.074980915 -0.048367493 -0.115501024 0.07577315
0.13319466 -0.08635704 0.11213673 0.13355008 0.0006806355 -0.17963982 0.028214976 -0.0850419
0.031827703 -0.2558016 -0.17780955 0.50258493 0.096169926 0.006338881 -0.3907583 -0.37384054
0.42843014 -0.1777152 0.15515037 0.26540262 -0.28976595 0.26086676 -0.17474622 0.24208833
0.1430322 -0.096856505 -0.042691138 0.24167955 -0.21091703 -0.026310433 -0.42818207 -0.0836651
0.36721483 -0.61334294 -0.45465198 -0.32778126 0.025294667 0.0061620115 -0.12210678 -0.034885872
-0.12874758 -0.17158109 0.108502984 -0.010553705 0.38939276 0.10843907 -0.028862717 0.019096227
0.056259185 0.26625806 -0.0104249455 0.10823781 0.15655208 0.39870244 0.04822016 -0.026275625
-0.024203418 0.25231808 -0.3282524 0.19970268 0.2091258 -0.029630458 0.032098673 -0.25170645

conv1.bias f4 [16]
00000000: 36d6 89bc 9281 b6bc dd4d db3e 5571 21bd
00000010: 1b2f 28bc 8cde 00bd b830 84bc a821 03bd
00000020: 1b11 40bb e389 d43a 42e8 4fbc d017 c93c
00000030: daf1 783d 4d4e 103e db0c 8d3e 768b 9abc
-0.016825777 -0.02227858 0.42832842 -0.039414722 -0.010265137 -0.031462237 -0.016136512 -0.03201452
-0.002930707 0.001621541 -0.012689652 0.024547487 0.060777523 0.1409237 0.2754887 -0.018865328

conv2.weight f4 [32, 16, 5, 5]
00000000: fdf4 afbc faef b6bc cb0f a5bc e38d ea3d
00000010: f62e b9bc c69c 19be bef2 1fbe 889b 743c
00000020: aaa9 193e 7eae 963d 239a d8bc 47ab c0bd
00000030: a5c4 b63d e625 e33b 79b3 b93d c878 9dbb
00000040: f92c febd 457a 633d 0642 923e f504 453e
00000050: 61ad 683c 83c4 a5be 6392 03bd 11da 913e
00000060: 4caa 60be 1785 533d 98a3 5dbc 26c4 39bd
00000070: 00bb 76bd 38a7 0c3d db34 c8bb 7133 d93c
00000080: c6a7 803d aa2f bb3d 2da9 e0bc 7136 703c
00000090: 94d4 6a3d 37f5 643c 926e 52bd 3a41 d6bc
000000a0: 9c35 833b 6293 d3bc 5e5b d83d 8c2c d03c
000000b0: aae7 d43d 0b20 113b 58e1 9fbd ca9c 243d
000000c0: 9cf0 b5bc 623f 2ebd e88e 38be 7eb7 02bd
000000d0: 503b 743d 3426 543d f047 313e 2a73 35bd
000000e0: 1855 f6bd 2f20 4abd 745a 263d 5bb2 403e
000000f0: 2c03 3ebe 523c 5cbe 1777 79bd b72e 8fbd
00000100: be2e 2f3d d6c9 67be 1cdf 4dbd efb7 d0bd
00000110: be87 fd3b f233 1c3d b2df 0dbe 0f23 013d
00000120: b9f8 923d b748 373e 1771 653e 9cbd e33d
00000130: 1bce d13d 10bb c83d 84f7 813d 69db 7f3d
00000140: 3ec0 9d3d 7f86 ac3d d329 813d 6ffe 8b3b
00000150: 3fa3 203e 3df5 e03d 8487 af3d 05b4 06be
00000160: 85a5 bcbb dcd9 c53d 85d9 ef3d 9eed 6e3e
00000170: c1bd cfbd 8562 b83c 064f 0bbe e528 313e
00000180: 6663 c63d 2f81 b8bd 14f9 693d 94c7 0d3e
00000190: cebf 96bd d2ce 603c 913b f6bc 1e64 0cbe
000001a0: d37b b7bd 8955 6c3d 2ec2 853b 9dbb 963d
000001b0: 2e7a c7ba e35b c6bd db92 a73d 3b08 d03d
000001c0: 6320 42bd 1e35 0e3d 945f 00be a0ad 293b
000001d0: cd9d 473d 0248 19bd a4c3 893d d237 12ba
000001e0: 3444 45bd 807d aa3d e197 bf3d 5edc 033d
000001f0: 536b 953b c52e 13be 8af8 533d 78b3 bcbd
00000200: 7916 b2bd 0070 1bbd c5c3 dabd 4cc2 5e3d
00000210: f729 553d e917 29bd c923 97bc 3861 74bd
00000220: ad85 ad3d 24e3 ca3c 8c5e bf3d e531 9dbd
00000230: 1d7f bfbd 16be 2a3e 09a9 a93d 1a99 b73d
00000240: a30e a7bd a657 bdbc 3fd8 ce3a 5eb2 12be
00000250: e208 fd3c 12fa bdbd 682d c3bc bb6c 5abc
00000260: 21bd 04be ebca 0dbe 3334 e2bd 8343 0e3e
00000270: 3cb1 8a3d 3338 e23b 62af d03d a84d 3d3d
00000280: 18d4 213e e296 2d3d 03c5 873c 5105 fabb
00000290: 0646 24be 8810 8d3e 0f4e 8e3c 191c 8e3d
000002a0: 2adc 803d 79c6 84be 2bad 803d 8c4d 4dbd
000002b0: 405f 62bc 2738 80bd b90b fcbd 6253 543d
000002c0: 0b94 debd 65a3 f4bd 1bf0 00be 14e8 1ebd
000002d0: 4199 5a3d 3d45 99bd 25ae 943c 384b 42bd
000002e0: 84c4 b839 ca28 9e3c 33c1 243d 425f 563d
000002f0: 2d04 81bd 2454 90bc ff70 d13d 1fa9 47bb
00000300: d430 d13d 4e41 db3c f8c7 1f3d 0a51 133d
00000310: b8ba c3bc 9e28 dd3d 6851 6ebb d726 7fbc
00000320: ce5b 26be f31f 13be 860d 2ebd 2ed9 023e
00000330: 1f53 103e 6ca2 91bc 4468 a7bc 2037 863d
00000340: 4e0a 963a 0cde 693d 3bf4 373d 1dc7 a23d
00000350: 47ed 773d 3777 cc3d 90c4 163d 8a41 033a
00000360: 0f38 17be 3d28 4b3e e3e5 5e3c ea92 7bbe
00000370: 157d 26be 2cb0 bebe a262 22be c2a9 f3bd
00000380: c30b a6be 80e0 2fbe 78a5 ffbd 6a66 0f3d
00000390: ea01 3b3e c58c e93d a6e7 5ebe decb 893d
000003a0: 50f7 8d3d 17ab 0c3e e025 1c3d 0c09 c5bd
000003b0: 6f75 b03d 0996 8c3d 218e 4c3e 6d00 5c3d
000003c0: 3afe 0a3e 0072 853c 1156 183e 5b0f 0a3e
000003d0: d024 223e 1025 ea3c e99e a33d 0e4a b23d
000003e0: 809b 9ebd 4aa9 95be 149e c83d 6ea0 3abe
000003f0: b078 b1be c015 5dbd 1918 bcbd 14a5 263e
-0.021479124 -0.022331227 -0.020149132 0.11452844 -0.0226054 -0.1500121 -0.15619943 0.01492966
0.15006128 0.073575005 -0.026440686 -0.094076686 0.08924226 0.006932008 0.09067435 -0.004805658
-0.124109216 0.055536527 0.28565997 0.19240172 0.014201493 -0.3237649 -0.032122027 0.28486684
-0.21939963 0.051640596 -0.013527773 -0.045353077 -0.06023693 0.03433916 -0.0061098165 0.026513787
0.06282 0.091399506 -0.02742442 0.014661417 0.057331637 0.013974479 -0.05137498 -0.02615415
0.0040041935 -0.025827114 0.10564302 0.025411867 0.10395749 0.0022144343 -0.07806653 0.04018859
-0.022209458 -0.042540915 -0.18023264 -0.031913273 0.059626877 0.051794246 0.17312598 -0.044299282
-0.12027949 -0.0493471 0.040613607 0.18818037 -0.18555897 -0.21507385 -0.06090459 -0.06991332
0.042769186 -0.22635588 -0.0502616 -0.101913325 0.007737129 0.038135476 -0.13854864 0.031527575
0.07176346 0.17898832 0.22406422 0.111201495 0.102443896 0.09801304 0.06346038 0.062465105
0.07702683 0.084240906 0.063068055 0.004272274 0.15687273 0.109842755 0.085707694 -0.1315461
-0.005757036 0.09660694 0.117114104 0.23332831 -0.101436146 0.022507915 -0.13604364 0.17300756
0.096869275 -0.09009015 0.057122305 0.13845664 -0.073608026 0.013721185 -0.0300577 -0.13710067
-0.089591645 0.05769876 0.004081986 0.07360003 -0.0015218908 -0.09685495 0.08182307 0.1015782
-0.047394168 0.034718625 -0.1253646 0.0025890842 0.048734475 -0.037422188 0.067267686 -0.0005577776
-0.048160747 0.083247185 0.093551405 0.03219258 0.004559913 -0.1437331 0.051750697 -0.092139184
-0.086956926 -0.03794861 -0.10681871 0.054384515 0.052041974 -0.041282568 -0.01844968 -0.059663028
0.08472762 0.024766512 0.09344205 -0.07675532 -0.09350417 0.16674075 0.08284194 0.08964749
-0.081570886 -0.023113083 0.0015780999 -0.14325854 0.030888025 -0.09276213 -0.023825362 -0.013331587
-0.12962772 -0.13846938 -0.110451125 0.13892941 0.06772086 0.006903672 0.101897016 0.046216637
0.15803564 0.04238022 0.016573435 -0.0076300283 -0.16042337 0.27551675 0.017371206 0.06938953
0.06291993 -0.25932673 0.06283029 -0.050122783 -0.013816655 -0.0626071 -0.123069234 0.051837333
-0.10868081 -0.119452275 -0.12591593 -0.038795546 0.05336881 -0.07483909 0.018149445 -0.047435015
0.0003524163 0.01930656 0.04022331 0.05233694 -0.062996246 -0.017618246 0.102266304 -0.0030465794
0.10214391 0.026764538 0.039009064 0.035965957 -0.023892745 0.10798763 -0.003636444 -0.015573225
-0.16245958 -0.14367656 -0.042493366 0.1277816 0.14094208 -0.017777644 -0.02043546 0.06553483
0.0011447163 0.057096526 0.04491065 0.07948134 0.06052902 0.09983676 0.03680855 0.00050070195
-0.14767478 0.19839568 0.013604614 -0.24567762 -0.16258653 -0.37243783 -0.15857938 -0.11897613
-0.32430848 -0.17175484 -0.124827325 0.03500978 0.18262449 0.11403803 -0.21768054 0.06728338
0.06931937 0.1373714 0.038122058 -0.09620866 0.08616149 0.068645544 0.19976093 0.053711344
0.13573542 0.016289711 0.14876582 0.1348242 0.15834355 0.028582126 0.07989294 0.08705531
-0.07744503 -0.2923072 0.09795776 -0.18225262 -0.3466239 -0.05397582 -0.09184284 0.1627391

conv2.bias f4 [32]
00000000: a578 ee3c a36b 053d 8efd cd3d aea6 4e3e
00000010: d755 513c f900 6cbb 3925 6abd 613d 4c3d
00000020: 9cda 033e 4886 013e ee9f 113e b9fc 503e
00000030: d9f4 8cbd a083 bdbd a4b5 a13d 2b33 dabc
00000040: d845 543e bd4a 1b3c b38e f4bc c92a a0bd
00000050: 01c8 253e a3ab 393e 829e 823e 4929 233d
00000060: 8e21 063e e0aa a73d 8177 b53c c533 01be
00000070: 39c2 e43d 2434 513e b31b 86bd 4774 2ebe
0.029110262 0.032573353 0.10058127 0.20180771 0.0127768135 -0.0036011322 -0.057164405 0.049863223
0.12876362 0.1264888 0.14221165 0.20408906 -0.068826385 -0.09253621 0.07895973 -0.026635727
0.20729768 0.009478268 -0.0298532 -0.078206606 0.16189577 0.1813188 0.25511557 0.039834294
0.13098738 0.08186889 0.02215171 -0.12617405 0.111698575 0.20430046 -0.06548252 -0.17036544

dense1.weight f4 [10, 512]
00000000: d0c0 c8bd 3025 173e 1d79 e33c 1284 95bd
00000010: d028 debc a47f 15bd 7c8b 923d a3e7 ec3c
00000020: 5560 1b3d d343 95bd bf7b 823c 3c87 7a3d
00000030: b336 3c3d 7276 083d ea7b 283e ab74 453d
00000040: 5434 233d 556f c7bc f6d3 bd3c 2769 d03d
00000050: 0db4 643d 1d7a 793c 2206 d23c 4141 c3bc
00000060: 6e6c 843d 34d5 023d 4a5a ebbc 31ce 98bd
00000070: 5399 f73b 8580 23bd 1ac0 f6bc d989 b33b
00000080: 3112 b6bd 110e fdbb 5e6e bdbd ef1a d83d
00000090: 6ac4 babc b99c 103c dde9 a43c c3bb 973d
000000a0: 70a3 083e 2d14 b3bd 46ba d33d 3f39 0cbc
000000b0: 9288 113e dfe3 35bd 2348 993c 587e 1f3c
000000c0: c808 353d bb79 1f3d f1ad e33d 36b8 923d
000000d0: 00b2 fd3d b451 c9bc 7594 033b 9352 613e
000000e0: a6b9 b33d 8460 03be 90d2 67bd 41ac 21bd
000000f0: 6836 4bbc fbcd 65be fc9d ab3d f249 f8bd
00000100: 605c af3c 6b5a 4dbd c70d 943c c27c a5bd
00000110: 01f7 f03d 2e3d fdbc 71cb 27bd 9ad5 9d3d
00000120: e7ab b93d cd2c af3d 1431 48bd 9cd6 923d
00000130: 1f58 7abd a36e fdbd bedf d03c 1b3c a1be
00000140: 52b8 81bc 492f a43d 4aee 353c 6a14 8d3d
00000150: cdf0 12bd dc2c ef3d d41f 9f3d ba7b 963d
00000160: aa1e 003d 3ccf 0e3e 551b b0bc 82f1 cbbc
00000170: 2ba8 6b3d 6c08 303d a85c c03d 49f8 183d
00000180: 5188 503e 1649 4a3d c5ab 4fbd 1fbd ddbb
00000190: 6336 f03d db3e 753d 1298 b5bd af0b 933d
000001a0: 86ff 203d a892 b9bd c69d 95bd 68d8 093e
000001b0: 3250 dbbd 73a5 06be a6a9 43be 74ed aabc
000001c0: 5450 f23d c5be 123d c56d 18bc f973 3cbd
000001d0: 71a9 97bd 0020 d33d c9b5 e0bd a9fa 52bd
000001e0: d3e9 8dbd 97ef ccbb 7888 87bc a1c9 19be
000001f0: 24cd 833d efd4 f43c 3599 383d e981 b9bd
00000200: 9c4e a03c 5918 14be bd5c 2abd c85f 0bbe
00000210: 973e 823d 3cbf 38be 8a15 c2bd 1930 0e3e
00000220: 47d0 683e d11c a0bb a3a2 5a3d 4572 833d
00000230: c32e f63d b27e 21bd 7b4f 043e 100a 2dbd
00000240: a4f9 e63d b019 a4bc 5c49 d43c e5a2 de3d
00000250: 4f2f 303a c380 56bd 6ecd c7bc 987b 02bb
00000260: 3eb3 42bd 9925 833c 32b5 e7ba 21fc cc3c
00000270: 04c1 35be 4ee3 2fbd ae17 2f3d af70 8ebd
00000280: 5761 c3bb 4ed0 babc 9995 7ebd 6485 52be
00000290: 434c 53bd e3f7 95bd 3179 01be 70b0 9d3c
000002a0: 8ccb c1bd 5b8f e63c 78a9 453d e1b4 3e3d
000002b0: 8710 893d 5b7d 5c3e f774 b33d 0c21 063e
000002c0: 3bd7 383d 1970 cd3d ba8c a3be 6556 93bc
000002d0: 7b06 f23d 0c4d f5bc 8682 c03d 773f 09bd
000002e0: e1e2 d53d 20e8 753c 08e3 69bd 0e83 4dbd
000002f0: 93f0 7d3d b5f5 d43d acb1 f73d 5a6a 353d
00000300: eb3a b43c e311 d73d b406 acbd 2436 043e
00000310: 5544 033d 1cf0 a9bd 08d2 503a 4312 513d
00000320: 8fa3 4cbd 0e53 31be bcb9 c7bd 2d99 c9bc
00000330: cfbb 8ebd c65c d2bd a4c6 bd3d 7256 09bd
00000340: 7806 48bd e48a 1f3e db25 0f3e 1c69 87be
00000350: c912 06be 4a18 debd b637 db3d 4d35 a8be
00000360: aff0 0d3e c5b1 a8bd 3ff6 373d 0839 4fbd
00000370: 19f3 3a3c fbd3 93bd 5fff 01be 7c30 6c3e
00000380: 4809 b9bc 0761 1a3d 7779 1e3d 7ae8 cfbc
00000390: 5096 9b3d 80e5 053d f642 c83d ee16 4bbb
000003a0: f22e 693d 96c9 ff3c c4ed 423b 3db3 953c
000003b0: d23b 17be cc17 54bd 0e41 bdbb b344 03be
000003c0: 6f22 df3d 0491 8b3c 148a 863c 828f 773d
000003d0: bb35 253e 6912 cd3d 4077 8cbd de0e ba3c
000003e0: 2215 a33d 98a4 cb3c 750f d0bd b95c 68bc
000003f0: a8b7 1b3d e9d6 83be e6bc 06be 9ee6 a7bd
-0.09802401 0.1476028 0.027767712 -0.07300581 -0.02711907 -0.03649868 0.07155511 0.028919047
0.037933666 -0.07288327 0.015928147 0.061164126 0.045950603 0.033316083 0.1645352 0.048206966
0.039844826 -0.02434508 0.02317236 0.10176306 0.055835772 0.015226868 0.02563769 -0.023834826
0.06465994 0.031941608 -0.028729577 -0.07461203 0.0075561195 -0.039917488 -0.030120898 0.005479079
-0.088901885 -0.007722624 -0.092495665 0.10552012 -0.022798736 0.008826428 0.020131046 0.074088596
0.13343596 -0.087440826 0.10338263 -0.00855857 0.14212254 -0.044406768 0.018711155 0.009734713
0.044197828 0.03893445 0.11117161 0.07164042 0.123874664 -0.024575092 0.00200775 0.22004156
0.08775644 -0.12829787 -0.056597292 -0.039470915 -0.012403108 -0.22441857 0.083797425 -0.12123479
0.021406353 -0.050135057 0.018072976 -0.08080436 0.11765862 -0.030912962 -0.0409655 0.07706757
0.09065991 0.08553467 -0.04887493 0.0716984 -0.061119195 -0.12374618 0.025497314 -0.3149117
-0.015834961 0.080168314 0.011104176 0.06888659 -0.035874177 0.11678478 0.077697426 0.07347818
0.031279244 0.13946241 -0.021497408 -0.024895433 0.057533424 0.04297678 0.09392673 0.03734616
0.203645 0.049386106 -0.05070092 -0.0067669298 0.117291234 0.059874397 -0.08866896 0.07179963
0.039306186 -0.090611756 -0.073054835 0.13461459 -0.107086554 -0.13149051 -0.19107684 -0.02086518
0.118317276 0.035826463 -0.009303515 -0.046009038 -0.07405365 0.10308838 -0.10972173 -0.05150858
-0.06929364 -0.0062541473 -0.016544566 -0.15018322 0.06435612 0.02988669 0.045067985 -0.090579815
0.019568734 -0.14462413 -0.04159235 -0.13610756 0.06359594 -0.180417 -0.094767645 0.13885535
0.22735702 -0.0048862477 0.05337776 0.064182796 0.12020638 -0.039427467 0.12920944 -0.042245924
0.11278084 -0.02003178 0.025913887 0.108709134 0.0006720917 -0.05236889 -0.024389949 -0.0019910093
-0.04753422 0.016009139 -0.0017677902 0.025022568 -0.17749411 -0.042941384 0.042747192 -0.069550864
-0.0059625315 -0.022804406 -0.062154386 -0.20558697 -0.0515864 -0.07322671 -0.12643887 0.019249171
-0.094626516 0.02814453 0.04825732 0.04655922 0.066926055 0.21532194 0.08762544 0.13098544
0.045127135 0.100311466 -0.31943303 -0.017985532 0.11817642 -0.029943965 0.09399895 -0.03350779
0.10443664 0.015008956 -0.05710128 -0.05017381 0.061997008 0.103984274 0.12094435 0.044290878
0.02200075 0.105014585 -0.08399716 0.12911278 0.03204759 -0.0829775 0.00079658674 0.051042806
-0.04996067 -0.17316839 -0.09752223 -0.024609173 -0.069694154 -0.102716014 0.09266403 -0.033529706
-0.048834294 0.15580326 0.13979284 -0.2644738 -0.13093103 -0.108444765 0.107039854 -0.32853165
0.13861345 -0.08237032 0.044912573 -0.0505915 0.011410498 -0.072181664 -0.12695073 0.2306537
-0.022587433 0.03769019 0.038690057 -0.025379408 0.07597029 0.03268957 0.09778397 -0.003098901
0.056929536 0.031224053 0.002974377 0.018273944 -0.14768913 -0.051780507 -0.0057755774 -0.12819175
0.108952396 0.017036922 0.016423263 0.060439594 0.16133778 0.10013277 -0.06858683 0.022712167
0.07963015 0.024858758 -0.10159198 -0.014182263 0.038016945 -0.257499 -0.13157997 -0.081982836

dense1.bias f4 [10]
00000000: 26bc 2dbc e274 b0bc 1697 053e 2364 ab3c
00000010: c9cf 80be 63d7 d8bd 0837 c23c 3674 8a3d
00000020: 61e4 123e 1a6a 413d
-0.01060394 -0.021540109 0.13045916 0.020921772 -0.25158527 -0.10587957 0.023707882 0.06760447
0.14344932 0.047220327
