saved_weights/Model_epoch_no_1_train_acc_83.79_val_acc_83.86.pth (torch_old, 74663 bytes, 6 tensors)

conv1.weight f4 [16, 1, 5, 5]
0	0xbda65e75	-0.08123485
1	0x3e11db53	0.14243822
2	0x3e476676	0.1947268
3	0x3e40f56c	0.18843621
4	0x3e27c4c2	0.16383651
5	0x3e004bf5	0.12528975
6	0x3e05a9f9	0.1305312
7	0xbd9d11ac	-0.07669386
8	0x3cc10649	0.023562567
9	0x3e328691	0.17434146
10	0x3e10dc31	0.14146496
11	0xbc5809e1	-0.013185949
12	0x3d296b24	0.041361943
13	0x3e47edf1	0.19524361
14	0xbddd4793	-0.10804667
15	0x3e0fe409	0.14051832
16	0x3e3081a5	0.17236955
17	0x3e279adb	0.16367666
18	0x3e1ad6ba	0.15120974
19	0xbd143279	-0.036180947
20	0xbe22610f	-0.15857337
21	0x3e5d802f	0.2163093
22	0x3e7edf3b	0.24889843
23	0x3d26f019	0.04075632
24	0xbd9c4aa6	-0.076314256
25	0x3da36e09	0.07979972
26	0x3e82f603	0.25578317
27	0xbdfdc03f	-0.12390184
28	0x3e0bc88e	0.13650724
29	0x3e743087	0.23846637
30	0xbcbc11fe	-0.022957798
31	0x3e4a3f6d	0.19750758
32	0x3e1b77ae	0.15182373
33	0x3e239e8c	0.1597845
34	0xbc9ebfcf	-0.01937857
35	0x3c95ce73	0.01828692
36	0x3e07d793	0.13265829
37	0x3c2aafc3	0.010417881
38	0x3d5a556f	0.053304132
39	0x3e22402b	0.1584479
40	0xbe7755c1	-0.24153806
41	0xbd3c7830	-0.046013057
42	0xbe5ae1b3	-0.2137516
43	0xbe200523	-0.1562696
44	0xbe5f1dc2	-0.21788695
45	0xbe5f786b	-0.2182328
46	0xbe3a4f07	-0.18194209
47	0xbd7ffe90	-0.06249863
48	0x3dbb7b4b	0.09154376
49	0xbdc9d1ec	-0.098544925
50	0x3e5c2b66	0.2150093
51	0x3e8bd4ce	0.27310795
52	0xbdd42f8c	-0.10360631
53	0xbdb81627	-0.089886
54	0x3dff5af9	0.124685235
55	0x3d9a8bbb	0.07546183
56	0x3de4b77b	0.111678086
57	0xbdd281e3	-0.1027868
58	0x3ded758f	0.11594688
59	0x3e357e83	0.17724042
60	0xbe5b28eb	-0.21402328
61	0xbe0c8248	-0.13721573
62	0x3c34c302	0.011032822
63	0x3e4798a5	0.19491823
64	0xbc85c37e	-0.01632857
65	0xbe220fef	-0.1582639
66	0xbe4a15e1	-0.19734909
67	0x3dd928ca	0.10603483
68	0x3d27e26e	0.040987425
69	0xbd8f516e	-0.06997953
70	0x3e2a13b8	0.16609085
71	0x3d29961a	0.041402914
72	0x3dd388cf	0.103288285
73	0xbe481a13	-0.19541197
74	0x3d8fc79b	0.070204936
75	0x3e642334	0.22279054
76	0x3e1d72d6	0.15375838
77	0x3e52d7ed	0.20590182
78	0x3d9bfcd1	0.0761658
79	0x3e0ac9fa	0.1355361
80	0x3dc5eeb4	0.0966467
81	0x3e7b62fd	0.2454948
82	0x3e844f37	0.25841686
83	0xbdc26466	-0.09491806
84	0xbdc77e4f	-0.09740888
85	0x3da87b25	0.08226613
86	0x3c8a08a9	0.016849833
87	0xbdd0e60e	-0.102001294
88	0x3e28714b	0.16449468
89	0x3c4a1d25	0.01233605
90	0xbdd6d7db	-0.1049039
91	0x3e036cb1	0.12834431
92	0xbdc403b9	-0.095710225
93	0xbda7d5d1	-0.08195079
94	0xbd0e7a3e	-0.034784548
95	0xbe0d1893	-0.13778906
96	0xbc70c165	-0.014694546
97	0x3e450dfc	0.19243616
98	0x3d0c5608	0.034261733
99	0x3e30346d	0.17207499
100	0xbe62b74c	-0.22140235
101	0xbb0dae26	-0.0021618693
102	0x3bfb2963	0.007664846
103	0xbe4f4f4b	-0.20245092
104	0xbd619482	-0.05507327
105	0xbd26c53d	-0.040715445
106	0x3e4cda9d	0.2000527
107	0x3e3ae96c	0.18253106
108	0x3e25b70e	0.16183111
109	0x3d4a2d4f	0.049359616
110	0xbdcfdecb	-0.10149916
111	0x3e0f657f	0.14003561
112	0x3e614acc	0.22001189
113	0x3d4aca33	0.04950924
114	0x3cd9e1ff	0.026597021
115	0x3e137fb3	0.14404182
116	0x3d3b70ed	0.04576199
117	0x3da303e0	0.079597235
118	0xbbc83351	-0.006109633
119	0xbe3b58db	-0.18295614
120	0xbe813866	-0.2523834
121	0xbe262647	-0.16225539
122	0x3dfd344e	0.12363492
123	0xbe6cd5f1	-0.23128487
124	0xbe3f2f29	-0.18670334
125	0xbe822720	-0.25420475
126	0xbd9cad28	-0.076502144
127	0x3ddd4056	0.10803287
128	0x3e76faae	0.24119064
129	0x3e6532e5	0.22382696
130	0xbe75a44a	-0.23988453
131	0x3d105bf9	0.035243962
132	0x3e78a19f	0.24280404
133	0xbd611de7	-0.054960158
134	0x3d5598a1	0.05214751
135	0xbe08c59b	-0.1335663
136	0xbd13a414	-0.03604515
137	0xbe0e84f8	-0.13917911
138	0xbd1629fc	-0.036661133
139	0x3e405b16	0.18784747
140	0xbdd666dd	-0.10468838
141	0xbe3d48c6	-0.18484792
142	0x3e693d26	0.22777233
143	0xbdc7ed30	-0.09762037
144	0x3d8c134f	0.0683962
145	0xbe76909e	-0.24078605
146	0x3e12e939	0.1434678
147	0x3c8aad9d	0.016928488
148	0x3dc2f359	0.09519071
149	0x3cc883e6	0.024476957
150	0x3d523b8a	0.051326312
151	0x3e4378dc	0.19089073
152	0x3d74d243	0.059770834
153	0xbdafe39d	-0.08588336
154	0xbd153ed1	-0.03643686
155	0x3e2165ff	0.15761565
156	0xbde053cb	-0.10953482
157	0x3d1ed895	0.038780767
158	0x3e6c07a8	0.23049796
159	0x3e18653b	0.14882366
160	0x3cdcccac	0.026953064
161	0x3dd5f737	0.10447543
162	0x3df1f6d8	0.1181466
163	0xbdcda78d	-0.100417234
164	0x3de7a032	0.11309852
165	0x3ddf5478	0.10904783
166	0x3e59df92	0.21276692
167	0x3e805e77	0.2507207
168	0x3da19326	0.078893945
169	0x3d18bd4d	0.037289906
170	0x3e0ac8e8	0.13553202
171	0xbdae1fb2	-0.08502139
172	0xbe158d25	-0.14604624
173	0x3e220be8	0.15824854
174	0x3e75d51e	0.24007079
175	0xbd34e237	-0.044161048
176	0xbdc646d2	-0.09681477
177	0x3d88ec84	0.06685737
178	0x3e2de08a	0.16980186
179	0x3d633a16	0.055475317
180	0x3e53de70	0.20690322
181	0x3d9fb92d	0.07798991
182	0xbe21b8a3	-0.1579309
183	0xbdcb591b	-0.09929105
184	0xbba16eeb	-0.0049265525
185	0x3d5cbd78	0.05389163
186	0x3dcb8988	0.099383414
187	0xbe35a311	-0.17737986
188	0xbd946c30	-0.07247198
189	0xbcfc09fb	-0.030766478
190	0xbdeb00f9	-0.11474795
191	0x3ded8536	0.115976736
192	0xbe3ce26a	-0.18445745
193	0xbcbfdc00	-0.023420334
194	0x3d5dc2cd	0.054140855
195	0x3e71093c	0.23538679
196	0xbd0131f6	-0.031541787
197	0xbe7d0ecb	-0.24712674
198	0xbe2b8558	-0.16750085
199	0x3e49f498	0.19722211
200	0xbe833822	-0.25628763
201	0xbe2f9a88	-0.17148793
202	0x3e2030fb	0.15643685
203	0xbd703d38	-0.058652133
204	0x3ddbc7bf	0.10731458
205	0xbe193f7c	-0.14965624
206	0x3cc1123e	0.023568269
207	0x3c503001	0.0127067575
208	0x3e3f741d	0.18696637
209	0x3dec6d64	0.11544302
210	0xbe27d6f1	-0.16390587
211	0xbe78d55c	-0.2430014
212	0x3e6c5f34	0.23083192
213	0x3e7861dd	0.24256082
214	0x3d6553e2	0.0559882
215	0xbe564fef	-0.2092893
216	0x3dcf61b6	0.10126059
217	0xbbef23d4	-0.007297972
218	0xbd708948	-0.05872467
219	0xbe23c02f	-0.15991281
220	0xbe1a2c6a	-0.15056005
221	0xbd6a4a66	-0.057199858
222	0x3d9aaacc	0.07552108
223	0x3df60b01	0.120138176
224	0x3e492a89	0.19645132
225	0xbdd35b8b	-0.10320195
226	0x3d630af3	0.055430364
227	0x3e97773f	0.29583165
228	0x3e96c522	0.29447275
229	0x3e7a9d24	0.24474007
230	0x3e116592	0.14198902
231	0x3ccd7e17	0.025084538
232	0xbdc4617d	-0.09588907
233	0xbca1252b	-0.019671043
234	0xbd98e0e0	-0.074647665
235	0xbdcc6116	-0.09979455
236	0xbe34944b	-0.17634694
237	0x3e33fffd	0.1757812
238	0x3e72670c	0.23672122
239	0xbbad35a0	-0.0052859336
240	0x3ccd6b6f	0.025075642
241	0x3d08b9c8	0.0333803
242	0x3e2a89dd	0.16654153
243	0x3df4e523	0.11957767
244	0xbcd371a8	-0.025811031
245	0xbdd06b1b	-0.10176679
246	0x3c62cb22	0.013842376
247	0x3e5010e4	0.20318943
248	0x3e19991e	0.14999816
249	0xbdeab427	-0.114601426
250	0x3e46976b	0.19393699
251	0x3e40137f	0.18757437
252	0x3e45ca6f	0.19315504
253	0xbe0b99e4	-0.13632923
254	0xbe4215d4	-0.1895364
255	0x3e7b4277	0.24537073

conv1.bias f4 [16]
0	0xbad2af38	-0.0016073948
1	0x3bee5e59	0.0072744307
2	0xbe069c95	-0.13145669
3	0x3bc98688	0.0061500706
4	0x3e2af265	0.16694029
5	0x3b4bab65	0.00310775
6	0xbe04468c	-0.12917536
7	0x3db7224c	0.089420885
8	0x3d551e08	0.052030593
9	0x3bff36c7	0.0077885124
10	0xbdc27731	-0.0949539
11	0x3d16ba5a	0.036798812
12	0x3c32c72c	0.010911744
13	0x3d9e93d5	0.077430405
14	0x3decfff2	0.11572255
15	0xbd91df69	-0.0712269

conv2.weight f4 [32, 16, 5, 5]
0	0xbd7b023e	-0.061281435
1	0xbd7c0e37	-0.061536994
2	0xbdf103bd	-0.11768291
3	0xbd848a2a	-0.06471665
4	0xbdc21ac3	-0.09477761
5	0xbd249101	-0.04017735
6	0xbd3819c8	-0.044946462
7	0xbd43bb9c	-0.04778634
8	0xbd29c7f8	-0.04145047
9	0x3d0354b4	0.0320632
10	0x3d663f7c	0.056212887
11	0x3caa3faf	0.02078232
12	0x3d7b1567	0.061299708
13	0x3cb81020	0.022468626
14	0xbd0916cd	-0.03346901
15	0x3d36189e	0.04445707
16	0x3daa83f5	0.0832595
17	0x3c9784b0	0.018495888
18	0x3cd9e240	0.026597142
19	0x3c3ab858	0.01139649
20	0x3da7ef49	0.08199937
21	0xbc3bf19a	-0.0114711765
22	0x3d2d2894	0.042275026
23	0x3cc64b18	0.02420573
24	0x3d2dffcc	0.042480275
25	0xbe02c7de	-0.12771556
26	0xbdd8b95c	-0.105822295
27	0x3d79717e	0.06089925
28	0x3c453af0	0.012037978
29	0x3d6ce437	0.05783483
30	0xbdf05f9a	-0.117369846
31	0xbdd98455	-0.106209435
32	0x3c02f5e8	0.007993199
33	0x3c1b05d2	0.009461837
34	0x3c02d5ab	0.007985513
35	0xbd2a347d	-0.041553963
36	0xbd38756f	-0.04503387
37	0xbc4df3b5	-0.012570311
38	0x3da47013	0.08029189
39	0x3dc8855a	0.0979106
40	0x3ddda0a1	0.10821653
41	0x3dd64118	0.104616344
42	0x3d692e53	0.056928944
43	0x3d34a42a	0.04410187
44	0x3dd30caf	0.103051536
45	0x3dbef758	0.09324521
46	0x3e29eefd	0.16595073
47	0x3db32791	0.08747781
48	0x3e19bb25	0.15012796
49	0x3da44f93	0.0802299
50	0xbda84f90	-0.082183
51	0xbddd7f13	-0.10815253
52	0xbddbf84b	-0.107407175
53	0x3d8c252f	0.0684303
54	0x3ba514a3	0.0050378605
55	0xbcae97d6	-0.021312635
56	0xbd056c8e	-0.03257423
57	0x3cf9314d	0.030419016
58	0x3c9bd0c7	0.019020451
59	0x3d7ea0e8	0.06216517
60	0x3d9a8c6d	0.07546315
61	0x3c9027a0	0.01759702
62	0x3da52821	0.080642946
63	0x3df04586	0.117320105
64	0x3d8b5e5d	0.06805108
65	0x3dc4d4de	0.09610914
66	0x3df71eb6	0.120664045
67	0x3dd287ff	0.102798454
68	0x3d8bda49	0.06828744
69	0x3db71772	0.08940019
70	0x3de45627	0.11149245
71	0x3ddec607	0.108776145
72	0x3df491f1	0.119418986
73	0x3df788a7	0.12086611
74	0x3d5405a5	0.051763196
75	0xbddb7b11	-0.107168324
76	0xbda0581b	-0.07829305
77	0xbdd0ec13	-0.102012776
78	0xbdfffb7d	-0.124991395
79	0xbd9d8f11	-0.076933034
80	0xbd9c8589	-0.07642657
81	0xbdc6c2f9	-0.09705157
82	0xbd8a61b8	-0.067569196
83	0xbcb190d6	-0.021675508
84	0xbd82bff1	-0.06384266
85	0x3d6ce621	0.057836656
86	0xbcdc17f5	-0.026866892
87	0xbb92ab25	-0.0044759684
88	0x3c028e01	0.007968427
89	0xbc0dbf8b	-0.008651624
90	0x3cfb5148	0.030678406
91	0x3da3a75c	0.07990906
92	0x3ce3e093	0.027817046
93	0x3d8d177d	0.06889246
94	0x3d2d769b	0.04234944
95	0x3d92192d	0.07133708
96	0x3d34ee47	0.04417255
97	0x3cd94cc8	0.02652587
98	0x3c962fb4	0.018333293
99	0xbc5b27e1	-0.013376207
100	0xbd9aa13e	-0.07550286
101	0xbddf10ed	-0.108919
102	0xbd10c218	-0.035341352
103	0xbd159110	-0.036515296
104	0x3cd43809	0.025905626
105	0xbd73ae7a	-0.059492566
106	0xbd49703f	-0.04917931
107	0xba1b5077	-0.0005924771
108	0x3b38f6dc	0.0028223312
109	0x3d1e9320	0.038714528
110	0xbcfa79a8	-0.030575588
111	0x3d2ac8da	0.041695453
112	0x3ccbb265	0.024865339
113	0x3ce0c5cd	0.027438069
114	0x3d4c6eae	0.04991024
115	0x3bc4bc6f	0.0060039083
116	0x3d3ef7a6	0.046622895
117	0x3d6441f7	0.05572697
118	0x3dc55ec8	0.09637219
119	0x3a8b621d	0.0010634098
120	0xbb7c89e0	-0.0038534328
121	0x3dbc3f6d	0.09191785
122	0x3dacab7c	0.084311455
123	0x3db11bfb	0.08647915
124	0xbc0b1ffb	-0.008491511
125	0xbe23c9eb	-0.15994994
126	0xbe09c18d	-0.1345274
127	0xbdb9338c	-0.09043035
128	0x3cb22216	0.021744769
129	0x3d98d561	0.07462574
130	0xbe405aff	-0.18784712
131	0xbe27d971	-0.16391541
132	0xbd30ec29	-0.04319397
133	0x3dff5be0	0.12468696
134	0xbc29080c	-0.01031686
135	0xbdcb3a70	-0.099232554
136	0xbde1b07c	-0.1101999
137	0xbc693d7f	-0.014235853
138	0xbc79da41	-0.01524979
139	0x3c03d517	0.00804641
140	0xbc8320d7	-0.01600687
141	0x3c8a5a3d	0.016888732
142	0x3cf33985	0.029690513
143	0x3a8c88e7	0.0010721952
144	0xbd246f56	-0.04014524
145	0xbd86ea06	-0.06587605
146	0xbb6e204a	-0.0036335164
147	0x3c6e3d2e	0.014540954
148	0xbd7bc3a7	-0.061465885
149	0xbcf7e545	-0.030260691
150	0xbcd08380	-0.02545333
151	0xbd92da38	-0.07170528
152	0xbdfcea24	-0.12349346
153	0xbd2a6209	-0.0415974
154	0xbd57db6a	-0.052699484
155	0xbd3d98e2	-0.04628838
156	0x3c4733e5	0.012158369
157	0x3c8654da	0.016397882
158	0x3d10ad30	0.035321414
159	0x3c990c7d	0.018682713
160	0x3c6dab8b	0.014506231
161	0x3d95b906	0.07310681
162	0x3d50f0a7	0.051010754
163	0x3b11b1a6	0.002223113
164	0x3d6cd2f3	0.057818364
165	0x3b05a16e	0.002039041
166	0x3dc83dc1	0.097774036
167	0x3db2e890	0.08735764
168	0x3cc73f51	0.024322184
169	0x3ca719ee	0.020398106
170	0x3d7bc3be	0.06146597
171	0x3c3e1673	0.011602032
172	0x3d2b0880	0.041756153
173	0x3ca35dcf	0.019942192
174	0x3d2d8a32	0.04236812
175	0xbc749f3a	-0.014930541
176	0x3c9800cc	0.018555067
177	0x3d899407	0.06717687
178	0xbc5fbd52	-0.013655977
179	0x3d8db1fe	0.06918715
180	0xbd36f1eb	-0.044664305
181	0x3d45ec87	0.048321273
182	0x3afde350	0.0019370113
183	0x3d48f8c2	0.04906536
184	0x3d128801	0.035774235
185	0xbd8afcc6	-0.06786494
186	0x3d40179d	0.04689752
187	0xbc8434e9	-0.01613851
188	0x3d17718e	0.03697353
189	0x3dd3a571	0.1033429
190	0xbd2ed17f	-0.04268026
191	0xbd5a7cb7	-0.053341594
192	0xbcf8b373	-0.030359006
193	0xbcc3d3a6	-0.023904633
194	0x3dcf08ba	0.10109086
195	0x3c50cbab	0.012743871
196	0x3ca75ed0	0.020430952
197	0x3cce5f97	0.025192065
198	0x3c921dfe	0.017836567
199	0x3d7bcb26	0.061473034
200	0xbd929211	-0.07156766
201	0xbd484598	-0.048894495
202	0x3cd6410e	0.026154067
203	0x3e13a4b8	0.14418304
204	0x3d94624e	0.07245313
205	0xbe03f7c9	-0.12887491
206	0xbd73a981	-0.059487823
207	0x3d0ceb6b	0.0344042
208	0x3dfef3d6	0.12448852
209	0x3b3e21cc	0.0029011844
210	0xbd8c7d3f	-0.06859826
211	0x3bbe7866	0.0058126925
212	0x3db066ed	0.086133815
213	0xba955465	-0.0011392949
214	0x3c054dc7	0.008136219
215	0xbd79317d	-0.06083821
216	0xbcd26896	-0.025684636
217	0xbc6c66fd	-0.014428851
218	0xbcb5d126	-0.022194456
219	0xbd374ddd	-0.04475199
220	0x3c019d11	0.007910983
221	0x3ca31952	0.019909535
222	0xbceb8a25	-0.028752396
223	0xbca4db81	-0.020124199
224	0xbd5bf823	-0.05370344
225	0xbe146496	-0.14491495
226	0xbddc01b9	-0.10742516
227	0xbd9c940f	-0.076454274
228	0xbdd1e48b	-0.10248669
229	0xbd22f237	-0.039781775
230	0xbbc482fe	-0.005997061
231	0xbd8c962f	-0.06864583
232	0xbd541dc7	-0.05178621
233	0xbcd6cc61	-0.026220502
234	0x3d3adbf7	0.04561993
235	0xbcf84746	-0.030307423
236	0xbc49abb9	-0.012309008
237	0x3d24758d	0.040151168
238	0x3d547cae	0.051876716
239	0x3d47339f	0.048633214
240	0x3cfcf2cf	0.030877499
241	0x3d613863	0.054985415
242	0x3c52eed2	0.012874322
243	0xbca2f2ad	-0.019891107
244	0xbd0ce023	-0.03439344
245	0x3d0c2278	0.03421256
246	0x3d61ba1e	0.055109136
247	0x3d720341	0.059085134
248	0x3d1da5b7	0.038488116
249	0x3c31f7b3	0.010862279
250	0xbd8c5885	-0.06852821
251	0xbdad898b	-0.084735
252	0xbe06e127	-0.13171826
253	0xbdf1ad25	-0.11800603
254	0xbe072172	-0.13196352
255	0x3c50bd7c	0.012740489

conv2.bias f4 [32]
0	0x3ca5aa47	0.020222796
1	0xbd412eb2	-0.047163673
2	0x3c9bc159	0.019013094
3	0x3cf7ae47	0.03023447
4	0xbd4ed141	-0.05049253
5	0xbd30d837	-0.04317495
6	0x3c5fdc08	0.013663299
7	0x3cea4e5a	0.028601814
8	0x3ce9c82e	0.028537836
9	0x3d400289	0.046877418
10	0xbd6035e0	-0.05473888
11	0x3d9b4d6d	0.07583127
12	0x3d300647	0.042974737
13	0x3c951b4e	0.018201496
14	0x3c35d390	0.011097804
15	0xbd81579e	-0.0631554
16	0x3d1738e1	0.03691948
17	0x3d2fa6aa	0.042883553
18	0xbca63788	-0.020290151
19	0x3d94aec2	0.07259895
20	0xbbb8b348	-0.0056366064
21	0xbd2180aa	-0.039429344
22	0x3d9aebca	0.075645044
23	0x3c12f880	0.00897038
24	0xbcd5bcef	-0.026091067
25	0xbc8bad19	-0.017050313
26	0x3c800d1f	0.015631257
27	0x3cb1cb9e	0.021703538
28	0x3daf12dc	0.08548519
29	0xbd5d3164	-0.05400218
30	0x3d74b53b	0.059743147
31	0x3d1237db	0.0356978

dense1.weight f4 [10, 512]
0	0x3ca80ef0	0.020514935
1	0x3c9be0ad	0.019028032
2	0x3d6d81a8	0.057984978
3	0xbde55ad2	-0.11198963
4	0xbd44e546	-0.048070215
5	0x3d090266	0.033449553
6	0x3d041b19	0.032252405
7	0xbd7ea211	-0.062166277
8	0xbd7dc9ef	-0.061960157
9	0xbd6ab386	-0.057300113
10	0xbd63ed56	-0.055646263
11	0x3c8b5933	0.017010307
12	0xbdde32c4	-0.108495265
13	0xbcf4bf17	-0.029876275
14	0xbdbc0555	-0.091807045
15	0x3d90a7b0	0.07063234
16	0x3cdd8746	0.027042042
17	0xbcbe592b	-0.023235878
18	0x3cc5c67c	0.024142496
19	0xbd2e9db4	-0.042630866
20	0xbc01e531	-0.007928179
21	0xbc89bdaf	-0.016814081
22	0xba613221	-0.00085905386
23	0xbb317d1e	-0.0027082632
24	0xbce7a42f	-0.028276531
25	0x3c70a27c	0.014687177
26	0xbc0c53b0	-0.0085648745
27	0x3d108126	0.035279416
28	0xbbd8b5f9	-0.0066134897
29	0xbd0145c1	-0.031560663
30	0x3cf05374	0.029336669
31	0x3b3cf01a	0.0028829635
32	0x3d34aee0	0.044112086
33	0x3d5bae15	0.053632814
34	0xbc247870	-0.01003848
35	0x3ccb32d6	0.024804514
36	0xbc944167	-0.018097593
37	0x3c6ec1bf	0.01457256
38	0x3cca2880	0.024677515
39	0x3d82ebc5	0.06392626
40	0xbd4e94c2	-0.050434835
41	0xbcf972c8	-0.03045024
42	0x3bbef18f	0.005827136
43	0x3cc82fff	0.024436949
44	0xbd9cac85	-0.07650093
45	0x3cf3a386	0.02974106
46	0xbcaebd28	-0.021330431
47	0x3c43c03a	0.011947686
48	0x3d61a2e9	0.055087004
49	0xbd3367ad	-0.043800045
50	0xbdb5c5de	-0.08875631
51	0x3c9bfcf5	0.019041518
52	0x3db25e74	0.08709422
53	0x3c78d260	0.015186876
54	0x3d3e87e3	0.04651631
55	0xbce37683	-0.027766472
56	0x3d96e8ed	0.07368646
57	0xbd3cf2aa	-0.04612986
58	0x3c8fe944	0.017567284
59	0xbcbae5f1	-0.022814723
60	0xbd91163a	-0.070843175
61	0x3cc1c56d	0.02365371
62	0xbd501b50	-0.050807297
63	0xbcc7df21	-0.024398388
64	0xbccdb57d	-0.025110954
65	0xbcb10247	-0.021607531
66	0xbd278e0b	-0.040906947
67	0x3d8b4e57	0.068020515
68	0x3aaf0848	0.0013353908
69	0x3cf68082	0.030090574
70	0xbcc6886f	-0.024234978
71	0x3a5cb7ac	0.0008419703
72	0xbc1b55d4	-0.009480912
73	0xbcaa1133	-0.020760154
74	0xbd301622	-0.042989857
75	0x3b9b20b2	0.004734122
76	0x3d7c9de6	0.06167402
77	0x3cf2bb11	0.029630216
78	0xbd950217	-0.07275789
79	0xbd02fe60	-0.031980872
80	0x3d66d577	0.05635592
81	0xbd644f9b	-0.05573998
82	0x3ca4ca71	0.020116063
83	0x3d9028d0	0.07039034
84	0x3bece9b0	0.007230006
85	0xbd315748	-0.04329613
86	0x3c91ef4a	0.017814297
87	0xbb0171af	-0.0019751599
88	0x3c0abde4	0.008468125
89	0xbd085a51	-0.033289257
90	0xbd0e9f1a	-0.0348197
91	0xbd1f0bd2	-0.038829632
92	0xbd43bb07	-0.047785785
93	0x3b6d9de1	0.0036257433
94	0xbd0978d5	-0.0335625
95	0xbde4a5a8	-0.11164409
96	0xbb05c3c7	-0.0020410882
97	0xbdacfd65	-0.08446769
98	0x3a466bca	0.00075691624
99	0xbd8dbdc7	-0.06920963
100	0xbd48ba98	-0.049006075
101	0xbd1072ad	-0.035265613
102	0xbd4a7516	-0.049428068
103	0x3d308e63	0.04310454
104	0x3c039f1f	0.008033543
105	0x3c897f73	0.016784405
106	0xbc240ff0	-0.010013565
107	0x3daa3d50	0.08312476
108	0xbda38fa2	-0.0798638
109	0x3a107d94	0.00055118767
110	0xbdb0b913	-0.0862905
111	0x3d6f809e	0.05847227
112	0x3da14a02	0.07875444
113	0xbd00670d	-0.031348277
114	0x3c556319	0.013024115
115	0xbc7b77c6	-0.01534838
116	0xbc80158b	-0.015635272
117	0x3d1ec789	0.03876451
118	0xbd0bc0c6	-0.03411939
119	0x3d07b45a	0.03313098
120	0xbccd078c	-0.025028013
121	0x3cddf384	0.027093656
122	0x3d017d3f	0.031613585
123	0xbba4984f	-0.0050230394
124	0xbd0d7b0a	-0.034541167
125	0x3d453c1f	0.04815304
126	0xbb29bdb6	-0.002590043
127	0x3c856d76	0.016287547
128	0xbd6b4874	-0.057442144
129	0x3ce3e72c	0.027820192
130	0xbd57d314	-0.052691534
131	0x3cc63d6d	0.024199212
132	0xbced8f01	-0.028998854
133	0xbb2f0ba0	-0.002670981
134	0x3a7a81de	0.0009556095
135	0xbc8805d1	-0.016604336
136	0xbca58df8	-0.020209298
137	0x3d75f8ae	0.060051613
138	0x3d77e848	0.060524255
139	0xbd05fe95	-0.03271349
140	0xbd68d842	-0.056846865
141	0xbceea7d1	-0.029132755
142	0xbc74276e	-0.014901979
143	0x3ccb5a9c	0.02482348
144	0x3d5b13b6	0.053485595
145	0x3d38eee5	0.045149703
146	0xbb61dbd0	-0.0034463294
147	0xbe0666d8	-0.1312517
148	0xbcf0c5cd	-0.029391194
149	0x3ca56f9b	0.02019482
150	0xbd5943a6	-0.05304303
151	0xbc87d83a	-0.016582597
152	0x3b9639c8	0.004584525
153	0xbd3fa795	-0.046790678
154	0xbc94cac6	-0.018163096
155	0x3d276cf3	0.040875386
156	0xbe25fed3	-0.16210489
157	0xbd4f7aa6	-0.050654076
158	0xbd1f4258	-0.03888163
159	0x3d407122	0.04698289
160	0x3bc063d8	0.0058712773
161	0xbb8956d8	-0.004191261
162	0x3d145901	0.036217693
163	0x3c87f234	0.016594984
164	0xbb8fdf20	-0.0043906122
165	0xbd171944	-0.03688933
166	0xbc862f3f	-0.01637995
167	0x3d0baa91	0.03409821
168	0x3977ba00	0.00023625046
169	0xbc094c34	-0.008379985
170	0x3c5f3a60	0.0136247575
171	0x3c3e309c	0.011608269
172	0x399a4909	0.00029427584
173	0x3c1ed124	0.009693418
174	0xbd032ee2	-0.032027133
175	0xbc07e394	-0.008294005
176	0x3db7c388	0.089728415
177	0x3d6797d7	0.05654129
178	0xbbf82890	-0.007573195
179	0x3c8a36d0	0.01687184
180	0x3c425d10	0.011863008
181	0x3cdd9c9b	0.027052214
182	0x3c81b7a8	0.015834644
183	0xbd471d6e	-0.04861205
184	0xbd538126	-0.051636837
185	0x3d494bc7	0.049144533
186	0x3a0cc087	0.0005369265
187	0xbce98fdf	-0.028510986
188	0xbd437d30	-0.04772681
189	0x3cc2b5e1	0.023768367
190	0xbcfffc0c	-0.031248115
191	0x3d2aa92d	0.041665245
192	0x3e07663b	0.13222592
193	0x3d4b19f9	0.049585316
194	0x3d235323	0.039874207
195	0x3b4e51df	0.0031481904
196	0x3d75f2bc	0.060045943
197	0xbb1b831a	-0.0023729266
198	0x3a501aa2	0.0007938539
199	0x3d3a224f	0.045442875
200	0x3c3e9349	0.011631795
201	0x3c921679	0.017832981
202	0xbd194149	-0.037415776
203	0xbb8bc58a	-0.004265492
204	0xbd8a1f57	-0.06744259
205	0xbc97c81f	-0.018528042
206	0xbd94aa62	-0.072590604
207	0x3c486a48	0.012232371
208	0xbb935bf1	-0.0044970443
209	0x3bba71db	0.005689842
210	0x3cf9103a	0.030403245
211	0x3dc78543	0.097422145
212	0x3d94d39f	0.07266926
213	0x3cbb8618	0.02289109
214	0x3d65d38f	0.05610996
215	0x3d9be957	0.076128654
216	0x3bde9f72	0.0067939097
217	0x3d0df68d	0.034658957
218	0xbc353e2c	-0.011062186
219	0x3d30b1f7	0.04313847
220	0xbda14b36	-0.078756735
221	0xbce7132c	-0.028207384
222	0xbda0cb9e	-0.07851337
223	0xbdeb4bf7	-0.114890985
224	0x3d6f92c6	0.058489583
225	0xbd405048	-0.046951562
226	0x3c425ba1	0.011862666
227	0x3d1ad1ee	0.03779786
228	0x3d096e58	0.033552498
229	0x3c9e7bda	0.019346166
230	0x3d8c6972	0.068560496
231	0xbb8b9970	-0.0042602345
232	0xbd5b22d1	-0.0535
233	0x3b6085c8	0.0034259427
234	0x3d49025f	0.049074527
235	0x3d295807	0.041343715
236	0xbc832e7b	-0.016013375
237	0xbd84f718	-0.06492442
238	0xbc89d738	-0.016826257
239	0xbc873dc6	-0.016508948
240	0x3bb26b88	0.0054449476
241	0xbcd7a636	-0.026324373
242	0x3cd7fd8f	0.026366023
243	0x3d8b1e71	0.067929156
244	0xbc43ec0f	-0.011958136
245	0x3c577ef4	0.013152827
246	0xbcd2429c	-0.025666527
247	0xbd2f36c2	-0.04277683
248	0xbca9a212	-0.020707164
249	0x3c74fe5d	0.014953223
250	0x3d291857	0.041282978
251	0xbcabbbf3	-0.020963645
252	0xbd39af6f	-0.045333322
253	0x3babff90	0.0052489713
254	0xbc7d9133	-0.015476513
255	0xbcf376c0	-0.02971971

dense1.bias f4 [10]
0	0x3ca87632	0.020564172
1	0x3c66430d	0.014054072
2	0xbc9d22cf	-0.019181637
3	0x3d1b5c56	0.037929855
4	0xbc982080	-0.018570185
5	0xbd5f63ba	-0.054538466
6	0x3d26b713	0.040701937
7	0x3d8d41c0	0.068973064
8	0x3c059416	0.008152982
9	0xbc4d8472	-0.012543784
