saved_weights/Model_epoch_no_60_train_acc_96.02_val_acc_88.37.pth (torch_old, 74661 bytes, 6 tensors)

conv1.weight f4 [16, 1, 5, 5]
-0.28280327 -0.9679004 -1.3552133 -0.5089696 0.2990409 0.47017437 -0.28335875 -0.6423037
-0.24799444 0.41163096 0.42691067 0.39426973 0.21861933 0.52178186 -0.07748959 0.545642
-0.064442895 -0.37677705 -0.16497919 0.3294263 -0.15176767 0.4151537 -0.30121562 0.15477726
0.19201791 -0.010865945 0.17111057 0.5910196 0.4609032 0.17815349 0.16034077 0.13411275
-0.038801923 -0.08364977 -0.13118479 -0.08395841 -0.18077952 -0.021398108 0.023453036 0.034230627
-0.19241504 0.011121452 -0.04549116 -0.1129449 -0.063779734 -0.09523568 0.18610689 -0.16418852
-0.043730225 0.12171577 0.03555655 -0.33405393 -0.119825386 0.27373403 -0.27301836 -0.18801656
-1.0066415 -0.14316149 0.031772133 0.23202187 -0.2653789 -0.64064336 0.42396963 0.40099752
-0.121265754 0.56357163 -0.27395463 -0.03673329 0.3753051 -0.033586074 0.30542257 -0.07529755
0.22815874 0.0882656 0.5881249 0.3670074 0.65176946 0.503076 0.13200602 0.02424261
-0.042393018 0.0781277 -0.011420223 0.3440157 0.31415674 -0.49937254 -0.33103055 -0.223439
-0.046509627 0.13868107 -0.03382215 -0.5326877 -0.5648799 -0.08908661 0.13854071 0.036347926
-0.43429637 -0.6309817 -0.02535386 0.13840431 0.27962592 0.025495104 -0.1643734 0.4694806
0.29414982 0.0151725225 -0.66745895 -0.40505895 0.1249466 0.10671778 -0.2828631 -0.5738836
0.14640778 0.21057825 0.15243495 -0.33890688 0.38085663 0.38458955 -0.41449445 -0.49929398
0.079695776 0.7148177 0.3001665 -0.07567673 -0.0023287046 0.10055404 -0.20429939 0.4795906
0.6319392 0.057042025 0.21966183 -0.13180698 -0.052795853 0.19942482 0.4102165 0.15429279
0.15994364 -0.109702334 -0.2085841 0.36150882 0.28353986 0.19201496 -0.026622565 0.15176174
-0.1865172 -0.61492795 -0.15263173 -0.078672834 -0.51104397 -1.0895115 0.40277988 -0.38066012
-0.14080665 0.15282159 0.15510039 0.40367264 0.28892004 -0.29865387 -0.112982035 -0.23860992
0.3604127 -0.06898749 -0.11091285 -0.037478562 -0.18792059 0.64772457 -0.06935784 -0.3962066
-0.09876417 -0.07638678 0.50212663 -0.2012358 -0.5016817 0.19117878 -0.0049053086 -0.083703145
-0.65795183 0.6527143 0.63375777 -0.51777166 -0.08768333 0.22824013 -0.28155857 -0.19006228
0.008702962 0.20492211 0.36846164 -0.35495538 -0.31132108 -0.09121985 0.52868366 -0.44432363
0.12417535 0.44798535 0.19687673 -0.10294279 -0.24982579 -0.1975164 0.30418235 -0.23476112
-0.19192195 0.5935288 0.47098696 -0.1359816 0.28670287 0.4561319 0.35602608 -0.27655748
0.30255497 0.5043963 -0.15370482 0.20571937 -0.037528574 -0.123513505 0.008152089 -0.18739761
-0.07220072 0.19693023 -0.4937904 -0.45882204 -0.101891786 0.17888366 0.1076503 -0.35048178
-0.68313414 -0.22117858 0.15523939 -9.6228665e-05 0.5356558 0.009870512 -0.17107652 0.07939263
0.0051334673 -0.020088488 -0.45122266 -0.2706154 0.2296497 0.07607518 0.5951547 -0.39733183
0.00984611 -0.23066036 -0.089503385 0.6205055 -0.50695896 -0.22590326 0.035626832 0.17649896
0.53903896 -0.52369803 0.39380267 0.35568652 -0.26664132 0.017327344 -0.2430373 0.68686897
00000000: 97cb 90be 52c8 77bf a177 adbf d54b 02bf
00000010: e41b 993e b2ba f03e 6614 91be 046e 24bf
00000020: 41f2 7dbe 4bc1 d23e 0994 da3e b9dd c93e
00000030: bfdd 5f3e 7f93 053f ddb2 9ebd 32af 0b3f
00000040: a3fa 83bd ece8 c0be 4ef0 28be 90aa a83e
00000050: fc68 1bbe 078f d43e ef38 9abe ee7d 1e3e
00000060: 58a0 443e 1407 32bc 9c37 2f3e 0f4d 173f
00000070: 81fb eb3e de6d 363e 5f30 243e da54 093e
00000080: c4ee 1ebd 9250 abbd 4e55 06be 63f2 abbd
00000090: 441e 39be 164b afbc 9520 c03c 6a35 0c3d
000000a0: 7308 45be c036 363c f054 3abd a84f e7bd
000000b0: f39e 82bd ed0a c3bd ce92 3e3e 0921 28be
000000c0: 771e 33bd 1e46 f93d bfa3 113d 1e09 abbe
000000d0: 0367 f5bd de26 8c3e 10c9 8bbe 6a87 40be
000000e0: a1d9 80bf ed98 12be 7f23 023d 2497 6d3e
000000f0: bedf 87be 3401 24bf 8c12 d93e 8c4f cd3e
00000100: 2e5a f8bd 3b46 103f c843 8cbe a575 16bd
00000110: fd27 c03e 8d91 09bd 5960 9c3e 9a35 9abd
00000120: 72a2 693e 98c4 b43d 5a8f 163f 65e8 bb3e
00000130: 5dda 263f 97c9 003f 962c 073e 7098 c63c
00000140: 4da4 2dbd 6a01 a03d e31b 3bbc d322 b03e
00000150: 27d9 a03e c2ad ffbe d67c a9be 31cd 64be
00000160: e180 3ebd 6902 0e3e 1889 0abd 395e 08bf
00000170: f89b 10bf 0a73 b6bd 9edd 0d3e 90e1 143d
00000180: 185c debe 0488 21bf e6b2 cfbc dcb9 0d3e
00000190: 212b 8f3e 1cdb d03c 8051 28be c35f f03e
000001a0: ce9a 963e 2c96 783c 97de 2abf e363 cfbe
000001b0: 01e4 ff3d da8e da3d 6fd3 90be 09ea 12bf
000001c0: eceb 153e d3a1 573e e817 1c3e 3485 adbe
000001d0: a4ff c23e ece8 c43e 9e38 d4be 76a3 ffbe
000001e0: 8a37 a33d 4bfe 363f 6caf 993e 67fc 9abd
000001f0: 2e9d 18bb 47ef cd3d dc33 51be e68c f53e
00000200: c4c6 213f e6a4 693d 08ef 603e 69f8 06be
00000210: 7740 58bd 0536 4c3e e607 d23e eefe 1d3e
00000220: 44c8 233e 9eab e0bd 1297 55be af17 b93e
00000230: 232c 913e 929f 443e 9117 dabc 6e67 1b3e
00000240: 5dfe 3ebe eb6b 1dbf 7e4b 1cbe 391f a1bd
00000250: c7d3 02bf 1d75 8bbf 2a39 ce3e e2e5 c2be
00000260: 9e2f 10be 437d 1c3e a3d2 1e3e 2eae ce3e
00000270: 54ed 933e 29e9 98be 2063 e7bd 2956 74be
00000280: 0388 b83e 5049 8dbd 4726 e3bd 1f83 19bd
00000290: 416e 40be 47d1 253f 7c0b 8ebd 97db cabe
000002a0: df44 cabd ac70 9cbd 5f8b 003f c210 4ebe
000002b0: 366e 00bf 5fc4 433e b6bc a0bb 8e6c abbd
000002c0: 886f 28bf 4918 273f f33d 223f af8c 04bf
000002d0: 5193 b3bd c8b7 693e 7228 90be b09f 42be
000002e0: de96 0e3c 1ad7 513e 01a7 bc3e b6bc b5be
000002f0: 7a65 9fbe 79d1 babd d057 073f 637e e3be
00000300: a54f fe3d 565e e53e 0e9a 493e abd3 d2bd
00000310: 55d2 7fbe bd41 4abe cabd 9b3e 3865 70be
00000320: 3087 44be 81f1 173f 3425 f13e c33e 0bbe
00000330: b8ca 923e 1f8a e93e 0d49 b63e f198 8dbe
00000340: 7ce8 9a3e 1e20 013f cc64 1dbe 19a8 523e
00000350: 90b7 19bd a6f4 fcbd 5790 053c 29e5 3fbe
00000360: f9dd 93bd 14a8 493e 18d2 fcbe b9ea eabe
00000370: a4ac d0bd 472d 373e c377 dc3d 5972 b3be
00000380: e1e1 2ebf a37c 62be 13f7 1e3e 5fce c9b8
00000390: bd20 093f eeb7 213c af2e 2fbe 9a98 a23d
000003a0: a536 a83b 9d90 a4bc a806 e7be 1a8e 8abe
000003b0: 4a29 6b3e 4ecd 9b3d 0f5c 183f 146f cbbe
000003c0: 9451 213c 3b32 6cbe 8d4d b7bd 73d9 1e3f
000003d0: 10c8 01bf 2f53 67be 71ed 113d 25bc 343e
000003e0: 75fe 093f 1311 06bf 81a0 c93e 8b1c b63e
000003f0: 3685 88be 13f2 8d3c c5de 78be a5d6 2f3f

conv1.bias f4 [16]
0.14897935 -0.011675502 -0.0018973799 0.38714075 -0.06535794 0.0035788228 -0.10353342 0.0020334064
-0.21756756 0.0027144065 0.07914012 -0.0066480795 -0.07527209 -0.28530478 -0.027357055 0.004524552
00000000: 0b8e 183e 9b4a 3fbc 81b1 f8ba 5037 c63e
00000010: 62da 85bd af8a 6a3b 5409 d4bd e642 053b
00000020: 08ca 5ebe 2fe4 313b 3714 a23d 22d8 d9bb
00000030: 4128 9abd 7813 92be e71b e0bc b142 943b

conv2.weight f4 [32, 16, 5, 5]
0.6664257 0.031241994 0.1598562 -0.030202689 0.26372907 -0.28428113 -0.10649914 0.30475205
0.046289593 0.118374914 0.11932183 0.026493525 0.114390895 -0.009976456 -0.17939115 -0.37431693
0.24051788 -0.124351054 -0.3155552 0.12251943 -0.22005452 0.06189976 -0.10342223 -0.051656708
-0.22063822 -0.35200217 -0.06362354 0.21784648 0.11764246 0.04360792 -0.12617701 -0.047569424
-0.09634199 0.022507757 0.44762805 -0.14455076 -0.08371188 -0.032139864 0.041880388 0.13895018
0.0060842996 0.072593234 0.1311879 0.0015472939 0.21534999 0.09278097 0.11165719 0.13182627
0.045048617 0.22130938 0.2721266 -0.17525287 0.08276507 -0.19796094 -0.35438174 -0.17663938
0.29757032 -0.32317093 -0.0029735856 0.51309246 0.18409659 -0.20086192 0.048935086 -0.20325755
-0.0495274 0.07809045 -0.31572857 -0.11173787 -0.09159863 -0.008214602 0.09976741 -0.12354664
0.46071646 0.33410522 -0.23196574 0.29329106 0.056092605 -0.32053542 0.026186887 0.20926917
-0.101434685 0.083429754 -0.13367042 0.26189655 0.034050636 -0.19172308 -0.1663095 -0.33756196
0.1341694 -0.11918453 -0.2832339 -0.2185469 -0.003279431 -0.5029478 -0.3920224 -0.44045228
-0.25844315 -0.24037506 -0.28031242 -0.054486565 0.011291334 0.03630497 0.13784051 -0.059248775
0.04025733 -0.07319049 0.24742761 -0.0525537 -0.15630263 0.03967177 -0.07328297 -0.038080454
0.08800737 -0.21498509 -0.05224098 0.18364678 0.100292906 0.20876168 -0.09043961 0.19027077
0.15178028 0.016853629 0.03099449 -0.18721192 0.5463589 -0.22770588 -0.22612548 0.1389017
0.10469389 0.045809634 -0.42935774 -0.21852614 0.23462802 0.19487865 0.01383847 -0.50020856
-0.113093324 -0.20782912 -0.18089905 -0.24172176 -0.04206521 -0.040620673 0.1768847 0.12252562
0.012841721 0.24355665 0.17629747 0.41785228 0.24716589 0.21426463 -0.15403998 0.47168925
0.038038593 -0.019361604 -0.13861117 -0.06562355 0.35377422 -0.28451273 -0.18996888 -0.036327504
-0.23022297 0.088866256 -0.026331184 -0.19775297 -0.071709916 -0.07473382 0.33064017 0.05039988
-0.010511491 0.1856694 0.47761208 -0.5313195 0.0007285524 0.25645489 0.024936955 -0.024152355
-0.051092383 0.1667607 -0.45367357 -0.1380614 -0.2540741 -0.050913513 0.32357353 0.25978673
-0.036946755 -0.14076528 -0.278712 0.15145984 -0.2000737 0.011504838 0.07015771 0.3406009
-0.15546776 0.13713035 0.5717222 0.23296474 0.1632753 0.3077429 -0.4023676 0.0037720548
-0.6962541 -0.14783464 -0.07020556 0.13171707 -0.008350593 -0.43261316 -0.41633344 0.19005199
0.019933319 0.1062134 -0.75129074 -0.28105235 -0.46153983 0.15417849 0.33712325 -0.04219073
-0.27855673 -0.058745105 0.080378585 -0.055426367 -0.45956388 -0.27364632 0.2624596 0.05231197
-0.14843321 -0.8396826 0.65585816 0.3445708 0.23927167 0.23208588 -0.15554559 -0.12386014
-0.023565862 0.21435717 -0.03944345 0.029600862 -0.1153847 -0.22341065 0.09987396 0.058202744
0.2687327 -0.1828138 -0.35424557 0.22812246 -0.33924273 -0.33027685 -0.5062783 -0.17362446
-0.31319004 -0.44939068 0.25431263 -0.47407517 -0.012001663 0.07739726 -0.15056106 -0.38919696
00000000: e09a 2a3f 36ef ff3c 58b1 233e a16b f7bc
00000010: 7f07 873e 4c8d 91be 391c dabd 7608 9c3e
00000020: 289a 3d3d 8c6e f23d 015f f43d f308 d93c
00000030: c645 ea3d 4a74 23bc 50b2 37be 78a6 bfbe
00000040: 524a 763e c4ab febd 7490 a1be 78eb fa3d
00000050: f955 61be 9a8a 7d3d 09cf d3bd fc95 53bd
00000060: fcee 61be a139 b4be 0f4d 82bd 2613 5f3e
00000070: 88ee f03d 389e 323d 8c34 01be 28d8 42bd
00000080: f34e c5bd 3062 b83c 812f e53e 1d05 14be
00000090: 2271 abbd 17a5 03bd c58a 2b3d f548 0e3e
000000a0: ce5e c73b c3ab 943d 1f56 063e 91ce ca3a
000000b0: b584 5c3e f303 be3d 86ac e43d 77fd 063e
000000c0: e684 383d ed9e 623e 2d54 8b3e 7d75 33be
000000d0: bc80 a93d 46b6 4abe 8671 b5be f4e0 34be
000000e0: 235b 983e a976 a5be 7de0 42bb 075a 033f
000000f0: d183 3c3e bfae 4dbe 2870 483d bf22 50be
00000100: 3edd 4abd e3ed 9f3d 2da7 a1be d3d6 e4bd
00000110: 1098 bbbd 8a96 06bc db52 cc3d 0506 fdbd
00000120: 07e3 eb3e d70f ab3e 6d88 6dbe 3f2a 963e
00000130: 5cc1 653d 381d a4be e285 d63c a84a 563e
00000140: fdbc cfbd 38dd aa3d e6e0 08be 4e17 863e
00000150: ae78 0b3d 0e53 44be 0a4d 2abe ecd4 acbe
00000160: b463 093e 0517 f4bd 0904 91be c2ca 5fbe
00000170: b9eb 56bb 30c1 00bf 29b7 c8be f682 e1be
00000180: a952 84be e124 76be 1c85 8fbe 4e2d 5fbd
00000190: 4aff 383c 85b4 143d 1026 0d3e d8ae 72bd
000001a0: dfe4 243d e5e4 95bd aa5d 7d3e 8c42 57bd
000001b0: cc0d 20be de7e 223d 6215 96bd 40fa 1bbd
000001c0: 353d b43d 0d25 5cbe a3fa 55bd e70d 3c3e
000001d0: 5e66 cd3d 9fc5 553e 6738 b9bd 57d6 423e
000001e0: 4a6c 1b3e 9f10 8a3c 28e8 fd3c 7bb4 3fbe
000001f0: 2dde 0b3f bb2b 69be 708d 67be 3f3c 0e3e
00000200: c069 d63d e2a2 3b3d c7d4 dbbe 51c5 5fbe
00000210: 5442 703e 458e 473e c0ba 623c ab0d 00bf
00000220: 799d e7bd 28d1 54be 9a3d 39be e985 77be
00000230: 924c 2cbd dd61 26bd 4321 353e b6ee fa3d
00000240: 1566 523c ea66 793e 5387 343e bcf0 d53e
00000250: 0e19 7d3e 3068 5b3e a8bc 1dbe 4181 f13e
00000260: 5bce 1b3d 3a9c 9ebc 16f0 0dbe a465 86bd
00000270: e521 b53e a7ab 91be 3487 42be 26cc 14bd
00000280: 92bf 6bbe 83ff b53d 7fb4 d7bc c17f 4abe
00000290: a6dc 92bd 0c0e 99bd ab49 a93e 1b70 4e3d
000002a0: 6438 2cbc 1f20 3e3e 9289 f43e 8e04 08bf
000002b0: 53fc 3e3a 0e4e 833e 9648 cc3c 29db c5bc
000002c0: 3f46 51bd 51c3 2a3e e747 e8be f85f 0dbe
000002d0: 0016 82be b08a 50bd 6eab a53e c402 853e
000002e0: 7b55 17bd c624 10be 57b3 8ebe 4a18 1b3e
000002f0: 1fe0 4cbe ca7e 3c3c d8ae 8f3d 3e63 ae3e
00000300: f132 1fbe e66b 0c3e 635c 123f 4f8e 6e3e
00000310: a431 273e 7a90 9d3e 2003 cebe 9434 773b
00000320: b53d 32bf f761 17be efc7 8fbd d7e0 063e
00000330: edd0 08bc 797f ddbe a829 d5be fd9c 423e
00000340: 334b a33c 6986 d93d 9754 40bf 18e6 8fbe
00000350: f34e ecbe f7e0 1d3e 6b9b ac3e 30d0 2cbd
00000360: fd9e 8ebe b59e 70bd 879d a43d c206 63bd
00000370: f54b ebbe 5f1b 8cbe 1b61 863e 1445 563d
00000380: e0fe 17be 70f5 56bf 52e6 273f 956b b03e
00000390: a203 753e eca7 6d3e 5847 1fbe 63aa fdbd
000003a0: 320d c1bc 7280 5b3e 748f 21bd 827d f23c
000003b0: d04e ecbd c3c5 64be b88a cc3d 0066 6e3d
000003c0: 5597 893e 8a33 3bbe ad5f b5be ef98 693e
000003d0: 39b1 adbe 0c1a a9be 749b 01bf 9cca 31be
000003e0: 725a a0be 8916 e6be 4435 823e fbb9 f2be
000003f0: a0a2 44bc 7482 9e3d ae2c 1abe d344 c7be

conv2.bias f4 [32]
0.08090826 0.0970147 0.5265564 0.16482684 -0.020350965 0.30069602 -0.08817199 -0.0021125025
-0.1538322 0.08859364 -0.16012228 -0.0278766 -0.21057852 0.15254818 -0.050752126 -0.05044083
-0.027227003 0.01549883 -0.123795964 -0.052189827 0.5250069 0.054571543 0.65145016 0.24320902
0.29856512 0.21886297 -0.05713346 0.2910828 0.042054147 -0.034708083 -0.30677217 0.58871686
00000000: 3bb3 a53d a5af c63d 66cc 063f 5ec8 283e
00000010: 11b7 a6bc d4f4 993e 8493 b4bd e971 0abb
00000020: 3086 1dbe 9570 b53d 18f7 23be 785d e4bc
00000030: e5a1 57be 9735 1c3e 76e1 4fbd 0b9b 4ebd
00000040: 2a0b dfbc ceee 7d3c bd88 fdbd 00c5 55bd
00000050: da66 063f 6986 5f3d 70c5 263f c90b 793e
00000060: 87dd 983e 9d1d 603e c604 6abd ce08 953e
00000070: f840 2c3d 102a 0ebd 3e11 9dbe 26b6 163f

dense1.weight f4 [10, 512]
-0.079960145 0.11395005 -0.26044357 -0.3221221 0.00076855667 0.04633154 0.01820099 -0.22003342
0.2774347 0.04506459 0.23706824 0.085654534 -0.12531558 -0.14324956 0.16781373 -0.08253369
-0.2217327 -0.06616322 0.23564312 -0.0164111 0.033674713 0.20998792 -0.11952726 -0.03142958
0.5278193 -0.045619175 0.39816386 0.25206894 -0.09122711 0.50103813 0.49797544 -0.18895008
-0.21655658 -0.08631955 0.09598835 0.117378615 0.05319321 -0.009828643 0.29251868 -0.2569143
-0.19784896 0.040339332 -0.07169654 0.008494756 0.02084965 -0.054667946 -0.0034193813 -0.35306454
0.46649927 0.03708377 0.19298291 0.14688557 -0.11450594 -0.32488725 0.24735978 0.24771604
0.3754195 0.004593836 -0.2951182 0.23622365 -0.41571906 0.11638284 -0.34953398 -0.24390273
0.14746532 -0.172184 0.36938798 0.25165272 -0.12019604 -0.33563274 0.013610654 0.17757306
0.19081141 -0.35994315 -0.07282594 -0.12927231 -0.16315965 -0.06772179 -0.18573333 0.19458854
0.28521007 0.0078303125 0.038745437 0.105942495 0.07913984 -0.3007773 0.010674494 -0.109379545
-0.21881624 -0.27192768 0.22744986 0.16945964 0.045089953 0.16684109 -0.02022823 -0.20474385
0.22120261 -0.12391634 0.4838351 0.016936973 -1.0642864 -0.07726915 0.008764714 -0.5683611
-0.3243822 -0.100009836 -0.22818522 -0.29994813 -0.09450542 -0.3468258 -0.4657035 0.26391786
0.25148565 -0.08859537 0.25444862 -0.37434575 -0.00010573974 -0.24073851 -0.18629913 -0.010816082
0.23387572 0.29225624 -0.25651315 0.05644209 0.079941824 0.12296825 0.009179583 -0.21367458
0.05321618 0.14085515 -0.20317261 -0.39655572 0.3473861 -0.22611119 -0.37939936 0.1810531
0.33555707 0.02615707 0.024502063 -0.028076688 -0.7970126 0.31766194 0.66671616 0.19173321
0.06038777 0.25895095 0.120872 -0.068372555 -0.057537157 0.036031377 0.32134002 0.30758715
0.03920327 0.059653074 -0.011767023 -0.18940872 -0.2058137 0.009375347 -0.16322595 -0.30772606
-0.08814789 0.20699355 -0.31461602 -0.16787954 0.5131983 -0.17058074 0.0704553 0.27055448
-0.11448943 -0.26731175 0.13414854 -0.3269774 -0.11030863 0.039594177 -0.016250389 -0.30703613
0.08313656 -0.061852667 0.30538774 -0.35443574 0.08508538 0.053026803 -0.03994438 -0.5716215
0.20052618 0.21755952 -0.08370544 -0.25579494 -0.015440992 0.013868498 -0.051900487 0.49247575
-0.120482676 -0.3252866 0.00045392397 -0.26511416 0.064416885 0.4043795 -0.14594492 -0.16311051
-0.46845746 -0.35909086 -0.2762283 0.1758049 -0.45904928 0.10098771 -0.38845527 0.14914763
0.1419489 -0.014489813 -0.020477166 0.014481206 0.4582342 0.008642988 -0.24705422 -0.06084138
0.21390711 0.11948692 0.19639307 -0.027434133 0.16838297 0.08706824 0.27724534 0.09357723
-0.009740743 -0.04145765 0.021506444 -0.041124195 -0.051097 -0.018642914 0.005736214 -0.028148677
0.009865946 -0.006839198 0.0116661005 0.0290361 0.033198215 0.050860766 -0.025788061 -0.02911761
0.032826915 0.0018763018 0.013331263 0.033235442 -0.045890123 -0.011288292 -0.0002670171 0.020822741
0.026441162 0.009535184 0.00049893785 -0.0015597027 0.0077808076 -0.023242598 0.034130827 0.0041436534
00000000: 25c2 a3bd a55e e93d dc58 85be 30ed a4be
00000010: f778 493a 24c6 3d3d 3e1a 953c 7150 61be
00000020: ec0b 8e3e a695 383d 04c2 723e a56b af3d
00000030: ba52 00be 03b0 12be 5dd7 2b3e 6c07 a9bd
00000040: e60d 63be 9580 87bd 6e4c 713e 9270 86bc
00000050: 7fee 093d 1307 573e b5ca f4bd 4ebc 00bd
00000060: 2a1f 073f 2cdb 3abd 22dc cb3e 2e0f 813e
00000070: 47d5 babd 0944 003f a3f6 fe3e 217c 41be
00000080: 02c1 5dbe 4ec8 b0bd 8a95 c43d 3364 f03d
00000090: 20e1 593d 5108 21bc 02c5 953e 458a 83be
000000a0: eb98 4abe db3a 253d a3d5 92bd 972d 0b3c
000000b0: e3cc aa3c 7feb 5fbd b317 60bb e0c4 b4be
000000c0: fed8 ee3e 27e5 173d 509d 453e 2c69 163e
000000d0: 1782 eabd 9f57 a6be e24b 7d3e 46a9 7d3e
000000e0: fc36 c03e e487 963b bc19 97be 9de4 713e
000000f0: 21d9 d4be 205a ee3d 1ef6 b2be a3c1 79be
00000100: 2601 173e 0151 30be 6c20 bd3e a0d8 803e
00000110: 5729 f6bd 0ed8 abbe 38ff 5e3c b6d5 353e
00000120: 1164 433e 784a b8be c425 95bd f65f 04be
00000130: 5313 27be b9b1 8abd e130 3ebe 3842 473e
00000140: 0e07 923e b64a 003c 89b3 1e3d 61f8 d83d
00000150: 1214 a23d 7bff 99be 13e4 2e3c 6202 e0bd
00000160: 5d11 60be 1b3a 8bbe 9ee8 683e d486 2d3e
00000170: 3eb0 383d 64d8 2a3e acb5 a5bc 5fa8 51be
00000180: f082 623e dac7 fdbd 3cb9 f73e 68bf 8a3c
00000190: 893a 88bf 4a3f 9ebd e099 0f3c 1d80 11bf
000001a0: 6c15 a6be f5d1 ccbd 63a9 69be cd92 99be
000001b0: 0f8c c1bd 2793 b1be b070 eebe 3e20 873e
000001c0: bac2 803e 7d71 b5bd 1747 823e 3faa bfbe
000001d0: 97c0 ddb8 2884 76be 33c5 3ebe f035 31bc
000001e0: 1e7d 6f3e 9ca2 953e b155 83be d22f 673d
000001f0: 8ab8 a33d c7d6 fb3d f665 163c 82cd 5abe
00000200: 36f9 593d 553c 103e 7b0c 50be 5a09 cbbe
00000210: 97dc b13e b189 67be a240 c2be fc65 393e
00000220: 23ce ab3e 5a47 d63c 8db8 c83c 1501 e6bc
00000230: 0509 4cbf 96a4 a23e e9ad 2a3f b655 443e
00000240: 2b59 773d 3895 843e bd8b f73d e906 8cbd
00000250: 15ac 6bbd a395 133d ae86 a43e 107c 9d3e
00000260: 9c93 203d c856 743d 79ca 40bc 5cf4 41be
00000270: d4c0 52be 0e9b 193c b424 27be 458e 9dbe
00000280: e286 b4bd 1ef6 533e 5a15 a1be 9de8 2bbe
00000290: f760 033f b8ac 2ebe de4a 903d 1e86 8a3e
000002a0: 6f79 eabd 16dd 88be 3c5e 093e 9569 a7be
000002b0: 7ee9 e1bd 812d 223d 891f 85bc d733 9dbe
000002c0: 8043 aa3d 3959 7dbd c85b 9c3e 9a78 b5be
000002d0: 3e41 ae3d a232 593d b89c 23bd c955 12bf
000002e0: bc56 4d3e ecc7 5e3e c26d abbd 8ef7 82be
000002f0: 37fc 7cbc b238 633c 9b95 54bd c825 fc3e
00000300: 9fbf f6bd f78b a6be a5fc ed39 0bbd 87be
00000310: 00ed 833d d40a cf3e 9672 15be 7106 27be
00000320: a8d9 efbe c2da b7be cc6d 8dbe 3306 343e
00000330: 8208 ebbe a5d2 ce3d 9ce3 c6be 28ba 183e
00000340: 0d5b 113e ae66 6dbc bbbf a7bc 9542 6d3c
00000350: ac9d ea3e 529b 0d3c c8fb 7cbe d034 79bd
00000360: 770a 5b3e 8fb5 f43d 441b 493e 8cbd e0bc
00000370: 966c 2c3e d550 b23d 1af3 8d3e 6ba5 bf3d
00000380: a397 1fbc 7fcf 29bd 482e b03c d871 28bd
00000390: 164b 51bd 06b9 98bc daf6 bb3b 0e98 e6bc
000003a0: c7a4 213c 5a1b e0bb 2c23 3f3c 1ddd ed3c
000003b0: dafa 073d 6153 503d 7c41 d3bc 0e88 eebc
000003c0: 8475 063d 3eee f53a 5f6b 5a3c e321 083d
000003d0: 48f7 3bbd 87f2 38bc 6efe 8bb9 7494 aa3c
000003e0: 239b d83c 7639 1c3c 27cb 023a f06e ccba
000003f0: 25f6 fe3b 4367 bebc c4cc 0b3d 7cc7 873b

dense1.bias f4 [10]
-0.030516466 -0.14250335 0.23170134 0.13512832 -0.44802138 -0.3742886 0.20872846 0.040132277
0.15402402 0.13176009
00000000: abfd f9bc 66ec 11be 1e43 6d3e 145f 0a3e
00000010: 0f63 e5be c1a2 bfbe eabc 553e be61 243d
00000020: 79b8 1d3e 1eec 063e
