saved_weights/Model_epoch_no_12_train_acc_92.14_val_acc_89.92.pth (torch_old, 74661 bytes, 6 tensors)

conv1.weight f4 [16, 1, 5, 5]
000000 ef 55 90 3e 38 16 aa 3e 4e 8a 20 3e e1 3e 9b 3e
       0.28190562 0.33220077 0.15677759 0.3032141
000010 ea 56 a6 bd 8c 80 0b be 57 e3 d1 bc fe 2a a7 be
       -0.08122046 -0.13623255 -0.0256211 -0.32649988
000020 3f d6 04 be 32 3b 4c be 9c 46 df bd 76 b8 84 be
       -0.12972353 -0.19944456 -0.109021395 -0.25921983
000030 54 8d df be 7b 11 2f bc 39 55 0a 3e 0a e4 ac bc
       -0.43662512 -0.01068532 0.13509072 -0.021104831
000040 1e 97 87 be a1 32 86 3b 2d 41 72 3e 00 da bb 3e
       -0.2648248 0.004095391 0.23657675 0.36689758
000050 3d fc 76 3e 9a 1e 83 be 50 66 7e be 7d 6d 83 3e
       0.24119659 -0.25609285 -0.24843717 0.2566947
000060 6d 03 ad 3e be ed a3 3d b3 30 47 be 9d 19 b4 3d
       0.33791676 0.0800433 -0.19452171 0.08793948
000070 77 82 9a 3e eb 58 5f be ad 5b 37 3e 9c 03 2b be
       0.30177662 -0.21811263 0.17906065 -0.16700596
000080 98 5b 00 bd 00 3f b3 3d 8f a0 b8 bd 66 e3 53 3e
       -0.03133735 0.08752251 -0.09014999 0.20692214
000090 75 a4 74 be 4a 18 86 bd 5f 86 b9 3d 95 a8 67 3d
       -0.2389086 -0.065476015 0.090588324 0.056557257
0000a0 f8 24 32 3e 4a 0b 68 be f7 7c 0f 3a c0 26 42 3e
       0.17396915 -0.22660556 0.00054736383 0.18960094
0000b0 0a 1c 09 bd 34 f0 19 bd ae b0 ab be 60 91 a9 3e
       -0.033474006 -0.03758259 -0.33533233 0.33118725
0000c0 2a d9 ba 3d f3 05 3b be 12 72 83 3e d3 a4 a3 3d
       0.09123452 -0.18263988 0.25672966 0.07990422
0000d0 c3 18 62 3e 47 a6 6f be 97 16 1b 3e 01 20 02 3e
       0.22079758 -0.23403274 0.15145336 0.12707521
0000e0 42 f8 76 3e 2a 33 22 be 8b ff 61 be f0 0e 22 3e
       0.2411814 -0.1583983 -0.22070138 0.1582601
0000f0 75 08 8f 3d 58 92 ef be 6e e0 a2 be c8 66 41 3e
       0.06984035 -0.4679134 -0.3181185 0.18886864
000100 b4 bc bf bc 5b 13 a6 be e9 0b ee bf 24 82 be bf
       -0.02340541 -0.32436642 -1.8597385 -1.4883466
000110 53 3c 45 bd e7 37 80 3e 82 65 a2 bd fa cc d5 bf
       -0.048153233 0.2504265 -0.07929517 -1.6703179
000120 92 d6 a4 bf 3c 7a a8 bd e5 48 17 be 35 3a 5a 3c
       -1.2877982 -0.08226439 -0.14773901 0.013319542
000130 24 95 07 be e6 c0 c4 be 44 63 fa bc fb e6 43 be
       -0.13240486 -0.3842842 -0.030564912 -0.19131081
000140 08 82 30 3e 7e 1c 9f 3d 30 65 65 bd 65 bf d3 be
       0.17237103 0.07769106 -0.056004703 -0.4135696
000150 36 45 ba be 5e 64 b0 3d 36 df 98 3e ca 29 a9 3d
       -0.3638093 0.086128935 0.29857796 0.08259924
000160 fa 40 15 be 82 37 7b be ca 91 72 3e 3c 56 96 3e
       -0.14575568 -0.24532893 0.23688427 0.29362667
000170 9a 6b d3 3e c3 6f 90 3e 2f 47 8d bd 54 c4 c2 bd
       0.4129303 0.28210267 -0.06898343 -0.09510103
000180 62 51 e0 bd 50 3f 0a 3d ab 49 25 3e f7 2a d7 3d
       -0.109530225 0.033751786 0.16141383 0.10506242
000190 ec 57 49 3e ff 0c a5 3e 71 cf c3 bd 9b b6 3f 3e
       0.19662446 0.32236478 -0.09561051 0.18722002
0001a0 6e be 89 3d ea 6b 5e 3e e9 3b 05 3e f7 5a 57 3e
       0.06725775 0.21720853 0.13011135 0.21030794
0001b0 e7 97 19 3e f8 02 c6 bd 9b bf 8b 3e ee a7 dc 3c
       0.14999352 -0.09668535 0.2729462 0.026935544
0001c0 78 cc 4d 3d 5d dd ed bd b3 b2 cf bd 75 3d 4a be
       0.050243825 -0.11614487 -0.10141506 -0.19750006
0001d0 4c 98 c2 bd 3c 60 43 3e ce 44 78 3e d0 4f cf bd
       -0.095017046 0.19079679 0.24244997 -0.10122645
0001e0 de 1d 92 be 32 19 07 be 76 19 70 be d3 32 8b be
       -0.28538412 -0.13193205 -0.23447213 -0.27187213
0001f0 b2 82 dc bd 51 5f 17 3e 33 a8 ce 3e 6b f3 cc bc
       -0.10767116 0.14782454 0.403627 -0.025018414
000200 95 b8 3d be f5 20 11 3e 86 cd 13 be 7e 45 af 3e
       -0.18527444 0.14172728 -0.1443387 0.34232706
000210 ab 5f 0e be f9 62 53 be 04 c6 c5 be e0 e2 99 be
       -0.13903682 -0.20643224 -0.38627636 -0.30055904
000220 f4 4e ba 3e 92 ec 34 be 29 d7 b8 bd b6 c6 d1 bc
       0.3638836 -0.1766837 -0.090254135 -0.025607448
000230 fa a1 4c be 91 39 7d 3e 9d 14 0d 3e 97 37 29 be
       -0.19983664 0.24728991 0.13777395 -0.16525112
000240 f8 af 3c 3e 4c 20 cc bc 02 10 8e 3e 17 1d 9e bd
       0.18426502 -0.024917744 0.27746588 -0.07720392
000250 83 aa 3a bd 21 b2 1f 3c 15 67 c7 bd d3 df 13 be
       -0.04557277 0.009747059 -0.09736458 -0.14440851
000260 32 b5 c6 3e c2 63 01 be 36 85 81 3d ae 6b 0d be
       0.38810116 -0.12635711 0.06324236 -0.13810608
000270 de 7a e4 bd 35 be da 3e ad d7 8e be 4b 0c f3 3c
       -0.111562476 0.4272324 -0.27898923 0.029668948
000280 82 60 cc bd cb c9 01 be 2d d5 c6 3e ed 6d a2 be
       -0.09979345 -0.12674634 0.38834515 -0.31724492
000290 24 0a b1 bb da 1f 84 3e 99 c5 9c bd 69 9f 49 3e
       -0.00540282 0.2580555 -0.07654876 0.19689716
0002a0 5a 80 90 be 8e f9 4e bd 4f 0b 9e 3d 28 90 56 be
       -0.28222924 -0.050530963 0.07717001 -0.20953429
0002b0 7d 2d 94 3e 98 8c 8f 3d f6 cf 5c bc 59 93 42 be
       0.28940955 0.07009238 -0.013477316 -0.19001521
0002c0 a6 c8 6f be 1b ad 42 be 20 c5 30 3e 6f 30 b6 3e
       -0.23416385 -0.19011347 0.17262697 0.35583827
0002d0 44 ae 22 bc 76 14 17 3e a3 97 83 bc bd ef 5d 3e
       -0.0099292435 0.14753899 -0.016063517 0.21673484
0002e0 c1 6b 68 3e d5 dd a4 3d 0a 46 4a be 93 92 a7 bc
       0.22697355 0.080501236 -0.1975328 -0.020455634
0002f0 c7 c5 a9 3d 80 8f 49 bd 50 0d f0 bd 85 eb 99 3d
       0.08289676 -0.049209118 -0.11721289 0.07515625
000300 57 0e 14 3e 34 fd a6 bd 5a 18 e5 3d c1 5c 0c 3e
       0.14458595 -0.081537634 0.11186285 0.13707258
000310 1c 12 be 3a 96 69 2e be 0d a3 15 3d a6 69 a8 bd
       0.0014501247 -0.17032465 0.03653245 -0.08223276
000320 72 00 25 3d dc db 84 be 64 60 35 be 59 c0 04 3f
       0.040283628 -0.2594899 -0.17712551 0.51856
000330 18 7e c3 3d b7 7a c1 3b 2c 2c cd be 38 86 c2 be
       0.09545535 0.0059045213 -0.40072763 -0.37993026
000340 fb ea e0 3e 9a 30 3e be 06 b7 26 3e 1e 35 86 3e
       0.43929276 -0.18573228 0.16280755 0.262124
000350 f6 f7 97 be 92 7d 87 3e 96 6e 3b be 6b 3d 7c 3e
       -0.29681367 0.2646299 -0.18303904 0.24632804
000360 1b 62 15 3e b1 12 d3 bd 84 1f 0c bd 32 22 7a 3e
       0.14588206 -0.103062995 -0.034209743 0.24427107
000370 33 a9 57 be e8 ad d8 bc 84 ca df be 99 46 aa bd
       -0.21060638 -0.026450112 -0.43709195 -0.08314247
000380 a1 c5 be 3e 4d 93 20 bf 5e fb ee be 08 e7 a8 be
       0.37260154 -0.62724763 -0.46676153 -0.32988763
000390 e4 dd b6 3c f9 d4 49 3b f2 51 01 be d1 df 07 bd
       0.022322603 0.0030797108 -0.12628916 -0.033172432
0003a0 0a ca 07 be 59 ed 33 be e5 5c d8 3d 0d a8 64 bc
       -0.13260666 -0.1757101 0.10564593 -0.013956082
0003b0 0e 8d ca 3e d8 e0 eb 3d a4 a5 c3 bc f4 24 7e 3c
       0.3956074 0.11517495 -0.023882695 0.01551174
0003c0 f3 fc 51 3d 18 f4 89 3e 23 14 27 bc 4c 18 e7 3d
       0.05126662 0.2694404 -0.010197672 0.11283931
0003d0 6e db 1c 3e 87 07 d1 3e 3a 15 7c 3d ca aa b0 bc
       0.15318081 0.40826055 0.06154368 -0.021565814
0003e0 4a 7f b1 bc 84 f4 7e 3e 2e 21 a9 be 73 c2 4f 3e
       -0.021667141 0.24897963 -0.33033127 0.2028902
0003f0 f2 fc 58 3e 1d 6e df bc 48 50 01 3d 8b bf 82 be
       0.21190241 -0.027274186 0.031570703 -0.2553676

conv1.bias f4 [16]
000000 53 a1 cc bc fd 81 f2 bc 68 77 de 3e e0 cb 1a bd
       -0.02497927 -0.029602999 0.43450475 -0.037792087
000010 ba 3b 36 bc 88 e4 d7 bc 57 c4 3b bc 01 cf e5 bc
       -0.011122638 -0.02635409 -0.011460385 -0.028052809
000020 a1 3c 10 ba 8a 17 1f bb f6 56 fc bb b6 b9 e0 3c
       -0.00055021985 -0.0024275505 -0.0077007962 0.027432304
000030 0a b8 5d 3d 5d fc 16 3e 94 1c 8c 3e 14 29 cb bc
       0.05413059 0.14744706 0.27365553 -0.024799861

conv2.weight f4 [32, 16, 5, 5]
000000 a0 b7 0b bd dc c6 37 bc 07 b1 b1 bc 33 54 f5 3d
       -0.034110665 -0.011216845 -0.021690859 0.1197895
000010 f3 c4 b8 bc 97 f6 2b be c7 80 29 be 42 3d d6 3b
       -0.02255485 -0.16793285 -0.16553031 0.006538064
000020 80 24 22 3e 92 58 8a 3d c2 b4 d3 bc 7d 8c da bd
       0.15834236 0.06755175 -0.025843028 -0.10671327
000030 9c 61 a2 3d 6d a6 40 bc c3 72 ca 3d 7b 84 77 3b
       0.07928774 -0.011758429 0.0988517 0.0037768173
000040 c1 89 fc bd 91 6b 72 3d ef 59 94 3e dd ae 53 3e
       -0.12330962 0.059184615 0.28974864 0.20672174
000050 d2 74 13 3c e0 de b7 be a2 3b 09 bd 3c 5b 92 3e
       0.00900002 -0.35912228 -0.033504136 0.2858523
000060 5f c9 73 be ce f0 33 3d 9a 60 25 bc 5c 58 12 bd
       -0.23807286 0.04393082 -0.010093832 -0.035728797
000070 4d 65 56 bd 80 3c 26 3d 54 f8 ba bc 1b d9 04 3d
       -0.0523427 0.04058504 -0.02282349 0.03243361
000080 da cc 9f 3d fb 3f dd 3d 48 c9 aa bc 75 12 2d 3c
       0.07802744 0.10803219 -0.020847932 0.0105634825
000090 bc 89 68 3d 37 fe d4 3c 08 7f 38 bd 41 05 06 bd
       0.05677198 0.026000125 -0.04504302 -0.032719854
0000a0 8f 6e de 3b 51 0b 07 bd 9b 69 ef 3d db 0b 95 3c
       0.006788082 -0.032969777 0.116900645 0.01819413
0000b0 5e 9d fe 3d 9a d7 dd 3c 7f 0e cc bd be 5b 7e 3d
       0.12432359 0.027080346 -0.099637024 0.06209921
0000c0 1d 3c 84 bc 98 11 16 bd fe 9d 26 be d5 c6 09 bd
       -0.016141945 -0.036637872 -0.16271207 -0.033636887
0000d0 c1 60 72 3d b6 10 18 3d 0d 8c 2d 3e 65 c3 e2 bc
       0.059174303 0.03712531 0.16947956 -0.027681062
0000e0 3b ad 02 be d9 e5 40 bd c5 3a 05 3d 8c eb 40 3e
       -0.12761395 -0.0470942 0.03252675 0.18839854
0000f0 4a f3 2c be 1d 79 68 be 9e ee 9e bd 34 06 ac bd
       -0.16889682 -0.22702451 -0.07760356 -0.08399621
000100 0c 18 84 3c a2 c1 5f be 2e ce 85 bd 10 94 df bd
       0.016124748 -0.21851209 -0.06533466 -0.109169126
000110 b5 ad 4f bb a9 2e c8 3c 66 f0 11 be 00 17 31 3d
       -0.003168923 0.024436312 -0.14251861 0.043234825
000120 72 10 a9 3d 4f 97 47 3e bb f2 66 3e a9 9e f9 3d
       0.0825509 0.19491313 0.22553532 0.12188465
000130 77 25 dc 3d 2c 0e e5 3d 74 d6 8c 3d 7e 8d 77 3d
       0.10749333 0.11184344 0.06876841 0.06043767
000140 1a 19 95 3d 8c c2 a4 3d 7f cb 9a 3d eb ac 0f 3c
       0.07280178 0.08044919 0.07558345 0.008769254
000150 79 1d 2e 3e c6 38 f3 3d f1 57 c0 3d 54 03 0c be
       0.1700343 0.11876063 0.093917735 -0.13673145
000160 d8 1c 1e bc be 71 e1 3d 41 1c fe 3d 50 2d 82 3e
       -0.009650432 0.11008023 0.12407733 0.25425196
000170 43 9c d6 bd ed 73 5a 3c 71 f1 22 be f3 f3 44 3e
       -0.10479023 0.013333303 -0.15912415 0.19233684
000180 5a cb d5 3d ac 51 c5 bd d3 78 79 3d f5 7b 0e 3e
       0.10439177 -0.09634718 0.060906243 0.13914473
000190 eb a3 a0 bd fc ee 63 3c 05 92 ad bc da d3 10 be
       -0.07843765 0.013911959 -0.021187792 -0.14143315
0001a0 02 b3 bc bd 36 74 5e 3d 55 f3 f7 3b 10 3d ad 3d
       -0.092138305 0.054310046 0.0075668492 0.084589124
0001b0 fe f6 e7 bb b6 d9 da bd b6 18 b6 3d 14 e4 ec 3d
       -0.0070790043 -0.10686056 0.08891432 0.1156694
0001c0 a8 45 49 bd 9c 1f 0c 3d cb 82 06 be d1 11 08 bc
       -0.049138695 0.034209833 -0.13135831 -0.008305029
0001d0 1c 87 33 3d 1a a3 39 bd e3 55 95 3d 4b 75 ca ba
       0.043830022 -0.04532156 0.07291772 -0.0015446333
0001e0 98 56 27 bd 25 a9 b5 3d db bd d6 3d db f0 2c 3d
       -0.040854067 0.088701524 0.10485431 0.042221885
0001f0 61 ef 06 3c f7 16 28 be 8c 44 51 3d bc 12 c4 bd
       0.008235783 -0.1641501 0.051090762 -0.09573886
000200 97 42 b1 bd 92 ea d9 bc f2 38 03 be f5 bd 76 3d
       -0.08655279 -0.02660111 -0.12814692 0.06023975
000210 f1 c9 49 3d e4 4d 19 bd 4f 32 a7 bb c8 f6 95 bd
       0.049264852 -0.037427798 -0.005102433 -0.073224604
000220 ed 86 d9 3d a1 a8 54 3c e1 d4 b8 3d d0 04 b3 bd
       0.10621438 0.012979657 0.090249784 -0.08741152
000230 3f f6 d5 bd cc 9b 49 3e 37 75 aa 3d 79 c7 b8 3d
       -0.10447358 0.19688338 0.08323138 0.090224214
000240 3b 27 ae bd 60 3a c9 bc 7d 7d ba 3c 1e fd 25 be
       -0.08503576 -0.024563968 0.022764916 -0.16209838
000250 bd 5f f5 3c 7d 7a e5 bd 31 2f 53 bd 2e 54 8d bc
       0.029952878 -0.112050034 -0.051558677 -0.017252054
000260 7f f5 0d be d3 fc 22 be 2e 5d e2 bd 9c 25 09 3e
       -0.1386318 -0.15916757 -0.11052929 0.13393253
000270 15 f2 86 3d 27 b5 57 3c 43 f0 c8 3d 13 5e 4d 3d
       0.06589142 0.013165749 0.09811451 0.050138544
000280 52 ab 27 3e e6 59 30 3d 8f c2 d3 3c d6 f2 95 bc
       0.16373947 0.043054484 0.025849609 -0.01830427
000290 2d 52 2d be 1c 51 94 3e 58 a1 ae 3c 90 57 a7 3d
       -0.16925879 0.28968132 0.02131717 0.08170998
0002a0 9b 7c a4 3d 40 18 8b be e0 99 8a 3d a5 8f 3d bd
       0.08031579 -0.2716694 0.067676306 -0.04627957
0002b0 c5 04 a0 bc e5 d1 6b bd ee 0b ee bd 57 33 66 3d
       -0.019533524 -0.057573218 -0.11623369 0.056201305
0002c0 e4 cd e4 bd 56 c2 03 be fa d9 0e be 7d cd 57 bd
       -0.11172083 -0.12867102 -0.13950339 -0.052686203
0002d0 d3 ed 5a 3d fb 82 9b bd ef 37 e7 3b 92 4a 38 bd
       0.053449463 -0.07593342 0.0070562284 -0.04499299
0002e0 7a 1c 93 bb 10 c3 9d 3c 64 eb 0b 3d 7a d9 2d 3d
       -0.0044894787 0.019258052 0.034160033 0.04244373
0002f0 b8 fe 89 bd 74 eb ab bc fc 25 e4 3d f6 c5 6b b8
       -0.06738037 -0.020986296 0.111400574 -5.621273e-05
000300 af 65 dc 3d 4c 30 b9 3c a7 e6 31 3d 04 0f 15 3d
       0.10761582 0.022606038 0.043432858 0.036391273
000310 82 28 99 bc 8a b0 f6 3d 5d 1a d2 bb 13 c6 3f bc
       -0.018696073 0.12045391 -0.006411834 -0.011704939
000320 bc 6d 36 be ea 05 1c be 92 20 73 bd 85 cb 10 3e
       -0.17815298 -0.15236631 -0.059357233 0.14140137
000330 a5 9f 04 3e 60 80 00 bd f4 4f 4c bb 33 5c 8b 3d
       0.12951525 -0.031372428 -0.0031175585 0.06804695
000340 7a c3 fc 3b 6c ec 33 3d 88 87 50 3d b4 5b c2 3d
       0.0077137323 0.04392664 0.050910503 0.09490147
000350 c7 cf 88 3d 06 00 cc 3d 20 65 26 3d a6 6f 4a 3c
       0.066802554 0.09960942 0.040623784 0.012355721
000360 07 8c 1d be 7e 68 5a 3e 04 6c 5b 3c 8a f3 83 be
       -0.15385447 0.21328923 0.013392452 -0.25771743
000370 24 4c 1c be 44 93 bd be ea 93 0f be cf 9f 0c be
       -0.1526342 -0.37026417 -0.14021268 -0.13732837
000380 cf fe 9c be 42 09 28 be 85 75 f5 bd 1e 51 3e 3d
       -0.30663154 -0.16409782 -0.11985306 0.046464078
000390 91 c8 40 3e e1 e8 e5 3d a1 01 6f be b5 b8 9a 3d
       0.1882651 0.11226059 -0.23340465 0.07554761
0003a0 65 ae 8c 3d 93 73 1b 3e 96 9b 49 3d 37 02 cf bd
       0.068692006 0.15180807 0.049220644 -0.10107844
0003b0 93 fd c1 3d f6 5b 8d 3d 3b 34 4b 3e f4 c2 77 3d
       0.094721936 0.06902306 0.19844143 0.060488656
0003c0 34 ea 19 3e dd 83 a9 3c ab 4f 20 3e 52 f5 10 3e
       0.15030748 0.02069276 0.15655391 0.14156082
0003d0 dc 1a 1d 3e 6f e1 b4 3c b4 59 af 3d bd 93 ac 3d
       0.15342277 0.022080151 0.085620314 0.08426616
0003e0 b5 33 8b bd 2a 55 9d be 63 b0 c2 3d 90 3f 3f be
       -0.06796972 -0.30729038 0.09506299 -0.18676591
0003f0 70 03 bf be 08 6d 86 bd 96 48 b2 bd f2 48 2b 3e
       -0.3730731 -0.06563765 -0.08705251 0.16727045

conv2.bias f4 [32]
000000 12 38 d5 3c 22 36 3e 3d 91 bf b6 3d f6 8e 51 3e
       0.026027713 0.046438344 0.08923257 0.20464692
000010 c0 e1 4d 3b 63 9a 74 bc 3d f4 8d bd c1 66 40 3d
       0.0031415075 -0.014929387 -0.069313504 0.046972994
000020 69 19 0a 3e 40 c8 03 3e 6b 2e 1f 3e cf a4 4f 3e
       0.13486256 0.12869358 0.15545051 0.20277713
000030 2c d8 85 bd 31 68 d8 bd c3 19 b2 3d 68 52 0a bd
       -0.06535372 -0.10566748 0.0869632 -0.033769995
000040 fb e6 56 3e bd 4a 1b 3c 42 f0 d5 bc 59 f4 9c bd
       0.2098655 0.009478268 -0.02611554 -0.07663793
000050 fa 6d 2f 3e b1 4d 42 3e d1 90 8a 3e f3 d5 15 3d
       0.17131796 0.1897495 0.2706361 0.03658099
000060 d6 a3 06 3e 90 d9 a9 3d a4 a9 ed 3c d4 6a 05 be
       0.13148436 0.0829345 0.029011555 -0.13029033
000070 50 74 df 3d 7c e6 57 3e 9e ff 92 bd 26 8e 36 be
       0.10910857 0.21084017 -0.07177661 -0.17827663

dense1.weight f4 [10, 512]
000000 ac 8e d3 bd 01 14 1e 3e 7d 5b f7 3c 02 a6 ba bd
       -0.10329947 0.15437318 0.030194992 -0.09113695
000010 dc 7e d8 bc 4d 13 18 bd 43 c2 95 3d 96 19 c0 3c
       -0.026427679 -0.03712778 0.07312443 0.0234497
000020 86 f9 33 3d 0f 7c 99 bd ae 37 60 3c 12 f1 5c 3d
       0.043939136 -0.074943654 0.01368515 0.05394084
000030 c2 74 4e 3d 61 93 0d 3d ee 20 37 3e 11 e5 20 3d
       0.050404318 0.03456438 0.17883655 0.039280955
000040 15 59 5c 3d 69 45 d0 bc 6f 02 94 3c ed 05 e4 3d
       0.053795893 -0.025423722 0.018067567 0.11133943
000050 39 b0 76 3d 93 9b 9c 3c 64 29 ce 3c f7 da e4 bc
       0.060226653 0.019117152 0.025166221 -0.027936442
000060 cb 05 9a 3d 4f 3f 3d 3d 4a aa 10 bd 3b fa a2 bd
       0.07520636 0.046202954 -0.03531865 -0.07957884
000070 d9 8f fa 3b 25 08 3a bd 03 32 d3 bc 63 db b1 3b
       0.0076465425 -0.045417923 -0.025780683 0.0054277643
000080 7c 9e cc bd 0b b3 f6 bb d2 37 da bd b2 01 da 3d
       -0.09991166 -0.007528668 -0.10655178 0.106448546
000090 46 72 fe bc db bd 0f 3c fd e1 23 3c 5c 80 8e 3d
       -0.03106035 0.008773292 0.01000261 0.06958076
0000a0 c2 48 0d 3e 65 bf ca bd fc 4f c2 3d 39 79 56 bc
       0.13797286 -0.09899787 0.09487912 -0.013090425
0000b0 58 51 0f 3e 3b ce 31 bd 22 2f b9 3b 35 01 be b9
       0.13995874 -0.043409567 0.0056513706 -0.00036240523
0000c0 3f e0 23 3d 5c 0e 0d 3d 96 a2 df 3d bd e3 85 3d
       0.04000878 0.034437522 0.10919683 0.06537578
0000d0 1e 44 fb 3d c5 54 22 bd d2 f3 71 bc ce 9a 62 3e
       0.12268852 -0.039631624 -0.014767604 0.22129366
0000e0 77 6f b0 3d be de 0f be c4 3a 97 bd 54 ae 51 bd
       0.0861501 -0.14049813 -0.073842555 -0.051191643
0000f0 5f 2b 9f bc e8 9d 70 be b9 93 a8 3d 8a 2c f9 bd
       -0.01942986 -0.23497736 0.08231301 -0.12166698
000100 ca 35 ad 3c 73 b3 69 bd 6b 3e fc 3b 98 26 c2 bd
       0.021143813 -0.0570559 0.0076978705 -0.094800174
000110 76 9d ef 3d 72 1f d3 bc e6 39 2f bd 19 f4 98 3d
       0.11699955 -0.02577183 -0.042779826 0.07468433
000120 55 28 ae 3d 1a 91 eb 3d 8d e2 67 bd ef 54 97 3d
       0.085037865 0.11502285 -0.05661254 0.07389247
000130 49 6a 85 bd 43 5a dc bd 10 62 5c 3c f5 f7 a3 be
       -0.06514413 -0.107594036 0.013451114 -0.32025114
000140 7b f7 fc bb 8b 2c 9c 3d 03 35 3f 3b da 70 68 3d
       -0.0077199317 0.076256834 0.0029175885 0.05674825
000150 ab bf 40 bd a5 b2 e7 3d 1a 0d 82 3d 9b 14 97 3d
       -0.04705779 0.113133706 0.06350155 0.07376977
000160 fa 4e d8 3c db b1 12 3e 71 fb 24 bd d1 44 01 bd
       0.026404846 0.14325659 -0.040278856 -0.03155977
000170 fa be 56 3d 77 77 38 3d 91 2e c2 3d 83 16 fb 3c
       0.052428223 0.045035806 0.09481538 0.030650383
000180 04 3b 49 3e da b7 5e 3d e2 fb 65 bd e3 17 92 bc
       0.19651419 0.054374553 -0.056148417 -0.017833656
000190 66 6c e6 3d da 78 70 3d 28 02 be bd 24 2d 8f 3d
       0.11251144 0.058709003 -0.09277755 0.06991032
0001a0 87 de 37 3d df 3b b4 bd 23 d9 9f bd 74 c2 07 3e
       0.044889953 -0.08800482 -0.078050874 0.13257772
0001b0 0c 83 d8 bd 15 3b 05 be d2 0c 56 be 6e e3 d2 bc
       -0.1057187 -0.1301082 -0.20903328 -0.025743213
0001c0 9a 84 04 3e 7f a9 2d 3d 38 bf 4e bc e0 1e 67 bd
       0.12941208 0.042397972 -0.012618832 -0.05642593
0001d0 9f d9 ac bd b8 7c e4 3d 38 a9 f8 bd 05 9e 54 bd
       -0.084399454 0.11156601 -0.12141651 -0.05190851
0001e0 75 21 9d bd e4 28 14 bc b7 5e 43 bc bd 5a 31 be
       -0.07672397 -0.009042952 -0.011924437 -0.1731977
0001f0 09 8a 85 3d 69 a9 e0 3c 0e ad 56 3d a4 34 a9 bd
       0.06520469 0.027424531 0.05241113 -0.082619935
000200 0d 29 b3 3c 06 0c 21 be 8d cb 22 bd b8 7f 15 be
       0.02187016 -0.15727243 -0.039744902 -0.14599502
000210 68 56 6d 3d 7e 1b 42 be 19 ba dc bd ce a7 15 3e
       0.05794373 -0.189558 -0.10777683 0.14614794
000220 42 c4 6d 3e 71 a9 52 bc 8a dd 2c 3d 81 f6 68 3d
       0.23219398 -0.012857781 0.042203464 0.05687571
000230 09 33 01 3e 27 5a 09 bd 7d 46 fe 3d 7c 1f 42 bd
       0.12617125 -0.03353324 0.12415788 -0.047393307
000240 74 2c e7 3d 35 60 a0 bc b0 73 f1 3c 94 ec ee 3d
       0.11287776 -0.019577125 0.02947411 0.116662174
000250 73 96 51 bb 17 62 44 bd 60 0b f9 bc 67 26 d4 bb
       -0.0031980544 -0.04794511 -0.030400932 -0.0064743045
000260 74 99 68 bd 2b 85 9b 3c 8a 77 cd 3b b3 76 c7 3c
       -0.05678697 0.018984398 0.0062703537 0.024348592
000270 4f ed 3a be d1 36 49 bd bf 58 3d 3d 64 bf 98 bd
       -0.18254589 -0.049124543 0.046227213 -0.0745838
000280 e1 db 4c bc 1f 95 90 bc fd db 81 bd 14 82 5b be
       -0.012503595 -0.017649231 -0.063407876 -0.2143634
000290 a2 82 6e bd ba 1b ab bd a0 39 16 be dc 5a bb 3c
       -0.05823005 -0.08354898 -0.1467042 0.022870474
0002a0 d2 c4 da bd fc 09 d9 3c 82 dd 51 3d 34 95 33 3d
       -0.10682072 0.026494019 0.051236637 0.043843463
0002b0 8a 1e a4 3d be db 5d 3e 49 89 9a 3d 25 1e 03 3e
       0.08013637 0.21665856 0.07545716 0.12804468
0002c0 48 b3 36 3d b1 6a e4 3d 27 a7 a9 be f2 b6 24 bc
       0.04460457 0.11153162 -0.3313534 -0.010053383
0002d0 20 18 f8 3d b2 33 1a bd c6 1f be 3d fc 8e 18 bd
       0.121139765 -0.037646957 0.09283404 -0.037245736
0002e0 db 5c d3 3d 8b 40 f4 3b b4 02 8f bd 1c 53 85 bd
       0.10320445 0.007453983 -0.069829375 -0.065099925
0002f0 f7 e9 47 3d 95 9b de 3d 23 80 f3 3d 4a 3d 56 3d
       0.04880711 0.10869519 0.118896745 0.052304544
000300 9b eb e3 3c b6 3a ec 3d d2 17 b3 bd 55 f6 05 3e
       0.027822306 0.11534636 -0.08744778 0.1308225
000310 cd d3 df 3c 4a 52 c1 bd 18 c6 83 bb 64 dc 32 3d
       0.027322674 -0.094395235 -0.0040214173 0.043667212
000320 c2 bd 83 bd ab 3b 2e be 20 72 ce bd fd 82 ed bc
       -0.06432678 -0.17014949 -0.10080361 -0.028993124
000330 59 d7 8f bd 26 fd c9 bd ba c0 a9 3d 6b 31 3d bd
       -0.07023496 -0.09862737 0.08288713 -0.046189707
000340 44 27 50 bd 53 11 26 3e 40 ce 18 3e 21 8f 8e be
       -0.050818697 0.16217546 0.14922428 -0.27843574
000350 a7 7e 12 be eb d1 d7 bd f7 88 f3 3d 0b b7 a9 be
       -0.14306127 -0.105380856 0.11891358 -0.33147463
000360 77 c6 16 3e c0 67 b0 bd 9d 01 3c 3d a0 c9 60 bd
       0.14724146 -0.08613539 0.045899976 -0.054879785
000370 dc 29 af 3a 17 57 be bd 26 67 0e be 70 81 61 3e
       0.0013363915 -0.09293955 -0.13906536 0.22022033
000380 63 cd 52 bd fa 89 31 3d ba ff f4 3c b9 8a e7 bc
       -0.051465403 0.043344475 0.029907096 -0.02826439
000390 dd d6 a2 3d aa 2d 1a 3d d8 4b bd 3d 4d 18 99 bb
       0.07951138 0.037641205 0.09242982 -0.0046720863
0003a0 31 ba b0 3d fa 13 05 3d ed a1 a8 bb af 0c a1 3c
       0.08629263 0.032489754 -0.005146256 0.019659368
0003b0 4f 1c 0a be 74 61 69 bd d5 a1 76 bc 56 a1 0b be
       -0.13487361 -0.056977704 -0.015053232 -0.13635764
0003c0 4b 5c db 3d 84 dd b2 3c 36 9e a7 3c 34 b3 5d 3d
       0.10710963 0.021834143 0.020461183 0.05412598
0003d0 b8 46 2a 3e 40 dc de 3d 9f 84 7f bd f6 c5 be 3c
       0.1662854 0.10881853 -0.062382337 0.023287755
0003e0 c2 f9 a6 3d b7 5c cb 3c 65 cc bf bd 1b 39 a2 bc
       0.08153106 0.024824483 -0.09365157 -0.01980262
0003f0 0b 44 1c 3d 46 90 85 be 75 82 0a be 20 7a bf bd
       0.03815083 -0.26086634 -0.13526328 -0.09349465

dense1.bias f4 [10]
000000 cc e4 75 bc c5 49 a9 bc 94 6a 08 3e aa 64 a2 3c
       -0.015008163 -0.020665059 0.13321906 0.019823391
000010 38 8a 84 be 39 cd e1 bd 54 97 e5 3c 0b 2e 8a 3d
       -0.25886703 -0.11025471 0.02802626 0.06747063
000020 2c f3 1e 3e 10 1d 4e 3d
       0.1552245 0.050320685
