saved_weights/Model_epoch_no_40_train_acc_96.49_val_acc_89.93.pth (torch_old, 74661 bytes, 6 tensors)

conv1.weight f4 [16, 1, 5, 5]
000000 a3 0f 97 be 3e cb 5b bf f1 a8 94 bf 5e e8 df be
       -0.29504117 -0.85857 -1.1614057 -0.4373197
000010 eb 01 82 3e 89 29 dc 3e 02 50 96 be e2 a9 10 bf
       0.25392088 0.4300044 -0.29357916 -0.5650922
000020 77 c6 49 be 22 aa c0 3e 2f de b3 3e 70 62 b4 3e
       -0.19704615 0.376298 0.3513045 0.35231352
000030 ac 42 4e 3e 34 47 ec 3e 78 2b 64 bd 1b 8b 03 3f
       0.20142621 0.46148074 -0.055705518 0.51384133
000040 aa c9 ff bc 60 c9 a8 be 72 30 ed bd d2 59 8b 3e
       -0.03122409 -0.32966137 -0.11581506 0.27216965
000050 38 9d 05 be 78 e7 bc 3e aa ee 8c be 1b a1 ca 3d
       -0.13048255 0.36895347 -0.27525836 0.0989401
000060 01 04 22 3e 7f a8 a2 3c 19 6c 22 3e dd ee 0e 3f
       0.1582184 0.019855736 0.15861548 0.55833226
000070 04 cd e0 3e ab cb 38 3e fb 74 1c 3e 41 8a 09 3e
       0.43906415 0.18046443 0.15279 0.13431646
000080 29 15 a2 bb 53 b0 86 bd e4 fa c8 bd ae 71 92 bd
       -0.00494637 -0.065766 -0.098134786 -0.07150589
000090 4d 2f 22 be ca 5e 72 bc 26 68 e1 3c 4b fc 17 3d
       -0.15838356 -0.014793107 0.027515482 0.03710584
0000a0 ff 81 51 be 54 29 27 3c d9 32 9f bc 30 ef d7 bd
       -0.20459746 0.0102027245 -0.019433426 -0.10543668
0000b0 0c c7 a0 bd b9 ca b4 bd 99 5b 3e 3e 81 98 0e be
       -0.07850465 -0.08827729 0.18589629 -0.13925363
0000c0 57 af 41 bd 8c 6c f4 3d 2f 44 95 3c 12 d1 a8 be
       -0.047286358 0.11934766 0.018220989 -0.32972008
0000d0 62 d4 e3 bd 41 b7 8c 3e ed 86 8d be 6c bf 19 be
       -0.11124493 0.27483562 -0.27642003 -0.15014428
0000e0 ea 9b 73 bf 7b 47 2f be bf 8b 3e 3d 44 ca 5c 3e
       -0.9515978 -0.17117111 0.04651999 0.21561533
0000f0 a7 0f 75 be 03 03 0c bf 34 ba c4 3e a4 2b b2 3e
       -0.23931752 -0.54692096 0.38423312 0.3479892
000100 65 aa 0c be 49 58 06 3f 3d 04 72 be b0 f8 c4 bc
       -0.13736875 0.5247846 -0.2363443 -0.024044365
000110 a5 f8 ac 3e 34 10 59 3c 9a cf 84 3e 2a 03 c1 bd
       0.3378345 0.013248492 0.25939637 -0.094244316
000120 f8 9e 81 3e a4 0a c4 3d 69 95 06 3f 02 7a a8 3e
       0.25316596 0.09572342 0.5257173 0.32905585
000130 eb 14 19 3f 9b bf e3 3e 4c f4 f6 3d c1 3a f0 3c
       0.59797543 0.4448212 0.12058315 0.029324891
000140 74 86 87 3c c7 74 c6 3d 1d 6f 03 bc fe 29 9f 3e
       0.016543604 0.09690242 -0.008022097 0.31086725
000150 ec a5 8c 3e e6 ba db be 5a 15 98 be e1 f3 51 be
       0.27470338 -0.4291603 -0.2970379 -0.20503189
000160 b1 af ac bd 6b 99 00 3e 5a ab 7a bd ac 58 fe be
       -0.08431948 0.12558524 -0.06119857 -0.49677026
000170 b5 a6 03 bf fb 09 a2 bd 38 32 fb 3d 23 2a e0 3c
       -0.5142625 -0.0791206 0.12265438 0.027363842
000180 4f 02 cf be 62 84 13 bf 28 5b 18 bd 0a 94 f4 3d
       -0.4043145 -0.57623875 -0.03719631 0.11942299
000190 5d b8 53 3e 78 46 af bc 43 be eb bd 84 ba da 3e
       0.20675798 -0.021395907 -0.11510899 0.42720425
0001a0 cd b2 6b 3e 7c fe b2 bc 3a 62 12 bf b6 16 9d be
       0.23017426 -0.021849863 -0.5718113 -0.3068139
0001b0 76 a5 74 3d 7c 84 ae 3d 9a b7 88 be 40 b2 e0 be
       0.05972811 0.08521363 -0.26702577 -0.43885994
0001c0 0b 42 e9 3d 43 d5 20 3e 33 a0 db 3d 6e 09 80 be
       0.1138955 0.15706353 0.10723915 -0.25007194
0001d0 00 47 a0 3e be 74 93 3e 25 67 ab be 79 56 c0 be
       0.3130417 0.28800005 -0.3347713 -0.37565973
0001e0 46 8d ef 3d 4b 42 18 3f c4 a7 61 3e f1 84 93 bd
       0.11696868 0.59476155 0.22036654 -0.07203091
0001f0 f6 1c b2 3c 7e 81 a7 3d f3 d1 39 be a8 b6 f2 3e
       0.021742325 0.081789955 -0.18146496 0.4740498
000200 71 3e 10 3f 07 79 2f 3d 04 ab 4d 3e d7 2e ba bd
       0.5634528 0.04284003 0.20084769 -0.09090965
000210 37 78 76 bd 3d ba 3a 3e 32 65 c4 3e cd 85 1d 3e
       -0.06017324 0.18235107 0.38358456 0.15383072
000220 03 e4 17 3e bd 7d ba bd 3a b2 4a be d6 4d aa 3e
       0.14833073 -0.09106014 -0.1979455 0.3326251
000230 26 cb 68 3e d0 0f 0d 3e 30 7d f5 bc 24 92 ef 3d
       0.22733745 0.13775563 -0.02996692 0.11697796
000240 da 16 33 be 45 33 0e bf 88 23 13 be bf bf c7 bd
       -0.17489186 -0.5554698 -0.14369023 -0.097533695
000250 af 6c f1 be 92 9c 6e bf 51 57 c0 3e be 74 a1 be
       -0.47153232 -0.9320766 0.37566617 -0.3153438
000260 44 42 02 be b1 0b 17 3e a2 d4 14 3e c0 31 b4 3e
       -0.12720591 0.14750554 0.14534238 0.35194206
000270 ef 3c 8b 3e 9a b6 8c be a1 6e e6 bd 16 a2 5f be
       0.27194926 -0.27483064 -0.112515695 -0.21839175
000280 1a 2c ac 3e 2d 73 99 bd df f2 d5 bd bd 50 29 bd
       0.33627397 -0.07492671 -0.104467146 -0.041336764
000290 13 20 14 be ae 9b 14 3f 87 26 2e bd b8 63 b0 be
       -0.1446536 0.5805005 -0.04251721 -0.3445108
0002a0 f7 b9 d4 bd 6a 85 9a bd d6 ce e3 3e f9 dc 26 be
       -0.103870325 -0.07544978 0.4449374 -0.16295232
0002b0 76 35 de be 03 a8 1b 3e 06 bc ed 3b 5a 0f 7d bd
       -0.43400162 0.1520081 0.00725508 -0.06178222
0002c0 40 21 0b bf 84 10 09 3f 9d e3 09 3f ee f4 d7 be
       -0.5434761 0.53540826 0.53862935 -0.42179054
0002d0 0e 67 10 bd ca 16 30 3e b9 16 4b be eb 97 13 be
       -0.03525453 0.17196193 -0.19832887 -0.14413421
0002e0 23 86 d2 bb 03 6a 36 3e b5 d9 a4 3e 63 20 96 be
       -0.0064246817 0.17813878 0.32197347 -0.29321584
0002f0 45 c0 75 be 39 c8 81 bd 07 35 df 3e 76 9e bc be
       -0.23999126 -0.063370176 0.43595144 -0.36839646
000300 a6 d7 00 3e f4 33 b7 3e 69 03 41 3e 85 71 9e bd
       0.12582263 0.35781825 0.18848957 -0.07736496
000310 eb 2b 48 be db d1 34 be 82 07 8a 3e 9a 59 4a be
       -0.19548003 -0.17658179 0.26958853 -0.19760743
000320 d0 58 01 be 6c 83 05 3f eb 2f d4 3e fd a3 be bd
       -0.12631536 0.5215366 0.41442809 -0.09308622
000330 8e d6 82 3e 83 3d c3 3e b6 e7 92 3e 86 72 6a be
       0.25554317 0.38132867 0.28692406 -0.2289525
000340 36 3a 83 3e 2e 08 f7 3e 2a f7 07 be 86 ed 45 3e
       0.2563035 0.48248428 -0.1327788 0.19328889
000350 77 8e 82 bd 7e b4 f2 bd 07 0c 12 bd 38 c0 1e be
       -0.06374829 -0.118508324 -0.035656 -0.15503013
000360 90 e7 a6 bd 8b 72 2b 3e fe e8 e5 be 68 cb d1 be
       -0.08149636 0.16742913 -0.4490432 -0.409755
000370 23 b3 8f bd e3 d2 22 3e d0 8a a1 3d e9 67 a2 be
       -0.070165895 0.1590076 0.078878045 -0.31719902
000380 7b bd 1a bf 51 aa 6c be f2 15 13 3e 01 cb 04 3c
       -0.60445374 -0.23111846 0.1436384 0.0081050405
000390 f1 3b f1 3e f0 93 6b bb 8a 1c 15 be 03 20 64 3d
       0.47116044 -0.0035946332 -0.14561668 0.05569459
0003a0 14 d5 36 3c 74 68 1a 3b 30 77 c6 be 25 6f 6a be
       0.0111592 0.0023560794 -0.38762808 -0.22893961
0003b0 59 dd 5a 3e 86 95 a5 3d 55 ba 07 3f b7 fe b7 be
       0.213735 0.0808516 0.53018695 -0.3593652
0003c0 6e 82 4c bb b1 94 46 be e7 52 d0 bd ea c3 0d 3f
       -0.0031205672 -0.19392659 -0.10172062 0.55377066
0003d0 e0 d1 e3 be 62 fb 56 be 74 51 48 3d 3a 0a 2c 3e
       -0.4449606 -0.20994332 0.048905805 0.16800776
0003e0 3c d8 f1 3e 31 7e e6 be 6c 25 bd 3e 16 e6 8d 3e
       0.47235286 -0.4501815 0.36942613 0.27714604
0003f0 72 97 69 be 56 49 bc 3a 44 6e 52 be fe 0d 21 3f
       -0.22811678 0.0014365118 -0.20549875 0.62911975

conv1.bias f4 [16]
000000 41 ef 11 3e 63 9c f6 bb 9e a3 57 bc 53 f6 c6 3e
       0.14251424 -0.007525967 -0.013161568 0.38859805
000010 5c 64 1d bd 6f cc 85 3c d9 5f b3 bd 4e c9 af 3b
       -0.03842579 0.016332833 -0.08758516 0.0053645736
000020 5c 82 33 be 64 d0 65 3b 5d 9c af 3d ea a8 7e bc
       -0.17530197 0.0035066837 0.08574746 -0.015543202
000030 87 73 57 bd 23 e7 80 be 24 b1 bc bc 10 a4 c3 3a
       -0.05260041 -0.25176343 -0.023033686 0.0014926214

conv2.weight f4 [32, 16, 5, 5]
000000 0d 36 28 3f 74 df c1 3d 65 e7 3e 3e bc c9 a1 3c
       0.65707475 0.094664484 0.18642958 0.019749515
000010 74 cc 57 3e 33 21 6d be 8e 82 0b be 08 bd 92 3e
       0.21074086 -0.23157196 -0.13624021 0.28659844
000020 fc 38 10 3c 13 a6 b8 3d 82 5a 80 3d 4e 97 a9 3b
       0.008802649 0.09016051 0.06267263 0.0051755076
000030 4c 07 1f 3e 47 d8 2b 3c a5 bb 9a bd a9 c3 a7 be
       0.15530127 0.010488576 -0.075553216 -0.32766464
000040 fb 02 7d 3e 1d 79 ba bd 00 6e 9b be 6e 5a cb 3d
       0.24708168 -0.09105132 -0.3035736 0.099293575
000050 ed 8c 95 be d8 50 ec 3d d9 87 18 bd 0f d5 90 bd
       -0.2920908 0.11538857 -0.03723893 -0.07071888
000060 16 22 80 be 6c 3b a2 be e7 ca 22 bd 47 83 3b 3e
       -0.25026006 -0.3168596 -0.039744284 0.18311797
000070 f4 2d ba 3d dc 19 d1 ba ad 6e 14 be 0c ee 16 bd
       0.09090796 -0.0015953141 -0.14495344 -0.036848113
000080 f8 7f 5f bd 33 6a 8b bb bf 27 97 3e 0c b6 2a be
       -0.0545654 -0.0042546033 0.2952251 -0.16671008
000090 0a ac 65 bd f6 7d 36 3b 1d e3 97 3d 08 41 eb 3d
       -0.056072272 0.0027846075 0.07416365 0.11487013
0000a0 ce a2 11 3b af 45 3a 3d 52 fd 1a 3e 04 c8 70 3d
       0.0022222283 0.04547661 0.15135697 0.0587845
0000b0 33 4e 66 3e fb 9f a3 3d f6 35 c7 3d c0 1a d9 3d
       0.22490768 0.07989498 0.09727089 0.10600805
0000c0 7d 1a 9c 3b 9f 95 3b 3e fd fd 8f 3e c1 fc 08 bd
       0.0047639 0.18318795 0.28123465 -0.03344417
0000d0 7d d0 bd 3d e1 23 47 be d1 50 96 be 62 bb 9a bd
       0.092682816 -0.1944728 -0.29358533 -0.07555272
0000e0 42 81 83 3e 60 db 91 be 0f c1 03 3c fd 5e ce 3e
       0.25684553 -0.28487682 0.008041634 0.40306845
0000f0 4b 22 3c 3e 75 18 e8 bd d6 be 9a bd 6d eb 24 be
       0.18372457 -0.1133279 -0.0755593 -0.16105433
000100 7b 76 1c bd 11 16 f3 3d 04 29 a0 be 75 9f c5 bd
       -0.03819893 0.11869443 -0.31281292 -0.09649555
000110 d1 6c b7 bc f2 d7 fc 3c dd 1d e7 3d 8d 6b 10 be
       -0.022390755 0.03086469 0.11284993 -0.14103527
000120 62 71 c5 3e f8 f3 a7 3e db c2 b7 bd 6c a4 77 3e
       0.38563067 0.3280332 -0.089727126 0.24183816
000130 f7 07 5d 3d a8 63 7c be 29 a4 99 3d 6e 86 0b 3e
       0.053962674 -0.24647391 0.07502014 0.136255
000140 75 bf a5 bd dd 2e 58 3d 5a 98 12 bd 75 cd bb 3d
       -0.08093158 0.052779067 -0.035789825 0.09170047
000150 80 2d fa 3c ad 43 4b be c8 1e 2c be c7 76 86 be
       0.030539274 -0.19850035 -0.16808617 -0.26262495
000160 59 6a c2 3d 66 43 11 be 5d b4 83 be 35 3e 55 be
       0.094929405 -0.14185867 -0.25723544 -0.20824511
000170 79 f8 8e bc ce fa e9 be 3d d5 a3 be 9c 83 cd be
       -0.017452465 -0.4569916 -0.31998625 -0.40139472
000180 0f 48 98 be 70 37 70 be 09 9e 41 be 6d a7 5c bd
       -0.29742476 -0.23458648 -0.18907942 -0.053870607
000190 64 d8 d4 bd 54 38 a8 bd a7 27 88 3d 51 ef fb bd
       -0.10392836 -0.08213869 0.06648188 -0.12301505
0001a0 1b cb 46 3c 09 f9 d1 bd 50 50 93 3e 17 31 99 bc
       0.012133385 -0.10252578 0.2877221 -0.018700166
0001b0 63 8a d4 bc 69 9a 34 3d 34 42 9b bd da 54 01 bc
       -0.025944894 0.04409257 -0.075809866 -0.007893765
0001c0 62 86 5f 3d dd c3 57 be 72 f1 05 be 16 11 07 3e
       0.054571517 -0.2107081 -0.13080385 0.13190112
0001d0 29 a6 41 3d 65 e2 df 3d 17 cc 49 3d c7 4f 5f 3e
       0.047277603 0.10931853 0.0492669 0.21807776
0001e0 1b 32 18 3e b1 1a f8 3d 9d 37 d5 3d 0a 41 52 be
       0.14862864 0.12114466 0.10410998 -0.20532623
0001f0 40 1b bf 3e c9 9c 4d be 78 67 4e be 9a ed 3d 3e
       0.37325478 -0.2007934 -0.20156658 0.18547669
000200 94 b1 c8 3d 01 38 df 3c ea e5 e8 be 52 9c a2 bd
       0.09799495 0.027248384 -0.4548791 -0.07939972
000210 18 e3 1f 3e d0 23 49 3e 8e 77 e0 39 a1 e6 d7 be
       0.15613973 0.19642568 0.00042813685 -0.42168143
000220 db 3d cb bc 78 eb df bd 6c a9 1e bd 84 62 f5 bd
       -0.024809768 -0.10933584 -0.038735792 -0.11981681
000230 51 2a 35 be 7b b5 89 bc 04 c4 99 3d 55 62 e4 3d
       -0.17691924 -0.01681017 0.0750809 0.11151568
000240 ca 78 95 3c 53 ce 4c 3e a8 d7 2c 3e 7f 4e d6 3e
       0.018246073 0.20000581 0.16879141 0.41856763
000250 bf 87 59 3e 34 22 5c 3e 13 66 8b bd 0c b0 9a 3e
       0.2124319 0.21497422 -0.068065785 0.30212438
000260 17 32 6d bc 53 d8 d5 bc 8e 9b 7f bd d6 17 93 bd
       -0.014477274 -0.026104128 -0.062404208 -0.07182281
000270 b8 a1 4b 3e 0e f2 18 be 6e 17 21 be 3e af f5 bd
       0.1988591 -0.14936087 -0.15731594 -0.119963154
000280 ec 7f 0d be 3e 75 8a 3d 1c bb 93 bc a2 ff 27 be
       -0.1381833 0.067606434 -0.018033557 -0.1640611
000290 de 14 ee bd 33 9b 8c bd b1 cb 90 3e 2c ad e8 3d
       -0.11625074 -0.068655394 0.28280404 0.11361155
0002a0 f6 ed b7 bc fa 9b e7 3d b1 6c c6 3e 3a 99 ed be
       -0.022452336 0.11309047 0.387548 -0.46405965
0002b0 45 74 cc 3c 43 1d 58 3e 5d 99 4b bc 08 c6 99 bd
       0.024957785 0.21104912 -0.012426701 -0.075084746
0002c0 cb fa 2d bd ea 12 3e 3e b3 86 d3 be 7e 60 41 be
       -0.042475503 0.18561903 -0.41313705 -0.18884465
0002d0 99 7e 8f be 00 99 ec bd 71 c2 71 3e 91 86 23 3e
       -0.28026274 -0.1155262 0.2360933 0.15969302
0002e0 52 b6 29 be 7c 05 27 be 00 a1 3a be 9c a4 2d 3d
       -0.16573456 -0.16310686 -0.18225479 0.04239331
0002f0 fe 06 89 bd 15 97 21 3d 7e 10 0a 3d 93 f7 50 3e
       -0.06690787 0.039450724 0.033707134 0.20406942
000300 8e 9a 10 be 0d 03 d4 3d 29 18 b1 3e c8 c3 98 3e
       -0.14121458 0.103521444 0.34588745 0.2983687
000310 72 8b 47 3e ca 81 a8 3e 9d 53 93 be c6 97 d4 3d
       0.19486788 0.3291152 -0.2877473 0.10380511
000320 2b e0 21 bf a4 4c 25 be 60 bf 08 be a0 25 1e 3e
       -0.6323268 -0.16142517 -0.13354254 0.1544404
000330 d1 ac 81 bd a4 b2 c1 be f3 73 ce be 03 93 36 3e
       -0.0633179 -0.37831604 -0.40322837 0.17829518
000340 3d 08 c5 bc a9 fd 98 3d e6 0d 1e bf da bd b3 be
       -0.02405178 0.07470257 -0.6173996 -0.35105783
000350 d5 5f be be 69 fc 2c 3e 12 8f 76 3e 85 30 44 be
       -0.3718249 0.16893162 0.24078014 -0.19159134
000360 ee e6 50 be cc 44 c8 bd ae 09 68 3d dd c9 94 bd
       -0.20400593 -0.09778747 0.056649856 -0.07265065
000370 db 7d db be a6 eb 84 be f6 e3 91 3e d1 ee 7d 3d
       -0.42869458 -0.25961035 0.28494233 0.06199533
000380 ab 5c ea bd 3e 1e 59 bf 1b f7 05 3f 08 48 99 3e
       -0.11443456 -0.8481177 0.5233018 0.29937768
000390 3b 1b 88 3e ce be 75 3e 6e 6c e6 bd 33 25 2b bd
       0.26583275 0.23998567 -0.1125115 -0.041783523
0003a0 32 6b 14 bd 4a b2 43 3e 78 d8 cd bc 08 41 89 3d
       -0.036235042 0.1911098 -0.025127634 0.06701857
0003b0 ad eb d1 bd 18 1a 39 be 8e 5f eb 3c c0 bf 8f 3c
       -0.1025003 -0.1807636 0.028732087 0.017547488
0003c0 fd 77 2e 3e 7e bd 49 be 1c 9a 8b be cf e9 61 3e
       0.1703796 -0.19701192 -0.27266014 0.22061847
0003d0 9a e0 92 be e9 62 71 be 7f 01 df be 20 a2 65 be
       -0.28686982 -0.23572887 -0.4355583 -0.22425127
0003e0 c5 00 8d be 8f df c4 be e9 a8 48 3e 58 0a 93 be
       -0.2753965 -0.38451812 0.19595684 -0.2871883
0003f0 c4 b3 07 3c 24 0f 4d 3d 39 f3 77 bd 84 f6 ae be
       0.008282606 0.050063267 -0.06053469 -0.34172451

conv2.bias f4 [32]
000000 bb e8 6b 3d 0d d4 ea 3d bd 6d f3 3e 78 31 06 3e
       0.057594996 0.11466227 0.4754466 0.13104808
000010 8d be 84 3c 74 eb 88 3e d3 a1 e6 bc ba d3 d4 bc
       0.016204143 0.26742136 -0.028153336 -0.025979865
000020 ab ec e9 bd 29 23 be 3d 37 a5 d1 bd b3 b0 92 bc
       -0.11422094 0.0928405 -0.1023659 -0.017906522
000030 6c 48 2f be 1d 52 3b 3e 76 e1 4f bd 49 c2 ab bc
       -0.1711747 0.18293042 -0.050752126 -0.020966666
000040 ef bd 35 3c 52 1c 44 3d fd fb 7c bd 23 91 88 bd
       0.011092647 0.04787857 -0.061763752 -0.06668308
000050 2a 76 da 3e ff 0f 12 3d 19 83 0f 3f 91 4c 73 3e
       0.42668277 0.035659786 0.56059414 0.23759677
000060 57 e1 91 3e 57 08 3c 3e e0 32 99 3b 78 a8 83 3e
       0.28492233 0.18362556 0.004675254 0.2571447
000070 53 a1 d9 3c dc f1 34 bc e4 cc 57 be 7c d5 fa 3e
       0.026566183 -0.011043992 -0.21074253 0.48991

dense1.weight f4 [10, 512]
000000 4d 7b 63 bd 69 81 fb 3d 94 7a 27 be 03 84 74 be
       -0.05553751 0.122805424 -0.16355354 -0.23878483
000010 ac c9 35 3c 2b ba 42 3a 9b 8e 70 3c e1 e9 50 be
       0.011095446 0.0007428254 0.014682437 -0.20401718
000020 b8 c3 38 3e 25 aa a2 3d 34 10 45 3e 0b ca ba 3c
       0.18043411 0.07942609 0.19244462 0.02280142
000030 f9 d7 2a be b3 df 81 bd e2 cf 0c 3e f0 f9 8a bd
       -0.1668395 -0.06341495 0.13751176 -0.06785953
000040 04 cf 0c be e4 cb 68 bd 2e 46 17 3e 83 d3 20 bd
       -0.13750845 -0.05683507 0.14772865 -0.039264213
000050 49 f3 e9 3c bd 16 40 3e 29 23 a1 bd 8f 3d 14 3c
       0.02855839 0.18758674 -0.078680344 0.00904788
000060 76 46 f5 3e b6 57 7f bd 34 e4 a5 3e 8f 85 36 3e
       0.4790532 -0.062339507 0.32400668 0.17824386
000070 fd 35 91 3c bc e9 d9 3e a1 fe bb 3e 81 13 41 be
       0.017725939 0.42561138 0.36717704 -0.18855096
000080 16 dc 0c be b6 0e a5 bd 51 0d c6 3d ef 65 fd 3d
       -0.13755831 -0.080594465 0.09670509 0.12372958
000090 1d 96 8e 3a 8e fb e9 bd dc 10 75 3e 8b 06 3c be
       0.0010878477 -0.114249334 0.23932213 -0.18361871
0000a0 74 cd 17 be 82 07 a6 3c f2 a0 98 bc 9b ad 31 bd
       -0.14824468 0.020267252 -0.018631432 -0.043378454
0000b0 57 8e 5c 3b aa b9 88 bd 0a 7a 0a bd b0 53 98 be
       0.0033654177 -0.066760376 -0.03380779 -0.29751348
0000c0 87 41 bc 3e 7b 2e 7c 3d 24 45 03 3e 67 58 0a 3e
       0.36768743 0.061567765 0.12819344 0.13510285
0000d0 c7 c9 87 bd 8e 48 72 be 1b e0 33 3e 6c 2d 42 3e
       -0.06630283 -0.2366049 0.17565958 0.1896264
0000e0 17 81 9e 3e 63 dc 1c 3c 09 9d 7d be db 87 11 3e
       0.30957863 0.009574029 -0.24766935 0.14211981
0000f0 45 96 ad be ce 14 8a 3d 2f cf 91 be 4a f3 5d be
       -0.3390371 0.067422494 -0.2847838 -0.21674839
000100 fa da 0a 3e 03 58 08 be c8 75 93 3e d9 68 5b 3e
       0.13560095 -0.13314824 0.28800797 0.21426715
000110 21 82 f1 bd 1f d5 6a be 7e f6 d1 bc 13 3e 0f 3e
       -0.11792398 -0.22932862 -0.025630232 0.13988523
000120 ba c5 29 3e f0 d8 84 be b2 bb 3b bc 59 cb d4 bd
       0.16579333 -0.2594676 -0.011458324 -0.10390348
000130 aa d4 c9 bd 1e 3d e0 bd 27 eb 29 be 46 1d c6 3d
       -0.098550156 -0.10949157 -0.1659361 0.09673552
000140 02 47 75 3e ce 14 e3 bc 54 fe e1 3c e1 0a 0b 3e
       0.23952869 -0.027719881 0.027587093 0.13578369
000150 8d c8 a6 3d 3a f0 71 be 59 91 a9 3c 47 ef 2c bd
       0.08143721 -0.23626795 0.02069919 -0.04222038
000160 58 89 29 be 7b f4 81 be 6e 69 5a 3e 7e 37 19 3e
       -0.16556299 -0.25381836 0.2132928 0.14962575
000170 06 da ac 3c 39 f8 f3 3d 61 fd d8 bc 30 57 dd bd
       0.021100055 0.11912579 -0.026488008 -0.10807645
000180 59 28 d1 3d 69 b4 b8 bd 25 1c cf 3e ca 1f 01 bd
       0.10212774 -0.090187855 0.4045116 -0.031524457
000190 55 1a 55 bf d8 52 d9 bd c4 1b db 3b 4b ff ec be
       -0.83243304 -0.10611504 0.0066866595 -0.46288523
0001a0 21 80 81 be bf 2e e5 bd c6 0d 86 be 31 e7 87 be
       -0.25293067 -0.11190557 -0.26182383 -0.26543573
0001b0 89 25 c4 bd e4 b9 ad be 7e 55 9b be 54 ab 30 3e
       -0.09577472 -0.33930886 -0.30338663 0.17252856
0001c0 de 98 34 3e f0 4e 7c bd cb 27 fc 3d 41 10 66 be
       0.17636439 -0.06159872 0.123122774 -0.22467138
0001d0 27 c6 8f 3b 43 68 b4 bd 1b 17 27 be 49 56 39 bd
       0.0043876353 -0.08808949 -0.16317408 -0.045248304
0001e0 d4 70 25 3e 9e a5 56 3e a4 97 42 be b2 1b b6 3c
       0.16156322 0.20961615 -0.19003159 0.022230003
0001f0 2f 62 97 3d 3b 40 0a 3e 20 61 97 3b 9b 00 3a be
       0.07391774 0.13501064 0.0046197325 -0.18164293
000200 fb 0c 0e 3d 6a 1b 4d 3e c3 b9 fc bd 48 8d be be
       0.034680348 0.20029989 -0.12340119 -0.37217164
000210 e3 cf 95 3e 69 81 bb bd 6d 68 8a be f5 4b cf 3d
       0.29260167 -0.091555424 -0.27032796 0.101219095
000220 5a c8 c4 3e fc 7b 86 bd d5 75 c9 bc 1b a5 32 bd
       0.38434106 -0.06566617 -0.02459232 -0.043614488
000230 e2 48 33 bf f6 c4 51 3e fe 16 f8 3e 85 46 16 3e
       -0.70033085 0.20485291 0.48455042 0.14675339
000240 07 1e 1c 3d ff 89 6d 3e d9 ab c9 3d 31 c9 87 bd
       0.038114574 0.23197173 0.098472305 -0.06630171
000250 eb fb fc bc 44 06 81 3b a2 76 80 3e ff eb 35 3e
       -0.030881843 0.0039375145 0.2509051 0.17765807
000260 5e 50 d6 3c 4b eb ad 3c d1 17 b5 bc 16 9f 1b be
       0.026161369 0.02123036 -0.022106083 -0.15197405
000270 dc 27 27 be 50 97 64 bb 1f 70 d6 bd 2f cf 82 be
       -0.16323799 -0.0034880228 -0.10470604 -0.25548694
000280 4a 83 95 bd f3 90 22 3e 56 79 83 be 43 c6 e9 bd
       -0.07300432 0.15875606 -0.2567851 -0.114147685
000290 46 1c db 3e a2 04 50 be 5f a2 60 3d 5c ba 54 3e
       0.42795008 -0.20314267 0.05484235 0.20774215
0002a0 70 1b 94 bd 37 88 52 be ef d8 e9 3d 60 19 8a be
       -0.07231796 -0.20559774 0.1141833 -0.26972485
0002b0 3b a5 53 bd d2 42 e1 3c 01 49 0a bd 36 e1 60 be
       -0.051671248 0.027497683 -0.03376103 -0.21960911
0002c0 a4 7e 42 3d 62 18 5a 3c e4 c0 0d 3e 8f ce 9e be
       0.047484055 0.013311477 0.13843113 -0.31016967
0002d0 57 df c0 3d 08 49 e0 3c aa be 8a bb 62 08 ce be
       0.09417599 0.027378574 -0.0042341547 -0.4024077
0002e0 e4 03 4f 3e d5 e3 37 3e bd 64 df bd a4 bc 45 be
       0.20216328 0.17958005 -0.10907886 -0.19310242
0002f0 7d e2 d2 bc 89 22 9a 3c ac 3c 26 be 79 20 ba 3e
       -0.025742764 0.018815296 -0.16234082 0.363529
000300 a2 fc ca bc 8c af 8e be 1a 9c 30 3d 06 9b 7c be
       -0.024778668 -0.27868307 0.04311762 -0.24668512
000310 72 f7 36 3d 0a e5 82 3e 79 af 28 be 31 8d 0c be
       0.044669576 0.25565368 -0.16473188 -0.13725735
000320 5d aa fe be ce ea 97 be 6c d0 83 be 7b 94 22 3e
       -0.49739352 -0.2967133 -0.2574495 0.15876953
000330 67 fc b1 be 9a ff 6e 3c d5 65 b8 be 7e ff 07 3e
       -0.3476288 0.014587307 -0.36015192 0.13281056
000340 00 da 0a 3e 82 82 a5 bc 80 97 b9 bc 2e 7d 60 3d
       0.13559723 -0.020203833 -0.022655249 0.05480688
000350 62 f9 ce 3e f2 ce f1 ba ce e9 42 be 1d d9 37 bb
       0.4042464 -0.0018448515 -0.19034502 -0.0028052994
000360 d9 14 41 3e bd 3d 16 3e 79 d3 94 3d 9d fa 22 bd
       0.18855609 0.14671989 0.07266898 -0.039789785
000370 64 ef fd 3d 7a b6 a9 3d d7 3e 3b 3e 46 62 d6 3d
       0.12399176 0.08286758 0.1828569 0.10467963
000380 a3 97 1f bc 7f cf 29 bd 48 2e b0 3c d8 71 28 bd
       -0.009740743 -0.04145765 0.021506444 -0.041124195
000390 16 4b 51 bd 06 b9 98 bc da f6 bb 3b 0e 98 e6 bc
       -0.051097 -0.018642914 0.005736214 -0.028148677
0003a0 c7 a4 21 3c 5a 1b e0 bb 2c 23 3f 3c 1d dd ed 3c
       0.009865946 -0.006839198 0.0116661005 0.0290361
0003b0 da fa 07 3d 61 53 50 3d 7c 41 d3 bc 0e 88 ee bc
       0.033198215 0.050860766 -0.025788061 -0.02911761
0003c0 84 75 06 3d 3e ee f5 3a 2e d2 12 3d e3 21 08 3d
       0.032826915 0.0018763018 0.035844974 0.033235442
0003d0 48 f7 3b bd 87 f2 38 bc 6e fe 8b b9 74 94 aa 3c
       -0.045890123 -0.011288292 -0.0002670171 0.020822741
0003e0 23 9b d8 3c 76 39 1c 3c 27 cb 02 3a f0 6e cc ba
       0.026441162 0.009535184 0.00049893785 -0.0015597027
0003f0 25 f6 fe 3b 43 67 be bc c4 cc 0b 3d 7c c7 87 3b
       0.0077808076 -0.023242598 0.034130827 0.0041436534

dense1.bias f4 [10]
000000 aa f0 2c bc 22 16 cd bd d6 6b 3e 3e db f3 bc 3d
       -0.010555426 -0.10013987 0.18595824 0.09226199
000010 5f 7a b5 be 39 43 9d be d5 c0 2d 3e 0d c5 4c 3d
       -0.35444924 -0.3071535 0.16968091 0.04999261
000020 4d 3a 00 3e cb 1f df 3d
       0.1252224 0.10894736
