saved_weights/Model_epoch_no_13_train_acc_93.01_val_acc_90.5.pth (torch_old, 74661 bytes, 6 tensors)

conv1.weight f4 [16, 1, 5, 5]
0.28447518 0.3485948 0.16445874 0.30202588 -0.08703071 -0.12911253 -0.02857845 -0.33736926
-0.13814677 -0.21172208 -0.114440896 -0.26671258 -0.44753322 -0.01708082 0.13479199 -0.02348489
-0.2745133 0.00912264 0.23348077 0.36840457 0.24089687 -0.27173936 -0.25401053 0.2621939
0.33503386 0.08476861 -0.20490663 0.08416101 0.29970235 -0.23160465 0.18601874 -0.17520466
-0.03524697 0.08959899 -0.101319894 0.21524078 -0.25553185 -0.07111659 0.08862058 0.05302251
0.17831235 -0.24767661 -0.00213172 0.18696244 -0.039366953 -0.048166506 -0.35531786 0.33638394
0.08888799 -0.1864314 0.25280753 0.0702804 0.21752007 -0.25214127 0.14246123 0.116957426
0.23672093 -0.16932629 -0.24281755 0.15377906 0.059369378 -0.47271076 -0.33466905 0.1790839
-0.032311413 -0.3294925 -1.927889 -1.5373495 -0.054040402 0.25577912 -0.08133802 -1.7556474
-1.3440801 -0.10226581 -0.15720434 0.018971717 -0.12748143 -0.39469865 -0.023598494 -0.17848104
0.17249581 0.08322844 -0.054211564 -0.4165573 -0.35475457 0.0827342 0.30054858 0.08971065
-0.14264037 -0.23607466 0.2457457 0.30229646 0.430633 0.3000627 -0.05725043 -0.096210554
-0.10923206 0.040757272 0.17513561 0.111235395 0.20221767 0.32491764 -0.0954858 0.19430263
0.07024011 0.21735124 0.12612309 0.20619418 0.14853637 -0.10020004 0.28039384 0.025323525
0.052636232 -0.119815685 -0.10821755 -0.19477329 -0.09120651 0.19578435 0.24894 -0.101373486
-0.2842317 -0.14081153 -0.24104834 -0.2798266 -0.11213149 0.15497775 0.41596967 -0.023879023
-0.1837917 0.14441179 -0.14251979 0.35435215 -0.14536855 -0.2106827 -0.3899996 -0.3075455
0.37632358 -0.17760903 -0.08615895 -0.02176945 -0.20230739 0.2530006 0.13624671 -0.16470493
0.18490079 -0.020892795 0.28293183 -0.07810414 -0.04776633 0.010394621 -0.095828936 -0.14806117
0.39922488 -0.13677004 0.05933473 -0.13810852 -0.11746085 0.44761202 -0.29375425 0.0276183
-0.09630089 -0.12332458 0.4049732 -0.33130997 0.0019506554 0.26484552 -0.078244634 0.20726688
-0.28899238 -0.047098942 0.07623911 -0.2131315 0.29929456 0.070166185 -0.01217673 -0.20051989
-0.24096058 -0.18998563 0.16540726 0.36332205 -0.007992157 0.14772291 -0.01632603 0.21480688
0.22482455 0.079833485 -0.20502904 -0.028263642 0.08280523 -0.06110994 -0.12299077 0.06930419
0.1449021 -0.08790412 0.10238189 0.13064173 -0.0069186892 -0.17457367 0.029209016 -0.094041646
0.043519262 -0.26394778 -0.17700589 0.53496933 0.09253401 0.008256402 -0.41067985 -0.38180226
0.45048434 -0.19357052 0.17132428 0.2676749 -0.29614627 0.26750678 -0.18802436 0.24602637
0.14857166 -0.11288049 -0.036443956 0.24893995 -0.21265498 -0.022166416 -0.44247133 -0.091826454
0.37809277 -0.63993627 -0.48306888 -0.3361817 0.016058987 -0.0065885545 -0.12249559 -0.03348597
-0.13618279 -0.18174812 0.09662266 -0.009707255 0.40383518 0.12254226 -0.020527462 0.009536838
0.054467443 0.27324998 -0.01268877 0.11448696 0.1461164 0.41984355 0.07255071 -0.020651566
-0.02140809 0.24243917 -0.33475453 0.19984679 0.20928647 -0.032312103 0.028080193 -0.2620146
00000000: bba6 913e 057b b23e df67 283e 23a3 9a3e
00000010: 283d b2bd 1336 04be 5b1d eabc aabb acbe
00000020: 5976 0dbe accd 58be fd5f eabd 8d8e 88be
00000030: 1323 e5be 13ed 8bbc e906 0a3e 6263 c0bc
00000040: 028d 8cbe 2077 153c 9515 6f3e 869f bc3e
00000050: abad 763e 6c21 8bbe ab0d 82be 473e 863e
00000060: 8f89 ab3e 2a9b ad3d 0bd3 51be 9c5c ac3d
00000070: 9672 993e c529 6dbe b27b 3e3e da68 33be
00000080: 205f 10bd ad7f b73d ce80 cfbd 1468 5c3e
00000090: 12d5 82be 93a5 91bd b57e b53d 222e 593d
000000a0: 8397 363e f09e 7dbe 54b4 0bbb 1573 3f3e
000000b0: 3e3f 21bd 3e4a 45bd 39ec b5be 843a ac3e
000000c0: e80a b63d dfe7 3ebe fd6f 813e 2cef 8f3d
000000d0: 95bd 5e3e a918 81be 5be1 113e 6087 ef3d
000000e0: f966 723e df63 2dbe 2aa5 78be 4278 1d3e
000000f0: 4e2d 733d 2507 f2be be59 abbe c561 373e
00000100: f958 04bd 3eb3 a8be 11c5 f6bf dec7 c4bf
00000110: 7859 5dbd 7bf5 823e 8c94 a6bd 0eb9 e0bf
00000120: d10a acbf bd70 d1bd 2dfa 20be 936a 9b3c
00000130: 7e8a 02be f115 cabe a151 c1bc bcc3 36be
00000140: bea2 303e ac73 aa3d f20c 5ebd 0047 d5be
00000150: 64a2 b5be 8c70 a93d 81e1 993e 38ba b73d
00000160: 5110 12be 8ebd 71be c3a4 7b3e 9ac6 9a3e
00000170: ee7b dc3e d1a1 993e 6d7f 6abd 0a0a c5bd
00000180: 0fb5 dfbd 19f1 263d c056 333e 62cf e33d
00000190: 2612 4f3e 9b5b a63e 0f8e c3bd 45f7 463e
000001a0: 0cda 8f3d 5391 5e3e 6926 013e 9124 533e
000001b0: eb19 183e ae35 cdbd c88f 8f3e 4873 cf3c
000001c0: 1799 573d ed61 f5bd 2aa1 ddbd a672 47be
000001d0: 7bca babd b17b 483e 21ea 7e3e e79c cfbd
000001e0: d186 91be e630 10be 60d5 76be 6f45 8fbe
000001f0: 32a5 e5bd 7db2 1e3e faf9 d43e f19d c3bc
00000200: e433 3cbe afe0 133e b5f0 11be a56d b53e
00000210: 7edb 14be 35bd 57be 07ae c7be 9b76 9dbe
00000220: 7cad c03e 24df 35be 1b74 b0bd d855 b2bc
00000230: ab29 4fbe 4b89 813e 4284 0b3e 69a8 28be
00000240: a256 3d3e 5e27 abbc 71dc 903e 10f5 9fbd
00000250: a1a6 43bd 334e 2a3c f641 c4bd 599d 17be
00000260: 3467 cc3e 720d 0cbe f908 733d 526c 0dbe
00000270: 508f f0bd 672d e53e f566 96be c63f e23c
00000280: 6739 c5bd 9991 fcbd a658 cf3e 76a1 a9be
00000290: 22ad ff3a d599 873e b93e a0bd c53d 543e
000002a0: cff6 93be d2ea 40bd 4023 9c3d 253f 5abe
000002b0: 233d 993e 4ab3 8f3d e880 47bc 1655 4dbe
000002c0: 5fbe 76be 988b 42be 8560 293e 5905 ba3e
000002d0: 89f1 02bc ad44 173e 2bbe 85bc 56f6 5b3e
000002e0: 6838 663e bd7f a33d 22f3 51be 2789 e7bc
000002f0: ca95 a93d 6b4e 7abd 96e2 fbbd 5bef 8d3d
00000300: 3761 143e 1307 b4bd 99ad d13d f2c6 053e
00000310: 2cb6 e2bb 71c3 32be bf47 ef3c e898 c0bd
00000320: 4141 323d 2a24 87be 0841 35be c0f3 083f
00000330: 7982 bd3d dc45 073c a144 d2be 967b c3be
00000340: e2a5 e63e 5a37 46be a26f 2f3e af0c 893e
00000350: 7ca0 97be a6f6 883e 7589 40be 56ee 7b3e
00000360: 2b23 183e e32d e7bd 4246 15bd 1dea 7e3e
00000370: 3ac2 59be 5896 b5bc 9a8b e2be 820f bcbd
00000380: 6095 c13e ddd2 23bf ce54 f7be 0220 acbe
00000390: 238e 833c cde4 d7bb f8de fabd 9628 09bd
000003a0: 8073 0bbe 2e1c 3abe 1ae2 c53d 2e0b 1fbc
000003b0: 7cc3 ce3e 70f7 fa3d 3529 a8bc 6640 1c3c
000003c0: 4119 5f3d 6ce7 8b3e 8fe4 4fbc 2478 ea3d
000003d0: 8a9f 153e bcf5 d63e 7795 943d 792d a9bc
000003e0: 0560 afbc f941 783e f264 abbe a3a4 4c3e
000003f0: 314f 563e b259 04bd 6f08 e63c c726 86be

conv1.bias f4 [16]
-0.02922896 -0.02972409 0.43437976 -0.03253319 -0.014824603 -0.028342031 -0.010906815 -0.0401211
-0.0018501712 -0.0044298884 -0.0074816383 0.02896797 0.05128514 0.1312019 0.2820903 -0.036406774
00000000: 9271 efbc ef7f f3bc 0667 de3e 8641 05bd
00000010: e4e2 72bc 8c2d e8bc 7fb2 32bc 0656 24bd
00000020: 7281 f2ba 9928 91bb 8828 f5bb 3c4e ed3c
00000030: 5e10 523d ca59 063e 246e 903e 451f 15bd

conv2.weight f4 [32, 16, 5, 5]
-0.040209085 0.024119234 -0.011065428 0.12994798 -0.02350343 -0.16851377 -0.16757417 -0.008423161
0.1808791 0.07888721 -0.041304413 -0.114214905 0.07428738 -0.016152548 0.13932614 -0.0050929505
-0.12872058 0.048197445 0.3055164 0.23249787 0.011133483 -0.3541199 -0.0077072224 0.33788872
-0.21313521 0.040535547 0.0029182914 -0.019868266 -0.04761496 0.069975756 -0.036016542 0.044662938
0.08687899 0.12702243 -0.0048427973 -0.0054221144 0.06273771 0.025488809 -0.032198537 -0.035995353
-0.011010621 -0.030487755 0.11221064 0.029373834 0.14757633 0.012432498 -0.124962956 0.053017136
-0.009631761 -0.01657476 -0.14887275 -0.029558348 0.055063944 0.023031294 0.15597078 -0.03138449
-0.1379069 -0.0615333 0.0441785 0.192406 -0.1675737 -0.2480283 -0.11132047 -0.09496054
-0.0025065579 -0.21569625 -0.073534444 -0.12012815 -0.020650608 0.018745335 -0.13496432 0.061926812
0.08277455 0.19992243 0.21759133 0.124411896 0.10870478 0.11477727 0.06730506 0.059970792
0.071541056 0.07932737 0.07368851 -0.009046282 0.16685493 0.13331111 0.113818 -0.13782232
-0.01809476 0.12062585 0.12246207 0.27968037 -0.08665794 0.022621086 -0.16400602 0.20974307
0.11085982 -0.084132776 0.07764637 0.12708105 -0.06366725 0.023904111 -0.011860423 -0.14674239
-0.09270111 0.052827064 0.009490188 0.10365098 0.0017053096 -0.10746363 0.08800437 0.12406165
-0.059285086 0.026389921 -0.1340683 -0.011757748 0.049471702 -0.050908256 0.077863134 -0.005453019
-0.045203812 0.09158762 0.1151633 0.044880845 -0.0005256012 -0.16851453 0.06612472 -0.098798886
-0.06416114 -0.02828633 -0.13584056 0.06314517 0.059069484 -0.035624478 -0.008627288 -0.06998738
0.11072449 0.022722512 0.07106308 -0.09354826 -0.12443932 0.1861582 0.10028302 0.09224415
-0.08304566 -0.025176156 0.0033891392 -0.15374938 0.05437945 -0.110469624 -0.06717525 -0.02325003
-0.13967383 -0.15184765 -0.11393193 0.13886471 0.06610455 0.040985208 0.109966494 0.042105343
0.17176117 0.053682067 0.060807478 -0.020442363 -0.1884552 0.30244768 0.016307576 0.10413019
0.09833914 -0.3003248 0.07122782 -0.06150122 -0.019446233 -0.046404768 -0.11541019 0.055145647
-0.122858725 -0.13204256 -0.1528442 -0.05245123 0.05028348 -0.07412945 0.006242978 -0.04320376
-0.002727712 0.021639109 0.029257145 0.021461623 -0.073847994 -0.017229445 0.11196041 -0.004997569
0.10554637 0.018944258 0.053283293 0.028121127 -0.008958719 0.12696022 -0.008886126 -0.0049766456
-0.18613353 -0.18247192 -0.046873406 0.16155541 0.14310712 -0.03735369 0.009118135 0.08375506
0.0010779746 0.072645895 0.058809094 0.11298867 0.06095461 0.107719265 0.047592606 0.0013798866
-0.16636622 0.22115839 0.030909546 -0.26384035 -0.1693587 -0.38064724 -0.14203373 -0.15167105
-0.3032939 -0.1746323 -0.12653325 0.049404107 0.20166318 0.11339716 -0.24444179 0.085441224
0.077244915 0.15062428 0.03638681 -0.10233916 0.10750309 0.07856953 0.20596568 0.066177666
0.1577918 0.018350076 0.16569495 0.16045274 0.17931226 0.018306324 0.09312686 0.09244719
-0.022510784 -0.28306246 0.08834025 -0.18669368 -0.4028997 -0.048722927 -0.07273572 0.16592322
00000000: 48b2 24bd b395 c53c c54b 35bc 1511 053e
00000010: 448a c0bc e08e 2cbe 9098 2bbe 4c01 0abc
00000020: 5f38 393e 9e8f a13d d12e 29bd 81e9 e9bd
00000030: fb23 983d 5952 84bc 83ab 0e3e c4e2 a6bb
00000040: 54cf 03be af6a 453d a56c 9c3e ec13 6e3e
00000050: 3669 363c 344f b5be de8c fcbb c0ff ac3e
00000060: 1e40 5abe 9a08 263d ce40 3f3b c6c2 a2bc
00000070: e807 43bd 734f 8f3d 1586 13bd 7cf0 363d
00000080: 9ded b13d 2b12 023e 54b0 9ebb feab b1bb
00000090: a17c 803d e8cd d03c 9de2 03bd dd6f 13bd
000000a0: e465 34bc 75c1 f9bc b1ce e53d 65a1 f03c
000000b0: 401e 173e adb1 4b3c 94ec ffbd 7f28 593d
000000c0: 89ce 1dbc cbc7 87bc 1972 18be 5924 f2bc
000000d0: bb8a 613d 20ac bc3c ceb6 1f3e 068d 00bd
000000e0: 7737 0dbe 570a 7cbd 84f4 343d 1406 453e
000000f0: 7198 2bbe 21fb 7dbe fdfb e3bd ac7a c2bd
00000100: 1045 24bb 7adf 5cbe 3a99 96bd bf05 f6bd
00000110: 772b a9bc d18f 993c 1634 0abe f8a6 7d3d
00000120: b485 a93d 77b8 4c3e 43d0 5e3e aacb fe3d
00000130: 9da0 de3d 5810 eb3d 3cd7 893d efa3 753d
00000140: 1e84 923d 6376 a23d 00ea 963d db36 14bc
00000150: 05dc 2a3e b582 083e 6919 e93d 4b21 0dbe
00000160: 763b 94bc b00a f73d 65cd fa3d 4432 8f3e
00000170: b879 b1bd db4f b93c 32f1 27be e3c6 563e
00000180: 790a e33d ce4d acbd 0f05 9f3d 8921 023e
00000190: fa63 82bd 8ed2 c33c 3852 42bc a343 16be
000001a0: 14da bdbd 3161 583d bc7c 1b3c f746 d43d
000001b0: b284 df3a e415 dcbd a33b b43d 0914 fe3d
000001c0: ebd4 72bd ad2f d83c 3349 09be 92a3 40bc
000001d0: d7a2 4a3d 2d85 50bd b576 9f3d 3daf b2bb
000001e0: a227 39bd 4a92 bb3d bcda eb3d fad4 373d
000001f0: 80c8 09ba 138f 2cbe 666c 873d 1257 cabd
00000200: ea66 83bd bcb8 e7bc ca19 0bbe 4152 813d
00000210: d8f2 713d f9ea 11bd 7859 0dbc 8b55 8fbd
00000220: 85c3 e23d 9024 ba3c 8589 913d 3b96 bfbd
00000230: 0bda febd 41a0 3e3e 2f61 cd3d 80ea bc3d
00000240: d813 aabd 3a3e cebc 521c 5e3b 7a70 1dbe
00000250: fcbc 5e3d e63d e2bd 2d93 89bd d976 bebc
00000260: a806 0fbe f37d 1bbe 2555 e9bd 8d32 0e3e
00000270: d361 873d 1be0 273d 1d36 e13d a776 2c3d
00000280: 29e2 2f3e bae1 5b3d 4311 793d be76 a7bc
00000290: 66fa 40be 6cda 9a3e 7797 853c 3642 d53d
000002a0: 0866 c93d 2cc4 99be e4df 913d b4e8 7bbd
000002b0: b54d 9fbc ed12 3ebd 2d5c ecbd 67e0 613d
000002c0: 5b9d fbbd 2a36 07be 3183 1cbe 1ad7 56bd
000002d0: 0df6 4d3d 2ed1 97bd e591 cc3b 6df6 30bd
000002e0: 6ac3 32bb 8044 b13c aeac ef3c 49d0 af3c
000002f0: 9e3d 97bd c424 8dbc 804b e53d a6c2 a3bb
00000300: b228 d83d fd30 9b3c 953f 5a3d 475e e63c
00000310: 97c7 12bc dc01 023e 1d97 11bc 2113 a3bb
00000320: ca99 3ebe ebd9 3abe 54fe 3fbd c86e 253e
00000330: ac8a 123e 2f00 19bd 3b64 153c c687 ab3d
00000340: d34a 8d3a 5fc7 943d cee1 703d 9b66 e73d
00000350: 8bab 793d eb9b dc3d 77f0 423d 50dd b43a
00000360: e85b 2abe 5877 623e 0436 fd3c 1516 87be
00000370: 5e6c 2dbe 32e4 c2be 4a71 11be a84f 1bbe
00000380: 5749 9bbe cfd2 32be ef91 01be f65b 4a3d
00000390: cb80 4e3e c53c e83d f34e 7abe cffb ae3d
000003a0: 9532 9e3d 403d 1a3e 560a 153d 3297 d1bd
000003b0: 942a dc3d 10e9 a03d abe8 523e 2888 873d
000003c0: 2c94 213e e652 963c f0ab 293e b94d 243e
000003d0: a29d 373e 25f7 953c 4cb9 be3d f454 bd3d
000003e0: 8968 b8bc 90ed 90be bceb b43d a12c 3fbe
000003f0: df48 cebe b191 47bd 77f6 94bd c7e7 293e

conv2.bias f4 [32]
0.026928427 0.055947274 0.07911232 0.2121957 0.015433924 -0.026288215 -0.06911042 0.057962235
0.12702242 0.13212243 0.16325217 0.20338522 -0.06100541 -0.1207673 0.07940325 -0.0352266
0.21567115 0.009478268 -0.026200514 -0.06902941 0.1770702 0.2026773 0.28737468 0.032435503
0.15098578 0.087449 0.025470639 -0.13069454 0.12498076 0.2237553 -0.06350613 -0.18653798
00000000: 0199 dc3c f828 653d a405 a23d d449 593e
00000010: 92de 7c3c 625a d7bc c489 8dbd cf69 6d3d
00000020: 2a12 023e 1a4b 073e 942b 273e 3744 503e
00000030: cfe0 79bd d954 f7bd 2c9e a23d c449 10bd
00000040: e6d8 5c3e bd4a 1b3c 76a2 d6bc 4b5f 8dbd
00000050: e451 353e a38a 4f3e c622 933e 17db 043d
00000060: 049c 1a3e 7618 b33d cda7 d03c cad4 05be
00000070: eaf5 ff3d 1c20 653e 800f 82bd d003 3fbe

dense1.weight f4 [10, 512]
-0.0979309 0.1593944 0.04009851 -0.097035855 -0.02155704 -0.040343706 0.08148939 0.032387484
0.049832616 -0.07511196 0.03320165 0.0597805 0.06493233 0.03222539 0.207426 0.044199884
0.049601976 -0.03176264 0.0069261906 0.12059235 0.0722899 0.017631214 0.013752589 -0.039988026
0.07123081 0.043617155 -0.04879011 -0.08730325 -0.005861325 -0.057021186 -0.037040845 0.026050981
-0.10873357 -0.004999165 -0.12718524 0.11306233 -0.036524255 -0.00031090423 0.009925117 0.072553225
0.1432081 -0.10491941 0.10260251 -0.011965003 0.14724785 -0.046649482 0.009669745 -0.006778207
0.036564816 0.035269264 0.11679392 0.055319864 0.124928825 -0.039250057 -0.0115646 0.22835185
0.09233638 -0.13966508 -0.07265217 -0.043882493 -0.018672569 -0.23749004 0.091149405 -0.11885701
0.030180525 -0.05973829 0.0036464343 -0.10445325 0.1254442 -0.019615682 -0.038084053 0.0748164
0.08510142 0.13620262 -0.057172395 0.078979746 -0.06527736 -0.09555102 0.009489245 -0.32325524
-0.0097925505 0.07120111 -0.007826862 0.05459923 -0.043214362 0.11425687 0.06316816 0.08492597
0.031461816 0.14929992 -0.038450632 -0.03212771 0.05505118 0.05327742 0.11959915 0.02881807
0.20859993 0.06125249 -0.05475797 -0.017222514 0.12414871 0.057295155 -0.09309617 0.079066455
0.04682193 -0.076458186 -0.07512721 0.13929547 -0.10501311 -0.119186975 -0.21483035 -0.022869619
0.14946805 0.0477497 -0.015978988 -0.06449044 -0.09559686 0.11702764 -0.13938518 -0.051341113
-0.08492047 -0.011567738 -0.020366592 -0.21855609 0.06931652 0.022958994 0.05550649 -0.08841594
0.022435978 -0.1621905 -0.02946972 -0.16168335 0.05755198 -0.19600306 -0.11758627 0.15607372
0.23302816 -0.017850399 0.043816894 0.059521124 0.11376644 -0.04279998 0.1312891 -0.03697394
0.11942327 -0.017843341 0.029319894 0.11346557 0.007513944 -0.040640693 -0.033990115 -0.0158195
-0.06429563 0.025062641 0.016792098 0.024569405 -0.18225577 -0.057456516 0.046235055 -0.08458222
-0.0018192605 -0.015743488 -0.057671543 -0.2138601 -0.06089707 -0.09306443 -0.16190608 0.029074624
-0.11002572 0.025997922 0.061383113 0.046075508 0.08793563 0.21995693 0.076687336 0.13444665
0.04105485 0.11461282 -0.35040832 -0.00726458 0.12854934 -0.039965704 0.101084284 -0.039300166
0.11035654 0.010206651 -0.069361046 -0.07415925 0.03944121 0.11814044 0.12325163 0.06404129
0.03413358 0.13273315 -0.102596626 0.12616271 0.024024716 -0.0817297 0.011272861 0.04521339
-0.055408522 -0.17648067 -0.11943971 -0.024857428 -0.054252114 -0.09999089 0.08086964 -0.05768069
-0.04667411 0.18299223 0.16607481 -0.28530708 -0.15743361 -0.1065597 0.118586175 -0.33228043
0.1480492 -0.090632945 0.053986132 -0.047622107 0.00017794396 -0.11310989 -0.15656085 0.21696232
-0.057784732 0.052438997 0.031334516 -0.03876768 0.09668762 0.044813674 0.09469819 -0.01282316
0.114973985 0.04401371 -0.0008458839 0.02157157 -0.12192439 -0.06437114 -0.011447022 -0.15073855
0.10603264 0.019199418 0.02310354 0.06051066 0.17324905 0.11637757 -0.0584984 0.035025984
0.08182733 0.035696685 -0.08956927 -0.018741876 0.034808874 -0.26085135 -0.13667713 -0.09790549
00000000: ff8f c8bd 4938 233e 563e 243d bcba c6bd
00000010: 6498 b0bc 713f 25bd e9e3 a63d bda8 043d
00000020: 491d 4c3d 4dd4 99bd 74fe 073d 66dc 743d
00000030: 3efb 843d c5fe 033d 7b67 543e f00a 353d
00000040: 712b 4b3d 8b19 02bd 19f5 e23b 1ff9 f63d
00000050: ba0c 943d 566f 903c 8a52 613c 7cca 23bd
00000060: 75e1 913d e7a7 323d 23d8 47bd 0ccc b2bd
00000070: 5c10 c0bb 0c8f 69bd 24b8 17bd de68 d53c
00000080: b5af debd 09d0 a3bb d93c 02be 398d e73d
00000090: 759a 15bd dc00 a3b9 f59c 223c c996 943d
000000a0: 25a5 123e fddf d6bd 4421 d23d dc08 44bc
000000b0: 24c8 163e 8713 3fbd da6d 1e3c b91b debb
000000c0: fdc4 153d 8176 103d a731 ef3d 1597 623d
000000d0: afda ff3d abc4 20bd 7379 3dbc 11d5 693e
000000e0: db1a bd3d 5d04 0fbe a9ca 94bd 21be 33bd
000000f0: 37f7 98bc 9730 73be 8aac ba3d 4e6b f3bd
00000100: 263d f73c 23b0 74bd 04f9 6e3b 96eb d5bd
00000110: 7274 003e 11b1 a0bc 06fe 1bbd 5739 993d
00000120: a749 ae3d b378 0b3e 9a2d 6abd 22c0 a13d
00000130: 23b0 85bd 41b0 c3bd c778 1b3c b681 a5be
00000140: ef70 20bc e3d1 913d 3d3c 00bc 71a3 5f3d
00000150: 8b01 31bd 81ff e93d 4f5e 813d abed ad3d
00000160: 1bde 003d 14e2 183e 697e 1dbd 5898 03bd
00000170: 597d 613d 6d39 5a3d 66f0 f43d e013 ec3c
00000180: 389b 553e e4e3 7a3d e549 60bd 3b16 8dbc
00000190: ae41 fe3d 53ae 6a3d 34a9 bebd 98ed a13d
000001a0: 5ac8 3f3d 1c96 9cbd 4bdc 99bd 79a3 0e3e
000001b0: 1d11 d7bd 4d18 f4bd 7dfc 5bbe 1159 bbbc
000001c0: 270e 193e 3095 433d 5ee6 82bc 9013 84bd
000001d0: 49c8 c3bd 30ac ef3d fdba 0ebe 0f4b 52bd
000001e0: c9ea adbd 9c86 3dbc d7d7 a6bc 2bcd 5fbe
000001f0: d2f5 8d3d 8014 bc3c c65a 633d 6b13 b5bd
00000200: a8cb b73c 4415 26be 7b6a f1bc 5290 25be
00000210: a0bb 6b3d 07b5 48be 12d1 f0bd cad1 1f3e
00000220: ef9e 6e3e 003b 92bc 5879 333d 6ccc 733d
00000230: 61fe e83d 084f 2fbd a670 063e fc71 17bd
00000240: 3094 f43d 332c 92bc 4630 f03c a360 e83d
00000250: 8837 f63b db76 26bd 3839 0bbd e597 81bc
00000260: 6dad 83bd 2b50 cd3c 958f 893c c745 c93c
00000270: 42a1 3abe 8657 6bbd f860 3d3d 7139 adbd
00000280: 4174 eeba 7df8 80bc ff38 6cbd 24fe 5abe
00000290: 356f 79bd 9098 bebd b5ca 25be e82d ee3c
000002a0: 2a55 e1bd 98f9 d43c dc6c 7b3d acb9 3c3d
000002b0: 9817 b43d 643c 613e 400e 9d3d 62ac 093e
000002c0: 2129 283d 20ba ea3d b868 b3be b70b eebb
000002d0: 70a2 033e 14b3 23bd 4705 cf3d 36f9 20bd
000002e0: 9c02 e23d cc39 273c 2a0d 8ebd cee0 97bd
000002f0: 1b8d 213d 9df3 f13d 5a6b fc3d 1428 833d
00000300: a7cf 0b3d 33eb 073e 2e1e d2bd cc30 013e
00000310: 7bcf c43c e761 a7bd ceb1 383c ad31 393d
00000320: 0cf4 62bd 59b7 34be cf9c f4bd cea1 cbbc
00000330: 7737 5ebd 06c8 ccbd fb9e a53d 9642 6cbd
00000340: 5a2d 3fbd 5162 3b3e 840f 2a3e c513 92be
00000350: 4736 21be f93b dabd 4fdd f23d a920 aabe
00000360: 369a 173e c49d b9bd 9020 5d3d 660f 43bd
00000370: 7896 3a39 28a6 e7bd 7d51 20be 5f2b 5e3e
00000380: afaf 6cbd 46ca 563d 9f58 003d dcca 1ebd
00000390: 2904 c63d 8b8e 373d 20f1 c13d 3b18 52bc
000003a0: 7b77 eb3d b847 343d 4fbe 5dba dcb6 b03c
000003b0: 7fb3 f9bd 04d5 83bd 4a8c 3bbc 355b 1abe
000003c0: a427 d93d 1948 9d3c a343 bd3c 07da 773d
000003d0: 3368 313e 5d57 ee3d 059c 6fbd 6877 0f3d
000003e0: 1695 a73d b036 123d 1870 b7bd 9088 99bc
000003f0: c093 0e3d 4f8e 85be 17f5 0bbe ac82 c8bd

dense1.bias f4 [10]
-0.015196808 -0.025040904 0.13473023 0.020606987 -0.26774225 -0.1088053 0.032585613 0.06597177
0.15999629 0.053005785
00000000: 08fc 78bc 9522 cdbc b9f6 093e fccf a83c
00000010: 8315 89be 50d5 debd 7e78 053d 351c 873d
00000020: 11d6 233e 981c 593d
