saved_weights/Model_epoch_no_5_train_acc_89.87_val_acc_88.74.pth (torch_old, 74661 bytes, 6 tensors)

conv1.weight f4 [16, 1, 5, 5]
0	0x3e85a99e	0.2610597
1	0x3e60de0a	0.21959701
2	0x3da161c3	0.07879975
3	0x3e8d5287	0.27602026
4	0xbd0fd592	-0.035115786
5	0xbe2eacb1	-0.17058064
6	0xbd0e50e0	-0.034745097
7	0xbe83c0f6	-0.25733155
8	0xbd73d185	-0.059525985
9	0xbdacc015	-0.08435074
10	0xbdb97203	-0.09054949
11	0xbe3fa7af	-0.1871631
12	0xbeaf53d9	-0.34243658
13	0x3b63d055	0.0034761627
14	0x3de13727	0.109968476
15	0xbcef4f27	-0.029212547
16	0xbe593e51	-0.21215178
17	0xbc2143b3	-0.009842801
18	0x3e52e7d0	0.20596242
19	0x3e93049a	0.28714448
20	0x3e588061	0.21142723
21	0xbe444efd	-0.19170757
22	0xbe64f2f9	-0.22358312
23	0x3e39fe77	0.18163477
24	0x3e978bfc	0.29598987
25	0x3ccc28b2	0.024921749
26	0xbdba64d5	-0.091012634
27	0x3df0e13e	0.117617115
28	0x3e86feed	0.26366368
29	0xbe3c5fd8	-0.18395936
30	0x3df107b1	0.11769045
31	0xbe071ed6	-0.13195357
32	0xbd76388b	-0.060112517
33	0x3cecb380	0.028894186
34	0xbdb886c0	-0.090100765
35	0x3dd4790b	0.103746496
36	0xbe294ccd	-0.16533203
37	0xbd5cdec7	-0.053923395
38	0x3dc90403	0.09815218
39	0x3d3fd631	0.04683513
40	0x3df1bb6e	0.118033275
41	0xbdce6258	-0.10077351
42	0xbba99d38	-0.0051762126
43	0x3e539e01	0.20665742
44	0x3b7997ab	0.0038084786
45	0xbd164b92	-0.036693163
46	0xbe6a5aa1	-0.22886135
47	0x3e77a258	0.24183023
48	0x3dc72a7b	0.097248994
49	0xbdf4b8da	-0.1194932
50	0x3e5dfe6a	0.21679083
51	0x3d7d5dd4	0.06185706
52	0x3e46a81e	0.19400069
53	0xbe4fe0bc	-0.20300573
54	0x3e01311c	0.1261639
55	0x3d75f663	0.060049426
56	0x3e59b7ad	0.21261473
57	0xbe05ab3e	-0.13053605
58	0xbe389f0e	-0.18029425
59	0x3dd7268f	0.10505401
60	0x3c83e39c	0.016099744
61	0xbeb6c5f5	-0.35697904
62	0xbe262908	-0.1622659
63	0x3e21f9a9	0.15817894
64	0xbd395005	-0.04524233
65	0xbec6d711	-0.38835958
66	0xbf8bc0d3	-1.091822
67	0xbf5c3aad	-0.8602703
68	0xbddda015	-0.10821549
69	0x3e29fb5e	0.16599795
70	0xbe2e26b9	-0.17006959
71	0xbf785ded	-0.9701832
72	0xbf39f265	-0.7263549
73	0xbc966d24	-0.01836259
74	0xbdea2f88	-0.11434847
75	0xbc1b8bc5	-0.009493773
76	0xbe0da13b	-0.13831036
77	0xbe951ed6	-0.29125088
78	0xbccd43ab	-0.02505668
79	0xbe5b53fb	-0.21418755
80	0x3df04889	0.11732585
81	0x3ca6883b	0.020328632
82	0xbc9b9e5f	-0.018996416
83	0xbe96b2a5	-0.2943317
84	0xbeaa0b5b	-0.3321179
85	0x3d8ccbf2	0.06874837
86	0x3e8778d4	0.26459372
87	0x3cc593e2	0.024118368
88	0xbde31b9b	-0.1108925
89	0xbe3dc3be	-0.18531701
90	0x3e53d372	0.20686129
91	0x3e8954e7	0.26822588
92	0x3ea6c4d0	0.3257203
93	0x3e59a731	0.21255185
94	0xbda2640c	-0.07929239
95	0xbd68d137	-0.056840148
96	0xbd3ef0fc	-0.04661654
97	0x3cf8744b	0.03032889
98	0x3e0bf138	0.13666236
99	0x3dd695c4	0.10477784
100	0x3e67da27	0.22641812
101	0x3e9386ee	0.2881388
102	0xbdbcdc7c	-0.092217416
103	0x3e18ca3a	0.14920893
104	0x3d7b1fd3	0.061309647
105	0x3e44a3e0	0.19203138
106	0x3e14901a	0.14508095
107	0x3e6ba171	0.23010804
108	0x3e14418c	0.14478129
109	0xbd7bf882	-0.061516292
110	0x3e723ff6	0.23657212
111	0x3c72f9f8	0.014830105
112	0x3d13f072	0.03611798
113	0xbde4a7e3	-0.11164834
114	0xbd64544c	-0.055744454
115	0xbe243f83	-0.16039853
116	0xbdf0bdf0	-0.11754978
117	0x3e23fc13	0.16014127
118	0x3e5a3fb3	0.21313362
119	0xbdd59d19	-0.104303546
120	0xbe874f5c	-0.26427734
121	0xbd7046c0	-0.058661222
122	0xbe54e12c	-0.20789021
123	0xbe6b57c6	-0.22982702
124	0xbdc3df32	-0.095640555
125	0x3e1de6ce	0.15420076
126	0x3e9b6685	0.30351654
127	0xbc249a26	-0.0100465175
128	0xbe047491	-0.12935092
129	0x3df84efd	0.12124441
130	0xbe109a39	-0.14121331
131	0x3e4f0a16	0.20218691
132	0xbdafe8bf	-0.08589315
133	0xbe239aeb	-0.15977065
134	0xbe9c5624	-0.3053447
135	0xbe59a869	-0.2125565
136	0x3e88df86	0.26733035
137	0xbe1dc348	-0.15406525
138	0xbdbb2ed3	-0.091397904
139	0xbd22501b	-0.039627176
140	0xbe1f3b7d	-0.15550037
141	0x3e551147	0.20807372
142	0x3e1a6b40	0.15079975
143	0xbe2b9ddf	-0.16759442
144	0x3e0d7e90	0.13817811
145	0xbc65afa0	-0.014018923
146	0x3e8125d0	0.2522416
147	0xbd561653	-0.052267384
148	0xbd1fd955	-0.039025623
149	0xba9caaed	-0.0011952795
150	0xbdc36551	-0.09540809
151	0xbd02ff09	-0.0319815
152	0x3e9c3781	0.30511096
153	0xbd24b26e	-0.040209226
154	0x3d908f44	0.07058576
155	0xbe15699b	-0.14591067
156	0xbd1e1760	-0.03859651
157	0x3e72f5f8	0.23726642
158	0xbe30ce39	-0.17266168
159	0xbcc5d905	-0.024151335
160	0xbe183e91	-0.14867617
161	0xbdcf6d64	-0.101282865
162	0x3e949094	0.29016554
163	0xbe337f2b	-0.1752898
164	0xbd8ad570	-0.06778991
165	0x3e395f54	0.18102771
166	0xbcc588be	-0.024113055
167	0x3dea24bf	0.1143279
168	0xbe6088a5	-0.21927126
169	0xbdb08d9f	-0.08620762
170	0x3da48862	0.080338255
171	0xbe01b263	-0.12665705
172	0x3e726195	0.23670037
173	0x3e03c63b	0.12868588
174	0x3cef264f	0.029193072
175	0xbe0468f2	-0.12930658
176	0xbe274e42	-0.16338447
177	0xbe4648e8	-0.19363749
178	0x3e2e4928	0.17020094
179	0x3e8ff92c	0.2811979
180	0x3b8b1c8d	0.004245347
181	0x3e18fde7	0.14940606
182	0xbcefa602	-0.029253963
183	0x3e6e858b	0.2329313
184	0x3e80793a	0.2509249
185	0x3de519e1	0.11186577
186	0xbe2aa0f7	-0.16662966
187	0xbcace1eb	-0.02110382
188	0x3d72b2ea	0.059252657
189	0xbcaf0d13	-0.021368539
190	0xbd5204ff	-0.051274296
191	0x3dfacf25	0.12246541
192	0x3dfcb0a9	0.12338383
193	0xbd63d324	-0.05562128
194	0x3e404939	0.18777932
195	0x3e33781c	0.17526287
196	0x3d321ccb	0.04348449
197	0xbe3d2e7e	-0.18474767
198	0x3d4f3b24	0.05059351
199	0xbc42a9db	-0.011881317
200	0x3ca322f8	0.019914135
201	0xbe4d7543	-0.20064263
202	0xbe2df442	-0.16987708
203	0x3eb6e8f3	0.357246
204	0x3da7d8a5	0.081956185
205	0x3ca0af00	0.019614697
206	0xbe9ccf20	-0.30626774
207	0xbeb66767	-0.35625765
208	0x3e970d77	0.2950246
209	0xbde026b0	-0.10944879
210	0x3e04ffcb	0.12988202
211	0x3e540644	0.20705515
212	0xbe85e3eb	-0.2615045
213	0x3e718b0a	0.23588195
214	0xbdd3531a	-0.10318585
215	0x3e65ad84	0.22429472
216	0x3da09d27	0.078424744
217	0xbd668ba3	-0.05628551
218	0xbd96a7f3	-0.073562525
219	0x3e713eea	0.23559156
220	0xbe29ee13	-0.16594724
221	0xbd71ddab	-0.05904929
222	0xbec1401b	-0.3774422
223	0xbd4a12cf	-0.049334344
224	0x3ea8a654	0.32939398
225	0xbef72a99	-0.48274687
226	0xbeb6c4b7	-0.35696957
227	0xbe947a1e	-0.28999418
228	0x3d1e1dd0	0.03860265
229	0xba2ff05d	-0.0006711537
230	0xbdfb3a5d	-0.12266991
231	0xbd5253e1	-0.051349524
232	0xbdfc2e4f	-0.1231352
233	0xbe2dc05e	-0.16967914
234	0x3dc40c0b	0.095726095
235	0xbd16a214	-0.036775663
236	0x3e9ac214	0.30226195
237	0x3d2ce813	0.04221351
238	0xbd846aa5	-0.06465653
239	0x3ca0da4d	0.019635344
240	0x3d769fac	0.06021087
241	0x3e80098a	0.25007278
242	0xbc313bdd	-0.010817495
243	0x3dd03fb2	0.10168399
244	0x3e1e0a7f	0.15433691
245	0x3ea26afe	0.31722254
246	0xbb7e0625	-0.0038760987
247	0xbd3720e0	-0.044709086
248	0xbc7043ff	-0.014664649
249	0x3e75b9b9	0.23996629
250	0xbea4e2fd	-0.32204428
251	0x3e36e110	0.17859292
252	0x3e436b22	0.19083837
253	0xbcf82973	-0.030293202
254	0x3d651e05	0.055936832
255	0xbe69e65a	-0.22841778

conv1.bias f4 [16]
0	0x3c478950	0.012178734
1	0xbbf4f177	-0.007475074
2	0x3eb7f077	0.35925648
3	0xbd24c31c	-0.040225133
4	0xbca0d8e0	-0.019634664
5	0xbb99a8d3	-0.004689315
6	0x3cca35d5	0.024683872
7	0xbcb44f17	-0.02201037
8	0x3d6e4dad	0.058179546
9	0x3c6b8eef	0.01437734
10	0xbb460f1c	-0.0030221408
11	0x3d591120	0.052994847
12	0x3d7f5875	0.06234022
13	0x3e2eaa69	0.17057194
14	0x3e6f976e	0.2339761
15	0xbc08b48f	-0.00834383

conv2.weight f4 [32, 16, 5, 5]
0	0x3c4960c0	0.012291133
1	0xbc189fd5	-0.009315451
2	0xbd8feda6	-0.0702775
3	0x3d934a6f	0.071919315
4	0xbbc97807	-0.0061483416
5	0xbd04fc81	-0.03246737
6	0xbde50f71	-0.11184586
7	0x3d09b6d6	0.03362163
8	0x3dd980b4	0.10620251
9	0x3d425882	0.04744769
10	0x3d3deb1e	0.046366803
11	0xbcdfa2c5	-0.027299294
12	0x3dc5b7f4	0.09654227
13	0x3d4edc63	0.050503146
14	0x3d15cb0a	0.036570586
15	0x3caa68c6	0.020801913
16	0xbe0a63c1	-0.13514616
17	0xbc93d2bd	-0.018044824
18	0x3e14403f	0.14477633
19	0x3d223cc3	0.03960873
20	0x3cced79c	0.025249295
21	0xbe654c54	-0.22392398
22	0xbd97273a	-0.07380529
23	0x3d979c6b	0.07402881
24	0xbe2d2bc2	-0.16911224
25	0x3da511f1	0.08060063
26	0x3c27a619	0.010232472
27	0xbdaeb36a	-0.08530314
28	0xbd89e451	-0.06733001
29	0xbda135be	-0.07871579
30	0x3d4699bc	0.048486456
31	0x3cb7e615	0.022448579
32	0x3cd0eba0	0.02550298
33	0x3b2af923	0.0026088438
34	0xbd9a116d	-0.07522855
35	0x3ce5a97b	0.028034916
36	0x3d26b2a9	0.040697727
37	0x3b1c9d9d	0.0023897656
38	0xbd8a762f	-0.06760823
39	0xbcd28290	-0.025697023
40	0x3d78c43f	0.06073403
41	0xbc17f235	-0.009274055
42	0x3db6ab8f	0.08919441
43	0xbbb67728	-0.0055684038
44	0x3d116d44	0.035504594
45	0x3c70b26f	0.014690979
46	0x3c5c2c60	0.013438314
47	0x3d71ec55	0.059063274
48	0xbd315391	-0.043292586
49	0xbc90fbf9	-0.017698275
50	0xbe60bcae	-0.21946976
51	0xbca2de30	-0.019881338
52	0x3dabeeb6	0.0839514
53	0x3ddf592a	0.109056786
54	0x3e4f28ec	0.20230454
55	0xbde309b6	-0.110858366
56	0xbd4da087	-0.05020192
57	0xbcccb734	-0.024989702
58	0x3d59f22c	0.05320947
59	0x3e3e7610	0.18599725
60	0xbe5a99b0	-0.2134769
61	0xbe3181cc	-0.1733467
62	0x3bdbe0ab	0.006710132
63	0x3c9d9dfa	0.019240368
64	0x3e262b2f	0.1622741
65	0xbe7f3f05	-0.24926384
66	0xbc9eabe8	-0.01936908
67	0xbcc35791	-0.023845466
68	0x3d216ff7	0.03941342
69	0x3d9b6d31	0.07589186
70	0xbdf5eab7	-0.12007659
71	0xbc54cc03	-0.012988093
72	0x3d74367a	0.059622265
73	0x3de232e6	0.11044864
74	0x3e4d8072	0.20068529
75	0x3daed9f1	0.08537663
76	0x3db8718f	0.090060346
77	0x3df098fd	0.1174793
78	0x3e06dc39	0.13169946
79	0x3e156f34	0.14593202
80	0x3e0efded	0.13964052
81	0x3df9f88f	0.12205612
82	0x3d961304	0.07327846
83	0x3cea0d94	0.028570928
84	0x3e01a9b5	0.12662394
85	0x3d8aa197	0.06769102
86	0x3dc46ab8	0.095906675
87	0xbccdad09	-0.025106924
88	0x3dbc2f89	0.09188754
89	0x3d9a47ff	0.075332634
90	0x3da1f1d3	0.079074524
91	0x3e2448c7	0.16043387
92	0xbd408a2a	-0.047006764
93	0x3d6bffe1	0.057617072
94	0xbcb8d09a	-0.022560406
95	0x3d701b37	0.058619704
96	0x3d6369e6	0.055520914
97	0xbcbb66fd	-0.022876257
98	0x3c96cbcc	0.018407725
99	0x3d97383b	0.07383772
100	0xbd49be2d	-0.04925363
101	0x3ca02a34	0.019551374
102	0xbd385591	-0.045003477
103	0xbde3bed8	-0.11120385
104	0xbdd2d69b	-0.10294839
105	0x3dae90b3	0.08523693
106	0xbb8cfc51	-0.0043025394
107	0x3c6d7d57	0.014495215
108	0xbaf62ce6	-0.0018781691
109	0xbdb79c52	-0.089653626
110	0x3d9ce0d1	0.07660068
111	0x3d50cab3	0.05097456
112	0xbd114740	-0.03546834
113	0x3c0c3a18	0.0085587725
114	0xbdf4fa45	-0.119617976
115	0x3c2a0f02	0.010379555
116	0x3d45b6c8	0.048270017
117	0xbcd724f2	-0.026262734
118	0x3cd6f8dc	0.026241712
119	0xbcfc1718	-0.03077273
120	0xbcc63237	-0.024193866
121	0x3da73ef9	0.08166308
122	0x3d881505	0.06644634
123	0x3c3ee6c0	0.011651695
124	0xbaf37d1a	-0.0018576712
125	0x3bdb7888	0.006697718
126	0x3d51eb63	0.051249873
127	0xbd40f219	-0.047105882
128	0xbde4d416	-0.11173265
129	0xbd8cc201	-0.06872941
130	0xbbbb142d	-0.0057091922
131	0x3d0810f0	0.033219278
132	0x3d824cdc	0.06362316
133	0xbd85c9f5	-0.06532661
134	0xbd3a6df5	-0.04551502
135	0x3b109cf2	0.0022066203
136	0x3d4e40b9	0.050354693
137	0x3d91619d	0.070986964
138	0x3da80d83	0.08205702
139	0xbccea639	-0.025225746
140	0xbcf4c552	-0.029879246
141	0x3dd1fdda	0.102534965
142	0x3d3ed36e	0.046588354
143	0x3c464fd6	0.012103995
144	0xbd85ef3a	-0.065397695
145	0x3bfeba3a	0.007773665
146	0x3d0326a0	0.032019258
147	0xbd924981	-0.07142926
148	0xbcd8203b	-0.026382556
149	0xbd2cf322	-0.042224057
150	0x3da59625	0.080852784
151	0x3d293ed5	0.041319687
152	0xbd2de4e9	-0.042454634
153	0xbe0ab4ae	-0.13545486
154	0xbdcc410c	-0.09973344
155	0x3db85f52	0.09002556
156	0x3db9b800	0.09068298
157	0x3c30c8d3	0.010790068
158	0x3c4bc1ac	0.012436312
159	0xbc60b1c3	-0.013714257
160	0x3d8c2b82	0.06844236
161	0x3c481704	0.012212519
162	0xbc21ad14	-0.009867925
163	0x3c57f267	0.013180352
164	0xbdb11464	-0.08646467
165	0x3dfea824	0.12434414
166	0x3d29d6eb	0.041464727
167	0x3ceffce3	0.02929539
168	0xbbf05903	-0.00733483
169	0xbdb530a7	-0.0884717
170	0x3c2c83fc	0.010529514
171	0x3c6d99fa	0.014502043
172	0x3ca9f9f0	0.020749062
173	0xbd20da15	-0.03927048
174	0xbdd2305f	-0.10263132
175	0x3d0fc6de	0.035101764
176	0xbd98e38e	-0.074652776
177	0xbdd6b023	-0.10482814
178	0xbe066a7a	-0.13126555
179	0xbd4a7798	-0.04943046
180	0x3d5b7da8	0.053586632
181	0xbd2b995d	-0.041894305
182	0x3c7f9c91	0.015601293
183	0xbd9b97ba	-0.07597299
184	0xbc9b78a6	-0.018978428
185	0x3ce2c6a6	0.027682614
186	0x3d7337a0	0.05937922
187	0x3d4f6718	0.050635427
188	0xbd929a13	-0.071582936
189	0xbcff1f12	-0.031142745
190	0x3db9307f	0.09042453
191	0x3c60e53e	0.013726531
192	0x3d70b243	0.058763754
193	0x3cce750f	0.025202302
194	0xb8334d7a	-4.274908e-05
195	0x3d816535	0.06318132
196	0xbc66e44a	-0.014092514
197	0x3d95ec1b	0.07320424
198	0x3b9e3590	0.0048281625
199	0xba226295	-0.00061944994
200	0xbdb9a57b	-0.09064766
201	0xbd234b62	-0.039866813
202	0xbbfa9b5e	-0.0076479157
203	0x3d91aed4	0.07113424
204	0x3dc23c7b	0.09484192
205	0x3b44cf37	0.0030030736
206	0xbb235205	-0.0024920714
207	0x3ca4f6be	0.020137187
208	0xbcbedb02	-0.02329779
209	0xbc0a7443	-0.0084505705
210	0x3d63160e	0.055440955
211	0x3aaf2ddb	0.0013365106
212	0x3d4eba57	0.050470676
213	0x3d8f3158	0.069918334
214	0x3c9ba1da	0.018998075
215	0xbc8aa276	-0.01692317
216	0xbddad85b	-0.10685798
217	0x3dd18dce	0.10232125
218	0x3c366b73	0.011134016
219	0xbe094719	-0.13406028
220	0xbe0d944d	-0.13826104
221	0xbea090ae	-0.31360382
222	0xbe190399	-0.14942779
223	0xbd435161	-0.04768503
224	0xbe3c1df2	-0.18370798
225	0xbdc5002d	-0.09619174
226	0xbde4df3f	-0.11175393
227	0xbcaaed3a	-0.020865072
228	0x3e27eae5	0.16398199
229	0x3e29c139	0.16577615
230	0xbdd89cc7	-0.10576778
231	0x3d8c29d7	0.06843918
232	0x3d45a1b0	0.0482499
233	0x3da5c942	0.080950275
234	0x3d0977c7	0.033561494
235	0xbd65c3f1	-0.056095067
236	0x3d5791ae	0.052629165
237	0x3d775c1f	0.060390588
238	0x3e253a9e	0.16135642
239	0x3d8a42f0	0.067510486
240	0x3da34871	0.079728015
241	0x3cc0c17e	0.023529764
242	0x3df32d3f	0.118738644
243	0x3e125347	0.1428958
244	0x3e32bd53	0.17455034
245	0x3d00e777	0.031470742
246	0x3c5e5cc6	0.013571924
247	0x3d97600f	0.073913686
248	0xbd798c8b	-0.060925048
249	0xbe27cfde	-0.16387889
250	0x3ded35e6	0.11582546
251	0xbe2193c7	-0.15779029
252	0xbe075b76	-0.13218483
253	0xbe0ba821	-0.13638355
254	0xbdc92216	-0.098209545
255	0x3deebdb4	0.11657277

conv2.bias f4 [32]
0	0x3d4e1953	0.05031712
1	0x3b90c1f5	0.0044176527
2	0x3da27e26	0.07934217
3	0x3dc7cdcb	0.09756049
4	0xbb2b7573	-0.0026162534
5	0x3d06ed59	0.032941196
6	0xbb5cd48d	-0.0033696026
7	0x3ccedb33	0.025251007
8	0x3dd0d361	0.10196567
9	0x3da4451b	0.08020993
10	0x3da2c7c4	0.079482585
11	0x3e2f9885	0.17148025
12	0xbd55b684	-0.052176014
13	0xbb6a8993	-0.0035787567
14	0x3d830d7c	0.06399056
15	0xbc82a0b6	-0.015945774
16	0x3e2fea14	0.17179137
17	0x3c2a4a49	0.0103936875
18	0xbd610373	-0.05493493
19	0xbd9871b0	-0.07443559
20	0x3dbb77de	0.09153722
21	0x3e07e33b	0.13270275
22	0x3df45d10	0.11931813
23	0x3cc83af7	0.02444218
24	0x3dafaed9	0.085782714
25	0x3d3f4528	0.046696812
26	0x3ccec4d4	0.02524034
27	0xbdc61b4f	-0.096731775
28	0x3c94d657	0.018168611
29	0x3db1b6af	0.08677422
30	0xbce30e2d	-0.02771672
31	0xbd9a6bd4	-0.07540098

dense1.weight f4 [10, 512]
0	0xbd153ee6	-0.036436938
1	0x3dd1e289	0.10248286
2	0x39325bee	0.0001700965
3	0xbcd87aec	-0.026425801
4	0xbb9fe2d4	-0.004879335
5	0xbc0efb6e	-0.008726938
6	0x3d62bb08	0.05535415
7	0x3ca45377	0.02005933
8	0xbce7b994	-0.028286733
9	0xbd384108	-0.044983894
10	0x3caf06ed	0.021365607
11	0x3d51dda3	0.05123676
12	0xbceadc28	-0.028669432
13	0x3ce03b89	0.027372139
14	0x3d1be556	0.03806051
15	0x3d82736b	0.063696705
16	0x3d00e81c	0.031471357
17	0xba948dee	-0.0011333802
18	0x3d4700fc	0.048584923
19	0x3d8a3389	0.06748111
20	0x3d112e99	0.03544483
21	0x3c0e4d4f	0.008685424
22	0x3ce735a4	0.02822382
23	0x3cff053c	0.031130426
24	0x3d46ffda	0.048583843
25	0xbc463ba3	-0.012099179
26	0xbbd80805	-0.006592753
27	0xbd8598f5	-0.06523315
28	0x3b6fbe23	0.0036581836
29	0xbd06f2cd	-0.032946397
30	0xbcb79f77	-0.022414906
31	0xbcb13eae	-0.021636333
32	0xbcfc466f	-0.030795304
33	0xbd23451a	-0.039860822
34	0xbd8b0669	-0.06788332
35	0x3d95846e	0.073006496
36	0xbca1303a	-0.019676317
37	0x3cd17807	0.025569929
38	0xbb8d348a	-0.0043092417
39	0x3d803268	0.06259614
40	0x3d5ff2c4	0.05467488
41	0xbd241414	-0.04005821
42	0x3d930f42	0.071806446
43	0x3c34465a	0.011003101
44	0x3ddc1065	0.107453145
45	0xbdc17c67	-0.09447556
46	0xbad137dc	-0.0015962082
47	0x3c68d54c	0.01421101
48	0x3d0e7ade	0.034785144
49	0xbb3ba2b8	-0.0028630923
50	0x3d99775a	0.07493468
51	0x3dbd48cf	0.09242403
52	0x3dde9715	0.1086866
53	0xbcd20ad3	-0.025639927
54	0x3d32f4e6	0.043690585
55	0x3e20ebe2	0.15714982
56	0x3d9dc8f9	0.07704348
57	0xbdd2282a	-0.10261567
58	0xbd085aba	-0.03328965
59	0xbbd3bfc1	-0.006462068
60	0x3b9b8364	0.0047458876
61	0xbe406b64	-0.18790966
62	0xbb5728c8	-0.0032830704
63	0xbde83b7c	-0.11339471
64	0x3c08b645	0.008344238
65	0xbd22c52c	-0.03973882
66	0x3c9c68e7	0.01909299
67	0x3cfe4ade	0.031041559
68	0x3dcd6421	0.10028864
69	0xbd69fcff	-0.05712604
70	0xbd1690c4	-0.036759153
71	0x3d9abd59	0.075556464
72	0x3da8bee3	0.08239534
73	0xbd1ef5f0	-0.038808763
74	0xbcf11dee	-0.029433217
75	0x3d662dd9	0.056196067
76	0xbd2545b6	-0.040349685
77	0xbe34f117	-0.17670093
78	0xbc0f715f	-0.008755057
79	0xbe74f1a1	-0.23920299
80	0xbcbbc01f	-0.022918759
81	0x3d510efe	0.05103969
82	0x3d13ced1	0.036085907
83	0x3dc7b802	0.097518936
84	0xbb89c19b	-0.004203988
85	0x3cb4c196	0.022064965
86	0x3db004f0	0.08594692
87	0x3d959803	0.073043846
88	0x3d2d9e78	0.042387456
89	0x3db12d6e	0.08651243
90	0x3d09c1a6	0.033631943
91	0xbc80c795	-0.015720168
92	0x3d9599f0	0.07304752
93	0x3d4c71b3	0.04991312
94	0x3d9d0813	0.07667556
95	0x3c86c0f9	0.016449438
96	0x3e3921d3	0.18079309
97	0xb9776d59	-0.00023596491
98	0xbc90916f	-0.017647473
99	0x3d129d6a	0.035794653
100	0x3de61f5a	0.112364486
101	0x3bfe5079	0.007761058
102	0xbd8f8be3	-0.07009103
103	0x3dcc9820	0.09989953
104	0x3d3cacfa	0.0460634
105	0xbdc9cb58	-0.09853238
106	0xbd3a0baa	-0.04542128
107	0x3deff675	0.1171693
108	0xbd9d517d	-0.07681558
109	0xbe17d24c	-0.14826316
110	0xbe0dbbfb	-0.1384124
111	0xbd04b2e5	-0.03239717
112	0x3d3d9392	0.046283312
113	0x3bad2a94	0.0052846167
114	0xbbc4eb4d	-0.0060094954
115	0x3c762b38	0.015024953
116	0xbcab0125	-0.02087457
117	0x3d446e7f	0.04795694
118	0xbd44dbb5	-0.04806109
119	0xbd1bf017	-0.038070764
120	0xbceb25de	-0.02870458
121	0xbcda08e0	-0.02661556
122	0xb99e0715	-0.00030141385
123	0xbdad525c	-0.084629744
124	0x3c1140bd	0.008865532
125	0x3cb34810	0.021884948
126	0x3c87da48	0.016583577
127	0xbd81c459	-0.063362785
128	0x3d3fd047	0.046829488
129	0xbdb291f7	-0.08719247
130	0xbd792a69	-0.06083146
131	0xbd8f3284	-0.06992057
132	0x3d8adc17	0.0678026
133	0xbdfae3d1	-0.12250484
134	0xbd27e5fd	-0.04099082
135	0x3d88f6a2	0.066876665
136	0x3e01ad07	0.12663661
137	0xbcca2cd9	-0.024679588
138	0x3d3fed42	0.046857126
139	0x3db067fd	0.08613584
140	0x3d95c9ce	0.07313882
141	0xbd51c888	-0.051216632
142	0x3db24b2f	0.087057464
143	0xbd1652d0	-0.03670007
144	0x3da8c4ae	0.08240639
145	0xbc9c869c	-0.019107156
146	0x3cca476a	0.024692256
147	0x3df4938b	0.11942204
148	0xbd80d7de	-0.062911734
149	0xbd883fa1	-0.06652761
150	0x3bfa05f8	0.007630106
151	0x3d2c277f	0.042029854
152	0xbb89f077	-0.004209574
153	0xbc4e0f51	-0.012576894
154	0xbd437857	-0.047722187
155	0x3c9c9756	0.019115131
156	0xbd4860a5	-0.048920292
157	0x39a97219	0.000323192
158	0xbc57870e	-0.013154758
159	0xbd70e7ea	-0.05881492
160	0xbd569683	-0.052389633
161	0xbd010671	-0.031500284
162	0xbda8dd5f	-0.08245348
163	0xbe2461aa	-0.16052881
164	0xbd80886b	-0.0627602
165	0xbc517498	-0.012784146
166	0xbd98a048	-0.07452446
167	0xbcc5880d	-0.024112726
168	0xbd847d18	-0.06469172
169	0x3cbbbe4c	0.022917889
170	0x3c33a77c	0.010965224
171	0x3d7198fe	0.058983795
172	0xbcc81098	-0.024421975
173	0x3e21676d	0.1576211
174	0x3d89ae56	0.06722705
175	0x3df64932	0.1202568
176	0x3d9c20f0	0.0762347
177	0x3d4a7be3	0.049434554
178	0xbe7e1f99	-0.24816741
179	0xbd24cace	-0.040232472
180	0x3db211dc	0.08694813
181	0x3c508812	0.012727754
182	0x3d1ce24a	0.038301744
183	0xbcf5b04f	-0.029991297
184	0x3d8a9b72	0.0676793
185	0x3c999841	0.018749358
186	0x3ab1cd36	0.0013565186
187	0x3ccea4d6	0.025225084
188	0x3dabc5ab	0.083873115
189	0x3d41180e	0.04714208
190	0x3dd7b9ad	0.10533462
191	0x3ccd6592	0.025072847
192	0x3bc434b4	0.005987728
193	0x3b2d45bf	0.0026439277
194	0xbd69bb49	-0.057063375
195	0x3de6b385	0.112647094
196	0x3cd78ef8	0.02631329
197	0xbd05dfea	-0.032684244
198	0xbd2f2988	-0.042764217
199	0x3d91edca	0.07125433
200	0xbd126686	-0.035742305
201	0xbda09602	-0.07841112
202	0xbd406223	-0.04696859
203	0xbbd4c115	-0.0064927437
204	0xbd1be073	-0.03805585
205	0xbd4ae590	-0.049535334
206	0x3c8d9561	0.017283143
207	0xbd25687a	-0.04038284
208	0xbd2b84a5	-0.041874547
209	0x3d831505	0.064004935
210	0x3dc9c8bc	0.0985274
211	0xbe25a3ab	-0.16175716
212	0xbda59508	-0.08085066
213	0xbdad1efd	-0.08453176
214	0x3bbac2fa	0.0056995125
215	0xbe8615c8	-0.26188493
216	0x3da1fcba	0.07909532
217	0xbdaf38fa	-0.08555789
218	0xbd7ea28e	-0.062166743
219	0xbd3e1a15	-0.046411593
220	0xbc1a30aa	-0.0094110165
221	0xbd1fa76d	-0.03897803
222	0xbdce80d7	-0.10083168
223	0x3e469e72	0.1939638
224	0x3d97bbd4	0.07408872
225	0x3ce72d54	0.028219856
226	0x3d160cde	0.036633365
227	0x3d194894	0.03742273
228	0x3d4a3c9b	0.049374204
229	0x3bef6da4	0.0073067714
230	0x3d8cb8fc	0.068712205
231	0xbc4e2fcd	-0.012584639
232	0x3d0b8804	0.03406526
233	0xba90a6ea	-0.0011036072
234	0xbc5a0ed6	-0.013309201
235	0x3b86c1ba	0.0041124495
236	0xbdca85f3	-0.0988883
237	0xbccbe6bb	-0.024890294
238	0xbbe112a3	-0.0068686767
239	0xbd525457	-0.051349964
240	0x3ddf6e3b	0.10909697
241	0xbc09f4e5	-0.008420204
242	0xbcc3fe72	-0.02392504
243	0x3cfaf9f1	0.03063676
244	0x3e032c0d	0.12809773
245	0x3d8d4d53	0.06899514
246	0xbcfe563d	-0.031046981
247	0xbbd3cf80	-0.006463945
248	0x3daba373	0.08380785
249	0x3cf95f4b	0.030440947
250	0xbd93ebdd	-0.07222722
251	0xbc23a9e8	-0.009989239
252	0x3d2043c0	0.03912711
253	0xbe71136f	-0.2354257
254	0xbdcff81f	-0.10154747
255	0xbd2c9129	-0.042130623

dense1.bias f4 [10]
0	0x3b058097	0.0020370835
1	0xbcc066dc	-0.023486547
2	0x3dd804a7	0.10547762
3	0x3c25c5e0	0.010117978
4	0xbe29fe7a	-0.16600981
5	0xbdcd5995	-0.10026852
6	0xbbf28526	-0.0074011264
7	0x3d9368fc	0.071977586
8	0x3da95639	0.08268399
9	0x3cd453af	0.02591881
