saved_weights/Model_epoch_no_6_train_acc_90.03_val_acc_88.64.pth (torch_old, 74661 bytes, 6 tensors)

conv1.weight f4 [16, 1, 5, 5]
0	0x3e8633f4	0.26211512
1	0x3e6885d4	0.22707301
2	0x3daab657	0.0833556
3	0x3e8e27cb	0.27764735
4	0xbd42616d	-0.047456194
5	0xbe27a6eb	-0.16372268
6	0xbd0c0cf0	-0.034192026
7	0xbe8a0a45	-0.2696096
8	0xbd881589	-0.066447325
9	0xbddacc9e	-0.10683559
10	0xbdbe42bb	-0.092900716
11	0xbe4f04b1	-0.20216633
12	0xbeb67d98	-0.35642695
13	0x3bcbfcef	0.0062252204
14	0x3df04a7e	0.11732958
15	0xbcbf14bd	-0.023325318
16	0xbe606d35	-0.21916659
17	0xbc3f42c7	-0.011673636
18	0x3e5ab774	0.21359044
19	0x3e9b9425	0.30386463
20	0x3e5f1e9a	0.21789017
21	0xbe4d6147	-0.2005664
22	0xbe6a31bb	-0.22870533
23	0x3e474b3a	0.1946229
24	0x3e9bdbbf	0.3044109
25	0x3d0be169	0.034150515
26	0xbdd522f4	-0.104070574
27	0x3df4c404	0.119514495
28	0x3e8a75a6	0.27042884
29	0xbe48faa9	-0.1962687
30	0x3e016581	0.12636377
31	0xbe08df8c	-0.13366526
32	0xbd2b18cf	-0.041771706
33	0x3d226ceb	0.039654654
34	0xbdbc3217	-0.091892414
35	0x3df04ff9	0.117340036
36	0xbe33aac9	-0.17545618
37	0xbd457fd1	-0.0482176
38	0x3dc93d92	0.09826197
39	0x3d31d4c6	0.043415807
40	0x3df2e643	0.11860325
41	0xbdfb1fc4	-0.12261918
42	0xbb93a664	-0.0045059193
43	0x3e4be5b2	0.1991184
44	0xbc1037ee	-0.008802397
45	0xbd40c528	-0.047063023
46	0xbe807ba3	-0.25094327
47	0x3e82f234	0.2557541
48	0x3dba3995	0.09093014
49	0xbe0d0ea8	-0.13775122
50	0x3e64be9c	0.22338337
51	0x3d80f15c	0.06296036
52	0x3e4aeb02	0.19816211
53	0xbe5bc2ea	-0.21461073
54	0x3df57de5	0.11986903
55	0x3d821387	0.06351381
56	0x3e499386	0.19685182
57	0xbe16ab3e	-0.14713761
58	0xbe4a191c	-0.19736141
59	0x3dd4ac5b	0.10384437
60	0x3c9b6a1d	0.018971497
61	0xbec2f8ea	-0.3808053
62	0xbe41cc42	-0.18925574
63	0x3e1fce26	0.15605983
64	0xbd365491	-0.044514243
65	0xbec44dba	-0.3834055
66	0xbf9e1d96	-1.2352779
67	0xbf7a8105	-0.9785312
68	0xbdcd183e	-0.100143895
69	0x3e33f732	0.17574766
70	0xbe2855bc	-0.16438955
71	0xbf8ed90c	-1.1159987
72	0xbf576394	-0.8413632
73	0xbceaaf62	-0.028648082
74	0xbdf832d5	-0.121190704
75	0xbb0ce7d6	-0.002150049
76	0xbe0d1be1	-0.13780166
77	0xbe9bedd3	-0.30454883
78	0xbcbba38b	-0.022905132
79	0xbe54a307	-0.20765315
80	0x3e05ab37	0.13053595
81	0x3d0d9226	0.034563206
82	0xbcbc4c79	-0.022985684
83	0xbea018ed	-0.31269017
84	0xbeab89c1	-0.33503535
85	0x3d9915e8	0.074748814
86	0x3e8b5f05	0.27220932
87	0x3d1b48cc	0.03791122
88	0xbde545e1	-0.11194969
89	0xbe42f7ab	-0.1903979
90	0x3e59780e	0.21237203
91	0x3e8cc4ef	0.27493998
92	0x3ead28d4	0.33820212
93	0x3e65c86d	0.22439738
94	0xbd90ec4f	-0.07076322
95	0xbd7c23f1	-0.061557714
96	0xbd6693fe	-0.05629348
97	0x3cfcbfb3	0.030853128
98	0x3e0e0d94	0.13872367
99	0x3dda8a1d	0.10670874
100	0x3e64a085	0.22326858
101	0x3e966a3e	0.2937793
102	0xbdb7e120	-0.08978486
103	0x3e218cd2	0.15776375
104	0x3d829424	0.06375912
105	0x3e4b598c	0.19858378
106	0x3e140a5e	0.1445708
107	0x3e70348a	0.23457542
108	0x3e1b9246	0.15192518
109	0xbd7bcc8f	-0.06147438
110	0x3e7ac672	0.24489763
111	0x3cbc8406	0.023012172
112	0x3d2884d5	0.041142303
113	0xbddb1523	-0.10697391
114	0xbd77a0cc	-0.060456082
115	0xbe2c3193	-0.16815786
116	0xbdf7bdc1	-0.120967396
117	0x3e224fba	0.15850726
118	0x3e5ae75e	0.21377322
119	0xbddbc9dc	-0.10731861
120	0xbe89b755	-0.26897684
121	0xbd98f91b	-0.07469388
122	0xbe5eca6a	-0.21756902
123	0xbe7506d2	-0.23928383
124	0xbdc9cf54	-0.09853998
125	0x3e1a4147	0.15063964
126	0x3ea9556a	0.33072978
127	0xbc79ac89	-0.0152388895
128	0xbe0ecc55	-0.13945134
129	0x3dff4a07	0.124652915
130	0xbe0b1946	-0.1358386
131	0x3e76c4f7	0.24098574
132	0xbdcf696e	-0.10127531
133	0xbe2bc271	-0.16773392
134	0xbea57706	-0.3231737
135	0xbe64e3fe	-0.22352597
136	0x3e985f15	0.29760042
137	0xbe1b4a40	-0.15165043
138	0xbdb67cb0	-0.08910501
139	0xbd15c589	-0.036565337
140	0xbe27e3a1	-0.16395427
141	0x3e639598	0.22225034
142	0x3e1d3b8e	0.1535475
143	0xbe24bf42	-0.16088584
144	0x3e1c3265	0.15253599
145	0xbc991559	-0.018686937
146	0x3e867afa	0.262657
147	0xbd5fdfb6	-0.054656707
148	0xbd0b8dee	-0.0340709
149	0x3b5c10d4	0.0033579366
150	0xbdb7493b	-0.089495145
151	0xbd474793	-0.048652243
152	0x3ea4fac2	0.32222563
153	0xbd4a5f1d	-0.049407113
154	0x3d9711de	0.07376455
155	0xbe0d09c7	-0.13773261
156	0xbd4efb8b	-0.05053286
157	0x3e8a7841	0.2704487
158	0xbe3c3def	-0.18383001
159	0xbc5c43a8	-0.013443865
160	0xbe052b65	-0.13004835
161	0xbddabdf3	-0.10680761
162	0x3e9f61fe	0.3112945
163	0xbe47cb23	-0.19511084
164	0xbd82121c	-0.0635111
165	0x3e48e8f3	0.19620113
166	0xbd1b3b05	-0.037898082
167	0x3dffebc2	0.12496139
168	0xbe6b11fe	-0.22956082
169	0xbdb59290	-0.08865845
170	0x3da7fdc2	0.08202697
171	0xbe188487	-0.14894305
172	0x3e7d936d	0.2476327
173	0x3dfb0b17	0.122579746
174	0x3c7d6371	0.015465603
175	0xbe0af4ac	-0.13569897
176	0xbe33d4cf	-0.17561649
177	0xbe47d05a	-0.19513074
178	0x3e325489	0.1741506
179	0x3e9648da	0.29352456
180	0x3a90520f	0.0011010783
181	0x3e1681fc	0.14698023
182	0xbcf29601	-0.029612543
183	0x3e666554	0.22499591
184	0x3e7dde76	0.24791893
185	0x3dcdb13e	0.10043572
186	0xbe30bbc0	-0.17259121
187	0xbcb6ce6e	-0.02231523
188	0x3d78e806	0.06076815
189	0xbcc01d90	-0.023451596
190	0xbd88a151	-0.06671394
191	0x3ddcadde	0.1077535
192	0x3df4b48f	0.11948501
193	0xbd8e0b1a	-0.06935711
194	0x3e2db750	0.1696446
195	0x3e230789	0.15920843
196	0x3cd011f1	0.02539918
197	0xbe43c77d	-0.19119067
198	0x3d2ff24e	0.04295569
199	0xbcd970e0	-0.02654308
200	0x3c8fe8d7	0.017567081
201	0xbe52f14f	-0.20599864
202	0xbe2d371f	-0.16915558
203	0x3ec8f566	0.39249724
204	0x3dadc995	0.08485714
205	0x3c46e1a2	0.012138756
206	0xbea49ef0	-0.3215251
207	0xbeb4d52a	-0.3531888
208	0x3eaa22e2	0.33229738
209	0xbe003861	-0.12521507
210	0x3e08dde6	0.13365898
211	0x3e639b5b	0.22227232
212	0xbe859ed2	-0.26097733
213	0x3e78e7bc	0.2430715
214	0xbdf1e978	-0.11812109
215	0x3e6a84d5	0.22902234
216	0x3dbedd7e	0.0931959
217	0xbd803c65	-0.06261519
218	0xbd82cb1a	-0.06386395
219	0x3e75f69d	0.24019857
220	0xbe38ce51	-0.18047453
221	0xbd52121b	-0.051286798
222	0xbec6147d	-0.38687506
223	0xbd525f54	-0.051360443
224	0x3eaecb14	0.3413931
225	0xbf035174	-0.5129616
226	0xbec2d8c9	-0.3805602
227	0xbe994b34	-0.29940188
228	0x3d1185e8	0.035528094
229	0x3badb948	0.0053016283
230	0xbe00212f	-0.12512659
231	0xbd4d92b9	-0.050188754
232	0xbdfb3b7d	-0.12267206
233	0xbe2d0f24	-0.16900307
234	0x3dd0d267	0.10196381
235	0xbcb392c4	-0.02192057
236	0x3ea53e5f	0.32274148
237	0x3d6d6f08	0.057967216
238	0xbd78dff3	-0.06076045
239	0x3cb4b92e	0.022060957
240	0x3d872a6f	0.065998904
241	0x3e8315b6	0.25602502
242	0xbbf27813	-0.007399568
243	0x3dd0a8ca	0.10188444
244	0x3e20f483	0.15718274
245	0x3eabe9cb	0.33576807
246	0x3ba42409	0.0050091785
247	0xbd23c664	-0.039984122
248	0xbc8bdbd4	-0.017072596
249	0x3e78d357	0.2429937
250	0xbea658a6	-0.32489508
251	0x3e3a9a3e	0.18222901
252	0x3e48b9a9	0.19602074
253	0xbcf6fcbe	-0.030149814
254	0x3d5ff151	0.054673497
255	0xbe71fdd1	-0.2363198

conv1.bias f4 [16]
0	0x3ba7b0de	0.0051175198
1	0xbb9c8e25	-0.004777687
2	0x3ec14901	0.3775101
3	0xbd158690	-0.036505282
4	0xbc2c91cb	-0.010532807
5	0xbc186e96	-0.0093037095
6	0x3c78d345	0.015187089
7	0xbca9bea3	-0.020720785
8	0x3d1ad05e	0.03779637
9	0x3c79953d	0.015233335
10	0xbbec2b33	-0.007207298
11	0x3d35e8c0	0.04441142
12	0x3d8f298e	0.06990348
13	0x3e25b9fb	0.16184227
14	0x3e77cd52	0.24199417
15	0xbb7afbb3	-0.0038296997

conv2.weight f4 [32, 16, 5, 5]
0	0x3c5cdc95	0.013480325
1	0xbc20c864	-0.009813402
2	0xbd6c7e2c	-0.057737514
3	0x3da6e199	0.08148498
4	0xbc3cc34a	-0.01152117
5	0xbd754a98	-0.05988559
6	0xbe066116	-0.13122973
7	0x3ce2c681	0.027682545
8	0x3de4950c	0.11161241
9	0x3d43d662	0.047811873
10	0x3d131d8d	0.035916854
11	0xbd22e281	-0.039766792
12	0x3dd093a6	0.10184412
13	0x3d7a9c91	0.06118447
14	0x3d4d69de	0.05014979
15	0x3ccbbc59	0.024870085
16	0xbe054a5f	-0.13016652
17	0xbb5e8ba0	-0.0033957735
18	0x3e3d7c49	0.18504442
19	0x3d84416f	0.06457793
20	0x3cce2246	0.025162827
21	0xbe7fd717	-0.24984394
22	0xbd9afc40	-0.07567644
23	0x3dd3993b	0.10331961
24	0xbe3b7f8e	-0.18310377
25	0x3da28bf0	0.07936847
26	0x3b1e8cc4	0.002419279
27	0xbda73595	-0.08164517
28	0xbd8c25d0	-0.0684315
29	0xbd8f0a52	-0.0698439
30	0x3d29f906	0.041497253
31	0x3c6d066c	0.014466863
32	0x3cdbe1b9	0.026841031
33	0x3be728ed	0.0070544393
34	0xbd951588	-0.072794974
35	0x3cfc7359	0.03081672
36	0x3cfebaf8	0.031095013
37	0x3b8a3a35	0.0042183646
38	0xbd9d7457	-0.07688206
39	0xbcb957e6	-0.022624921
40	0x3d6577ac	0.05602233
41	0xbca1e547	-0.019762648
42	0x3db47f0c	0.08813295
43	0xbc522483	-0.012826088
44	0x3d2862b2	0.04110975
45	0x3c727df4	0.014800537
46	0xbaf4a3d0	-0.0018664543
47	0x3d58ef7c	0.052962765
48	0xbd543d47	-0.05181625
49	0xbcc85da3	-0.024458712
50	0xbe7674d6	-0.24068007
51	0xbd169bb8	-0.0367696
52	0x3d93bdab	0.07213911
53	0x3dd6c44b	0.10486659
54	0x3e4c8780	0.19973564
55	0xbdea1317	-0.11429422
56	0xbd95b0c1	-0.07309104
57	0xbce18ef0	-0.027533978
58	0x3d517b34	0.051142886
59	0x3e4876e9	0.1957661
60	0xbe5f8483	-0.21827893
61	0xbe3435a3	-0.17598586
62	0x3c659775	0.014013161
63	0x3ca9e5bd	0.02073943
64	0x3e17b0f0	0.1481359
65	0xbe787c32	-0.24266127
66	0xbc0cbd09	-0.008589991
67	0xbca5fae8	-0.020261243
68	0x3d30acb2	0.043133445
69	0x3d8bda8e	0.068287954
70	0xbdfdf610	-0.12400448
71	0xbb6a74dd	-0.0035775222
72	0x3d87e08d	0.066346265
73	0x3dfc3cfc	0.12316319
74	0x3e5345fd	0.20632167
75	0x3dcf9476	0.101357386
76	0x3dcb82da	0.09937067
77	0x3de68997	0.11256712
78	0x3dfebb71	0.12438095
79	0x3e0eadc2	0.13933471
80	0x3e09c066	0.134523
81	0x3de33fc3	0.11096146
82	0x3d81045f	0.06299662
83	0x3c4a67bd	0.012353835
84	0x3e02b24d	0.12763329
85	0x3d9b68a6	0.075883195
86	0x3dad0be6	0.08449535
87	0xbd5a61fc	-0.0533161
88	0x3d7eef7e	0.062240116
89	0x3d9c1d96	0.076228306
90	0x3dcf30ba	0.10116716
91	0x3e2f3192	0.17108753
92	0xbd56e9a3	-0.052468907
93	0x3d2108d4	0.03931506
94	0xbd79aadc	-0.06095396
95	0x3db97e9d	0.09057353
96	0x3d7ff7d3	0.062492203
97	0xbcc951f4	-0.024575211
98	0x3cbb50e5	0.022865722
99	0x3da1dce5	0.079034604
100	0xbd64e78c	-0.055884883
101	0x3cbab1a3	0.022789782
102	0xbd1c5ad6	-0.038172565
103	0xbde80e05	-0.11330799
104	0xbdce1f5f	-0.10064577
105	0x3dc82450	0.09772551
106	0x3bd167df	0.006390556
107	0x3cfd0ad3	0.03088895
108	0x3b6f446c	0.0036509288
109	0xbdb80b57	-0.08986538
110	0x3dce580c	0.10075387
111	0x3d8a20ed	0.06744561
112	0xbcd14f38	-0.02555047
113	0x3ca38a07	0.019963278
114	0xbdf7fda2	-0.121089235
115	0x3cbc20cf	0.022964863
116	0x3d5c0317	0.053713884
117	0xbcf4a286	-0.029862653
118	0x3cd1731a	0.02556758
119	0xbd033a0c	-0.03203778
120	0xbce3d552	-0.02781168
121	0x3da901c0	0.08252287
122	0x3d84a5a3	0.06476905
123	0x3c3cfadf	0.011534422
124	0xba15c3d6	-0.0005713081
125	0xbc95851e	-0.018251952
126	0x3d5d3121	0.05400193
127	0xbd4a1c99	-0.04934368
128	0xbde468ff	-0.11152839
129	0xbd804315	-0.06262795
130	0xbd02c057	-0.03192171
131	0x3d1863e2	0.03720463
132	0x3d5251f0	0.051347673
133	0xbd8aac45	-0.06771139
134	0xbd736642	-0.059423693
135	0xbc3cf11b	-0.011532093
136	0x3d75fcc1	0.060055498
137	0x3d6250d2	0.055252858
138	0x3db06cd0	0.08614504
139	0xbd5e2eae	-0.054243736
140	0xbd28e209	-0.04123119
141	0x3df8cd3d	0.12148521
142	0x3d276e94	0.04087694
143	0x3cc51a14	0.024060287
144	0xbdb2f4d9	-0.08738107
145	0xbb8ac5cd	-0.0042350055
146	0x3cd48463	0.025942033
147	0xbdc15127	-0.09439307
148	0xbce478be	-0.027889606
149	0xbd840511	-0.06446279
150	0x3d97b770	0.07408035
151	0x3d0fde22	0.03512395
152	0xbd4a39c6	-0.049371503
153	0xbe0dc7e3	-0.13845782
154	0xbdcd7b3f	-0.10033273
155	0x3dcd1413	0.100135945
156	0x3db0ab57	0.086264305
157	0x3c3aad97	0.011393926
158	0x3ca02acb	0.019551655
159	0xbc0295d0	-0.007970288
160	0x3da6b086	0.08139138
161	0x3c45cee2	0.0120732505
162	0xbc2fcbe7	-0.010729766
163	0x3c1bc9e5	0.009508585
164	0xbdcb5dca	-0.09929998
165	0x3e105087	0.14093219
166	0x3d2338c8	0.039849073
167	0x3ce4be01	0.027922632
168	0x3abe835e	0.0014535
169	0xbde31da8	-0.11089641
170	0x3c60e8fc	0.013727423
171	0x3b3f9327	0.0029231997
172	0x3c12dc6b	0.008963685
173	0xbd3d8b8b	-0.046275657
174	0xbde3edad	-0.111293174
175	0x3d3acfb2	0.04560823
176	0xbd9f2c1b	-0.07772084
177	0xbdd443c4	-0.10364488
178	0xbe0345aa	-0.12819543
179	0xbd419ff9	-0.047271702
180	0x3d7f913f	0.062394377
181	0xbd2e71b9	-0.042588923
182	0x3c8dbfe2	0.01730341
183	0xbd8c5beb	-0.068534695
184	0xbc8557ba	-0.016277183
185	0x3ced2b6c	0.02895137
186	0x3d6dfb84	0.058101192
187	0x3d54c705	0.051947612
188	0xbd9367ba	-0.07197519
189	0xbcd85558	-0.026407883
190	0x3dbd5cdf	0.092462294
191	0x3c1f1795	0.009710212
192	0x3d832385	0.06403259
193	0x3cd64dc1	0.026160123
194	0x3c3d29c8	0.011545606
195	0x3d828ef2	0.06374921
196	0xbc8c7619	-0.017146157
197	0x3d942428	0.07233459
198	0x3bf82644	0.007572921
199	0x3b00a95b	0.0019632194
200	0xbdc8ad5b	-0.0979869
201	0xbd61672f	-0.055030044
202	0xbcdd18d1	-0.026989372
203	0x3d95e9e1	0.073199995
204	0x3dc7c6c4	0.097547084
205	0x3bd4db23	0.0064958497
206	0xbcbb884b	-0.022892138
207	0x3c95e800	0.018299103
208	0xbc6d32ee	-0.014477475
209	0xbaa9acee	-0.0012945214
210	0x3d573370	0.05253929
211	0xb8dfc546	-0.00010670214
212	0x3d2870fd	0.04112338
213	0x3da068d2	0.07832493
214	0x3c69d898	0.014272831
215	0xbc5ce890	-0.013483182
216	0xbe0020c3	-0.12512498
217	0x3dde57d2	0.10856594
218	0x3c05fc81	0.008177877
219	0xbe28bb03	-0.1647759
220	0xbe0e2fc5	-0.1388541
221	0xbeaf481b	-0.342347
222	0xbe29fbab	-0.1659991
223	0xbd3f1289	-0.046648536
224	0xbe4eb7f1	-0.20187356
225	0xbdbb7497	-0.09153097
226	0xbde81bcf	-0.11333429
227	0xbbcc1db6	-0.0062291278
228	0x3e2c79dc	0.1684336
229	0x3e269707	0.1626855
230	0xbdf6efd2	-0.12057461
231	0x3d738bf0	0.059459627
232	0x3d36fa60	0.04467237
233	0x3db27955	0.087145485
234	0x3cbd3571	0.023096772
235	0xbd9d3a6a	-0.07677157
236	0x3d18b4c4	0.037281767
237	0x3d2609cb	0.040536683
238	0x3e1f06a7	0.15529881
239	0x3d5eaea4	0.05436577
240	0x3da61c8d	0.081109144
241	0x3c85e5bc	0.016344897
242	0x3de6a287	0.112614684
243	0x3e12b9cc	0.14328688
244	0x3e30848e	0.17238066
245	0x3d289a4e	0.04116278
246	0x3cb53913	0.022121942
247	0x3d84d710	0.064863324
248	0xbd9cd714	-0.076582104
249	0xbe4651c1	-0.19367124
250	0x3df87147	0.12130981
251	0xbe2d1372	-0.16901949
252	0xbe2c955f	-0.16853856
253	0xbe05a13a	-0.13049784
254	0xbdd40558	-0.10352582
255	0x3e02a7c5	0.12759311

conv2.bias f4 [32]
0	0x3d414092	0.04718072
1	0x3c897fea	0.016784627
2	0x3db64b77	0.089011125
3	0x3deb9e56	0.115048096
4	0xbb104097	-0.0022011155
5	0x3cc7550e	0.02433255
6	0xbba1d73a	-0.004938987
7	0x3d032d6a	0.032025732
8	0x3de7b640	0.11314058
9	0x3db42f81	0.08798123
10	0x3dd2ba4f	0.10289442
11	0x3e377dd2	0.1791909
12	0xbd6219d4	-0.055200413
13	0xbcc09e9a	-0.023513127
14	0x3d7fe0a9	0.062470112
15	0xbc9c90a3	-0.019111937
16	0x3e3dca1d	0.18534131
17	0x3c1b4abd	0.009478268
18	0xbd61153f	-0.054951902
19	0xbdabca56	-0.08388202
20	0x3dd56b87	0.104209
21	0x3e0f0e66	0.13970336
22	0x3e16a7c3	0.14712434
23	0x3cbcd012	0.023048434
24	0x3db534ee	0.08847986
25	0x3d582b8c	0.052775905
26	0x3cf5bba8	0.029996708
27	0xbdd2731d	-0.10275862
28	0x3d184bb9	0.03718159
29	0x3de5b421	0.112159975
30	0xbd0cf489	-0.034412894
31	0xbdc2c561	-0.09510303

dense1.weight f4 [10, 512]
0	0xbd394224	-0.045229092
1	0x3de13686	0.10996728
2	0x3b9df6ae	0.0048206663
3	0xbd0e0a93	-0.034678053
4	0xbc3f14cd	-0.011662674
5	0xbc7efd2a	-0.015563289
6	0x3d814a83	0.0631304
7	0x3c9e570a	0.019328613
8	0xbc81835e	-0.015809711
9	0xbd54c679	-0.05194709
10	0x3cd94072	0.026519988
11	0x3d53dc44	0.051723734
12	0xbc74faea	-0.014952401
13	0x3d031f31	0.03201217
14	0x3d813a8c	0.06309995
15	0x3d7af13f	0.061265226
16	0x3d15a80c	0.036537215
17	0xbb3b8e60	-0.0028618798
18	0x3d49b119	0.04924116
19	0x3da3a862	0.07991101
20	0x3d256908	0.04038337
21	0x3c1721e2	0.009224387
22	0x3d090ff2	0.033462472
23	0x3cfab9d9	0.030606197
24	0x3d666c3b	0.05625556
25	0xbbcde2aa	-0.006283124
26	0xbb93e71e	-0.0045136353
27	0xbd8e3019	-0.06942768
28	0x3c2fac5e	0.010722248
29	0xbcee3e3b	-0.029082408
30	0xbc9d3bc1	-0.019193532
31	0xbce9649e	-0.02849036
32	0xbd31f113	-0.043442797
33	0xbd3074a1	-0.043079976
34	0xbdabd1c8	-0.08389622
35	0x3d8f1f86	0.069884345
36	0xbc8b9c50	-0.017042309
37	0x3cbc4045	0.022979865
38	0xbc564d38	-0.013079934
39	0x3d74bb63	0.05974902
40	0x3d7001b9	0.058595393
41	0xbd444478	-0.04791686
42	0x3d8db381	0.06919003
43	0x3c01f977	0.007933012
44	0x3de9516e	0.113924846
45	0xbda9962b	-0.082805954
46	0x3c0d8186	0.008636838
47	0x3c8df287	0.01732756
48	0x3d30f450	0.043201745
49	0x3be7d919	0.0070754406
50	0x3d9680e2	0.07348801
51	0x3da8adf5	0.08236305
52	0x3de8f3e9	0.11374647
53	0xbcf3169b	-0.029673865
54	0x3d252e66	0.040327452
55	0x3e28ce06	0.16484842
56	0x3da56aa8	0.08076984
57	0xbde31934	-0.110887915
58	0xbcfdbfc3	-0.030975228
59	0xbc40028c	-0.011719357
60	0x3b7a47b9	0.0038189723
61	0xbe4623c0	-0.19349575
62	0x3ca56bdd	0.020193035
63	0xbdd13aca	-0.10216291
64	0x3c46522e	0.012104554
65	0xbd330391	-0.043704573
66	0x3cb09496	0.021555226
67	0x3c85f972	0.016354296
68	0x3de4d20b	0.11172875
69	0xbd70b764	-0.058768645
70	0xbd305f66	-0.04305973
71	0x3d9294e3	0.07157304
72	0x3daf8b90	0.08571541
73	0xbcc32191	-0.023819717
74	0xbcbf540e	-0.02335551
75	0x3d515b92	0.05111272
76	0xbd3eecbf	-0.046612497
77	0xbe373b11	-0.17893626
78	0x3c8cd338	0.01719056
79	0xbe863efe	-0.26219934
80	0xbd1c2dcd	-0.038129617
81	0x3d47d21b	0.048784357
82	0x3cd6296f	0.026142804
83	0x3dbcada5	0.092128076
84	0xbcb98bc6	-0.022649657
85	0x3cc88a4d	0.02448001
86	0x3d9594a2	0.0730374
87	0x3d85c54f	0.06531774
88	0x3cf643b3	0.030061578
89	0x3dc0c354	0.09412256
90	0x3c150664	0.009095762
91	0xbc866f3c	-0.016410463
92	0x3da91944	0.08256772
93	0x3d6a4c7c	0.057201847
94	0x3da2429e	0.079228625
95	0x3cb8fa4c	0.022580288
96	0x3e44ae46	0.19207105
97	0xba2cc1b4	-0.00065901433
98	0xbcf79714	-0.030223407
99	0x3ce0b206	0.027428638
100	0x3dfbcc54	0.12294832
101	0x3b1e7e42	0.0024184142
102	0xbd9f860b	-0.077892385
103	0x3db3f76c	0.08787426
104	0x3d4e32db	0.05034147
105	0xbdc4769e	-0.09592937
106	0xbd5d4f03	-0.05403043
107	0x3df29399	0.11844558
108	0xbdb90100	-0.09033394
109	0xbe125c5d	-0.14293046
110	0xbe0869e7	-0.13321649
111	0xbd011b02	-0.031519897
112	0x3d5c31b4	0.053758338
113	0x3c33dd99	0.010978126
114	0xbb278e35	-0.002556694
115	0x3c4fa355	0.012673219
116	0xbcb640c5	-0.022247681
117	0x3d687fb6	0.05676242
118	0xbd4606b5	-0.04834624
119	0xbd14f3a8	-0.03636518
120	0xbcd3dca3	-0.025862044
121	0xbcab5cab	-0.020918211
122	0x3b601321	0.003419109
123	0xbdab0595	-0.08350674
124	0x3c989dca	0.018629927
125	0x3ce99d88	0.0285175
126	0x3cb006ec	0.021487676
127	0xbd84ba63	-0.06480863
128	0x3d11fb33	0.035639953
129	0xbdda5118	-0.10659999
130	0xbd7f6508	-0.06235221
131	0xbda96435	-0.08271066
132	0x3d896e4c	0.067104906
133	0xbe155105	-0.14581688
134	0xbd553a4b	-0.052057546
135	0x3d9ced06	0.07662396
136	0x3e122120	0.14270449
137	0xbd1aa073	-0.037750673
138	0x3d4aba54	0.049494103
139	0x3db06e8b	0.086148344
140	0x3da8a70c	0.08234987
141	0xbd857668	-0.06516725
142	0x3dc3a4c7	0.09552913
143	0xbcf62a19	-0.03004937
144	0x3dbbf3a7	0.09177332
145	0xbccf7f34	-0.02532921
146	0x3cb54196	0.022126
147	0x3de53da8	0.111934006
148	0xbd56d98c	-0.052453563
149	0xbd815f30	-0.06316984
150	0x3937151d	0.00017460105
151	0x3cdecab0	0.027196258
152	0xbc330820	-0.01092723
153	0xbc0d9d23	-0.008643421
154	0xbd2b660d	-0.04184537
155	0x3cb876b2	0.022517536
156	0xbd761526	-0.060078762
157	0xbbcca5bf	-0.0062453444
158	0xbb044884	-0.0020184824
159	0xbd65c8ba	-0.05609963
160	0xbd2f9a45	-0.042871732
161	0xbcf2bf7f	-0.029632328
162	0xbd909388	-0.07059389
163	0xbe23fea5	-0.16015108
164	0xbd7be282	-0.06149531
165	0xbcee44f2	-0.02908561
166	0xbd958308	-0.07300383
167	0xbc4ce64d	-0.01250608
168	0xbd8d4dbf	-0.068995945
169	0x3cdd1cf7	0.02699135
170	0x3cc00627	0.023440434
171	0x3d6f1718	0.058371633
172	0xbc956b10	-0.018239528
173	0x3e3578fc	0.17721933
174	0x3db74a4a	0.089497164
175	0x3df8bc8b	0.12145337
176	0x3d804c57	0.06264561
177	0x3d717a99	0.05895481
178	0xbe8786c7	-0.26470014
179	0xbd1dfbb7	-0.038570132
180	0x3db6fbc4	0.08934739
181	0x3a2cd91f	0.0006593633
182	0x3d3749ed	0.044748235
183	0xbcdeec1e	-0.027212199
184	0x3d9e308f	0.077241056
185	0x3c94c743	0.018161422
186	0xbc3cd3ec	-0.0115251355
187	0x3c899c6b	0.016798219
188	0x3da7a2b9	0.08185334
189	0x3d6518d9	0.0559319
190	0x3dd65bb8	0.10466713
191	0x3ccecaf0	0.025243253
192	0x3c06c5b0	0.008225843
193	0x3c86d06d	0.016456807
194	0xbd76d5c5	-0.06026246
195	0x3ddd8b4f	0.10817587
196	0x3cdf1ca6	0.02723534
197	0xbd2992eb	-0.041399878
198	0xbd0f5ef0	-0.03500265
199	0x3d7de120	0.061982274
200	0xbd3cf8d6	-0.046135746
201	0xbddf29a9	-0.10896618
202	0xbd4cc831	-0.049995605
203	0xbc699880	-0.01425755
204	0xbd2ca6d2	-0.04215128
205	0xbd7af0b2	-0.0612647
206	0x3d2bf9a5	0.041986126
207	0xbcfd639b	-0.030931285
208	0xbd1edd11	-0.038785044
209	0x3da3cb23	0.0799773
210	0x3dcf3d46	0.10119109
211	0xbe3df4f2	-0.1855047
212	0xbdb64a3b	-0.08900877
213	0xbdb233fa	-0.0870132
214	0x3c880ea7	0.01660855
215	0xbe8f57ca	-0.27996665
216	0x3dba9605	0.09110645
217	0xbdae8b6c	-0.08522686
218	0xbd6220f3	-0.055207204
219	0xbd57585b	-0.052574497
220	0xbb86189a	-0.004092288
221	0xbd19e57b	-0.037572365
222	0xbddb0dc4	-0.10695985
223	0x3e4cd6b6	0.2000378
224	0x3d942946	0.07234435
225	0x3ce89b00	0.028394222
226	0x3d06de48	0.032926828
227	0x3cad38c7	0.021145238
228	0x3d5f6672	0.05454106
229	0x3bdfee21	0.006833807
230	0x3d96d887	0.07365518
231	0xbc84f271	-0.016228886
232	0x3d02c8d6	0.031929813
233	0x3b7b69d1	0.0038362632
234	0xbc175415	-0.009236355
235	0xba991ba9	-0.0011681217
236	0xbde8fd19	-0.113763995
237	0xbcf46309	-0.02983238
238	0xbc06f5d0	-0.008237317
239	0xbd71968c	-0.058981463
240	0x3dded707	0.10880857
241	0xbb59c26a	-0.0033227452
242	0xbc94820f	-0.018128423
243	0x3d0e7853	0.03478272
244	0x3e0910e9	0.13385357
245	0x3d975e78	0.07391065
246	0xbd0dfb54	-0.034663513
247	0x3be5be87	0.007011238
248	0x3db536fc	0.08848378
249	0x3cfba48e	0.030718114
250	0xbd9694c0	-0.073525906
251	0xbbcae7ce	-0.006192184
252	0x3d2751f0	0.040849626
253	0xbe724f95	-0.2366317
254	0xbddca982	-0.107745185
255	0xbd403702	-0.04692746

dense1.bias f4 [10]
0	0xbb4ad669	-0.0030950552
1	0xbcdd9a99	-0.027051257
2	0x3de4c377	0.111700945
3	0x3c5ae8ab	0.013361136
4	0xbe3c4a61	-0.18387748
5	0xbdd0d218	-0.10196322
6	0x3a835d2d	0.0010022275
7	0x3d94f7a6	0.07273798
8	0x3dbdaf00	0.09261894
9	0x3cece73e	0.028918859
