saved_weights/Model_epoch_no_30_train_acc_95.63_val_acc_90.41.pth (torch_old, 74659 bytes, 6 tensors)

conv1.weight f4 [16, 1, 5, 5]
00000000: 91ea 19bf b3be b1bd f2d9 6ebe bd74 d5bd
00000010: 7b59 53be 0670 7cbe bd0e 983e 4b00 d3be
00000020: 202e 8abe 19af df3b df41 27be 1109 e23d
00000030: d1bb acbc d36d e03e 6d83 623e 42b5 793e
00000040: aae1 fe3d 01f8 51bd 25a7 be3b 64f4 96be
00000050: d880 063f 0c90 493d be6d 7abd d5a0 eb3d
00000060: 47e7 743e b90d 09be d094 0b3e 8d13 953e
00000070: ae49 ab3e 2f8b 4ebe 175e 213e 65e2 903e
00000080: 12a7 343e 7e8f 873d b31b e83c 6256 563e
00000090: 713e 38bb c348 2cbe 6835 8fbd 6760 123e
000000a0: 34df 033d 375c 55bd 0a65 0dbe e1aa f6bd
000000b0: 2d77 99bb 960c 15bf 3dc2 79be 73dd 80be
000000c0: 6459 11bc b1a9 6cbb 8efd b2bd 6d75 923b
000000d0: a026 a3bd 916b 16bf 303b 47bf 71ed f83c
000000e0: 6c35 883e 924e d73e 361a b1bc cede 35bf
000000f0: bd48 8abd 982c ccbd 5ed3 223e 8a07 533e
00000100: d8d9 bdbe 5b47 7f3e 1ae3 93bd b048 4abc
00000110: 2591 6b3e 4923 93bd 5c31 973e d124 803e
00000120: 4462 893e ef55 c43e f8b8 6a3e bc44 13bf
00000130: 8ea7 1cbf d770 d5be 6c9b c2be ef20 bdbe
00000140: 07d1 26be a91d d5bc 80be 533e 9132 cc3e
00000150: f483 903e 1082 ab3d 1a69 da3e a43e 843e
00000160: 1b93 ab3e 3d5a 4a3e c9fd 71be e06b 853d
00000170: 3508 083e 920b 24bd f6d5 0d3e d458 2f3e
00000180: 6067 2d3e 5ab5 84bd 5dca 9a3c e35b 20bd
00000190: dba6 553e 51fb c13d c6aa 8e3d 843f 8cbd
000001a0: 7075 dabe ac38 203e 6077 7f3e 007c 693e
000001b0: 2f3d d6bd b6ed b3be 55a2 bebd f3f6 c63e
000001c0: 0e58 b73b 6326 c9bd a903 16be 42a5 1fbf
000001d0: 8168 26bf fe4c 573d d28a 9b3e 8ed6 0d3f
000001e0: ccc7 0ac0 f2e7 50c0 ab40 8abf 4ea5 7fbd
000001f0: 0019 803e 9d7c 53be bcb6 703e 5161 993e
00000200: d70f 853e 6964 683e caa1 a73c f6f6 45be
00000210: 5482 633d af63 a73d 5205 3abe a907 003e
00000220: 6ba1 003c 57ea a6bd 10ca 61be 0d4e 88be
00000230: 9d69 b2bd 630a b2bc 9dd3 19bd 00e4 573d
00000240: 54d1 11bc fbb6 e5bd 3eef 073e 878d a33d
00000250: b56d 853e 6bbc b13d 0c0d 22be b165 0dbf
00000260: 2015 2ebe 7ded 953e 6466 833e 6d7d 4bbe
00000270: e8c4 b93e ad9b 383f 8151 9b3e b02a debd
00000280: 5d01 843e d329 a43e fa2a 923e 2337 04bf
00000290: 37b6 01bf 33c8 49bd 8da9 84be 948e 0abf
000002a0: 140a afbe ba56 1cbe dbd4 943e c404 7d3e
000002b0: e07b a03d e83b f0bd c31c f03c 312d 4d3e
000002c0: 3935 b6be 1a91 263e 7a93 b23b cfd3 8d3d
000002d0: 4a52 bf3e 6b5f c9be b6a0 c23e c17c b4be
000002e0: 6548 1ebe 945c 393e 2e4f 21bd 700d 773e
000002f0: 2e97 81be 906a e03c 6365 473e 3b1b 5d3e
00000300: 048c ca3d 6f95 bdbd 4431 fabc bd4f ed3d
00000310: d39b 80bd e9db a0be d674 983e c04e 3a3e
00000320: fd00 933e cd72 babc 0dd2 9ebd 8bc3 8fbe
00000330: 5d0e 3bbe de72 6e3e f161 023e 7d60 8c3e
00000340: e5f4 edbe 0e10 7bbe 8769 023d 73d5 8b3e
00000350: d53f b53e dc09 c7bd 1648 b43c 023b 8ebe
00000360: bfdc 2dbe 449d a63e 2ee2 bf3b 4d0a 5d3e
00000370: 3128 e4bc a2c0 113c af2f 973e 5db6 29bd
00000380: 40a3 7fbe 2328 f13c 8222 10bc 5710 63be
00000390: 3ee3 003f 628e 8e3d 77f5 55be cf44 88be
000003a0: 42b3 bcbc 2d79 073e 64af 113e 9cec ac3e
000003b0: ca39 29be b627 09be d4c2 823e 3515 8abe
000003c0: 0d15 eb3e a1ef ac3e dfa5 33be fe7e a33e
000003d0: 0799 793e 8196 dfbe 62f7 adbe daa5 99be
000003e0: bea7 26bc 0381 0abe 50df d43d cd0d c53e
000003f0: 4a1b b0bd fe21 0ebe 3063 f9bd 52b5 f93d
-0.60123545 -0.08678951 -0.23325327 -0.10422657 -0.20639603 -0.24652109 0.29698744 -0.4121116
-0.26988316 0.006826293 -0.16333722 0.110368855 -0.021085652 0.4383379 0.22120447 0.2438555
0.12445386 -0.051261906 0.005818265 -0.2948333 0.5254035 0.04920964 -0.061139815 0.11505286
0.2391635 -0.13384141 0.13630986 0.2911648 0.3345465 -0.20170282 0.15758549 0.28297725
0.17641857 0.06619166 0.02833352 0.2093139 -0.002811339 -0.16824631 -0.06992608 0.14294587
0.032195285 -0.052089896 -0.13808075 -0.12044311 -0.0046833963 -0.5822233 -0.24390502 -0.25168952
-0.00887141 -0.0036111886 -0.08739768 0.0044695647 -0.079663515 -0.58757883 -0.7782469 0.030386658
0.26603258 0.42052132 -0.021618944 -0.710431 -0.06752155 -0.09969443 0.15900943 0.20608345
-0.37080264 0.24929564 -0.072210506 -0.012346432 0.23004587 -0.071844645 0.29529846 0.2502809
0.26832783 0.38346812 0.22922122 -0.57526755 -0.6119317 -0.41687652 -0.38009202 -0.3693919
-0.16290675 -0.02601512 0.20678139 0.3988233 0.28225672 0.08374417 0.4265831 0.2582904
0.3351067 0.19760986 -0.23631968 0.06514716 0.1328438 -0.040050097 0.13851151 0.17123729
0.16933966 -0.064799026 0.018895322 -0.03915013 0.20864432 0.09471763 0.06966166 -0.06848052
-0.42667723 0.15646619 0.24947882 0.22801208 -0.104608886 -0.35142297 -0.09308306 0.38860282
0.0055952137 -0.09821775 -0.14649834 -0.6236154 -0.6500321 0.05256366 0.3037935 0.5540551
-2.1684446 -3.2641568 -1.0800985 -0.062413506 0.25019073 -0.20653005 0.23507208 0.2995706
0.25988647 0.22694553 0.02046289 -0.1933249 0.055544212 0.0817331 -0.18166092 0.12502922
0.007850985 -0.081501655 -0.22049737 -0.26622048 -0.087115504 -0.021733468 -0.037555326 0.052707672
-0.008900005 -0.112165414 0.13274857 0.079859786 0.26060262 0.08678516 -0.1582529 -0.55233294
-0.17000246 0.29282752 0.25664055 -0.19872065 0.3628304 0.7211254 0.3033562 -0.10847986
0.2578229 0.3206316 0.28548414 -0.5164663 -0.5066866 -0.04926319 -0.25910607 -0.54123807
-0.34187376 -0.15267459 0.29068646 0.24708849 0.07836127 -0.11730176 0.02931059 0.2003677
-0.3558748 0.1626629 0.0054497095 0.06925165 0.3736747 -0.3933061 0.38013238 -0.3525143
-0.15457304 0.18101722 -0.039382152 0.2412622 -0.25310653 0.027394563 0.1947227 0.21592419
0.09889987 -0.09257018 -0.03054107 0.115874745 -0.06279721 -0.31417778 0.2977664 0.18194103
0.28711691 -0.02275982 -0.07754908 -0.28078875 -0.18267198 0.23286006 0.12732674 0.27417365
-0.46475902 -0.24517843 0.03183892 0.27311286 0.35400262 -0.097186774 0.02200703 -0.27779394
-0.16978739 0.3254186 0.00585582 0.2158596 -0.027851196 0.008896025 0.29528567 -0.04143368
-0.24964619 0.029438084 -0.00879729 -0.22174202 0.50346744 0.06960751 -0.20894419 -0.26614997
-0.023034696 0.13229819 0.14227062 0.3377427 -0.16525951 -0.13394055 0.25539267 -0.26969305
0.45914498 0.33776572 -0.17543744 0.31932825 0.24374782 -0.43669513 -0.339778 -0.30009347
-0.010171829 -0.13525777 0.10394156 0.38487092 -0.08598955 -0.13880154 -0.12177122 0.12192787

conv1.bias f4 [16]
00000000: 640a f13d 13aa 3d3e b43f 86bd 86d1 d4bd
00000010: 643f 103f 3834 8dbb 2d8c 273d 75c8 a6be
00000020: a6c8 25be 931d 58ba 6749 b3bc 594a b53b
00000030: c984 afbc 50d7 fdbb b1fa 4a3d 876f 3ebb
0.1176956 0.1852191 -0.06555119 -0.10391526 0.56346726 -0.0043092035 0.040905166 -0.32574812
-0.16189823 -0.0008244153 -0.021885587 0.0055325446 -0.021425622 -0.0077466145 0.049555484 -0.0029058175

conv2.weight f4 [32, 16, 5, 5]
00000000: 646f 383e 4615 44bd 49fe d5bc 89b4 b63d
00000010: 310d b3bc 5e4a d9bd d080 5bbe 9d0a ee3d
00000020: 2975 1ebe 77d6 43bd 0d72 f6bc ac60 99be
00000030: 5976 1e3e d623 383d b765 eabd 5cf2 623d
00000040: b107 4fbd 1ef2 e83c a660 fb3d ffff 2f3d
00000050: ec0b 53bc b3d9 84bd 40a7 7bbe 62f9 ac3e
00000060: 8018 d03c 278e 9ebd 61c5 443d f7b3 843e
00000070: 26bd a83d 1c27 c9bd f103 54be 845e 6bbe
00000080: e07a 9b3c 83f5 26bb 96d2 8f3d 7779 37be
00000090: 7f29 92be 278a 673c b064 693e 73a6 3d3e
000000a0: 49fe f93d 24f2 233e 0dd3 06be 9ce1 e3bd
000000b0: 879f c1bd 2127 5d3e ed3a b0bc 6810 f93c
000000c0: b36e adbd 23c8 a2be cb14 23bd 0b63 43be
000000d0: 25da 9abd b118 a33e be36 7b3e bbf3 c43d
000000e0: 456e c83d 8f39 fcbe 2c95 b7be 4e41 70be
000000f0: 9789 213e 95b7 d33e bc43 9a3d f863 2dbe
00000100: 87f3 37be 1624 d2bd 19d7 9b3e a08e 0f3e
00000110: 4acf e5bd 10b8 28bb ff0b 59be ffd7 bbbc
00000120: 2fb0 583b 44d5 56be c6af 1fbe f409 053e
00000130: 10fe a43e 12d1 813e 0316 7c3e 5e67 4f3e
00000140: 2061 17be c640 b3bd 4bc8 9a3d fb21 1e3c
00000150: bbd3 7d3d fbfb 1dbe 56f1 30be ee41 8abe
00000160: 86d3 a2bd fa23 ccbc ee24 5d3e 50a3 a03d
00000170: 0cd1 36bd a0a1 353e 7fec 893e 718d 09bc
00000180: 1e4f 673c 16d6 24be 7e70 1a3d a688 c73d
00000190: 6bd6 09be b2df 98be faa5 d53d 7d22 1f3e
000001a0: dc6f 6a3e c14b 96bd 48d6 93be 88bf a2be
000001b0: 3707 c13e dcf5 e03e 1b06 97be 5f25 c3be
000001c0: ec60 983d a8fd 863d 62d0 143f 35ad 52bb
000001d0: aeca 54be 2b04 9dbd 1d37 a9be e01a 053e
000001e0: 716c 14be 5c84 353e a57b 4dbd 1bae 26bc
000001f0: 3761 963e 1023 f53d 6cdb 643d ad20 12be
00000200: fbb7 88bd 954f a53d 6f26 e4bd c49f c43d
00000210: 1415 79bd 2211 69be a85c f6bd 3b1a 3ebd
00000220: 9c4b d1bd cd77 fcbd 47f8 0a3d 2f5d 85bd
00000230: 44f1 3d3d 7c2d b43c 76e4 703d 94e8 ac3d
00000240: 7aa7 8cbd 98b4 203e f606 20be 8f9c d83c
00000250: 43a4 b53c bf05 6ebe 2023 f7bb 908d ac3d
00000260: 232b 313e ff51 d6bd 0139 9e3c adf1 d4be
00000270: 956e c0bd 2326 bbbd 412d 5abe 39ff babd
00000280: 3164 2dbe b080 cfb9 cba3 243e ba92 8f3e
00000290: c581 2e3e 8135 6f3e c52b de3c 69a6 193e
000002a0: 0c74 1e3e e87b 64bd a156 27bd a498 803c
000002b0: 7403 f73d 8710 87bd 0cef b4be ff75 55be
000002c0: f4ac 0ebf 1cc0 3dbf 04e7 613e ded1 b83e
000002d0: e1d5 283d a3dc bebc 7754 ddbd ae0e c13d
000002e0: e39d d93d 7ab6 793d d6fb a2be c8f6 5bbd
000002f0: 891d 8d38 5971 d8bd 0118 0f3e 272f 2abe
00000300: 39a3 d1bc 740a 65be f71b a9be 98b7 46bd
00000310: 1af8 03bd 2277 69be 2874 a8be 1a5c f4be
00000320: ddca 59bd c09d dcbd 4a24 943c ec50 1b3c
00000330: e422 d63c 9a85 a4bd 7beb 573b 825f 81be
00000340: f683 cdbd fd0d 9b3b 66cf abbe 8c6e 23bd
00000350: 0265 b73d 4c9a 87be 6564 993b 0c69 d63e
00000360: b376 c1bc 8440 0e3e 14d6 1bbe b76c 1bbe
00000370: 0b98 20be 3a69 b6bd 2b09 483d 8002 1ebe
00000380: b10c 55be 3f0b 92be 7378 943d 45dc 34bc
00000390: 2fbb f43c a48d 7f3e cae2 82bc acbe 28be
000003a0: 322a 8f3d 8c42 7f3b 0dfa f83d 5424 c73d
000003b0: 9158 6a3d 4e16 3e3c 007d 143c ba20 1a3e
000003c0: 6d6c 3b3e f07f 0abc 5ff4 f43d b3d7 a2bc
000003d0: 9f87 4e3c 4b15 e23d 7670 18be dcce 15ba
000003e0: e2aa 663d 57fe 9cbe 579b e3be 9498 2c3e
000003f0: 1a85 213f 5302 b7be b0bf 823d f023 46bf
0.18011242 -0.04787185 -0.02612223 0.08921153 -0.021856876 -0.106098875 -0.21435857 0.11623118
-0.1547438 -0.04781195 -0.03008368 -0.29956567 0.15474834 0.04495605 -0.11445182 0.055406913
-0.050544444 0.028435763 0.122742936 0.042968746 -0.01288126 -0.06486835 -0.2457552 0.33784014
0.025402308 -0.07741957 0.048039798 0.25918552 0.08239202 -0.09821913 -0.20704629 -0.22985274
0.01897949 -0.0025475926 0.07022588 -0.17917429 -0.28547284 0.014132059 0.22792315 0.18520527
0.12206704 0.16010338 -0.13166447 -0.11127016 -0.094542556 0.21596958 -0.021512473 0.03040333
-0.0846838 -0.31793317 -0.03981475 -0.1908075 -0.07561139 0.31854776 0.24532601 0.096168004
0.09786657 -0.49262664 -0.35855997 -0.23462412 0.15775143 0.41351 0.075324506 -0.16932666
-0.17963992 -0.10260789 0.30437544 0.14019251 -0.11221178 -0.0025744475 -0.21195982 -0.022930143
0.0033063998 -0.20979792 -0.15594396 0.12992078 0.32225084 0.2535482 0.24617772 0.20254275
-0.14783144 -0.08752589 0.07557734 0.009651656 0.0619695 -0.15428154 -0.17279562 -0.27003425
-0.07950501 -0.024919499 0.21596119 0.078436494 -0.044632956 0.17737436 0.26938245 -0.008395539
0.014117984 -0.16097292 0.037704937 0.097428605 -0.134607 -0.29858166 0.10432048 0.155405
0.22894233 -0.07338668 -0.2887442 -0.31786752 0.37700817 0.43937576 -0.29496846 -0.3811445
0.074403614 0.0659135 0.58130467 -0.0032146696 -0.20780441 -0.076668106 -0.3304986 0.12998533
-0.14494492 0.17726272 -0.050166745 -0.010173346 0.29371044 0.11969578 0.05587332 -0.14270277
-0.066757165 0.0807182 -0.11140143 0.096007854 -0.060811117 -0.22760442 -0.120293915 -0.046411734
-0.102194995 -0.12327538 0.033928182 -0.06511914 0.046372667 0.021994345 0.058811627 0.08442798
-0.06867881 0.15693891 -0.15627655 0.02644184 0.022173053 -0.2324438 -0.007542029 0.084254384
0.17301612 -0.10464858 0.019314291 -0.41590634 -0.09396092 -0.091381334 -0.21306325 -0.09130711
-0.16932751 -0.00039577996 0.16078107 0.2804163 0.1704169 0.23360254 0.02712048 0.15004887
0.15473956 -0.05578223 -0.0408541 0.015697785 0.120612055 -0.06594949 -0.35338628 -0.20845793
-0.55732656 -0.7412126 0.22060782 0.36097616 0.041219596 -0.023298567 -0.10807126 0.09426628
0.106258176 0.06096504 -0.3183276 -0.053702146 6.728905e-05 -0.10568494 0.13974 -0.1661955
-0.025590526 -0.22367269 -0.33029148 -0.048514932 -0.03221903 -0.22799352 -0.3290112 -0.47726518
-0.05317198 -0.10772276 0.01808371 0.0094797425 0.026139684 -0.08033295 0.0032946754 -0.2526818
-0.10034935 0.004731892 -0.3355667 -0.039900348 0.089548126 -0.26484907 0.0046811574 0.4187702
-0.02361617 0.13891798 -0.15218383 -0.1517819 -0.15683 -0.08906789 0.04883687 -0.15430641
-0.20805623 -0.28524205 0.07249536 -0.0110388445 0.029874412 0.24956375 -0.015977282 -0.16478986
0.0699047 0.0038949577 0.121570684 0.09723726 0.05721337 0.011601998 0.009063005 0.15051547
0.1830308 -0.008453354 0.119606726 -0.019878244 0.012605577 0.110392176 -0.1488665 -0.00057147234
0.05631531 -0.30662796 -0.44454452 0.16855079 0.6309372 -0.3574396 0.06384218 -0.77398586

conv2.bias f4 [32]
00000000: 2a76 483d 7139 1ebe 8369 903e 0412 113f
00000010: 34ad 83bd 4c1c a4bd 7d69 8e3e 5c2d 1fbd
00000020: bbad 29be 036b fb3b 90e8 513e cf65 553e
00000030: 0525 4bbe ce52 27bd 7ff7 9f3d 2d1a f1bd
00000040: 774b 28be c4a0 bf3e 7907 49bc f253 443e
00000050: 56b7 463e 1c38 fb3d ffa0 1d3e df74 a33e
00000060: 295b 3cbd 964b 8bbd e81b c33e 1bdf 703e
00000070: 6c73 f83b e05d 3d3c 621b 463d b1ca 18be
0.048940815 -0.154516 0.282055 0.56668115 -0.0642952 -0.0801321 0.27814856 -0.038861617
-0.16570179 0.007672669 0.20498872 0.20839618 -0.1983834 -0.040850453 0.07810878 -0.11772571
-0.16435038 0.37427342 -0.012269848 0.19172648 0.19405875 0.122665614 0.15393446 0.31925103
-0.045985375 -0.06801526 0.38107228 0.23522608 0.0075821187 0.011558026 0.048365958 -0.1492107

dense1.weight f4 [10, 512]
00000000: 6ad6 7d3e 63f2 a4bd 550f 253e 074e b13d
00000010: 1656 b6bd ed94 5e3e 86eb 61be fb6c 0d3c
00000020: 228a 803c 04ac 8ebe 816a f73d a013 38bd
00000030: 41ff 83bd c617 7cbd 3a1b e53d 5bb2 333e
00000040: d12d 2a3e dff2 24bc cc16 4bbe 0bd2 6abe
00000050: 086b 46bd 7ff8 90bd ce8e 003e 1365 99be
00000060: 6083 0a3a 63ba 51bd 0a80 d53d 8a09 2abd
00000070: 1e5e 5abc 5089 933e 678f c53d 0c94 2a3d
00000080: d36d 3ebe e1ce e3bc d657 e33c ca73 3e3b
00000090: 5be8 14be 1637 d2bd fdfb efbc 54c0 5abe
000000a0: 5920 4e3c bc62 77bc f9bf 073e 3a58 feb9
000000b0: 4d33 c0bd 874c 333e cf31 d43d d47c 653e
000000c0: 5fe6 ac3d eaaf c73e 01b8 eabc 6995 b6bd
000000d0: 5c9e b73d 2f45 10bf af23 3e3d 3841 2c3d
000000e0: 41cf 0b3e 03a3 a83d c502 6bbd e439 6f3e
000000f0: c94e be3d fadf 7d3c 3d9b 9a3e ff8b 6dbe
00000100: d66b 7dbd 64d3 5bbd 1d0e 333d 43b1 5a3c
00000110: e021 b53c 48a4 23bd 7048 173d 51db 4e3d
00000120: ed46 173d 741a 203d 9fe5 a93d 5d59 5bbc
00000130: edeb 833d 41b2 32bc 62ea 143a 9cdd 54bb
00000140: 3b72 4e3d c08e 183d 5af4 b13d 44d0 c23d
00000150: 3b6d 953c 2a16 e3bd 0fcb d4bd 38f9 da3d
00000160: 8899 fd3d 2483 0d3e fe6f efbc b2c7 33bc
00000170: 8fd9 6bbe e450 c2be 4c18 9dbd f249 03be
00000180: 6811 553c 1ef0 0fbe e20e a23b 33e9 b63d
00000190: 3b4f 123e a2a9 193b c138 f53c f90d 44be
000001a0: 430a 29bd 076d 083e 0166 06bd 953f aabc
000001b0: f594 72be 7e94 3f3e cd7d c73c fa34 c13d
000001c0: a04e b73d 9f94 cbbb a532 963d 20e9 393e
000001d0: 69de c8bd d3a5 bc3d 136e d5bd 99b7 10be
000001e0: 954f 863d 6f63 d53d b5a2 b1bc 7400 8ebd
000001f0: 6c57 47be d1d1 cc3d cca9 393e abe1 00bf
00000200: 9730 68be 7687 ad3d 1818 48be 1cfe 16be
00000210: acd9 81bd 5bb5 19bf 197c dc3e bce9 b13d
00000220: be79 cdbd c82f ccbd 37dd 4dbe 0bd7 62bd
00000230: 4ea6 2e3e 9ef1 64bd 77f8 00be fda7 1d3e
00000240: 2a52 31be 22e5 373d 4f60 17be 1995 843e
00000250: e1a8 5e3d 590c babc f226 00be 4493 9b3d
00000260: aaac 573e 97fa 3c3d 93cd e53d 9279 04bd
00000270: e20a 4dbd 4e7c 06bc 87a8 7dbd 0af8 71be
00000280: 630f 18be 046d eabd 28f4 e83c 2b89 593e
00000290: a1f1 29bd 6290 6bbd 92f0 4ebd 23eb 313e
000002a0: 0958 73bd 221a df3d 5fb9 c9bd f390 973d
000002b0: 4854 23bd 885c 743e a833 233e a0d9 acbd
000002c0: c07b dc3e 85f4 9abd 4652 a9bc 2960 ad3e
000002d0: 4b19 fabd c736 9fbd d42c 673c f169 3ebe
000002e0: 8e43 96be a853 853c d0ba 63bd 795c 3abd
000002f0: f631 4cbe a487 8f3d 3800 f93c fde8 13bd
00000300: 8703 43be e49b 6cbe 59e1 f53d c40b 9b3d
00000310: 29a5 d2be ba1c 21be deaf ae3e 65a5 c7be
00000320: 4e46 123e 2dc5 89be 3d06 ac3d 6925 a9be
00000330: b2fc 29bd 7e51 f0be 7cf1 e63d 2eb5 d9bc
00000340: 4140 3fbe ca45 c63e 28e2 d63a ad75 fa3c
00000350: 8758 c13d 72bf 703c fd1b 99be 41a3 8fbb
00000360: 37ec 9f3d deb6 0c3e 3ce3 54be 20b6 3cbe
00000370: 3cfd 47be 77f8 213d 2f1b 643e 52a3 053e
00000380: 7966 5a3e 4113 153d 0f67 043e 1b8e 273e
00000390: 3c9f afbd d51e 2abd 73af e3bd a62b 433e
000003a0: d7c9 f1bd efa3 f93d 0797 b5bd 7f3a 44be
000003b0: 5ed9 c5bd 961b 1dbd 59ac 2fbe f634 263d
000003c0: 9682 2abd a049 30be ccad bfbe 0e98 b4bd
000003d0: e58a 5f3e cada 8abd 972a 043e 7c37 793d
000003e0: 8b25 923b 957a b33d 2592 74be 6102 5f3e
000003f0: ecb4 413e 8402 3abe 993e 7bbd 59f3 39bd
0.24788824 -0.08054044 0.1611913 0.08657461 -0.08903138 0.21736498 -0.22062501 0.00863194
0.015690867 -0.27865613 0.12080861 -0.04494059 -0.0644517 -0.06154611 0.11186834 0.17548506
0.1661904 -0.010067671 -0.19832915 -0.22931688 -0.048441917 -0.07078647 0.12554476 -0.29959926
0.00052838586 -0.051203143 0.10424812 -0.041513003 -0.013328103 0.288157 0.096464925 0.041645095
-0.18596582 -0.027808608 0.027751844 0.0029060715 -0.14541762 -0.10264413 -0.029294962 -0.2136243
0.0125809545 -0.015099224 0.13256826 -0.0004851239 -0.09384785 0.17509662 0.10361063 0.224109
0.08442377 0.390014 -0.028652193 -0.089152165 0.089657515 -0.56355566 0.04642075 0.042054385
0.1365328 0.08234217 -0.057375688 0.23361927 0.09292371 0.015495295 0.30196562 -0.23197936
-0.06187042 -0.053668395 0.04371463 0.013347927 0.02211088 -0.039951593 0.036934316 0.050502125
0.036932874 0.039087728 0.0829575 -0.013388005 0.06441484 -0.010906757 0.0005680678 -0.0032480722
0.050401907 0.037245512 0.086891845 0.0951238 0.018240562 -0.11088212 -0.10390293 0.10692066
0.123827994 0.13819557 -0.029228207 -0.010972904 -0.23032211 -0.3795234 -0.0767065 -0.12821177
0.013004638 -0.14056441 0.004945622 0.08931198 0.14288037 0.0023447056 0.029934289 -0.19145955
-0.041269552 0.1332284 -0.032812122 -0.020782271 -0.23689635 0.18708989 0.024351979 0.094339326
0.089505434 -0.0062127854 0.073338784 0.18155336 -0.09808046 0.09211316 -0.104213856 -0.14132537
0.06558148 0.10419356 -0.02168403 -0.0693368 -0.19466943 0.10000957 0.18131179 -0.5034434
-0.22674786 0.08473103 -0.19540441 -0.14745373 -0.06340346 -0.6004235 0.4306343 0.086871594
-0.10032986 -0.09970051 -0.20103918 -0.055380862 0.17055628 -0.055894487 -0.12594782 0.15396114
-0.173165 0.044896252 -0.14782833 0.25895002 0.054360274 -0.022710966 -0.12514856 0.07596448
0.2106196 0.04613742 0.11220851 -0.0323425 -0.050059207 -0.0082083475 -0.0619283 -0.23629776
-0.1484962 -0.11446574 0.028436735 0.21243732 -0.0414902 -0.05751074 -0.050522394 0.17374854
-0.05941013 0.10893656 -0.0984981 0.07400694 -0.0398753 0.23863423 0.15937674 -0.08439946
0.43063164 -0.0756617 -0.020669114 0.33862427 -0.122118555 -0.0777412 0.014109809 -0.18595101
-0.29348415 0.016275242 -0.05559808 -0.045498345 -0.19940934 0.07008293 0.030395612 -0.036110867
-0.19044314 -0.23106343 0.12005872 0.075706035 -0.41141632 -0.15733615 0.3411855 -0.38993374
0.14284632 -0.26908246 0.08399627 -0.33036354 -0.041500755 -0.46937174 0.11276528 -0.026575651
-0.18676855 0.3872512 0.0016394304 0.03057369 0.094407134 0.014694082 -0.29904166 -0.004383475
0.07808726 0.13741633 -0.20789808 -0.1842885 -0.19530195 0.039543595 0.22275995 0.13050583
0.21328153 0.036395315 0.12929939 0.16362803 -0.085752934 -0.04153331 -0.11117449 0.1905962
-0.11806076 0.12189471 -0.08866697 -0.1916294 -0.096606 -0.038356386 -0.17155589 0.04057785
-0.041628443 -0.17215586 -0.37437284 -0.08818065 0.21830328 -0.06780012 0.12906872 0.06084393
0.004460042 0.08763615 -0.23883875 0.21778251 0.18916672 -0.18165022 -0.061338995 -0.04539809

dense1.bias f4 [10]
00000000: e140 c4bd 3096 e7bc b936 e33d 8ce8 863d
00000010: 146a c3be e887 79be 09a3 2e3e 23e9 0a3e
00000020: 3749 423e 3bad 3ebd
-0.09582687 -0.028269857 0.11094422 0.065873235 -0.3816687 -0.2436825 0.1705438 0.13565497
0.18973242 -0.046551924
